DNN/dnnsmall/models/best_model_enhanced.pt (torch, 690973 bytes, 30 tensors)

fc1.weight f4 [384, 14]
0	0xbd7432af	-0.05961865
1	0xbd82c515	-0.06385247
2	0x3df4a070	0.119446635
3	0x3d0dc520	0.03461182
4	0x3d6983f9	0.057010625
5	0x3d179b9a	0.037013628
6	0xbe065eeb	-0.13122146
7	0x3eb5b978	0.35493064
8	0x3c97f016	0.0185471
9	0x3df33c8a	0.11876781
10	0xbd3f7feb	-0.04675285
11	0x3e326df4	0.17424756
12	0xbeafa5f1	-0.3430629
13	0xbe283e69	-0.16430058
14	0xbd09c29f	-0.03363287
15	0x3ea02fba	0.31286412
16	0xbb764b06	-0.0037581339
17	0x3deed98c	0.116625875
18	0x3e281a0e	0.16416189
19	0x3e2f79b9	0.17136277
20	0xbd8f9424	-0.070106775
21	0xbe71f492	-0.23628452
22	0x3e1c2a85	0.15250595
23	0xbda934ef	-0.082620494
24	0xbd2cba5f	-0.042169925
25	0xbc3bcd3b	-0.011462505
26	0x3e678566	0.22609481
27	0x3eb3834b	0.35061106
28	0xbe04f054	-0.12982303
29	0x3db521ff	0.08844375
30	0x3da7fa45	0.08202032
31	0x3d9eb3ee	0.077491626
32	0x3e7ac46c	0.24488991
33	0xbdfdfe5a	-0.12402029
34	0x3d13a0e8	0.036042124
35	0x3d8c711b	0.06857511
36	0x3e941626	0.28923148
37	0x3d431711	0.04762942
38	0xbdb088bc	-0.0861983
39	0x3e32db5e	0.17466494
40	0xbea8b31a	-0.32949144
41	0xbdb0f990	-0.0864135
42	0xbdca4936	-0.09877245
43	0x3e47bbe0	0.19505262
44	0xbc19c122	-0.009384425
45	0x3da95a75	0.082692064
46	0x3d9c9c52	0.07647003
47	0xbd8d5c5d	-0.069023825
48	0x3cae5165	0.021279046
49	0xbe697f75	-0.22802527
50	0x3e27780c	0.16354388
51	0xbe4e4dc1	-0.20146848
52	0xbd0a1689	-0.033712897
53	0xbd4d0e0d	-0.050062228
54	0x3e0be411	0.13661219
55	0x3ef82edb	0.48473248
56	0x3d352c85	0.04423191
57	0x3e268777	0.16262613
58	0xbdcdfb60	-0.100577116
59	0xbe0f1a5d	-0.139749
60	0xbe256f20	-0.16155672
61	0x3d65c34c	0.056094453
62	0xbdccc9db	-0.099994384
63	0xbed11746	-0.4083807
64	0xbd6c3281	-0.05766535
65	0xbe848b8f	-0.25887725
66	0xbc13e832	-0.009027528
67	0x3e6a5580	0.22884178
68	0x3e49f599	0.19722594
69	0x3e24fd16	0.1611217
70	0xbd07f78f	-0.033195075
71	0x3df27d77	0.11840337
72	0xbde51898	-0.111863315
73	0x3db9eb68	0.09078103
74	0x3db1929f	0.08670544
75	0xbe070a40	-0.13187504
76	0xbe4ad9f6	-0.19809708
77	0xbe2b8e03	-0.16753392
78	0x3e8d1374	0.27553904
79	0xbe622143	-0.22083001
80	0xbdc90316	-0.09815042
81	0xbe0bd186	-0.13654146
82	0x3e8bfe87	0.27342626
83	0x3ec29745	0.38006034
84	0xbdc135c0	-0.0943408
85	0x3d4e3581	0.050343994
86	0xbe019f62	-0.12658456
87	0x3e0da8c7	0.13833915
88	0x3c14a0da	0.009071553
89	0x3deea088	0.11651713
90	0xbe595f48	-0.21227753
91	0xbe24e538	-0.16103065
92	0xbceae3b9	-0.02867304
93	0xbc4a300a	-0.012340555
94	0xbeb2aaf8	-0.34896064
95	0xbb093888	-0.0020938236
96	0x3de9d4bd	0.1141753
97	0xbea9567e	-0.330738
98	0xbd09d805	-0.033653278
99	0x3eb1e7a4	0.3474704
100	0xbd12a58d	-0.035802413
101	0x3c82a5e8	0.01594825
102	0x3caf8c58	0.021429226
103	0x3e17afae	0.1481311
104	0xbd3a0fcb	-0.045425218
105	0xbeaca704	-0.33721173
106	0x3e285843	0.16439919
107	0xbd2bcc0a	-0.041942634
108	0xbd2fe7f5	-0.04294582
109	0xbc86f970	-0.016476363
110	0x3f038ff6	0.5139154
111	0x3e8accaa	0.2710927
112	0xbc8c8526	-0.017153334
113	0xbd7fe2b8	-0.062472075
114	0x3e6ab300	0.22919846
115	0x3e0f2193	0.13977651
116	0x3daa89ef	0.0832709
117	0x3d5f2097	0.05447444
118	0xbdac12f2	-0.08402051
119	0x3e818927	0.2529995
120	0x3e0fbefe	0.14037701
121	0x3e97d3c8	0.29653764
122	0xbe238a23	-0.15970664
123	0x3e44bc4f	0.19212459
124	0xbc4170ab	-0.011806647
125	0xbe8e2441	-0.27762035
126	0xbd447eca	-0.047972478
127	0xbef1ad05	-0.47202316
128	0x3d712ecf	0.05888253
129	0x3d6db9ff	0.058038708
130	0x3dbcff94	0.09228435
131	0xbd285d0f	-0.041104373
132	0x3d130b3c	0.035899386
133	0x3ee37e42	0.44432265
134	0xbd4683f6	-0.04846569
135	0x3d889dab	0.06670698
136	0xbce82a07	-0.028340353
137	0x3db9c3d0	0.090705514
138	0xbf1ca641	-0.61191183
139	0xbe8d31a7	-0.27576944
140	0xbd94eb4b	-0.07271441
141	0xbead4ace	-0.33846134
142	0xbdb1fe2c	-0.086910576
143	0x3caa4cbc	0.020788543
144	0xbe182d6c	-0.14861077
145	0xbdc23f8d	-0.094847776
146	0xbe45ca6d	-0.193155
147	0xbe1f36e2	-0.1554828
148	0xbd7bda69	-0.06148759
149	0xbe733dd1	-0.2375405
150	0xbddf7493	-0.10910907
151	0x3c992a9f	0.018697081
152	0xbd04f7e8	-0.032462984
153	0xbeb9e354	-0.3630625
154	0xbc301a1b	-0.0107484115
155	0x3eaa1b83	0.33224115
156	0xbc999c06	-0.018751156
157	0x3e322908	0.17398465
158	0x3d72a710	0.059241354
159	0xbc76d1d2	-0.0150646735
160	0xbd243801	-0.040092472
161	0xbeb27ee2	-0.3486243
162	0xbddfd432	-0.10929145
163	0xbd4555f2	-0.048177667
164	0xbde81d9a	-0.11333771
165	0xbe8c9034	-0.27453768
166	0x3eae34c2	0.34024626
167	0xbd0d7fbc	-0.034545645
168	0xbdaf56c1	-0.08561469
169	0x3cd07ebe	0.02545106
170	0xbddcce2b	-0.10781511
171	0x3e904984	0.28181088
172	0x3dcdda56	0.1005141
173	0x3e0debe0	0.1385951
174	0xbe36e45e	-0.17860553
175	0x3dc453c3	0.09586289
176	0x3e300acc	0.17191619
177	0x3d6fcb36	0.058543406
178	0xbe48aa0e	-0.1959612
179	0xbc53dc53	-0.012930947
180	0xbeb8a0cd	-0.3606018
181	0xbe8d8c58	-0.27646136
182	0x3d2c7a39	0.042108748
183	0x3eebb885	0.46039215
184	0x3d0c4518	0.03424558
185	0x3c0c4192	0.008560555
186	0xbd2cb307	-0.04216292
187	0x3ddd7411	0.108131535
188	0x3ccefc61	0.025266828
189	0xbe428ba6	-0.18998584
190	0x3e8dd860	0.27704144
191	0x3cb3d723	0.021953171
192	0x3d0d6dae	0.034528427
193	0x3d155d97	0.036466207
194	0x3eb89641	0.36052135
195	0x3eb51d84	0.3537408
196	0xbdeff482	-0.11716558
197	0x3e1b9a96	0.15195689
198	0xbe072cb6	-0.1320065
199	0x3cc6a881	0.02425027
200	0xbe0a5714	-0.1350978
201	0xbaaa924e	-0.0013013573
202	0xbe019fa5	-0.12658556
203	0xbe93b882	-0.28851706
204	0xbd9ce4c9	-0.07660825
205	0xbe248193	-0.16065054
206	0xbce61ed9	-0.028090881
207	0x3d1f09ad	0.038827587
208	0x3e57d810	0.21078515
209	0x3e50b67d	0.20382114
210	0xbd5ba887	-0.053627517
211	0xbf034a6b	-0.5128543
212	0x3ccf027f	0.025269745
213	0xbd8bc645	-0.06824926
214	0xbe12c794	-0.14333946
215	0x3d9108f6	0.07081787
216	0xbe37c758	-0.17947137
217	0x3e9851da	0.29749948
218	0xbd2abaaa	-0.041681923
219	0x3ddfac84	0.109215766
220	0x3dde5c66	0.10857467
221	0x3d75caf6	0.06000801
222	0xbed762b4	-0.42067492
223	0xbe99afeb	-0.30017027
224	0xbd027e46	-0.031858705
225	0xbeda5acf	-0.42647406
226	0x3ccce18b	0.025009891
227	0xbd060490	-0.032719195
228	0xbd0768bf	-0.033058878
229	0x3d179429	0.03700653
230	0xbe59aaff	-0.21256636
231	0x3f07485c	0.52844787
232	0xbdbcecea	-0.09224875
233	0xbd531bfd	-0.051540364
234	0xbba88f8e	-0.005144066
235	0x3d442f61	0.047896747
236	0xbf05226a	-0.52005637
237	0xbe7f1d41	-0.24913503
238	0xbe3567e8	-0.17715418
239	0x3e3a1c57	0.18174873
240	0xbe12ae64	-0.14324337
241	0x3dce660b	0.10078057
242	0x3d78bc8a	0.06072668
243	0x3c46974f	0.012121036
244	0xbe2d9bdc	-0.16953987
245	0xbe765792	-0.24056843
246	0xbb58bfc4	-0.0033073286
247	0xbe312c2d	-0.17302008
248	0xbda8eb4a	-0.08248003
249	0x3cc7481c	0.024326377
250	0x3e53cdb9	0.20683946
251	0x3e41d883	0.18930249
252	0xbd81d417	-0.06339281
253	0xbf06c62b	-0.5264613
254	0x3d48e08c	0.04904227
255	0xbca183fc	-0.019716255

fc1.bias f4 [384]
0	0xbb901885	-0.004397454
1	0x3be260f1	0.006908529
2	0x3954912b	0.00020271975
3	0x37d85258	2.578755e-05
4	0x3cb6e345	0.022325167
5	0x3b97eeac	0.004636606
6	0xbadf94d4	-0.0017057904
7	0x3badf3af	0.0053085904
8	0xb977b132	-0.00023621766
9	0x3c26d5d1	0.010182814
10	0x3aa77939	0.0012777216
11	0xbb4d3e31	-0.0031317587
12	0x39cc2026	0.00038933865
13	0x3a27fa86	0.00064078753
14	0x3aad7b6a	0.0013235633
15	0x3b3b948b	0.0028622474
16	0x3c8c31f3	0.017113661
17	0x3b5fdcde	0.0034158747
18	0x3ce1876c	0.027530394
19	0xbbce8327	-0.0063022557
20	0xba190ef8	-0.00058387173
21	0xba629ba7	-0.000864441
22	0x3b37c473	0.0028040677
23	0xbb1036d6	-0.002200534
24	0x3c47d4ef	0.012196763
25	0x3d3ca367	0.04605427
26	0x3b368d36	0.0027855164
27	0xbb58a701	-0.0033058526
28	0xbca18e27	-0.019721104
29	0x3b54b38c	0.003245565
30	0xb9d6a385	-0.00040939092
31	0xbb98277f	-0.00464338
32	0x3cee90ed	0.02912184
33	0xba82ac68	-0.0009969594
34	0x3a8f5b97	0.001093733
35	0xb8e670cb	-0.00010988264
36	0xbc9e922c	-0.01935681
37	0xbb6b0c96	-0.0035865656
38	0xbb317115	-0.0027075459
39	0xbb466139	-0.0030270352
40	0xbbb197eb	-0.0054197214
41	0x3ca6cbf8	0.020360932
42	0x3b15ac15	0.0022838165
43	0xba74032a	-0.0009308333
44	0xbd02ba44	-0.031915918
45	0xbb6b0cd3	-0.0035865798
46	0x3b4a06b1	0.0030826742
47	0xbb8c2211	-0.004276522
48	0xbb4b0d40	-0.003098324
49	0x3a955991	0.0011394491
50	0x39c4715a	0.00037468487
51	0x3b7dacc9	0.0038707724
52	0xbc357226	-0.011074578
53	0x3bcc256b	0.0062300465
54	0xbacf9b42	-0.0015839117
55	0xbaf15a1c	-0.0018413696
56	0x3b9e596f	0.0048324387
57	0xb8dcb226	-0.000105236
58	0x382b45a6	4.0834442e-05
59	0xbbc84d42	-0.0061127255
60	0xbb5ffef4	-0.0034179064
61	0x3b3cad40	0.0028789788
62	0x3bcdd8eb	0.006281962
63	0xbc0b5128	-0.008503236
64	0xbb0dcf73	-0.0021638542
65	0xba650a74	-0.00087372144
66	0x3bc85944	0.006114157
67	0xbb03bc7b	-0.0020101357
68	0x39ac9e47	0.00032924322
69	0x3aa53b76	0.0012606222
70	0xbc57e43f	-0.013176977
71	0xbc8adf37	-0.01695214
72	0x3c5ebd6b	0.013594965
73	0x3bac9e9d	0.0052679316
74	0x3a3e2db7	0.0007254737
75	0xbd7ec845	-0.06220271
76	0xbbf9af67	-0.0076197865
77	0xbb134c79	-0.0022476001
78	0x3b11ae84	0.0022229264
79	0xbb5e821c	-0.0033952063
80	0x3b9a05cc	0.004700398
81	0x3b724e7d	0.0036973052
82	0x3c16160b	0.009160529
83	0xb98fd36a	-0.000274326
84	0xbad21721	-0.0016028621
85	0x3b15bc2a	0.002284775
86	0x3c205f66	0.00978837
87	0x3c4c26ee	0.012460453
88	0x3be85c94	0.0070911143
89	0xbbf0d2a8	-0.007349331
90	0x3bc3b365	0.005972313
91	0xba751e6d	-0.0009350542
92	0x3c4c4f5b	0.012470092
93	0x3be83bac	0.0070871916
94	0xbb013a86	-0.001971872
95	0xbbcac982	-0.0061885724
96	0x3963c6f9	0.0002172253
97	0xbc6101d2	-0.013733344
98	0x3c0d6ef5	0.008632411
99	0xbbbb7c04	-0.005721571
100	0xbd2131c8	-0.039354116
101	0x3c1ead03	0.009684804
102	0xbb5c54c1	-0.0033619853
103	0x3b670ca3	0.0035255335
104	0x3b9c1bf6	0.0047640754
105	0x3bd9b3a1	0.006643728
106	0xb99be648	-0.00029735477
107	0x3abc4951	0.0014365112
108	0x3959665b	0.00020732863
109	0xbc97445f	-0.018465219
110	0x3afb7857	0.0019185644
111	0xbc95213f	-0.01820433
112	0xbafea5b4	-0.0019428045
113	0x3c2f0994	0.010683436
114	0x3a42ab10	0.0007426003
115	0x389171c6	6.935331e-05
116	0x3baedfa4	0.0053367186
117	0x3c137f33	0.009002495
118	0x3a8e1e04	0.0010842686
119	0xbb8e1c7c	-0.0043368917
120	0xbb10b70a	-0.0022081756
121	0xbc5de7d0	-0.013544038
122	0x3ba8c230	0.005150102
123	0x3b2d0620	0.0026401356
124	0xbb19a4a6	-0.0023444085
125	0x3a51ccfc	0.00080032623
126	0xbaecb2cc	-0.0018058657
127	0xb9a7d310	-0.00032009976
128	0xb7dc629d	-2.6271964e-05
129	0xba9a4c5a	-0.0011772022
130	0x3b1000cb	0.002197313
131	0xbba03a99	-0.004889798
132	0xbb937e7b	-0.0045011616
133	0xbb6c424a	-0.0036050254
134	0x3b4c87c6	0.0031208857
135	0xba1f8cdb	-0.0006086358
136	0xba1f6516	-0.00060804316
137	0xb952dd82	-0.00020109679
138	0xbc42ec66	-0.011897182
139	0x3ab8fc8e	0.0014113353
140	0xbb8d25f4	-0.004307503
141	0x3ba6654a	0.0050779926
142	0xb9b1a81d	-0.00033885325
143	0xbbc275de	-0.005934461
144	0xbb8f2e45	-0.0043695294
145	0xbadedffc	-0.0017004008
146	0xbbbc5423	-0.0057473346
147	0xbb10247c	-0.0021994403
148	0x38d05587	9.9341436e-05
149	0xbcc211f3	-0.0236902
150	0xbb566de2	-0.0032719304
151	0xbb2f35aa	-0.0026734867
152	0x3b271068	0.0025491957
153	0xbb1af579	-0.0023644848
154	0xbbcf46a8	-0.0063255616
155	0x3b449965	0.0029998657
156	0x3c310c04	0.010806087
157	0xbbaf5783	-0.0053510084
158	0xbc00c582	-0.0078595895
159	0xba925e5b	-0.0011167036
160	0x3985b942	0.00025505765
161	0xbab3d039	-0.0013718671
162	0xbbc3c9ee	-0.0059749996
163	0xbb15df82	-0.0022868817
164	0x3b084452	0.0020792675
165	0xbb5a76bf	-0.0033334938
166	0x3c22ecaf	0.009944125
167	0xbc235ef7	-0.009971372
168	0x39fea124	0.00048566714
169	0x3b6b1af3	0.0035874217
170	0xbb53726f	-0.0032264253
171	0xb76296de	-1.3505776e-05
172	0xbd4b4853	-0.04962952
173	0x3b0606e6	0.002045089
174	0x3c3aa030	0.011390731
175	0x3b4b069b	0.003097928
176	0xbc1f0c33	-0.009707498
177	0x3b52e141	0.0032177719
178	0xbb07c9a8	-0.0020719562
179	0xbae2ff88	-0.0017318586
180	0x3af47877	0.0018651624
181	0x3b5b56d8	0.003346851
182	0x3b2be3ee	0.0026228386
183	0xba1bbbef	-0.0005940785
184	0x3c5056c5	0.012716
185	0xbc26615a	-0.010155046
186	0xbafe2f9c	-0.0019392851
187	0x3bc838b8	0.006110277
188	0x3b1620a4	0.002290764
189	0xbc24f762	-0.010068746
190	0x3800bdaa	3.0694217e-05
191	0xba825210	-0.000994267
192	0xbb3fb944	-0.0029254714
193	0x3a8bdce1	0.0010670685
194	0x3c9e9370	0.019357413
195	0x3cb7cf26	0.022437643
196	0x3b460629	0.0030216074
197	0x3abdbb3c	0.0014475356
198	0x3ba8ae0d	0.0051477016
199	0x3b0c0a7d	0.0021368556
200	0xbb0f6969	-0.0021882898
201	0x3ad5099f	0.0016253478
202	0xba2c414f	-0.0006571011
203	0xbaa14da5	-0.0012306465
204	0x3c05de1e	0.008170633
205	0x3bd59a3b	0.00651863
206	0x3c5f9156	0.013645491
207	0x3b0e28cd	0.00216918
208	0x3bbfcf82	0.0058535943
209	0x3878ad9f	5.9289505e-05
210	0x3b882d5c	0.004155798
211	0xbb38470c	-0.002811852
212	0x3b9214c4	0.004458042
213	0xba2bb6db	-0.000655038
214	0x3cc220a4	0.023697205
215	0x3a56802d	0.0008182552
216	0x3ceb6acb	0.028737446
217	0xbcc16d58	-0.02361171
218	0xbb2d54a6	-0.002644816
219	0x3c3cce05	0.011523728
220	0xbca90ef9	-0.020637022
221	0x3c6a3eb2	0.014297174
222	0x3c071aae	0.008246107
223	0x3954573b	0.00020250391
224	0x39c4b17b	0.00037516266
225	0x3af27383	0.001849756
226	0x3bd073bf	0.0063614543
227	0xbb765f34	-0.0037593367
228	0x3c3bdabb	0.011465724
229	0x3ae0e5ae	0.0017158294
230	0xbb611321	-0.0034343677
231	0xbab7a63e	-0.0014011336
232	0x3bb79646	0.005602631
233	0xbcbb7e70	-0.022887439
234	0xbc6a36c2	-0.014295282
235	0xbb7ffdbb	-0.0039061147
236	0x3a7b9918	0.0009597703
237	0xbc5226d7	-0.012826643
238	0x3cbc0fa4	0.022956677
239	0x3c16e990	0.009210959
240	0x3c1bebaa	0.009516636
241	0xba3d6a15	-0.0007225585
242	0x3c383662	0.011243435
243	0xbbb36870	-0.0054750964
244	0xbc1e8b78	-0.009676807
245	0x3ae49787	0.0017440178
246	0x3b4cdd9f	0.0031260026
247	0x3a3f88aa	0.00073064363
248	0xbc0c3137	-0.008556656
249	0xbb3077d3	-0.002692689
250	0x3d03cfc7	0.032180574
251	0x3c2f9310	0.010716215
252	0x3b76580e	0.0037589106
253	0x3c106eb9	0.008815461
254	0xb9dc7a1b	-0.00042052646
255	0xbc41b041	-0.011821807

bn1.weight f4 [384]
0	0x3f5ba37f	0.8579635
1	0x3f5239e8	0.8211961
2	0x3f62cbb4	0.88592076
3	0x3f833f74	1.0253739
4	0x3f6a6aae	0.9156903
5	0x3f4ed526	0.8079399
6	0x3f4cf6cf	0.800641
7	0x3f8d0208	1.1016245
8	0x3f549919	0.8304611
9	0x3fa4b553	1.2867836
10	0x3f6df67f	0.9295425
11	0x3f2b1bb8	0.6683917
12	0x3f5aa853	0.8541309
13	0x3f4fe0e9	0.8120256
14	0x3f89960b	1.0748914
15	0x3f574685	0.8409198
16	0x3fa940a6	1.3222854
17	0x3f9e4a18	1.2366362
18	0x3fa59a1c	1.2937655
19	0x3f8a3e3b	1.0800241
20	0x3f48c270	0.7842169
21	0x3f4fada9	0.8112436
22	0x3f35561b	0.7083451
23	0x3f86f916	1.0544765
24	0x3fa9f9d5	1.3279368
25	0x3fb44d98	1.408618
26	0x3f45f361	0.7732449
27	0x3f9256b5	1.1432711
28	0x3fa02bc8	1.2513361
29	0x3f9b5457	1.2135113
30	0x3f85e9ed	1.0462013
31	0x3f704167	0.93849796
32	0x3f916ebf	1.1361922
33	0x3f324a89	0.6964498
34	0x3f3ac565	0.7295745
35	0x3f593905	0.8485263
36	0x3f9e5dc3	1.2372364
37	0x3f5bc675	0.85849696
38	0x3f85271f	1.0402564
39	0x3f3bd575	0.73372585
40	0x3f6fda7d	0.9369276
41	0x3f93679d	1.1515995
42	0x3f02d41c	0.51104903
43	0x3f02fce1	0.5116711
44	0x3f7a7758	0.97838354
45	0x3fb1208d	1.3838059
46	0x3f7d1bb3	0.9887039
47	0x3f32ec80	0.6989212
48	0x3f814c04	1.0101323
49	0x3f1dea8a	0.61686003
50	0x3f82e0d6	1.0224864
51	0x3f55d514	0.83528256
52	0x3f743b8a	0.9540335
53	0x3f583dda	0.8446938
54	0x3f45a67f	0.7720718
55	0x3f6af87f	0.91785425
56	0x3f8c4e59	1.096141
57	0x3f60f031	0.87866503
58	0x3f3e2b2c	0.74284625
59	0x3f6ff1c2	0.9372827
60	0x3f5573f4	0.83380055
61	0x3f7065e5	0.9390548
62	0x3f430ed5	0.76194507
63	0x3f7f179b	0.99645394
64	0x3f8d6e7c	1.1049342
65	0x3f45aa9e	0.77213466
66	0x3f5c44f6	0.86042726
67	0x3f61f2cf	0.8826112
68	0x3f373c4e	0.7157639
69	0x3f7095b4	0.9397843
70	0x3f969239	1.1763374
71	0x3f7fbeb5	0.9990037
72	0x3fa244ad	1.2677208
73	0x3f871065	1.0551878
74	0x3f8b05bb	1.0861124
75	0x3f8fc324	1.1231427
76	0x3f4edd73	0.80806655
77	0x3f5accd1	0.85468775
78	0x3f80b23f	1.0054396
79	0x3f02fe20	0.51169014
80	0x3f35e3fb	0.71050996
81	0x3f804f3b	1.0024179
82	0x3f64566c	0.8919437
83	0x3f7a147e	0.9768752
84	0x3f3e1a94	0.74259305
85	0x3f497e95	0.78708774
86	0x3f3d5642	0.73959744
87	0x3f8e45d4	1.111506
88	0x3f6e092d	0.9298275
89	0x3f298c47	0.6622967
90	0x3f570257	0.83987945
91	0x3f22e6b9	0.63633305
92	0x3f75f944	0.96083474
93	0x3f598751	0.849721
94	0x3f5f2cd4	0.8717778
95	0x3f93d5ef	1.1549662
96	0x3f31cb56	0.6945089
97	0x3f8c1bda	1.0946
98	0x3f595286	0.84891546
99	0x3fb03d8c	1.3768783
100	0x3f9734a6	1.1812942
101	0x3f8a2439	1.0792304
102	0x3f574917	0.840959
103	0x3f2c2ea8	0.6725869
104	0x3f421dd6	0.75826776
105	0x3f8bd51c	1.0924411
106	0x3f752f90	0.957757
107	0x3f610217	0.87893814
108	0x3f554df5	0.8332208
109	0x3f80eec9	1.0072871
110	0x3f8f5bfa	1.1199944
111	0x3f81f57a	1.0153039
112	0x3f633348	0.88750124
113	0x3f89b9a7	1.0759782
114	0x3f5bba32	0.85830986
115	0x3f8e53e0	1.1119347
116	0x3fa15ec3	1.2607044
117	0x3f534f6c	0.82543063
118	0x3f3c1208	0.73465014
119	0x3f6a9ec4	0.9164851
120	0x3f91af79	1.1381675
121	0x3f469c61	0.77582365
122	0x3f4c91a2	0.7990972
123	0x3f4887c2	0.7833215
124	0x3f8b90e9	1.0903598
125	0x3f9e7588	1.2379618
126	0x3f287034	0.6579621
127	0x3faf5730	1.3698483
128	0x3f96b596	1.1774166
129	0x3f3b3b84	0.7313769
130	0x3faf6e11	1.3705465
131	0x3f1e55bd	0.61849576
132	0x3f6a26b6	0.9146532
133	0x3f5e270b	0.86778325
134	0x3f9196f5	1.1374193
135	0x3f45ba45	0.7723735
136	0x3f425c3e	0.75922
137	0x3f4df356	0.80449426
138	0x3fa8357f	1.3141326
139	0x3f1fd2a6	0.624308
140	0x3f7bfdd0	0.9843416
141	0x3f4c14bb	0.7971913
142	0x3f937e5b	1.1522936
143	0x3f59d278	0.85086775
144	0x3f994953	1.1975502
145	0x3f174a64	0.59097886
146	0x3f7e66fe	0.99375904
147	0x3f0dadf2	0.55343544
148	0x3f7b2a3b	0.98111314
149	0x3f8fbfdd	1.1230427
150	0x3f255721	0.64586073
151	0x3f73a650	0.9517565
152	0x3f6b9ca2	0.9203588
153	0x3f74bf59	0.95604473
154	0x3f5ba7a6	0.85802686
155	0x3f03687e	0.5133132
156	0x3f7a6c95	0.97821933
157	0x3f8e82bc	1.1133647
158	0x3f640142	0.8906442
159	0x3f71d66c	0.94467807
160	0x3f5fc418	0.8740859
161	0x3f8a866b	1.0822271
162	0x3f2f9a0a	0.6859442
163	0x3f6159a9	0.88027436
164	0x3f4ee9ec	0.80825686
165	0x3f3f3824	0.7469504
166	0x3fa3a8d5	1.2785898
167	0x3f753484	0.9578326
168	0x3f5054d3	0.8137943
169	0x3f911de2	1.1337245
170	0x3f4b0620	0.7930622
171	0x3f5532e5	0.83280784
172	0x3f88928f	1.0669726
173	0x3f1e5a8b	0.6185691
174	0x3fa4ce8c	1.2875533
175	0x3f8142eb	1.0098547
176	0x3f57d550	0.84309864
177	0x3f75bbb3	0.9598953
178	0x3f5e25fd	0.86776716
179	0x3f826d9d	1.0189701
180	0x3f2fbe2f	0.6864957
181	0x3f56b377	0.8386759
182	0x3f6fb109	0.9362951
183	0x3f740e9c	0.9533479
184	0x3f8357a5	1.0261122
185	0x3f60e98c	0.87856364
186	0x3f8b65d7	1.0890454
187	0x3f75b141	0.95973593
188	0x3f833faa	1.0253804
189	0x3f81ee46	1.015084
190	0x3f76270b	0.96153325
191	0x3f6a33ea	0.91485465
192	0x3f708316	0.9395002
193	0x3f792332	0.9731933
194	0x3f8f7418	1.1207304
195	0x3f8f58a8	1.1198931
196	0x3f7b0fd7	0.98071045
197	0x3f379b9c	0.71721816
198	0x3fb5be4b	1.4198698
199	0x3f231780	0.63707733
200	0x3f73af31	0.95189196
201	0x3f8550fe	1.0415342
202	0x3f429498	0.76007986
203	0x3f20b324	0.62773347
204	0x3fa047e7	1.2521943
205	0x3f0df034	0.55444646
206	0x3f6e301e	0.9304217
207	0x3f4b19c4	0.7933619
208	0x3f42a442	0.7603189
209	0x3f4a06e2	0.7891675
210	0x3f7d43ab	0.9893138
211	0x3f79a30a	0.975144
212	0x3f70c2ac	0.94047046
213	0x3f55b4bc	0.83478904
214	0x3fb0f9ec	1.382627
215	0x3f42741a	0.75958407
216	0x3f937f16	1.1523159
217	0x3f8b6536	1.0890262
218	0x3f6c7f6a	0.9238192
219	0x3f7bff63	0.98436564
220	0x3f8ec4e9	1.1153842
221	0x3f809565	1.0045592
222	0x3f9c65dc	1.2218585
223	0x3f4dc7c2	0.8038293
224	0x3f6d45dc	0.9268472
225	0x3f12ba4b	0.5731551
226	0x3f4d89b2	0.8028823
227	0x3f26a2b8	0.6509204
228	0x3f8e4144	1.1113667
229	0x3f87fba8	1.0623674
230	0x3f9193bb	1.1373209
231	0x3f5cd5d1	0.8626376
232	0x3f930791	1.1486684
233	0x3f8a44b1	1.0802213
234	0x3f825f09	1.0185252
235	0x3f85ab6d	1.044294
236	0x3f60d11a	0.87819064
237	0x3f76b927	0.9637627
238	0x3f615065	0.880133
239	0x3f840214	1.0313134
240	0x3f9c9f56	1.2236125
241	0x3f6dfe8d	0.9296654
242	0x3f8aaec7	1.0834588
243	0x3f0c8520	0.5489063
244	0x3f483c53	0.7821705
245	0x3f45de21	0.77292067
246	0x3f805a57	1.002757
247	0x3f936609	1.1515514
248	0x3f81877a	1.0119469
249	0x3f8b9cc1	1.0907212
250	0x3fa3883b	1.2775949
251	0x3f5aa1b9	0.8540302
252	0x3f649d99	0.89302975
253	0x3f68d213	0.9094555
254	0x3f4436c1	0.7664605
255	0x3fad331c	1.3531222

bn1.bias f4 [384]
0	0xbe2f4fd5	-0.17120297
1	0xbed91e8a	-0.42406112
2	0xbe2aab37	-0.16666876
3	0xbea4e259	-0.3220394
4	0xbe42338a	-0.18964973
5	0xbec05733	-0.37566528
6	0xbedacd7b	-0.42734894
7	0xbe121f72	-0.14269808
8	0xbdb07604	-0.0861626
9	0xbe0677c0	-0.13131618
10	0xbed8c80e	-0.4234013
11	0xbe3d677c	-0.18496507
12	0xbe49dd88	-0.19713414
13	0xbd9d20c3	-0.076722644
14	0xbea6946a	-0.32535106
15	0xbe102f39	-0.14080514
16	0xbe52c817	-0.2058414
17	0xbe82a206	-0.2551424
18	0xbeb631eb	-0.3558496
19	0xbe6d4386	-0.2317029
20	0xbe92f036	-0.2869889
21	0xbe738c11	-0.237839
22	0xbe0c2344	-0.13685328
23	0xbdf0ffe2	-0.11767556
24	0xbde6b9a8	-0.1126588
25	0xbde2a9b8	-0.110675275
26	0xbe50d6de	-0.20394465
27	0x3e9ef5c2	0.31046873
28	0xbe581065	-0.21100004
29	0xbe368cbe	-0.17827126
30	0xbe851122	-0.25989634
31	0xbed980c3	-0.4248105
32	0x3e77b62d	0.24190588
33	0xbd38262d	-0.044958282
34	0xbd567217	-0.0523549
35	0xbeae3d61	-0.34031203
36	0xbe92a588	-0.28641915
37	0xbe378103	-0.17920308
38	0xbeba2e24	-0.36363328
39	0xbeacc0c8	-0.3374083
40	0xbdbef798	-0.093245685
41	0xbdd01ff5	-0.10162345
42	0xbeb32105	-0.3498613
43	0xbeb678f0	-0.35639143
44	0xbe56b878	-0.20968807
45	0xbe1e4a7f	-0.15458106
46	0xbd28345a	-0.04106555
47	0xbe7a8a71	-0.24466874
48	0xbe39dd3b	-0.18150799
49	0xbee99557	-0.4562175
50	0xbdc3ea36	-0.095661566
51	0x3e121107	0.14264308
52	0xbdd35c6c	-0.103203624
53	0xbe490f17	-0.19634663
54	0xbdcba120	-0.099428415
55	0xbe51fbf3	-0.20506267
56	0xbe05f092	-0.13080052
57	0xbe3e03ae	-0.18556091
58	0xbf00d234	-0.50320745
59	0xbe51444e	-0.20436212
60	0xbeabe739	-0.33574846
61	0xbed32db0	-0.41245794
62	0xbe16a002	-0.14709476
63	0xbe25772c	-0.16158742
64	0xbe60624e	-0.219125
65	0xbe839baa	-0.257047
66	0xbde96a37	-0.11397212
67	0xbec2d9fd	-0.38056937
68	0xbe71e456	-0.2362226
69	0xbead6953	-0.33869419
70	0xbe486041	-0.19567968
71	0x3eaa5c83	0.33273706
72	0xbe9c5deb	-0.30540404
73	0xbecc8740	-0.39946938
74	0xbe722fbe	-0.23651025
75	0xbe3528f2	-0.176914
76	0xbe1c0406	-0.1523591
77	0xbe1181c7	-0.14209662
78	0xbe9b5681	-0.30339435
79	0xbf187381	-0.59551245
80	0xbe94b43f	-0.29043767
81	0xbe968ee3	-0.2940589
82	0xbe35f121	-0.17767765
83	0xbed25d82	-0.41086966
84	0xbe7797a8	-0.24178946
85	0xbe9f4f4a	-0.3111518
86	0xbe3f9be2	-0.18711808
87	0xbe53dd22	-0.20689824
88	0x3da825b5	0.08210317
89	0xbed11f2c	-0.40844095
90	0xbda852fe	-0.082189545
91	0xbe3a2b04	-0.18180472
92	0x3ca57690	0.020198137
93	0xbdddbde3	-0.10827234
94	0xbe6dc331	-0.23218991
95	0xbea8797f	-0.32905194
96	0xbee6eaf5	-0.45101133
97	0xbe4ab967	-0.19797288
98	0xbe0e7024	-0.13909966
99	0xbe3e5970	-0.18588805
100	0xbe2b3730	-0.16720271
101	0xbe021442	-0.1270304
102	0xbe4c9dec	-0.19982117
103	0xbf090bc4	-0.5353358
104	0xbdc117c8	-0.09428364
105	0xbe242904	-0.16031271
106	0xbebdcdb0	-0.3707099
107	0xbe32def9	-0.1746787
108	0xbeee4e3b	-0.4654406
109	0xbd8a8c8b	-0.06765088
110	0xbd22b0ef	-0.03971952
111	0x3e4caf13	0.1998866
112	0xbe9e881a	-0.30963212
113	0xbe28624b	-0.16443746
114	0xbee75695	-0.45183244
115	0xbe2eacbd	-0.17058082
116	0xbd1f4049	-0.038879666
117	0xbe31ff09	-0.17382444
118	0xbe62975c	-0.22128052
119	0xbe63da21	-0.22251178
120	0xbdf2056d	-0.11817441
121	0xbde59863	-0.11210706
122	0xbd53c2dc	-0.051699504
123	0xbedcd374	-0.43130076
124	0xbea1489d	-0.31500712
125	0xbeac5e88	-0.33665872
126	0xbea5b9a9	-0.3236821
127	0xbe3d9426	-0.18513545
128	0xbe2ac1ed	-0.1667554
129	0xbe8bac9e	-0.27280134
130	0xbe32539e	-0.1741471
131	0xbe8bfbcd	-0.27340546
132	0xbeacc7b3	-0.33746108
133	0xbe5b4c7f	-0.214159
134	0xbe0b3d59	-0.13597621
135	0xbea6c5bf	-0.32572743
136	0xbe52c28a	-0.20582023
137	0xbe238a2a	-0.15970674
138	0xbde72da7	-0.11288004
139	0xbed75bcd	-0.42062226
140	0x3d06fc24	0.032955304
141	0xbe36974b	-0.17831151
142	0xbe4ab20b	-0.1979448
143	0xbdfca881	-0.12336827
144	0xbe5bfaaf	-0.21482347
145	0xbec1470e	-0.37749523
146	0xbe0bcec8	-0.136531
147	0xbebe6666	-0.371875
148	0xbe35928d	-0.17731686
149	0xbe01aa38	-0.1266259
150	0xbe91e1cb	-0.2849258
151	0xbd809c14	-0.062797695
152	0xbea76410	-0.3269353
153	0xbe53f924	-0.20700508
154	0xbdd0cdd8	-0.101955116
155	0xbeb6af2c	-0.3568052
156	0xbe1a352c	-0.15059346
157	0xbeaa2ce5	-0.33237377
158	0xbd5a9456	-0.05336412
159	0xbe387758	-0.18014276
160	0xbe333470	-0.17500472
161	0xbe624f33	-0.22100525
162	0xbda9562b	-0.08268388
163	0xbea6e7ae	-0.32598633
164	0xbebcb4d2	-0.36856705
165	0xbef1fc85	-0.4726297
166	0xbe518036	-0.20459065
167	0xbeb8cdc2	-0.3609448
168	0xbe9b71c3	-0.3036023
169	0xbcef1878	-0.029186472
170	0xbe4912ed	-0.19636126
171	0xbeaedb07	-0.3415148
172	0xbe32fb18	-0.17478597
173	0xbe2971c7	-0.16547309
174	0xbd999f96	-0.07501142
175	0xbd75d114	-0.060013846
176	0xbe8ef5b6	-0.27921838
177	0xbdbeb3dd	-0.0931165
178	0xbebef34b	-0.37294993
179	0xbeaae4e9	-0.3337777
180	0xbebaaa7e	-0.364582
181	0xbeb7532c	-0.35805643
182	0xbedda8fe	-0.43292993
183	0xbe6b35b6	-0.22969708
184	0xbe0ab264	-0.13544613
185	0x3e21bfe5	0.15795858
186	0xbe4117dc	-0.18856758
187	0xbe07b861	-0.13253929
188	0xbe5cef7f	-0.21575736
189	0xbe7d35fc	-0.24727625
190	0xbe039c5d	-0.12852617
191	0xbe16b801	-0.1471863
192	0xbdd41a0d	-0.10356531
193	0xbe1cec3f	-0.15324496
194	0xbdc14e93	-0.09438815
195	0x3e9f5914	0.3112265
196	0xbe62f6ed	-0.22164507
197	0xbe1aa8d1	-0.15103461
198	0xbe1a19ae	-0.15048859
199	0xbe7ac9ef	-0.24491094
200	0xbe9a80bd	-0.30176345
201	0xbe306818	-0.17227209
202	0xbe875873	-0.2643467
203	0xbe9cfb9b	-0.3066071
204	0xbe514743	-0.2043734
205	0xbecb7fff	-0.3974609
206	0xbe520123	-0.20508246
207	0xbe705b4c	-0.23472327
208	0xbd9e4b52	-0.0772921
209	0xbb7a6afe	-0.0038210745
210	0xbeb9b6c5	-0.36272255
211	0xbe4e5aec	-0.20151871
212	0xbebe8f8a	-0.37218887
213	0xbea6ca86	-0.32576388
214	0xbe12a9a4	-0.14322525
215	0xbec6f98f	-0.38862273
216	0xbdf6d24e	-0.12051831
217	0xbe1be772	-0.15225008
218	0xbeecbbdd	-0.46237078
219	0xbed4e9be	-0.4158458
220	0xbe066c08	-0.13127148
221	0xbe005b1c	-0.12534755
222	0xbe07d7d0	-0.1326592
223	0xbe75b244	-0.23993784
224	0xbe781b27	-0.24229108
225	0xbeae7981	-0.34077075
226	0xbdd55ddf	-0.10418295
227	0xbe919318	-0.28432536
228	0xbde37d70	-0.1110791
229	0xbdf2cd75	-0.11855594
230	0xbe348b12	-0.17631176
231	0xbed1ca1d	-0.40974513
232	0xbdd8aeb7	-0.10580199
233	0xbe4da12c	-0.20081013
234	0xbe0a12da	-0.13483754
235	0xbe92cf31	-0.286737
236	0xbe924d5e	-0.2857465
237	0xbd357d1a	-0.04430876
238	0xbd694cc3	-0.05695797
239	0xbe8bf317	-0.273339
240	0xbe2a63ee	-0.16639683
241	0xbec8ea0b	-0.3924106
242	0xbe7125c2	-0.2354956
243	0xbe8cce72	-0.27501255
244	0xbe91a356	-0.28444928
245	0xbea825ee	-0.32841438
246	0xbe21197d	-0.1573238
247	0xbe907d63	-0.28220662
248	0xbded3ba7	-0.115836434
249	0xbe48bd92	-0.19603565
250	0xbddbd2e2	-0.10733582
251	0xbdcef654	-0.10105577
252	0xbe8d0017	-0.2753913
253	0xbe9810f0	-0.29700422
254	0xbeb3f683	-0.3514901
255	0xbdb22b25	-0.086996354

bn1.running_mean f4 [384]
0	0x3cb7c3ce	0.022432234
1	0x3e1f50b3	0.15558128
2	0x3df5308b	0.119721495
3	0x3e091f28	0.13390791
4	0xbb6a12b8	-0.0035716724
5	0x3d880c29	0.06642944
6	0x3e0f3495	0.13984902
7	0x3de99314	0.11405006
8	0x3d5e70bd	0.054306734
9	0xbd2a03d1	-0.041507546
10	0x3bf577f5	0.0074911066
11	0x3e3dfb18	0.18552816
12	0x3dffbd9f	0.12487339
13	0x3d0d69db	0.03452478
14	0x3df30146	0.11865477
15	0xbe029e1d	-0.12755628
16	0xbd9fd32e	-0.07803951
17	0x3e5a9351	0.21345259
18	0xbd8be891	-0.06831468
19	0x3e2530b6	0.16131863
20	0x3ce8c2d8	0.028413221
21	0x3d817fd0	0.063232064
22	0x3d93990c	0.07206926
23	0x3e19b72f	0.15011285
24	0xbd0cf0a1	-0.03440917
25	0x3ca27c72	0.01983473
26	0xbb1391a0	-0.002251722
27	0xbb6bf56d	-0.003600444
28	0xbdc91bb9	-0.09819741
29	0x3e5a6419	0.21327247
30	0x3d8a6957	0.06758373
31	0x3c7f11c6	0.015568202
32	0x3d173a28	0.036920696
33	0x3c22afa4	0.009929571
34	0x3dd35e7d	0.103207566
35	0x3c624054	0.013809282
36	0xbd99d5c1	-0.075114734
37	0xbe37040a	-0.17872635
38	0x3d5b3cdc	0.053524837
39	0x3ce7c7cd	0.028293515
40	0xbbd495f2	-0.0064876014
41	0x3de8f5f8	0.1137504
42	0x3d89c9ae	0.067279205
43	0x3d1743e6	0.036929987
44	0xbcfc3c85	-0.030790577
45	0xbd639890	-0.055565417
46	0x3e3e4f28	0.18584883
47	0x3cc5e818	0.024158522
48	0x3c7340a5	0.014846955
49	0x3dbcea02	0.09224321
50	0x3d6a01cc	0.05713062
51	0xbc3adf30	-0.011405751
52	0xbe0fe8f3	-0.14053707
53	0x3cf2e633	0.029650783
54	0x3dd23fdd	0.10266087
55	0x3e039d8c	0.12853068
56	0xbe0e1061	-0.13873436
57	0x3ca4f70e	0.020137336
58	0xbb12727f	-0.0022346077
59	0x3e222949	0.15836062
60	0xbe333c44	-0.17503458
61	0x3da4d173	0.08047762
62	0xbc43e7ac	-0.01195709
63	0xbd68d434	-0.056842998
64	0x3d993327	0.0748046
65	0x3ddfb83c	0.10923812
66	0xbd672195	-0.05642851
67	0x3cf07c60	0.029356182
68	0xbce6d605	-0.028178224
69	0x3d950af5	0.072774805
70	0xbd77757c	-0.060414776
71	0xbc800619	-0.015627908
72	0xbc5da5d7	-0.013528309
73	0x3e2ee667	0.17080079
74	0x3e025076	0.12726006
75	0xbd881130	-0.06643903
76	0x3c365c2a	0.011130372
77	0xbe11f33f	-0.14252947
78	0x3dd2889c	0.102799624
79	0x3d9ef312	0.07761206
80	0xbba3697c	-0.00498694
81	0x3e24db09	0.1609918
82	0x3cd57e12	0.026061092
83	0x3da064e7	0.078317456
84	0x3de54161	0.11194111
85	0x3e2496ce	0.16073152
86	0xbbb47043	-0.0055065467
87	0x3af075c0	0.0018345639
88	0x39a18c80	0.00030812994
89	0x3d465038	0.048416346
90	0x3dc4ad40	0.09603357
91	0xbd4dfe82	-0.050291546
92	0x3db901fe	0.09033583
93	0x3c225de0	0.009910077
94	0x3cf6bfb7	0.030120714
95	0xbdb88ae9	-0.0901087
96	0xbdf5fcc8	-0.12011105
97	0xbd176455	-0.03696092
98	0xbd7b1d01	-0.061306957
99	0xbd9a56d3	-0.07536092
100	0xbcfcb49d	-0.030847842
101	0xbd4ef2cd	-0.05052452
102	0xbdadc904	-0.08485606
103	0x3e033a6f	0.1281526
104	0x3750ba00	1.2441073e-05
105	0xbd162c9d	-0.03666364
106	0x3d967e8f	0.07348358
107	0x3d227f2f	0.039672073
108	0xbd2eafd0	-0.042648137
109	0x3d08f0ff	0.033432957
110	0x3d886226	0.06659345
111	0x3d096bd0	0.033550084
112	0x3baab76a	0.005209853
113	0xbd8dc5d4	-0.06922498
114	0x3d319f6a	0.04336492
115	0x3e13ab4e	0.14420816
116	0xbd3d3660	-0.046194434
117	0x3be74474	0.007057721
118	0xbd04c4b2	-0.032414146
119	0x3ddc076a	0.107436016
120	0x3e347277	0.1762179
121	0x3def8116	0.11694543
122	0x3dc3ffa4	0.09570244
123	0xbc6bf3c5	-0.014401381
124	0x3e3d6fb8	0.18499649
125	0xbdb701d9	-0.08935899
126	0xbe20fce2	-0.15721467
127	0xbd0c108f	-0.03419548
128	0x3df7f9a1	0.1210816
129	0x3df86416	0.12128465
130	0xbd99030f	-0.074712865
131	0xbe055c70	-0.13023543
132	0x3dddeccc	0.10836181
133	0x3df6ac8c	0.120446295
134	0xbd3513c0	-0.04420829
135	0x3d41d609	0.04732326
136	0xbdde5aa3	-0.10857131
137	0xbe26b43f	-0.16279696
138	0x3e3f04aa	0.18654123
139	0x3bae1ba5	0.005313354
140	0x3d9afdd1	0.07567943
141	0x3df5a111	0.119936116
142	0xbd5ec818	-0.054390043
143	0xbdbc542c	-0.09195742
144	0x3e2f182e	0.17099068
145	0x3de54e66	0.11196594
146	0x3e006595	0.1253875
147	0x3c83b12c	0.016075693
148	0x3d20f5fb	0.039297085
149	0x3dcadc8a	0.09905346
150	0xbd185135	-0.03718682
151	0x3cf215a3	0.029551333
152	0x3d1246a5	0.035711903
153	0x3d00cb1b	0.031443696
154	0xbc9e1a26	-0.019299578
155	0x3dc029a7	0.093829446
156	0x3d14129a	0.036150552
157	0xbddf9519	-0.1091711
158	0xbe19832d	-0.14991446
159	0x3e205d99	0.15660705
160	0xbc29e890	-0.010370389
161	0x3e2bd2b4	0.16779596
162	0x3c8d94f4	0.01728294
163	0x3c9d4e6f	0.01920244
164	0xbd24e702	-0.04025937
165	0x3bec6e94	0.0072153304
166	0xbd12f4af	-0.03587788
167	0x3e2a2ebb	0.16619389
168	0xbc14d488	-0.0090838745
169	0x3cd2ef06	0.02574874
170	0xbd823d49	-0.063593455
171	0x3e002af3	0.12516384
172	0xbd95e084	-0.073182136
173	0x3d3cbd79	0.046079133
174	0x3d0b2b1a	0.03397665
175	0x3c9a3b66	0.018827152
176	0x3d13bd36	0.036069117
177	0xbb322a9e	-0.0027186046
178	0x3deb6ba9	0.11495144
179	0x3d9f9149	0.07791383
180	0xbcca798b	-0.02471616
181	0x3d05b3ee	0.032642297
182	0x3d85919d	0.06521914
183	0x3ddfc50a	0.10926254
184	0x3d9c5ca8	0.0763486
185	0x3d0462d7	0.032320824
186	0x3d03f092	0.032211848
187	0x3df8b710	0.121442914
188	0x3debd392	0.11514963
189	0x3d8448c3	0.06459191
190	0xbd058378	-0.03259608
191	0xbb0dd408	-0.0021641273
192	0xbc1d1e40	-0.009589732
193	0x3d10f389	0.035388503
194	0xbda17e2b	-0.07885393
195	0x3d00f751	0.03148586
196	0x3de69e20	0.11260629
197	0xbe0b6ea0	-0.13616419
198	0xbd4c0d42	-0.04981733
199	0x3d1ec4e0	0.038761973
200	0x3d9ec26f	0.07751929
201	0xbd9a01b6	-0.075198576
202	0x3d1936c5	0.037405748
203	0xbd6c3f0a	-0.057677306
204	0xbcf68cb8	-0.030096397
205	0x3de84e91	0.1134311
206	0xbe304cb1	-0.17216755
207	0x3dcd7082	0.10031225
208	0x3e1a211f	0.15051697
209	0x3d68cfcb	0.05683879
210	0xbcb60fa3	-0.022224253
211	0x3b04f1d4	0.0020285742
212	0xb881f180	-6.196182e-05
213	0x3dcf521a	0.101230815
214	0xbd3e254b	-0.046422284
215	0xbcccff36	-0.025024038
216	0x3e23e463	0.16005091
217	0x3d00dd49	0.031461034
218	0x3e07b621	0.1325307
219	0xbc5d593e	-0.0135100465
220	0xbe07726a	-0.13227239
221	0x3dafe915	0.08589379
222	0x3c4551da	0.012043441
223	0xbd9a3360	-0.0752933
224	0xbc2954e0	-0.010335177
225	0xbd84e3cf	-0.064887635
226	0xbc3d1b37	-0.011542133
227	0x3c8658ac	0.016399704
228	0x3c342925	0.010996138
229	0x3d76657e	0.060155384
230	0xbd4d18fa	-0.050072648
231	0x3cefae16	0.029257815
232	0xbd9dc5d4	-0.07703748
233	0xbd873442	-0.06601764
234	0x3ded9994	0.11601558
235	0x3dd92e6c	0.106045574
236	0x3e21e1f4	0.1580885
237	0x3d71204e	0.0588687
238	0x3da8c3f1	0.08240498
239	0xbdf6070d	-0.120130636
240	0x3d3f676d	0.046729494
241	0x3d57820d	0.05261426
242	0x3e7591a1	0.23981334
243	0xbdf63da4	-0.12023476
244	0xbd876ece	-0.06612931
245	0x3d2e3ece	0.042540364
246	0xbd1e9ce4	-0.03872384
247	0x3e069bd8	0.13145387
248	0x3bc71d3a	0.006076482
249	0x3dea371c	0.114362925
250	0x3e1b3b0b	0.15159242
251	0xbd5ac6e1	-0.053412322
252	0x3cd8612e	0.026413526
253	0xbc97fdc6	-0.018553626
254	0xbd993551	-0.074808724
255	0xbcc93652	-0.024562035

bn1.running_var f4 [384]
0	0x3db8b7ad	0.090194084
1	0x3db542e2	0.088506475
2	0x3e4449f0	0.1916883
3	0x3de0123e	0.109409794
4	0x3dbac670	0.0911988
5	0x3e064178	0.13110912
6	0x3e5ba729	0.21450485
7	0x3cf3cb19	0.02975993
8	0x3e519de0	0.20470381
9	0x3d7fd1f0	0.06245607
10	0x3e1b743d	0.1518106
11	0x3e1478a9	0.14499153
12	0x3e7218be	0.23642251
13	0x3d440b7b	0.04786251
14	0x3e00c520	0.12575197
15	0x3e186f5e	0.14886233
16	0x3d5ec4c6	0.054386877
17	0x3e2851b8	0.16437423
18	0x3dae1a18	0.08501071
19	0x3def024d	0.11670361
20	0x3e848cfd	0.25888816
21	0x3e26fdce	0.16307756
22	0x3efde9dc	0.49592483
23	0x3de5a7f2	0.11213674
24	0x3d46cce4	0.048535243
25	0x3d4e74ac	0.050404236
26	0x3db58e22	0.08865
27	0x3dace86b	0.08442768
28	0x3d61bd16	0.055111967
29	0x3e0e9489	0.13923849
30	0x3e26056d	0.16213007
31	0x3e03541f	0.12825058
32	0x3db9f609	0.090801306
33	0x3deb7488	0.11496836
34	0x3eca2f37	0.39489147
35	0x3e90ef4f	0.28307578
36	0x3d6e633c	0.058200106
37	0x3e33b433	0.1754921
38	0x3dfbfbb8	0.12303871
39	0x3e8e24dc	0.27762496
40	0x3d87c393	0.066291
41	0x3d2addad	0.041715313
42	0x3e51a86d	0.20474406
43	0x3e813d13	0.25241908
44	0x3e496251	0.19666411
45	0x3d9ae602	0.07563402
46	0x3d44c902	0.04804326
47	0x3e8b5fdb	0.2722157
48	0x3e2960ab	0.16540782
49	0x3ed629e8	0.41828847
50	0x3db18670	0.0866822
51	0x3db10342	0.086431995
52	0x3dd2710c	0.10275468
53	0x3e06d298	0.13166273
54	0x3ebec58f	0.372601
55	0x3dd18dbe	0.10232113
56	0x3dfd1517	0.12357538
57	0x3d79f3df	0.06102359
58	0x3dde4b4b	0.10854205
59	0x3e1c4cc2	0.15263656
60	0x3dc6b625	0.0970271
61	0x3e083802	0.13302615
62	0x3df76f37	0.120817594
63	0x3e44e7cc	0.19229048
64	0x3da32adb	0.079671584
65	0x3dbadf64	0.0912464
66	0x3dfb3d98	0.122676075
67	0x3df039aa	0.117297485
68	0x3e4f18cc	0.20224303
69	0x3e44a1f4	0.19202405
70	0x3e27aa39	0.16373529
71	0x3d9b6b6c	0.075888485
72	0x3da9ae33	0.08285179
73	0x3dcb50e5	0.09927539
74	0x3dea7e78	0.11449903
75	0x3de01491	0.10941423
76	0x3dcc36c0	0.0997138
77	0x3de320fc	0.11090276
78	0x3e07e629	0.13271393
79	0x3e54c248	0.20777237
80	0x3e06c30a	0.13160339
81	0x3e29c6ed	0.1657979
82	0x3da4e16d	0.08050809
83	0x3e31227b	0.1729831
84	0x3ea51169	0.32239845
85	0x3e15bcab	0.14622752
86	0x3e067a22	0.13132527
87	0x3e0d5647	0.13802443
88	0x3d93930f	0.072057836
89	0x3dfd8f1d	0.12380812
90	0x3d75db7e	0.060023777
91	0x3e954bf0	0.29159498
92	0x3defd829	0.11711151
93	0x3d88ace8	0.06673604
94	0x3db70e68	0.08938295
95	0x3dd5b708	0.10435301
96	0x3e801daa	0.25022632
97	0x3e228749	0.1587192
98	0x3e21eecb	0.15813749
99	0x3d72824a	0.059206285
100	0x3e00b015	0.1256717
101	0x3d8fc41d	0.070198275
102	0x3e519409	0.20466627
103	0x3ddbc0f6	0.10730164
104	0x3e00c8e0	0.12576628
105	0x3e15812b	0.14600055
106	0x3e0b1804	0.1358338
107	0x3dd76011	0.1051637
108	0x3e12ebde	0.14347789
109	0x3d4cabf1	0.049968664
110	0x3dbfa084	0.09356788
111	0x3da451d0	0.08023417
112	0x3e003e6c	0.12523812
113	0x3daa9bff	0.08330535
114	0x3e134bc6	0.14384374
115	0x3e3a1434	0.1817177
116	0x3d596913	0.053078722
117	0x3d55b3d7	0.05217346
118	0x3e97230f	0.29518935
119	0x3e36fd80	0.1787014
120	0x3d3d559f	0.046224233
121	0x3d3296a6	0.0436007
122	0x3d1f0870	0.038826406
123	0x3da29e58	0.07940358
124	0x3dc49dbc	0.09600398
125	0x3d8b0c0e	0.067894086
126	0x3ed2ce36	0.4117295
127	0x3d4eb574	0.050466016
128	0x3e02b824	0.12765557
129	0x3e639cff	0.22227858
130	0x3d6e043c	0.058109507
131	0x3e7f59de	0.24936625
132	0x3e27638c	0.16346568
133	0x3e252885	0.16128738
134	0x3d4f8250	0.050661385
135	0x3e1304c5	0.14357288
136	0x3e2a457d	0.1662807
137	0x3e1846f2	0.14870813
138	0x3e33bd91	0.17552783
139	0x3dfc29d6	0.12312667
140	0x3e38e815	0.18057282
141	0x3d001389	0.03126863
142	0x3e2575c9	0.16158213
143	0x3e2425cf	0.16030048
144	0x3de6838a	0.11255558
145	0x3e4fa362	0.2027717
146	0x3e236c25	0.15959223
147	0x3e8c2b52	0.273768
148	0x3e3ef900	0.18649673
149	0x3d37d803	0.04488374
150	0x3e5e744b	0.2172405
151	0x3df367a6	0.11885004
152	0x3dca3668	0.098736584
153	0x3e0b6301	0.13611986
154	0x3e0503b4	0.12989694
155	0x3e6f632f	0.2337768
156	0x3dd86b2b	0.10567316
157	0x3d5be037	0.053680625
158	0x3ded5cc5	0.1158996
159	0x3e0bc06d	0.13647623
160	0x3db708d3	0.0893723
161	0x3df11fcd	0.11773644
162	0x3dfe14ad	0.12406287
163	0x3db42e3b	0.0879788
164	0x3dd0e7af	0.1020044
165	0x3e239ffc	0.15978998
166	0x3e0c9c27	0.13731442
167	0x3dbb74c7	0.09153133
168	0x3deef6dd	0.11668179
169	0x3da556f7	0.08073228
170	0x3dfa033c	0.12207648
171	0x3e293682	0.165247
172	0x3e20d079	0.15704526
173	0x3e707d14	0.23485214
174	0x3d947571	0.07248963
175	0x3dafb1b8	0.08578819
176	0x3dea0036	0.114258215
177	0x3dd3b8f0	0.103380084
178	0x3d388a5a	0.045053817
179	0x3e15778b	0.14596383
180	0x3e52ea09	0.2059709
181	0x3e1079c9	0.14108957
182	0x3e0bd81c	0.13656658
183	0x3d956c7b	0.07296082
184	0x3dd9e950	0.10640204
185	0x3d96b730	0.07359159
186	0x3e0df36f	0.13862394
187	0x3ec35ae5	0.38155285
188	0x3d504146	0.0508435
189	0x3e3e54d4	0.18587047
190	0x3d89754f	0.06711828
191	0x3e7b02ba	0.24512759
192	0x3db2315d	0.087008215
193	0x3e0ad136	0.1355637
194	0x3da1df80	0.07903957
195	0x3dac181c	0.08403036
196	0x3ddce3ec	0.1078566
197	0x3e0e3a16	0.13889346
198	0x3d5fe586	0.05466225
199	0x3e5024d0	0.20326543
200	0x3dbcfd6d	0.09228025
201	0x3e0dc253	0.1384366
202	0x3df6edc1	0.12057067
203	0x3e228dc1	0.15874387
204	0x3e348932	0.17630461
205	0x3ee74e4a	0.45176917
206	0x3dea145d	0.11429665
207	0x3ece9c8d	0.40353814
208	0x3dc5789a	0.096421435
209	0x3d81c070	0.06335533
210	0x3e07739d	0.13227697
211	0x3dfb0e6d	0.12258611
212	0x3decb9b4	0.115588576
213	0x3e52ec80	0.2059803
214	0x3d61202f	0.054962333
215	0x3dce0f7a	0.10061546
216	0x3d278e70	0.040907323
217	0x3de4bcf5	0.11168853
218	0x3dc5dd68	0.096613705
219	0x3e143087	0.14471637
220	0x3d7cde49	0.061735425
221	0x3e224d56	0.15849814
222	0x3d83f1a7	0.06442576
223	0x3e418039	0.1889657
224	0x3df9d9cd	0.12199745
225	0x3e3d027e	0.18457982
226	0x3d91f402	0.07126619
227	0x3eaece22	0.34141642
228	0x3d4bc162	0.04974497
229	0x3de75d7a	0.11297126
230	0x3d950350	0.072760224
231	0x3e588aa4	0.21146637
232	0x3d4440af	0.04791325
233	0x3e2a05c7	0.16603766
234	0x3d362218	0.044466108
235	0x3e21b9ac	0.15793484
236	0x3e67849c	0.2260918
237	0x3d12ba5d	0.03582226
238	0x3d7861a5	0.060639996
239	0x3d916b7b	0.071005784
240	0x3dff7c62	0.12474896
241	0x3ddde5a3	0.10834815
242	0x3e0a3714	0.13497573
243	0x3ed95146	0.4244482
244	0x3e494b7c	0.19657701
245	0x3e04dcdb	0.12974875
246	0x3e21161f	0.15731095
247	0x3e25b080	0.1618061
248	0x3ddb9ace	0.10722886
249	0x3e2775d5	0.16353543
250	0x3d2a4e58	0.04157862
251	0x3daa3547	0.08310943
252	0x3e2865e5	0.1644512
253	0x3e29fda3	0.16600661
254	0x3e768d16	0.24077258
255	0x3d88eae4	0.06685427

fc2.weight f4 [256, 384]
0	0x3cb33591	0.021876128
1	0xbe1899f9	-0.14902486
2	0x3d6d2d32	0.05790443
3	0xbd401cb0	-0.04690236
4	0xbdb68942	-0.089128986
5	0xbcdcd728	-0.026958063
6	0x3e09e84d	0.13467522
7	0x3da3d3a1	0.079993494
8	0xbda62009	-0.08111579
9	0xbd57c41f	-0.05267727
10	0xbd293d54	-0.041318253
11	0xbe332809	-0.17495741
12	0xbe349042	-0.17633155
13	0xbe836f93	-0.25671062
14	0x3e2f4bb9	0.1711873
15	0x3d5b9829	0.053611908
16	0x3dffb913	0.12486472
17	0x3d8ca316	0.06867044
18	0x3e6d8ff2	0.23199442
19	0x3d5d5b67	0.054042246
20	0xbe876ed9	-0.26451758
21	0xbd844604	-0.06458667
22	0x3db80b17	0.0898649
23	0x3e105c12	0.14097622
24	0xbd086cb2	-0.033306785
25	0xbd2a45e9	-0.041570578
26	0xbd81a811	-0.06330884
27	0xbe19f2ae	-0.15033981
28	0xbd7b7dce	-0.061399274
29	0xbd83248d	-0.06403456
30	0xbd26509f	-0.04060423
31	0xbd50b665	-0.050955195
32	0xbdef8933	-0.116960905
33	0xbdaeb977	-0.08531468
34	0x3e31de21	0.17369892
35	0xbd54c1f3	-0.051942777
36	0x3ddd1a80	0.1079607
37	0x3ca347fa	0.019931782
38	0xbd380b28	-0.044932514
39	0xbe24dded	-0.16100283
40	0x3c9388ba	0.018009532
41	0xbdea2c84	-0.11434272
42	0x3d26f0b7	0.040756907
43	0x3e2f4f05	0.17119987
44	0x3de5f51d	0.11228392
45	0xbdb438ad	-0.087998725
46	0xbde6a70d	-0.11262331
47	0xbde5b63f	-0.11216401
48	0x3c90177e	0.017589327
49	0x3e3de5b8	0.18544662
50	0x3cfe92f0	0.031075925
51	0xbea33d86	-0.31882876
52	0xbd6b6c73	-0.057476472
53	0xbda7828f	-0.08179199
54	0x3e2b5258	0.1673063
55	0x3e957dbd	0.29197493
56	0xbe7a25a4	-0.24428421
57	0x3dcbeacd	0.09956894
58	0xbea029a7	-0.31281778
59	0x3d5549b3	0.05207224
60	0xbe0d4af5	-0.13798125
61	0xbcee0e0e	-0.029059436
62	0xbcacf31b	-0.021112015
63	0x3dc607ef	0.09669482
64	0x3e474d7f	0.19463156
65	0x3ec8eac7	0.3924162
66	0xbdf57183	-0.11984541
67	0xbe026731	-0.12734677
68	0xbdb961e5	-0.09051875
69	0x3d413c10	0.04717642
70	0x3d810dc5	0.063014545
71	0xbe0c67cd	-0.13711472
72	0x3b197868	0.0023417715
73	0xbb5f0ef4	-0.0034036012
74	0xbd1563a4	-0.036471978
75	0x3e177c21	0.14793445
76	0xbe5a6c04	-0.21330267
77	0xbd9b24d1	-0.075753815
78	0xbca4a5cc	-0.02009859
79	0x3dba4701	0.09095574
80	0xbe14806e	-0.14502117
81	0x3e05714c	0.130315
82	0x3e27a78c	0.16372508
83	0xbda557a4	-0.08073357
84	0xbe564b41	-0.20927145
85	0x3d99ae99	0.07504005
86	0x3c2adc41	0.010428489
87	0xbc8f2ae8	-0.017476514
88	0xbebe8f17	-0.37218544
89	0x3d541d73	0.051785897
90	0x3dca7f92	0.09887613
91	0xbe5a123b	-0.21296017
92	0x3cfde452	0.03099266
93	0xbd90f760	-0.07078433
94	0x3dae78e2	0.0851915
95	0x3deaa3fd	0.114570595
96	0xbe1079df	-0.1410899
97	0x3df2ac64	0.11849287
98	0x3d709a74	0.058741048
99	0xbe8f8ff3	-0.28039512
100	0x3c5fcbf1	0.013659463
101	0x3cb9b883	0.02267099
102	0xbdf2b4b8	-0.118508756
103	0xbe821032	-0.2540298
104	0xbe26327f	-0.162302
105	0xbea73640	-0.32658577
106	0xbe5fa112	-0.21838787
107	0x3daf8eaa	0.08572133
108	0xbdfe2d0d	-0.124109365
109	0xbca7d198	-0.020485684
110	0xbd93b4e7	-0.07212239
111	0xbe3b73b4	-0.18305856
112	0xbe65109e	-0.2236962
113	0x3e163f5c	0.14672607
114	0x3cf1c43f	0.029512523
115	0x3d89e16c	0.06732449
116	0xbe80c3b6	-0.25149316
117	0xbe6dcb01	-0.23221971
118	0xbe0dfca2	-0.13865903
119	0xbddcc229	-0.107792206
120	0xbd89e0dd	-0.067323424
121	0xbe1558bd	-0.14584632
122	0xbe7f477a	-0.2492961
123	0xbdb18294	-0.08667484
124	0x3e75f8f2	0.24020746
125	0x3e2f8169	0.1713921
126	0x3d974d58	0.07387799
127	0x3e8f9098	0.28040004
128	0x3e540065	0.20703276
129	0xbd4329c6	-0.04764726
130	0xbde78e19	-0.113064
131	0x3e999b60	0.30001354
132	0xbdf667cd	-0.12031517
133	0xbd4f7de9	-0.050657187
134	0x3d9bcb8e	0.07607184
135	0x3e2be34a	0.16785923
136	0xbb77718c	-0.0037756888
137	0xbe898b25	-0.2686397
138	0x3e023f64	0.12719494
139	0x3e29af75	0.16570838
140	0x3dcd28ad	0.10017524
141	0x3e4db7cd	0.20089646
142	0x3c1fd705	0.0097558545
143	0xbf181060	-0.59399986
144	0x3e15cabb	0.14628117
145	0x3e64dde8	0.22350276
146	0x3e65b0df	0.22430752
147	0xbdcb6049	-0.09930474
148	0xbbb8688e	-0.0056276983
149	0x3c19e26d	0.009392363
150	0xbdd36a15	-0.10322968
151	0x3cd1b7f2	0.025600407
152	0xbe7af345	-0.24506862
153	0x3d63cf26	0.055617474
154	0xbeca9eda	-0.3957432
155	0x3d259354	0.040423706
156	0xbddbbcb5	-0.107293524
157	0x3d8772ed	0.06613717
158	0x3d274c8e	0.040844493
159	0x3e5d2259	0.21595134
160	0x3e9345ff	0.2876434
161	0x3e1f43cf	0.1555321
162	0xbd2f8e23	-0.04286016
163	0x3dcb6a3a	0.099323705
164	0xbe82bd0f	-0.25534865
165	0xbcf87ea1	-0.030333819
166	0xbd975a4b	-0.07390269
167	0x3d819d97	0.06328886
168	0xbd522dc2	-0.05131317
169	0x3cf81b4d	0.030286456
170	0xbe36c17d	-0.17847247
171	0xbe3864dc	-0.18007225
172	0xbd283b58	-0.04107222
173	0xbda0b47f	-0.07846927
174	0x3db5c1e5	0.08874873
175	0xbcb3cd1a	-0.021948386
176	0x3d81a584	0.06330398
177	0xbde54925	-0.11195592
178	0xbd969a36	-0.07353632
179	0x3d2fc545	0.04291274
180	0x3cc87247	0.024468554
181	0xbdeebab7	-0.11656707
182	0xbd390ac1	-0.04517627
183	0x3e6476ac	0.22310895
184	0xbc2bdc63	-0.010489556
185	0xbd9b9666	-0.075970456
186	0x3d8793e4	0.06620005
187	0x3e046b92	0.1293166
188	0x3e02adde	0.12761638
189	0x3e519b12	0.20469311
190	0x3da7f621	0.08201242
191	0xbe8a98b0	-0.27069616
192	0xbe5b1ced	-0.21397753
193	0x3c855795	0.016277114
194	0xbd4bd7ae	-0.049766235
195	0x3e0975fd	0.13423915
196	0xbb9a5f7d	-0.00471109
197	0xbd8f103d	-0.06985519
198	0x3da1bec3	0.07897713
199	0xbdf3421e	-0.11877845
200	0x3cfc4fd3	0.030799782
201	0xbe1d58d9	-0.15365924
202	0x3d1a0f27	0.037612107
203	0xbe423429	-0.1896521
204	0x3d5fb4a1	0.05461562
205	0x3e7b0e66	0.24517211
206	0xbccf2e23	-0.025290554
207	0xbe06aa04	-0.13150793
208	0x3c780474	0.01513778
209	0xbcc81309	-0.02442314
210	0x3da39517	0.07987421
211	0x3d250ab6	0.040293418
212	0x3cf930da	0.030418802
213	0x3e3c4101	0.18384172
214	0xbe9de5dd	-0.30839434
215	0x3c83ab9b	0.016073039
216	0x3d8ffde9	0.070308514
217	0xbdd5e1b9	-0.10443444
218	0x3d1a840c	0.037723586
219	0xbdcf65c7	-0.10126834
220	0x3d82a26a	0.06378634
221	0xbe3cecd1	-0.18449713
222	0x3decb5ca	0.11558111
223	0xbd229e45	-0.03970172
224	0x3e1f9fdb	0.15588324
225	0xbd072b7d	-0.033000458
226	0x3e31d574	0.17366582
227	0xbdcec41c	-0.10095999
228	0xbd05e872	-0.03269238
229	0x3d701fef	0.058624204
230	0x3d8ad4b5	0.06778852
231	0x3e65a2f1	0.22425438
232	0xbe52b5e9	-0.20577206
233	0xbdf2b9bb	-0.118518315
234	0xbd10622d	-0.035249878
235	0xbb17971b	-0.0023130837
236	0xbeaf4f57	-0.3424022
237	0x3dea7ec5	0.114499606
238	0xbeb63098	-0.3558395
239	0x3c85a20e	0.016312625
240	0xb999cab5	-0.00029333463
241	0x3defc8d0	0.11708224
242	0x3d823bd7	0.0635907
243	0x3e4f0171	0.20215394
244	0xbdbf0d07	-0.09328657
245	0x3e1e4fbb	0.15460102
246	0xbe6a8880	-0.22903633
247	0x3e7d2dfe	0.24724576
248	0x3cb46124	0.022018977
249	0x3ddf5867	0.10905533
250	0x3d9a7217	0.07541292
251	0xbe18d545	-0.14925106
252	0xbd6acf9d	-0.0573269
253	0x3cb66d1c	0.022268824
254	0x3aab1e94	0.0013055378
255	0x3e76b785	0.24093445
