DNN/dnnsmall/models/best_model_regularized.pt (torch, 207781 bytes, 26 tensors)

fc1.weight f4 [256, 14]
00000000: 456a 363e 419c 95b9 ea9a 1abe 7a20 1c3d
00000010: 6e09 df3d a148 2e3d f1a2 9139 443c c13c
00000020: 577c 96bc 61b0 df3d 7609 fcbc 7630 0e3e
00000030: 49b4 083e 5f3c d9be d903 26be f739 823d
00000040: e842 b63c c01c b73e 88c5 a43e 01a8 f73e
00000050: acc3 0abe d0c2 d03d a60b 283e 957a f43e
00000060: d5ee 793c e15a 3dbe 6a44 ad3d 49b3 6f3e
00000070: 8810 e83d ee94 55bd c4bb 89be f911 a43e
00000080: ebbc ce3d 5dc6 1dbe 3648 61be 42fd a83d
00000090: 7d24 713d 65d7 c73d cb97 81bd d8ba 893d
000000a0: ddea 56be 0dc2 18be 1200 c2be 6258 393d
000000b0: 2edf b5bd ca26 033e 10ce 423c 5dd5 66be
000000c0: eee7 503e 9144 88bd 89ee 3c3d 2453 0fbc
000000d0: 08f9 02bf 350a a3bd 4c96 c6be 6916 3bbd
000000e0: 5070 d5bd d7c7 983c 6e51 903e 8770 e8bd
000000f0: b6ba 243e 816e 9a3d 7a9a 133d c26f bd3d
00000100: 0146 803e 260f ac3e 99f7 76bd e51b a33e
00000110: acd2 013d 918e 84bd fc8c a3be 905a 583d
00000120: 2b36 b13d 9f70 213e 20eb 533d 18ff 14be
00000130: ee4b 1b3e 4800 013d 5f65 1bbd 2a4a 9dbd
00000140: 5a70 f5bd d25e 6a3e 12a0 af3d b193 c03e
00000150: 28cc 083e 1348 85bd ad22 89be a3fa f4bd
00000160: ce5c 6ebe b73e debd d702 9ebd de32 f7bd
00000170: d93d 58be 9d0d c0be afb6 363d fdd8 5b3e
00000180: 5671 77bd 69cf 133e 4db6 88be 533e 753d
00000190: e523 6e3e 39b0 11bd 40c3 a13d 0d3c 09be
000001a0: 3b20 173e a282 6b3d 7a92 753d 8f72 233e
000001b0: 60ff 583e 58b5 3e3e 51e2 ce3d 088f d53e
000001c0: 4376 0a3e 8d4b 4ebe e331 5bbe 8cb1 6dbe
000001d0: 6450 2cbc 9c06 bebb 5bc5 523e f847 ea3d
000001e0: 5545 6e3e 19ea b1be 0615 883d b7d4 3c3e
000001f0: a8b6 63be 77a7 c4be cf70 c0be 7f11 e33b
00000200: bde8 823d fd40 6c3e de20 fabd 020a 43bc
00000210: c69c dc3d f980 e1bd 3a64 8abd a46e b33a
00000220: 6d1f a53c b709 49be ecaf 553e 65d6 203e
00000230: 8656 c2be 70ff 293e 832a 20bd 1931 ea3e
00000240: 9f80 0d3e 90ab 1abe 437a db3d 2c31 3e3e
00000250: 6e61 473e 2e97 6b3e 8547 c23e a1c2 60bd
00000260: 2d79 6f3c 3e01 863c cf81 9bbe b5ce b63c
00000270: f653 0cbe ff31 fcbc f02f 85bd 7e37 be3e
00000280: 0990 79be 6c48 3abe c738 b7bd dd2e 7dbd
00000290: 2c09 2b3c 9075 09be f3ea 37be a88c aebe
000002a0: 24b1 2bbe 9198 dcbc 0752 1c3d 8d29 6abe
000002b0: d463 413d 8559 06be 6bd8 84bc 116e 0dbe
000002c0: e30b 3ebe d070 bfbd 47ff c5bd c11a 2d3e
000002d0: 943b 883e 74d1 41be ff0d 983e 7fb5 ebbc
000002e0: 8bbd 6f3e ac0f bf3d e7eb 2ebd 18ef 84bd
000002f0: bfa0 8a3d 86f8 513a d63f b73d e547 91be
00000300: 660d 83bd f46a 433e 6b3b 343e f054 c6bd
00000310: ccf0 0abc d881 e63d 6c12 f7bd f6f8 d03c
00000320: 791a 233e b54d 69be 3f7b 92be 1a45 763e
00000330: f2de 133d 8fcf 72be c071 4a3c 68db 45be
00000340: 872a 74bc 525d d0bd 21b5 3fbe d6d2 8c3c
00000350: c9eb 3abe 2f44 cb3e 67d1 2a3c 8135 a0bd
00000360: 5395 6a3e aa32 943c 2ad1 093e 746b 083d
00000370: 348b abbd e035 bfbd 038a 18be 0bd5 813d
00000380: d796 5abe 02aa 3d39 cee0 253e a506 76be
00000390: cb17 1ebc 2ed4 e4bd 73ad 013e 56b5 19be
000003a0: a3af cfbe c2a2 95be 4be9 0dbe 379b 2a3e
000003b0: f336 363d 915c 69be 1b3d 7c3d 2621 12be
000003c0: 786d 1cbe 2a18 85be f6e6 0dbd 9ec5 34be
000003d0: e115 9b3d bc7f 1d3c f7e4 b9bd 21fd 95be
000003e0: e347 5e3e b93e 58be 050f 7cbe 9795 073d
000003f0: afda 84be f98b 8cbd 1a92 2dbd 9d71 a83c
0.17813976 -0.00028535913 -0.15098158 0.03811691 0.108904704 0.042549733 0.00027777956 0.023588307
-0.018369837 0.109223135 -0.03076623 0.13885674 0.13350023 -0.42428872 -0.16212405 0.06358712
0.0222487 0.35764122 0.32181954 0.48370364 -0.13551205 0.101934075 0.16410694 0.47749773
0.015254696 -0.18491699 0.084603146 0.23408236 0.11331278 -0.052143984 -0.26901066 0.32044962
0.10094627 -0.15407701 -0.22000203 0.0825143 0.05887269 0.0975788 -0.0632778 0.06725091
-0.2098803 -0.14917774 -0.3789068 0.045250304 -0.08880459 0.12807766 0.011889949 -0.22542329
0.20400974 -0.06653703 0.046125922 -0.00874785 -0.5116124 -0.07960931 -0.38786542 -0.04567567
-0.104218125 0.018649979 0.28187126 -0.11349588 0.1608685 0.07540608 0.036035992 0.09249832
0.2505341 0.33605307 -0.06029472 0.3185722 0.031695053 -0.06472505 -0.319435 0.052820742
0.0865291 0.15765618 0.051737905 -0.14550436 0.15165684 0.03149441 -0.037938472 -0.07680161
-0.1198432 0.22887734 0.08575453 0.3761268 0.1335913 -0.06507888 -0.26784268 -0.11961868
-0.2327759 -0.10851806 -0.077153854 -0.12070249 -0.21117343 -0.37510386 0.044607814 0.21469493
-0.06041082 0.1443459 -0.26701584 0.05987389 0.2325588 -0.03556845 0.07898569 -0.13401814
0.14758389 0.057497628 0.059954144 0.1596167 0.21191168 0.18623865 0.1010176 0.41710687
0.13521676 -0.20146008 -0.21405749 -0.2321226 -0.0105172135 -0.0057991277 0.20583098 0.11439508
0.23268636 -0.34748915 0.06644635 0.1844052 -0.22237647 -0.38409016 -0.37586066 0.006929576
0.063920476 0.23071666 -0.122133 -0.0119042415 0.1077209 -0.11010928 -0.06757398 0.001368959
0.020156587 -0.19632612 0.2086789 0.15706785 -0.37956637 0.16601348 -0.039103042 0.45740584
0.13818596 -0.15104508 0.10716679 0.18573445 0.1947076 0.23006889 0.3794519 -0.054873113
0.014616293 0.016358014 -0.30372474 0.022315362 -0.13703904 -0.030785559 -0.06503284 0.37151712
-0.24371351 -0.18191689 -0.08946376 -0.06181227 0.010439198 -0.13423753 -0.1796072 -0.34091687
-0.16766793 -0.026928218 0.038164165 -0.22867413 0.047214344 -0.13120086 -0.016216477 -0.13811518
-0.18559222 -0.09347689 -0.09667831 0.16904737 0.26607955 -0.18927556 0.29698178 -0.028773068
0.23412149 0.09329161 -0.042705443 -0.06490916 0.06768941 0.000800975 0.089477226 -0.28375164
-0.0639904 0.19083768 0.17600791 -0.09684169 -0.008480262 0.112552345 -0.120640606 0.025509339
0.15928067 -0.22783549 -0.28609654 0.24049798 0.03610129 -0.2371199 0.012356222 -0.19321978
-0.014902717 -0.101740494 -0.18721439 0.017190378 -0.18254007 0.39700457 0.010425902 -0.07822705
0.22908525 0.018090565 0.13458696 0.0333056 -0.0837616 -0.09336448 -0.14896397 0.06339463
-0.21346603 0.00018087777 0.16199037 -0.24025972 -0.009649227 -0.111732826 0.12663822 -0.1501058
-0.40563688 -0.29225737 -0.13858525 0.16660772 0.044485997 -0.22789218 0.061581712 -0.14270458
-0.15276134 -0.25994998 -0.03464409 -0.1765351 0.075725324 0.009612974 -0.09076875 -0.29294685
0.2170711 -0.21117677 -0.24615104 0.033101644 -0.25948092 -0.06862635 -0.04237566 0.020561988

fc1.bias f4 [256]
00000000: f99c 1b3e 9efd 153e 729b f63d 4e29 4f3e
00000010: 3102 b13d b823 95bd cd1a e0bd 9932 3b3e
00000020: 3685 d23d e0ff dbbd 548e 5dbe 3336 d2bd
00000030: ffba 223e 6b2f 3a3e 847f 6c3e 4cda e1bd
00000040: 250a c33d 7801 49be 595f 7b3e d72a 2a3e
00000050: 6ac3 99bd 7d4a 153e 6a07 313e 8d54 d73d
00000060: 296c 743e 5fb4 273d b33b 7a3e 4bb5 553e
00000070: 9aa8 f53d a82b 853d 8df8 a7bc 46df e8bd
00000080: ed21 2ebe d875 4fbe b334 a4bd 7dda d93d
00000090: 77db 7c3e e73f 813e 1b65 6c3e dccd ecbd
000000a0: a4de 353d bd5f 38be 2497 943c 6edb 06be
000000b0: e59e 5fbe 93a3 c7bd c6ef 783b cbaa 6a3d
000000c0: 6bbe 71bd 5211 84be 2799 d5bd 50e0 50be
000000d0: f2e0 2dbe 3410 2f3c 828c 823e cb12 e7bd
000000e0: 03b9 38bd ed2b 2ebe 89dd 83be 9e1b 22be
000000f0: 83c5 edbd d7dc 29bd e927 943c 0ee4 6abe
00000100: 1436 ff3d d572 2fbd a6b7 483e 2c56 d53d
00000110: f307 4abe abc4 9e3c a943 85bd d33b 82bd
00000120: 7678 803e b3e8 65be 9d1e 8cbd bc62 073e
00000130: 3fa9 89be 161b a73d 8119 863e b15a 3cbe
00000140: d19b 8a3e 4a6d b03d d308 b03c 1ffc 2fbe
00000150: 11b6 44be 9b73 b73d 9e25 8abd 6768 e6bd
00000160: 0abd 84be 666b 54be b3f9 8cbc cf52 7abe
00000170: cde9 7dbe 9569 61be 9a8c 603d 2a44 c8bc
00000180: d05b 523e 574d 80be 0634 c3bc 7503 c53d
00000190: 1d2e 5fbe d99e 5b3e 94fe 93bd b819 85be
000001a0: f837 613e e168 a03d 488f 843e ac45 68be
000001b0: 7f5e 85be 0ecb 12be b152 f5bd 8aad 4ebe
000001c0: 2990 85bd 89a2 583e 6f31 8f3c 849a f03d
000001d0: 18e8 f5bd 81fe c2bd 34e6 843d 7d42 273e
000001e0: e82e d03c e79c 683e 8580 333e 3138 663e
000001f0: a335 f43d 3776 5b3e d369 743d 4fce 4b3c
00000200: 541c 283e 7536 9abd 0c22 4b3e bf89 9abd
00000210: b80b 82be 82bb 2f3e ebb4 573e 8b82 12be
00000220: d0f8 9f3c 7e19 5dbd a4a6 443e 087b 743e
00000230: b918 4b3e c253 0fbe d753 4fbe 93c1 5f3e
00000240: 01da 963d 67cf bdbc e281 163e 62bc 71bd
00000250: d5d8 7ebe c53f 2c3e 8a16 853e 3c01 10be
00000260: 4ed0 b33c 3629 6dbe e621 d6bd d529 77be
00000270: c3a0 8f3d 9ea7 55be 7a2b 9ebd 7860 ee3d
00000280: 713a 073e bb24 b5bd 4453 1c3e bb30 7c3e
00000290: e677 b43c 2b17 303d c34d 07be 674c 563e
000002a0: 029d 9cbb 376f d83c af22 adbd b553 a53d
000002b0: 3788 99bd fab3 10be 66db cbbc 1d10 0fbe
000002c0: 37cb 36be 04dc 7cbe 5e11 81be abb4 4bbe
000002d0: 56d9 09be 0e21 0dbe fa0c d5bd 44dd 7539
000002e0: 0398 32bd 793e 883e 3c34 8fbd de19 12bd
000002f0: 9cf4 08be 6107 d93d b7e5 63bd f066 613e
00000300: d1bd 8e3b 9afb f93c 68c8 5ebe 3c9a 6cbe
00000310: 03c1 83be 7f35 413e 4c06 e83d 4eda 23be
00000320: 5e1d 1abe 8d90 013e 30e2 583d d127 ad3d
00000330: 60ae 05bd eb16 2a3d 4011 323d 1e34 8ebc
00000340: 78bd 6bbe 9f5f b63d 9b01 a7bd 7cf4 0c3e
00000350: 8d69 dc3d fe59 673c 012a a6bb fbb9 103d
00000360: d3f9 cd3c 1eea 2c3c 4272 87bd 0c4c c0bb
00000370: efbb 65be beb4 97bc da3c f8bd d9a4 53be
00000380: 8da0 43be 7e2d b0bd 1589 31bd 9153 d43d
00000390: e8bf ecbd 47c6 dfbc 9fee 83be 9f98 33bd
000003a0: db3a 1abe 69b9 71bd 29e5 29be 14a5 ecbd
000003b0: 4cbd 683b 93cb 5abe 6e4d 453e 19c2 f13d
000003c0: 20bf 3bbd d905 583e 186e 363e 47b7 5d3d
000003d0: 1b34 353e 997d f13d cd0f 1abe 6a88 ad3d
000003e0: 0c5a f43c 14ad 0a3e e2d4 9d3d e9c0 003e
000003f0: d620 f1bd f9ea 773e 556c 0c3e 3b13 5ebd
0.15196599 0.14647529 0.120413676 0.202306 0.08642996 -0.072822034 -0.10942612 0.1828102
0.10279314 -0.10742164 -0.21636325 -0.10264244 0.15891646 0.18182151 0.23095518 -0.11027965
0.09523419 -0.19629467 0.24548091 0.16617905 -0.075079754 0.14579196 0.17287984 0.10514174
0.23869385 0.0409435 0.24436836 0.20869939 0.11995049 0.065024674 -0.02050426 -0.11370711
-0.17005129 -0.20259798 -0.08017864 0.106373765 0.24693094 0.25244066 0.23085444 -0.11562702
0.04440178 -0.18005271 0.018138476 -0.13169643 -0.21837957 -0.09747996 0.0037984713 0.057291787
-0.059019487 -0.25794464 -0.10429602 -0.20398068 -0.16980341 0.0106850155 0.25497824 -0.11282881
-0.045098316 -0.17008944 -0.25754955 -0.15830848 -0.11609938 -0.041470375 0.018085437 -0.22938558
0.124614865 -0.04283412 0.19601306 0.104168266 -0.19729595 0.019380888 -0.06507046 -0.06359067
0.25091904 -0.22452049 -0.068417765 0.13221258 -0.26886937 0.08159463 0.26191333 -0.18393971
0.27072003 0.08614595 0.021488583 -0.1718602 -0.19210078 0.08957597 -0.06745456 -0.11250382
-0.25925475 -0.20744094 -0.01720891 -0.24445651 -0.24796219 -0.22012933 0.054821588 -0.024446566
0.20542836 -0.25059006 -0.023828518 0.096198 -0.21794935 0.21447314 -0.07226291 -0.25996184
0.21994007 0.07832504 0.25890565 -0.22682828 -0.26048657 -0.14335272 -0.11978663 -0.20183387
-0.06521637 0.21155752 0.017479626 0.117482215 -0.12007159 -0.09521199 0.0648922 0.16333957
0.025412992 0.22716103 0.17529495 0.22482373 0.11924293 0.21431814 0.059671234 0.0124393245
0.16417056 -0.07529918 0.19837207 -0.07545804 -0.25399566 0.17161372 0.21065108 -0.1430761
0.019527823 -0.05397939 0.19204193 0.23875058 0.1983365 -0.13996795 -0.20246826 0.21851186
0.073658 -0.023170186 0.14697984 -0.059017546 -0.24887402 0.16821201 0.25993758 -0.14062971
0.021949913 -0.23160252 -0.10455684 -0.24137051 0.07013085 -0.20864722 -0.07723136 0.11639494
0.13205887 -0.088448964 0.15266138 0.24627964 0.022029828 0.042990845 -0.13213257 0.20927583
-0.004779459 0.026420219 -0.08453881 0.080726065 -0.07496684 -0.14131156 -0.02488489 -0.1397099
-0.17850958 -0.24693304 -0.25208563 -0.19893138 -0.13461813 -0.1378214 -0.10402866 0.00023447449
-0.043602 0.26610163 -0.06992385 -0.0356692 -0.13374561 0.105971105 -0.055638995 0.22011924
0.004356124 0.03051548 -0.21756136 -0.2310571 -0.25733194 0.18868063 0.11329326 -0.16001245
-0.15050265 0.12652798 0.052950084 0.0845486 -0.032637 0.041525763 0.043473482 -0.017358836
-0.23021495 0.08904957 -0.08154603 0.13765138 0.1076232 0.014120577 -0.005070925 0.035333615
0.02514354 0.010553865 -0.0661359 -0.0058684405 -0.22434972 -0.018518802 -0.121209815 -0.20668353
-0.19104214 -0.08602427 -0.043343622 0.103675015 -0.11560041 -0.027316226 -0.2576799 -0.043846723
-0.15061514 -0.05901471 -0.16591324 -0.11554924 0.003551322 -0.2136672 0.19267818 0.11804599
-0.045836568 0.2109598 0.17815435 0.054129865 0.17695658 0.11791534 -0.1504509 0.084732845
0.029828094 0.13542587 0.0770662 0.1257359 -0.11773841 0.24210729 0.137132 -0.05421756

bn1.weight f4 [256]
00000000: 4dbf 733f e657 733f 2d36 7b3f cd79 5e3f
00000010: dc03 873f 6cf3 653f ed62 863f 0ea2 5f3f
00000020: 9fb5 8b3f 935f 673f 8f45 523f 0773 5d3f
00000030: 305a 823f 9f7d 6b3f 48d6 473f adbc 6b3f
00000040: c881 763f 2a9c 883f e8dd 7e3f b930 6d3f
00000050: 217e 773f 640b 5f3f b46c 7f3f ba70 723f
00000060: 56b2 663f faac 883f fc7e 423f 7d8a 763f
00000070: 6443 663f 7b8a 6b3f b680 633f 1d0b 6d3f
00000080: 7471 893f 969e 4b3f 903c 713f 2789 723f
00000090: 2ebf 513f 2846 813f d568 903f 91ad 753f
000000a0: 2d3c 753f 8dd0 4a3f 9013 6e3f 3c30 3e3f
000000b0: 9dad 883f 1a8b 7e3f ca79 663f 4559 513f
000000c0: ebf1 843f 7d1c 883f c5e2 6e3f 20d6 643f
000000d0: d7e4 853f 6d60 6f3f a9ac 813f 80c9 683f
000000e0: 2f23 743f 3a42 903f 9a5f 6f3f 13ec 763f
000000f0: 5a76 473f a18b 6e3f 74c1 843f 8397 723f
00000100: 7935 743f 2d95 7f3f cc09 823f 1d08 4a3f
00000110: a0dd 813f ba0d 583f 22fd 4b3f 76b5 4a3f
00000120: ab7f 393f ad8f 753f 6750 893f f4dc 7b3f
00000130: 860d 853f 401f 843f d150 7b3f 0d36 8f3f
00000140: d4ac 8b3f 8161 6a3f 8b40 783f 2ee4 873f
00000150: f227 743f f61a 863f e678 563f 14e9 803f
00000160: 114b 523f 2f90 6e3f 5e75 513f d20a 7d3f
00000170: ae29 763f 4ae6 5e3f a2ab 823f da3e 703f
00000180: 0dd9 7d3f 26e2 583f 495f 6b3f c919 6f3f
00000190: 9475 573f fbfd 723f e963 803f 1ec5 843f
000001a0: 6cf1 5f3f f035 833f 3d62 463f b16d 793f
000001b0: 7a24 5d3f 6f23 803f 4133 6b3f 0d8b 803f
000001c0: 1d63 793f 095d 863f 5b1c 4f3f 1ef3 823f
000001d0: 2679 693f b76e 683f 63ba 593f bd40 823f
000001e0: e09c 813f e660 3f3f 6e05 543f ffd9 5f3f
000001f0: 80f0 753f 5e5f 853f 70c0 773f 7a45 7f3f
00000200: 7554 723f add5 663f 94c8 813f e2e7 853f
00000210: f8b5 803f edd7 4a3f a4b6 6d3f d223 953f
00000220: 3e41 8b3f 6615 6f3f 02f8 923f 4869 623f
00000230: 3f38 5f3f c35d 863f 80d0 773f 843d 763f
00000240: 1575 683f c9cd 7a3f 2114 7c3f 8523 6e3f
00000250: ff9d 663f 98a4 6d3f fca9 723f 15e5 823f
00000260: 36d1 703f 9a51 843f 2c35 563f 1355 513f
00000270: de4b 553f 5de0 6a3f 69f4 5a3f b7f1 6b3f
00000280: 7e65 743f 9ac9 863f fff1 4e3f 152d 813f
00000290: 0952 8e3f 651f 8d3f 9304 793f 86f7 7d3f
000002a0: 3a9f 443f 12c9 4c3f f0bb 7e3f 74f8 663f
000002b0: bfa2 5a3f 97ad 813f 1ba6 833f 6370 873f
000002c0: c9d9 853f 6a39 863f 5047 8d3f 9e26 6c3f
000002d0: 3c61 823f 6cb6 4f3f d144 8b3f 4bde 653f
000002e0: 824e 813f 5e70 6d3f 8565 873f 5360 413f
000002f0: 26ae 813f 756d 733f 70eb 633f b29b 453f
00000300: 3c1b 513f f219 823f 9011 503f a85a 963f
00000310: 26c4 783f 2080 773f 81d4 7c3f 8395 463f
00000320: 4f07 713f c623 5a3f 91e4 5a3f 36d4 4e3f
00000330: dd06 793f 0856 513f 05d0 7e3f 99ef 6c3f
00000340: b7b0 6a3f ae0e 7c3f 76c8 7a3f caeb 533f
00000350: 1986 733f c995 853f 9156 7a3f c308 6a3f
00000360: 1e56 783f 76c5 843f b0f8 533f 265c 4e3f
00000370: 2c79 5e3f 4e5e 773f 465b 4d3f 8777 7c3f
00000380: bb1a 473f 1e20 7f3f aaca 6b3f 9c97 853f
00000390: 0d6a 6b3f 7e56 813f d2b6 823f f827 7b3f
000003a0: f513 873f 2228 873f 899d 673f 05c8 4e3f
000003b0: f3f8 6c3f d8bd 503f df83 703f 725a 983f
000003c0: aab7 7b3f 73cc 493f 1fd1 7b3f f601 823f
000003d0: e67f 723f 7560 623f 0a03 893f 4b9c 713f
000003e0: 8685 823f 5311 6b3f 124a 853f ff62 7a3f
000003f0: c7cb 673f e56a 873f c63d 853f fbbe 603f
0.95213777 0.95056 0.9812954 0.86904603 1.0548053 0.8982456 1.049894 0.8735665
1.0914801 0.9038021 0.8213739 0.8650364 1.0183773 0.9198856 0.7806134 0.9208477
0.9629178 1.0672657 0.9955735 0.9265247 0.9667683 0.87126756 0.9977524 0.9470326
0.9011587 1.0677788 0.7597501 0.96305066 0.8994658 0.9200818 0.8886827 0.9259508
1.0737748 0.7953886 0.94233036 0.9474053 0.8193234 1.0099535 1.1281992 0.95967966
0.95794946 0.79224473 0.929986 0.7429235 1.0677983 0.99431 0.90029585 0.8177684
1.0386328 1.0633694 0.9331477 0.8938923 1.0460461 0.9350651 1.0130817 0.90932465
0.95366186 1.1270211 0.9350525 0.9645397 0.77914965 0.93181807 1.0371537 0.9476244
0.9539409 0.99837 1.015924 0.7891863 1.014576 0.84395945 0.79683125 0.7918314
0.7246043 0.95922357 1.0727662 0.9838402 1.0394752 1.0322037 0.9817019 1.118837
1.0912118 0.9155503 0.96973485 1.061651 0.9537345 1.0476978 0.83778226 1.007113
0.8214579 0.93188757 0.81819713 0.98844635 0.9615735 0.87070143 1.0208628 0.93845904
0.9915932 0.84720075 0.9194227 0.9339872 0.84163785 0.94918793 1.003049 1.0372655
0.87477756 1.0250835 0.7749365 0.97433 0.86383784 1.0010813 0.9187508 1.0042435
0.9741686 1.0497142 0.8090264 1.0230443 0.9120048 0.9079394 0.8505003 1.0176007
1.0126 0.7475723 0.82820785 0.8744201 0.960701 1.0419729 0.9677801 0.9971539
0.9466012 0.90169793 1.0139337 1.046139 1.0055532 0.79235727 0.9285681 1.1651556
1.0879285 0.93392026 1.1481936 0.88441896 0.871952 1.0497364 0.9680252 0.96187615
0.90803653 0.97970253 0.98468214 0.9302295 0.9008483 0.92829275 0.94790626 1.022616
0.9406923 1.0337403 0.83674884 0.8177044 0.8331889 0.917486 0.8552919 0.921657
0.95467365 1.0530274 0.80838007 1.0091883 1.1118785 1.1025206 0.97272605 0.99205816
0.7680546 0.7999431 0.9950552 0.9022286 0.8540458 1.01311 1.0285066 1.0581173
1.0457088 1.0486271 1.1037388 0.92246425 1.0185924 0.8113773 1.0880376 0.8979232
1.0102084 0.92749584 1.0577856 0.75537604 1.0131271 0.95088893 0.89031124 0.771907
0.8168218 1.0164168 0.812768 1.1746416 0.971743 0.9667988 0.98761755 0.77571887
0.9415178 0.85210836 0.85505015 0.8079256 0.972761 0.817719 0.9953616 0.92553097
0.91675895 0.984599 0.9796213 0.8278166 0.9512649 1.0436336 0.9778834 0.9141962
0.97006404 1.037276 0.8280134 0.8060936 0.86903644 0.9662827 0.802174 0.98619884
0.7777516 0.9965838 0.92106116 1.0436893 0.91958696 1.010452 1.0212042 0.9810786
1.0552965 1.0559123 0.90474755 0.80773956 0.92567366 0.8153968 0.9395122 1.1902602
0.98327124 0.7882759 0.9836597 1.0156848 0.9472641 0.8842843 1.0704052 0.9437911
1.0196998 0.9182331 1.041323 0.97807306 0.90545315 1.0579497 1.0409477 0.87791413

bn1.bias f4 [256]
00000000: 9784 82be e00f 63be 4935 32be 63f9 24be
00000010: f072 843a 8ce4 e1bc a583 3fbd dd54 24ba
00000020: b388 0fbe 6ca0 20be bbbd 0d3e 7f29 e3bd
00000030: 1305 e6bd 30a3 7abe 967c 7fbd 2c10 d0bd
00000040: 3bcd cfbc bbcb 2abe 76d7 c2bd 030f 90bd
00000050: 7bab d1bd 4744 45bd 65e4 85be 5540 f1bd
00000060: 5edf e7bd 7782 fbbd 2bc5 d2bd 5f92 92bc
00000070: 79c5 ddbd 1652 86bd 2038 dbbd c36d 12be
00000080: 5f6d 2cbe 5771 803c 9c1b 72bd 74a8 43be
00000090: af83 30be f512 a2bc 5e3d d6bc d4a7 bebd
000000a0: 2c45 10be fdc9 f8bd 6a3a 25be c566 46be
000000b0: 39be fe3c 682d 75be 04b6 6abe 38cc 01be
000000c0: b31d 42be 22f6 98bd 67b0 91be 5784 0bbe
000000d0: db37 1bbe 3729 7bbe 0477 3cbe 3498 8ebc
000000e0: 3dad 1cbe 3733 88bd 4057 4ebe 4d79 51be
000000f0: efca 15be 8934 71be 1d7b 05be 5363 97bd
00000100: 8f26 5abe a9b4 b3bd dfbd 3fbe e1ff 20be
00000110: 8e73 2abe 0f35 8a3d 8aa2 33be 503f 8fbd
00000120: 8d20 42be 3319 55be a2f8 a7be b98b 25bd
00000130: 7c48 53be a362 aebd 4f3c 8fbd e24b 72bd
00000140: ea11 f1bd 1b04 0c3d 2ba7 22be 6855 26be
00000150: 7868 0cbe 0fa9 24be c89e 35bc 3687 e2bd
00000160: 3fd8 6abd a265 5fbe 7723 d3bd 379c 24be
00000170: 2389 26be 9e26 01bd ccf8 d0bd c0d4 7abe
00000180: 8133 8cbd 1bae fbbd 64d1 97bd 9b4d 39be
00000190: ab86 47be b709 a3bd 8b32 0abe 8ae4 36be
000001a0: a767 cf3c 64c7 e4bd c5ec 59be 5d84 00be
000001b0: e2aa 26be 7256 d3bd a902 7ebe e893 8fbd
000001c0: 580f debd f47f 11be 6045 21be 99d2 bbbd
000001d0: 986b b1bd b754 2abe 360b 09be 1b32 843d
000001e0: ada3 53bc 1d85 e5bd 482e 23be 976d 27be
000001f0: 2a2d 92be 28bd 57be 4fc5 91be b940 85bd
00000200: ca9b 01be 8145 d1bd 25a2 f5bd 2739 13be
00000210: e9fc c1bd c0f6 ecbd f568 09be 6303 a0bd
00000220: ea04 b3bd b90f 02be 072e 563c 248b 05bd
00000230: 193f b0bc 81cd 36be 66e9 1abe 4e80 72be
00000240: 6262 e4bd cf23 1fbe 72cf 11be 9afe babd
00000250: 4f20 28be 83a9 cabd 5032 57be 8bd5 35be
00000260: 8afe f9bd 478c 0abe b9a4 10be 7841 483e
00000270: 7852 f6bc 3282 91bd 044f 6fbe b12a 07be
00000280: f465 56be c011 0cbe 84d0 35be 5cdd 46be
00000290: f02b 34be 2762 70bd 425c 11be 7278 84bc
000002a0: 14b6 b73d b1d9 bcbd 5477 1ebe aa62 21be
000002b0: 4d7d c23d 338d 0bbc c88d 83bd 394a 4cbe
000002c0: 5463 e8bd 0471 f0bd 40c0 343d c041 29be
000002d0: 29d9 01be 99e0 c1bd 01a1 8cbd 46de 67be
000002e0: 9bde 32be b196 e3bd 886a 31be c169 4e3e
000002f0: d76b 2abe f3dd 92be a114 acbd 3807 f1bd
00000300: 904f 7fbe afe9 2dbe 8d75 2dbe bd84 613d
00000310: d330 16be 196c 68be e482 09be 52c9 a13c
00000320: 9a5c 3bbe 7f7b 7bbc 0422 fabd 60f7 56bc
00000330: 538b 2fbe c800 6cbb 995d 3abe 853a 27be
00000340: 47d1 a3bd 9cc4 f3bd 1bc3 e8bd 32cc 04be
00000350: 16b5 50be 202e 09be 165a 53be 7956 81bc
00000360: cbcb 1cbe 455f 35be 8518 22be 2db5 ffbb
00000370: be38 70be 0aea cebd 6dff 21be aba6 44be
00000380: 2689 7a3d 6d04 46be 9af5 9cbe 2965 68be
00000390: 7453 23be b769 0bbd 3246 12be 48dc 4dbe
000003a0: f319 dabd 3e19 28be 90fb d3bc 8301 5ebd
000003b0: d1f9 46be 3154 fd3d 91dd 19be 67b2 babc
000003c0: 09fd 49be d083 88bd 74ad 0abe bb40 29bd
000003d0: a9de 85be 7c33 9dbd 312e 95bd 3c46 f2bd
000003e0: 73b9 b5bd 2bbd 2ebe e28b 98bc 3ec4 0cbe
000003f0: f200 f7bd 13d6 dfbd 7380 cebd d870 203e
-0.25491783 -0.22174025 -0.17403139 -0.16110758 0.0010105055 -0.0275748 -0.046756405 -0.0006268749
-0.1401699 -0.15686196 0.13841908 -0.11091899 -0.112314366 -0.24476314 -0.062374674 -0.101593345
-0.025366416 -0.1667928 -0.09513752 -0.07034113 -0.102377854 -0.048160817 -0.26150814 -0.117798485
-0.11321901 -0.122807436 -0.10291513 -0.01789206 -0.108286805 -0.065586254 -0.10704064 -0.14299683
-0.16838597 0.015679045 -0.05910836 -0.19107229 -0.17237733 -0.01978443 -0.026152309 -0.093093544
-0.14088887 -0.12147901 -0.16135564 -0.19375141 0.031096565 -0.23943102 -0.22920996 -0.1267556
-0.18956642 -0.07468821 -0.28454897 -0.13624702 -0.15158026 -0.24527441 -0.18404776 -0.01740656
-0.1530046 -0.066503935 -0.2015047 -0.20456429 -0.14628194 -0.23555197 -0.13035245 -0.073919915
-0.21303771 -0.087746926 -0.18724774 -0.1572261 -0.16645643 0.067484014 -0.17542472 -0.06994498
-0.1895773 -0.20810394 -0.3280688 -0.040416453 -0.2063312 -0.08514907 -0.06993925 -0.0591544
-0.11770995 0.034183603 -0.15884082 -0.16243517 -0.13711727 -0.16080116 -0.01108522 -0.11060946
-0.057335135 -0.21816114 -0.10309499 -0.16075216 -0.16263251 -0.03153097 -0.10203704 -0.2449522
-0.06845761 -0.12289067 -0.07412985 -0.1809601 -0.19484966 -0.07960837 -0.13495843 -0.17860618
0.02531798 -0.11170843 -0.21281727 -0.12550493 -0.16276124 -0.103192225 -0.24805702 -0.07010633
-0.1084277 -0.14208966 -0.1574912 -0.09171028 -0.086631 -0.16633879 -0.13383183 0.06454869
-0.012917441 -0.1120703 -0.15935624 -0.16350399 -0.28550082 -0.21068251 -0.28470847 -0.065064855
-0.12657085 -0.10218335 -0.11993817 -0.1437727 -0.09472067 -0.11570501 -0.13418944 -0.07813146
-0.08741172 -0.1270131 0.013072497 -0.032603398 -0.021514462 -0.17851831 -0.15128097 -0.23681757
-0.111515775 -0.15541004 -0.1423929 -0.09130593 -0.16418575 -0.09895613 -0.21015286 -0.17757241
-0.122067526 -0.13530074 -0.14125337 0.19556224 -0.030068621 -0.07104911 -0.23369986 -0.13199879
-0.2093733 -0.13678646 -0.17755324 -0.1942038 -0.17594886 -0.058687355 -0.1419535 -0.016170714
0.089702755 -0.09221209 -0.15475208 -0.15760294 0.094965555 -0.008517551 -0.06423527 -0.19950189
-0.1134707 -0.11740306 0.044128656 -0.16528988 -0.12680496 -0.09466667 -0.068666466 -0.22643384
-0.1746773 -0.111127265 -0.17325795 0.2015753 -0.166427 -0.2868496 -0.08402372 -0.11768955
-0.24932694 -0.16983674 -0.16939373 0.05505823 -0.14667062 -0.22697486 -0.13428837 0.019749317
-0.18297043 -0.015349268 -0.12213519 -0.013120502 -0.17142992 -0.0036011208 -0.18199767 -0.16330917
-0.07998901 -0.11902735 -0.113653384 -0.1296852 -0.20381579 -0.13396502 -0.20639834 -0.015788304
-0.15312116 -0.17712124 -0.15829666 -0.0078035803 -0.23459145 -0.10103233 -0.15820093 -0.19204204
0.06116595 -0.19337626 -0.3065613 -0.2269484 -0.15949804 -0.034036364 -0.1428459 -0.20103562
-0.10649481 -0.16415879 -0.02587679 -0.05420066 -0.19431235 0.12369574 -0.15025927 -0.022790147
-0.19725432 -0.06665766 -0.1354273 -0.041321497 -0.2614644 -0.076758355 -0.07284201 -0.118298024
-0.08873262 -0.1706435 -0.018621389 -0.13746735 -0.12060727 -0.10929503 -0.100830935 0.15668046

bn1.running_mean f4 [256]
00000000: 3507 933e e67d dcbc 61a7 bebe 3d88 033e
00000010: a035 a9bc 3a1d 19be f973 52bd 13b8 9d3e
00000020: d4c7 62bf 2cd9 19bf 00b1 ce3e 4b9b d9bd
00000030: 62b3 0fbe efd3 ddbd dfdd 9d3f 40f3 bfbe
00000040: b19a 23be 92ac 61bf a051 98be 42b8 b6be
00000050: 68ba 91be 9a4e 443e a5a8 0a3e 5e79 ea3b
00000060: a5ae 803e 9784 553d 78c7 0940 89d2 803e
00000070: e869 f63e 8c6e a9be ef0a 5a3e 8144 57bf
00000080: 7e5f a7bf 7c7a 213f adce 34bf 5b8c d03d
00000090: 3429 8c3e 9e5c 633e 0988 823e 2f17 97be
000000a0: aac6 7bbe b7db c13f 1210 c0bd bea5 72be
000000b0: a1d9 76be 0b90 88bd 5a56 5c3d d0d7 e1bd
000000c0: a1bf 19bf 9011 72bf e5d3 193e 5dcf e7be
000000d0: 55e6 54bf 1677 02bf c0b1 773e 6293 aebe
000000e0: 9f5a 7abd 7f36 15be 8f61 7ebe e68d 79bf
000000f0: b422 633e f16e 1b3e a2d6 04be 99da 1dbf
00000100: 296a 4d3e af6c 4cbf eecc 3abf d3aa e83f
00000110: 1e39 22bf 6419 bebd 2e9b 9ebe 7484 2b3f
00000120: 7872 d13f 8b9b 18bf e807 d3bd 7762 60be
00000130: c02e 5abe 391b 3e3d 17ef e83d 4216 d3be
00000140: 0c5a 993e b571 9dbe 832e c0bd df6c aebf
00000150: 9f06 a8be d3c6 59bf 86eb 143f 184a 17bf
00000160: 09bc e9be 4ed1 87be dd39 3a3f 2cb6 1bbf
00000170: 5bda 11bf a223 87bd cc2f 5ebc c2e5 963d
00000180: 5430 85be c0bf 8cbd d261 31bf 621a f4bd
00000190: f05e efbd e2fb 90bd fb50 5fbf 6684 5fbe
000001a0: a83f 7fbc 0d17 69bf 58aa 2a40 4ab7 42bf
000001b0: 6a5c 1abf 86eb 37bf 8f1d d6bb d21d 6cbf
000001c0: 9992 20bf 5ae5 253d c4dc 293f 39df b73d
000001d0: 0ac8 c0bd e1df 6cbe 3642 563f b546 3a3e
000001e0: 9db4 92bd bbac 0340 0d5a 523f b9f5 e53c
000001f0: a002 ab3e 05f9 9fbf 3ce3 3d3e 3194 03be
00000200: eec2 863e 94c6 97be 131b 5bbe ca51 04bf
00000210: 583f 47bf 5527 813f fe0a 953e 100b 5ebe
00000220: d063 0abf 9edf 91be 78ce 0a3e 8f9d 973e
00000230: 6f13 763c a039 88bf 73e0 15bf 309b 85bf
00000240: 7a9c f5bd 70c1 9abe 5098 c5be a795 50be
00000250: 8d2e d6be 48d6 b43e 0ce7 abbe 2a6b 09be
00000260: ee23 35bd 4acc 16bf c2ea 153f 45e9 2b3f
00000270: a4a9 dcbe 1a4e 15bf 9656 2c3e ef28 e2bc
00000280: 4f04 32bd b763 47be bad4 1040 083e 97bf
00000290: aba2 92bf ec15 d7be 369f bcbe 3c4c 283e
000002a0: a9f1 a23f 221a f33f fad4 b3be 06dd aebe
000002b0: 8c4f 903e 58e3 b8be d0ab 7abf 83dd 17be
000002c0: cefa cbbe ec6a 16bf 0f30 92be 1c7c 33bf
000002d0: 5556 14bf c707 843f 5cd4 dfba cec1 733d
000002e0: 227c 25bf a2bf 01be 1301 babe c4fc 9b3f
000002f0: 2bfa 46bf 3202 083e 1a7c efbe 3408 ce3f
00000300: ed11 103e 76ad 72bf a0fe 123a b8ea 83be
00000310: 8398 35bf 2f23 993e 8804 d7be c6b6 2e3f
00000320: b3f3 21bf 5ec4 f6be da2b 2c3f 66bb 1b3f
00000330: 1626 6abe f1ab 4c3f 0d73 61be ac83 e9be
00000340: 4b86 55be 8930 96be 09aa 99be ce6b b53e
00000350: 2f4d b23e 6ec5 a1bf 88f9 2c3d 6823 9cbd
00000360: 041e 65bd 7c69 20be 9007 1d3f dced 1e3f
00000370: 043d 52be d822 0ebf 2036 873f db24 2bbf
00000380: 2bc3 dd3f a59b 203e 93c3 63be c141 0abf
00000390: f61a 69bf e528 c3be f3a8 96bf ceba c0bd
000003a0: 8c7b 62bf 678e 4cbf 1f2f b5be 6702 f5be
000003b0: 901c 89bd ca4f 753e ab08 c9be 12ff 213e
000003c0: f3ae 0c3e 2c52 0340 8aa2 0cbf c254 b0be
000003d0: c9cb 8b3e 81da 793d 1969 5cbe fe08 93bd
000003e0: eb1d 77be 9376 ff3d 4533 983c e1f9 93bf
000003f0: 761b cdbd d6f0 463e 6f33 19bf aeaa e83e
0.28716436 -0.026915502 -0.37237075 0.1284494 -0.020655453 -0.14952555 -0.05138013 0.308045
-0.88586164 -0.60097003 0.40369415 -0.10625323 -0.14033273 -0.10831439 1.2333335 -0.37490273
-0.15976979 -0.88153946 -0.29749775 -0.35687453 -0.2846253 0.19170609 0.13540895 0.0071555814
0.25133243 0.0521284 2.1527996 0.25160626 0.48127675 -0.33092153 0.21293233 -0.84088904
-1.3076017 0.6307752 -0.7062786 0.10183021 0.27375185 0.222033 0.25494412 -0.29509875
-0.24587503 1.5145177 -0.09378065 -0.23696038 -0.24106456 -0.06668099 0.05379329 -0.11027491
-0.6005803 -0.9455805 0.15022238 -0.45275393 -0.8316396 -0.5096296 0.241889 -0.3409682
-0.06112158 -0.1457157 -0.24841903 -0.97482145 0.22181207 0.1517904 -0.12972501 -0.6166168
0.20060028 -0.7985334 -0.7296895 1.8177131 -0.63368404 -0.092821866 -0.30977768 0.6699898
1.6363058 -0.5961234 -0.10304242 -0.21912561 -0.21306896 0.04641268 0.11373728 -0.4122792
0.29951513 -0.30750814 -0.093838714 -1.3626975 -0.32817551 -0.85069007 0.5817188 -0.59097433
-0.45651272 -0.26526874 0.7274454 -0.6082485 -0.5697381 -0.06598593 -0.0135612 0.073680416
-0.26013434 -0.06872511 -0.69289887 -0.119190946 -0.1168803 -0.07079293 -0.8723294 -0.2182785
-0.015579142 -0.910508 2.666647 -0.76060927 -0.6029726 -0.71843755 -0.0065342854 -0.92233
-0.6272369 0.04050193 0.66352487 0.08978123 -0.094131544 -0.23132278 0.8369478 0.18191035
-0.071633555 2.0574176 0.82168657 0.028071271 0.3340044 -1.249787 0.18543714 -0.128495
0.26320595 -0.2964369 -0.21397047 -0.516873 -0.7783103 1.0090128 0.2910995 -0.21683908
-0.5405855 -0.2849092 0.13555324 0.29612395 0.015019282 -1.0642586 -0.5854561 -1.0437984
-0.11992736 -0.30225706 -0.38592768 -0.20369588 -0.4183239 0.35319734 -0.33574712 -0.13419786
-0.04422372 -0.5890547 0.58561337 0.67152816 -0.43098176 -0.583223 0.16829905 -0.02760741
-0.04346114 -0.19471632 2.2629838 -1.1815805 -1.1455892 -0.42008913 -0.36840218 0.16435331
1.2729999 1.899235 -0.35123426 -0.34153003 0.2818569 -0.3611095 -0.97918415 -0.14830594
-0.39839786 -0.587569 -0.2855229 -0.7011125 -0.5794423 1.0314873 -0.0017076838 0.059511
-0.64642537 -0.12670758 -0.36328945 1.2186513 -0.77725476 0.13282087 -0.4677437 1.6096253
0.14069338 -0.9479593 0.00056074 -0.25765014 -0.7093584 0.29909655 -0.41995645 0.6824764
-0.6326248 -0.4819669 0.6725441 0.6083282 -0.22866091 0.7994986 -0.22016545 -0.4560827
-0.2085201 -0.29333904 -0.3001254 0.3543381 0.3482451 -1.2638376 0.04223016 -0.07623941
-0.05593683 -0.15665239 0.61339664 0.62081695 -0.20531088 -0.5552192 1.0563393 -0.6685311
1.7325186 0.15684374 -0.22242574 -0.5400658 -0.91056764 -0.38117138 -1.1770309 -0.0941063
-0.8846977 -0.7990479 -0.35387513 -0.47853395 -0.06694901 0.23956218 -0.39264426 0.15819958
0.13738613 2.0518904 -0.54935515 -0.34439665 0.27303913 0.060999397 -0.21524467 -0.071794495
-0.24132507 0.12473788 0.018579135 -1.1560632 -0.100150034 0.19427809 -0.59844106 0.45442718

bn1.running_var f4 [256]
00000000: 9052 8c3e a32c 1740 bd8e cf40 7d3f 6641
00000010: aefa a33e cca7 6c40 4199 643e d18b 8140
00000020: 56b3 ce41 b2a7 db40 a247 fd40 3ebc 4b41
00000030: 42dc 8240 2fed 6640 61cc b841 50c0 1740
00000040: a61f 443f bfcd 4941 a4d6 ce40 7c55 2641
00000050: 06c0 1c3f 8f33 6140 4ff7 a83e a2c7 af3f
00000060: 2e64 2b3f c894 2a3e c64f 2342 d264 963e
00000070: e6e1 8241 d82f 3941 6e58 f840 de4c 0341
00000080: 1466 dd41 409e ac41 a0ab cf41 75f5 1e41
00000090: 4f38 6941 7953 a73e 1864 563e de28 1340
000000a0: 3697 b140 8f08 3142 8d8a 2241 2112 2342
000000b0: 02e7 363e b13b 333e 36dd 853e 7a19 c441
000000c0: e9f0 0841 0e7f 4241 7946 4e3f ac61 9140
000000d0: 6994 3b41 62da 2241 0788 493e 622f 5d41
000000e0: faed 833e fd96 593e d3a9 2c3e 9e34 0142
000000f0: 59a1 2c42 509f 0c3f 837e c83e 11d7 6040
00000100: 3735 373f 1016 4d41 e89c e041 0891 1b42
00000110: 8e23 4e40 caac 1041 c603 0942 1c65 1741
00000120: 0c5a 7242 40fa 8040 c845 8f3e 3090 b340
00000130: 4d4a cf3e d4be 313e 9784 5b40 7675 943f
00000140: 38e8 5f3e af06 4041 4af3 293f d118 f241
00000150: 1f20 e03f a4d5 8741 c803 6841 a467 3f41
00000160: 7370 0c41 6147 143f cc33 5141 597e ca40
00000170: 6972 4440 c8ed 973f 5acb a03e c371 7a3e
00000180: 82b4 2341 68a7 a83f 9421 3a41 0c5a 6240
00000190: e3a7 5c40 7c64 2341 e7ff 0e41 e975 623e
000001a0: f0d2 9a41 322e cc41 ada9 a142 daae e440
000001b0: 72bc 5242 3cac 0941 0e62 d93e 4a80 7841
000001c0: 91a1 ea40 eb30 0140 30e5 3241 4ea3 743e
000001d0: 082c 6940 7c8e e23f 253b b441 bed8 8441
000001e0: 581c 723e 959e 8842 e4dc 8841 74e5 8140
000001f0: 6f3c 093f a3c5 1142 98aa ab3e bab3 e23f
00000200: 53ba 2b40 968c a740 5f55 4041 1ede f140
00000210: da78 6141 0b21 a341 1dab 393e 3267 473e
00000220: 0cbd 1941 4279 4540 8ac4 423e 8be0 cf3e
00000230: 7390 3741 ca3a 6341 ea81 d140 d5db f541
00000240: ef9f 4541 7961 b83f 8d67 dc40 9a67 b340
00000250: 5ba0 7f3f ab35 da3e fb3c e840 d9b7 203e
00000260: 80e1 d53e 6547 5640 37df 7141 e7e0 1742
00000270: 8421 b941 86a8 bd40 c472 3841 db49 f340
00000280: e15c b540 3313 153f 4fb7 3a42 cd4a 1942
00000290: 932c d041 3fef 5041 6034 5540 7dc6 283e
000002a0: 162b 1942 cc43 2642 5d3f 9540 d5eb 1e41
000002b0: d104 1240 d98e ac40 cc8c b141 c21e 043e
000002c0: aabc 8e3f 4809 b540 bfe5 1d3e 2928 c440
000002d0: e7bf 9a40 b58f f641 dccc 883e 2d33 bf3e
000002e0: cc2f b240 ca38 e740 35bf 9140 6239 9c41
000002f0: d0a0 cf40 907f 803e d83a 2841 372a d941
00000300: 6407 5840 e542 4741 06a7 a540 47c4 383e
00000310: a4f8 3b40 b6ee 6d3e f614 9d41 4d93 7c41
00000320: 633d 8f40 d688 2342 3e16 9741 c8e7 eb40
00000330: e4ff 823f 920b 9d41 e4db 9940 02cd 4041
00000340: 2083 0540 6a76 c240 75f7 1840 83d1 d141
00000350: c616 893f 7813 0642 3ea7 603e 1b9c de3e
00000360: 676a 0b40 29b9 6b40 3e2f a641 c0f2 fc40
00000370: b1b9 923e 621e d840 3054 f941 adf0 1441
00000380: 34ea 5242 d151 263f 6abb 8a3f a22e 4d41
00000390: 1fe1 2f41 fc29 ba40 0117 6f41 24c2 e13e
000003a0: d190 4941 349b 6541 7c72 2540 c781 de41
000003b0: f4a5 9e40 8bcb 1641 9c6d b540 265d c13d
000003c0: ffc2 d13e dd88 1d42 813c 4f41 ca1f 1a41
000003d0: 5977 7a3e b9ef 3840 155d 683e 69e3 9640
000003e0: fa7c af40 43ad a23f 4a0b 3a3e 0a19 c841
000003f0: df96 4a40 053e 653e db83 4641 547e f540
0.2740674 2.3620994 6.486174 14.3905 0.3202719 3.6977415 0.22324087 4.0483174
25.837566 6.8642206 7.9149942 12.733458 4.089387 3.6082265 23.099794 2.3711128
0.7661079 12.612731 6.4637012 10.39587 0.61230505 3.518772 0.3300118 1.3732798
0.6694974 0.16658318 40.827904 0.29373795 16.360302 11.574181 7.7607946 8.206266
27.674843 21.57727 25.958801 9.934926 14.576247 0.32680872 0.2093662 2.2993693
5.5497084 44.258358 10.158826 40.767704 0.1786156 0.17503239 0.26145333 24.51244
8.558816 12.156019 0.8057628 4.543173 11.723733 10.178316 0.19680797 13.824068
0.257675 0.21249004 0.16861658 32.301384 43.157566 0.5493059 0.3915902 3.5131266
0.71565574 12.817886 28.076614 38.891632 3.22092 9.042185 34.253685 9.462185
60.587936 4.030548 0.27982926 5.611351 0.40486374 0.17357951 3.4299676 1.1598346
0.21865928 12.001632 0.66386855 30.262117 1.7509803 16.979317 14.500923 11.962803
8.777453 0.57921416 13.075146 6.3279233 3.069483 1.186944 0.31405145 0.24457459
10.231569 1.3176088 11.633198 3.536746 3.447747 10.212032 8.937476 0.22115292
19.352997 25.522556 80.8314 7.146344 52.68403 8.604549 0.42457622 15.531321
7.3322225 2.0186107 11.180954 0.23890421 3.6433125 1.7699733 22.52888 16.605831
0.23643625 68.30973 17.107857 4.0592594 0.5360784 36.443005 0.3352859 1.7711098
2.6832473 5.2359114 12.020843 7.558364 14.092005 20.391134 0.18131681 0.1947296
9.608654 3.085526 0.19020286 0.40601 11.472766 14.201853 6.5471087 30.73234
12.351546 1.4404746 6.8876405 5.6063967 0.9985406 0.4261907 7.257444 0.15695132
0.41773605 3.3481076 15.116996 37.96963 23.141365 5.9268217 11.528019 7.6027656
5.6675878 0.5823242 46.679012 38.323048 26.021765 13.05841 3.3313217 0.16481967
38.292076 41.566208 4.663985 9.932576 2.281544 5.3924375 22.193748 0.12902358
1.1151326 5.657383 0.15419672 6.1299024 4.8359256 30.82017 0.26718795 0.37343732
5.5683346 7.2256823 4.5545907 19.528019 6.4883804 0.25097322 10.514366 27.145613
3.375451 12.453832 5.1766386 0.18043624 2.9370508 0.23235592 19.635235 15.785962
4.4762435 40.88363 18.88586 7.3720436 1.0234342 19.63065 4.808092 12.050051
2.0861282 6.076955 2.3901036 26.2273 1.0710075 33.519012 0.21938798 0.43478474
2.1783693 3.6831763 20.773067 7.9046326 0.28657296 6.753709 31.166107 9.308759
52.728714 0.6496859 1.0838444 12.823885 10.992461 5.817625 14.943116 0.4409343
12.597856 14.350391 2.5851126 27.813368 4.957758 9.424693 5.66963 0.09441595
0.40969083 39.383656 12.952271 9.632761 0.2445959 2.8896315 0.22691758 4.71526
5.484006 1.2709125 0.18168369 25.012226 3.1654584 0.2238694 12.407191 7.671671

fc2.weight f4 [128, 256]
00000000: 8998 0bbd cd38 1cbd e12c eebd d55b 96bc
00000010: 51be 2e3d 2eea 38bc 5fbb 30bc ca5e 76bc
00000020: 9c30 a73d 8128 133c 68ca 17bc 123c 043c
00000030: 922c 2e3c 6c3c 573d 235e 7cbd 9e14 443c
00000040: a345 4fbb 43f2 1e3d 8d11 233d 782c 38bc
00000050: 81c3 82bd 306c f93c d5c0 1f3d 00f5 4d3d
00000060: 3e15 7d3c f083 ee3c 95e2 43bd 26f3 723c
00000070: 5191 45bd 1c4c ecbc cc74 fabc 2481 aabc
00000080: 2476 fb3c ab58 56bd bd53 0f3d 8eb7 383c
00000090: 2071 51bd 54e2 b6bd a87d a63c 691b 44bc
000000a0: d04d af3d 8cc7 6fbd ee87 38bd b8ba a43c
000000b0: 028b 05bc 4651 a23c 48a8 1e3d 133d 86bd
000000c0: 82f6 993c 5c0a 723c ee94 4f3c e063 65bd
000000d0: cc6b a03c ee8e 28bd 8dd0 e8bd 56c3 30bd
000000e0: 06ce 97bc 108f 03bd 752d 96bb 6132 32bd
000000f0: bac1 a0bd 17b6 ec3a bc5f 91bc ff81 34bd
00000100: 8457 003d e816 9c3d a7ae 083d 0bcb 5fbc
00000110: c7ad 76bd a5fa 0fbb 6edc a63c 2b43 19bd
00000120: ca6c 13bc 6501 98bd 2071 033d e216 4b3d
00000130: 7258 413d 851a 18bd 3fc2 2b3b 5642 233d
00000140: d720 5cbd eede 04bd 8e5d 7a3c 9416 5e3d
00000150: 147c 9f3d d5fc 833d 6479 bfbb f5f9 7f3d
00000160: f3e7 2a3a 56ec 243d 73f9 95bc 43fd 6a3c
00000170: 3861 8d3d 25d2 9bbd 5422 a2bd 0203 8d3d
00000180: c5ac f53d 25dd 0bbc 32f8 ea3a 8034 86bd
00000190: ef05 963d 7c91 8abd 55d1 d6bd 3511 e1ba
000001a0: 1ae7 2b3c 02e0 43bc a698 833b 8765 8dbd
000001b0: c0db c439 640b 973d 839b adbc 4849 a2bc
000001c0: 542f 163d 2135 a53d 4553 b7bc cd4b 4d3c
000001d0: 3016 b53d 7eff a93d 7fe4 aa3b 7787 6ebd
000001e0: 3793 aabb b05b 6abb 928f 9dbb 3e40 5f3d
000001f0: e76d f73c f7f0 7abd 019e ea3c fef5 3dbb
00000200: 65b2 683c ccfc 913c 4a4d 913c c9ea 903d
00000210: 1b94 303d a2db 233c 0ee1 5fbc 5cce 0bbd
00000220: ef36 a3bc 519c 6f3d bac9 69bd a916 a9bd
00000230: f22e 0e3d 7323 55bd 53cd 743d 4b26 e1bc
00000240: a891 22bd cc5c d838 548f f3bd 5bfa f5bc
00000250: 2061 4f3d 71f0 993c cc9b acbd 8455 ab3d
00000260: b414 78bd 0322 ce3c 80b9 93bc f683 5f3c
00000270: da93 3c3d 7b8e 703d fc7c 48bd 1b7c bbbc
00000280: 0ee2 753c afeb 273a ccac 723c 119b afbc
00000290: 4ca6 77bd d13e 823c ea79 d43c 9954 1f3c
000002a0: 0ab0 8abc 7a6d 77bd 4b5d 973d da7b 93bc
000002b0: 0538 f93c c3ff a13d e267 3e3d cba4 b3bd
000002c0: 44d5 64bc 45f6 043c ce7c cbbc a133 6d3d
000002d0: 986e fa3d ffd0 89bd 7845 21bc 2a58 12bb
000002e0: c5ee bbbd 3182 debc 4c33 243c c4b1 afbc
000002f0: 65c4 70bd 1940 04bc b8de adbc 37bd 03bd
00000300: 0122 b9bc e361 57bd 68c6 a2bd dddc 58bc
00000310: e8be cdbd e0ed bc3a 3bba 8e3c f3ee 61bd
00000320: 1539 473d 4c1c 2d3d 358f 7ebd a13e d4bc
00000330: 4ab5 24bd db5a 77bc 839b 073c b532 56bc
00000340: 684e 2e3d 1577 89bb 75b8 283d 0484 4abd
00000350: 37a2 ef3c b62e 753d 2229 133b 88aa ecbc
00000360: bdf3 be3d 2a20 c23d 0e21 86bb 4f10 4ebd
00000370: 8b6c 113d 060c 92bd 5fdb 953c 11f8 cbbc
00000380: b2a1 a4bc 938f 493d 954e 12bc 390f a6bc
00000390: 9d80 b5bd 562d c0bd c984 87bd 0b53 763d
000003a0: 420e f23c 98dc b63d 746d b73c ae1b e8bb
000003b0: c3b0 45ba 2803 0a3c 84ed 263d dcf5 64bd
000003c0: 3a4d 433c 7270 15bd 6b61 b1bc cecc 5d3d
000003d0: d1f4 0b3d 58eb b8bd 45aa c5bb 6cb3 08be
000003e0: decd 443d 662f 973d 49ab 6dbd 464d aa3c
000003f0: 7bf9 443d f75d 8ebb 09b5 503d ab1d b5bd
-0.034081016 -0.038140107 -0.11629654 -0.018354336 0.04266197 -0.011286302 -0.01078686 -0.015037248
0.081635684 0.008981825 -0.009264566 0.0080709625 0.010630744 0.052547857 -0.061613213 0.011967806
-0.00316272 0.038805258 0.03981166 -0.011241071 -0.06384946 0.030447096 0.03900226 0.05028248
0.015446959 0.029115647 -0.047823507 0.014828479 -0.048234288 -0.028844886 -0.030573271 -0.020813532
0.030695982 -0.052330654 0.03499197 0.011274232 -0.051133275 -0.089298874 0.02032359 -0.011969426
0.085597634 -0.058539912 -0.045051508 0.020108566 -0.008150818 0.019814145 0.038734704 -0.06554618
0.018794302 0.014772978 0.012669785 -0.05600345 0.019582652 -0.041151933 -0.11367903 -0.043155037
-0.018530857 -0.032118857 -0.0045830556 -0.043505076 -0.078494504 0.0018059638 -0.017745845 -0.044069286
0.03133346 0.076215565 0.033369686 -0.013659249 -0.06022432 -0.0021969464 0.020368781 -0.037417572
-0.008998105 -0.07422141 0.032090306 0.04958237 0.04720349 -0.037134666 0.002620831 0.039858185
-0.053742256 -0.032439165 0.015281094 0.05422075 0.07787338 0.06444708 -0.0058433283 0.062494237
0.00065195485 0.04026445 -0.018307423 0.014342609 0.06903309 -0.07608441 -0.07916704 0.06885339
0.11995844 -0.008536612 0.0017926751 -0.06552982 0.073253505 -0.0676603 -0.10489146 -0.0017171266
0.010492111 -0.011955263 0.004016 -0.069041304 0.0003754776 0.073752195 -0.021192318 -0.019810334
0.03666623 0.08066774 -0.022378573 0.012530279 0.088421226 0.083006844 0.005215227 -0.058234658
-0.0052055377 -0.0035760216 -0.0048083747 0.054504625 0.030203773 -0.06126496 0.028639795 -0.0028985734
0.014202689 0.017820738 0.01773705 0.07076032 0.043109994 0.010001095 -0.013664497 -0.034132347
-0.019923655 0.058498684 -0.057077147 -0.08256275 0.03471274 -0.05203576 0.059766125 -0.02748408
-0.03968969 0.000103169674 -0.11892572 -0.030026605 0.050629735 0.01879141 -0.084281534 0.0836592
-0.06056662 0.025162702 -0.01803279 0.013642302 0.04603944 0.05872963 -0.04894732 -0.022886327
0.015007509 0.0006405664 0.014811706 -0.021436246 -0.060461327 0.015899094 0.02593704 0.0097247595
-0.016929645 -0.06040714 0.07390841 -0.018003393 0.03042222 0.07910111 0.04648579 -0.08771666
-0.013966862 0.008115356 -0.024839785 0.057910565 0.12228125 -0.06729316 -0.009843223 -0.0022330382
-0.09176401 -0.02716169 0.010021996 -0.02144707 -0.058781046 -0.008071923 -0.021224365 -0.03216287
-0.022599222 -0.052583586 -0.07947999 -0.013236252 -0.10046178 0.0014414154 0.017422786 -0.05515952
0.048638422 0.042263314 -0.06214829 -0.02590877 -0.040211953 -0.015097345 0.008276823 -0.013073613
0.042555243 -0.004195104 0.041191537 -0.049442306 0.029252155 0.059859 0.0022454937 -0.02888991
0.09323833 0.09478791 -0.004093296 -0.05030852 0.035503905 -0.071311995 0.01829308 -0.02489856
-0.020096634 0.04920919 -0.008929868 -0.02027093 -0.08862422 -0.09383647 -0.06617124 0.06013779
0.029547814 0.08928794 0.022391059 -0.007083378 -0.0007541293 0.008423604 0.040753856 -0.055898532
0.011920268 -0.03648419 -0.021652898 0.054150395 0.034169022 -0.09029263 -0.0060322606 -0.13349694
0.048047893 0.073820874 -0.05802468 0.0207888 0.048089486 -0.0043446976 0.0509539 -0.08843549

fc2.bias f4 [128]
00000000: becc cb3b 1e2b 2ebd d8ad 413c a96d 08bd
00000010: c2fc b43c ff9b 833c 1ac1 afba 27ca 4b3d
00000020: dc29 363d ed3b 673d 151d d83c d458 6ebb
00000030: d678 303d e087 19bd 707a 593c 3712 053c
00000040: c253 00bd 7296 423d 2b75 a5bc 4f7c d53c
00000050: f1b5 6b3d fb3c 6c3a e57b 143d 27b3 773d
00000060: 9ce0 c13c 3077 b43c 3f33 57bd dcff 7bbd
00000070: 7ed8 df3c e77c 003d 6b24 1a3d 78f7 753d
00000080: b35a 4dbd bdb9 cd3b 113f 8cbc a53d 663d
00000090: 11cf 24bd e454 393c 95ce 393b a1f4 bcbc
000000a0: 4737 263b 06c9 47bc fc76 453c 5f43 753c
000000b0: c286 70bc 8ea0 98ba 3a76 3e3d 0310 2d3d
000000c0: a91b 7a3c 6257 60bc 3e9f fcbc 97ba 27bc
000000d0: e575 4ebd 76da f03b d8d4 703d a167 68bd
000000e0: 99af a7bc 7f49 fabc 3fe4 49bd 95d7 ad3b
000000f0: f041 923c c86f 513b 9806 57bd d145 b2bc
00000100: a2be 51bd 11a3 143d d173 153d df1c cd39
00000110: 0e2d 76bd 9f25 203c c374 8d3c cd83 28bd
00000120: 4164 ef3c 7435 8abc bfe0 353c ac22 803d
00000130: b9c3 13bc db00 10bd be7b 6cbb 12db 433d
00000140: c2e3 413b b13b 23bd 123a 09bc 366a 12bd
00000150: 2f0d 16bd f74f 69bd cab1 393d 0a76 15bc
00000160: 6b07 08bd 2e20 66bd 47c6 29bd 8419 80bd
00000170: 1f1b 3b3d 6797 673d 2c7b 39bc 0450 83bc
00000180: 88e3 323d 4691 a9bb e469 223d ca21 62bd
00000190: 0c6e f1bc 09ed 8fbc bf6e 103b ecea e93c
000001a0: 8a24 26bc 65bc 463d 6799 a6bc 18ee 263d
000001b0: 91f5 583c c6d7 cbbc 650f 76bc e444 213d
000001c0: a285 df3c 3e05 3cbd ff96 733d 451e f1bb
000001d0: ed5d 54bc f13c 52bd de6e 34bd acf2 46bd
000001e0: 0f49 a4bc cb52 2e3d f35a a4bc 2e06 31bd
000001f0: 654f 253d b264 7cbd b183 42bb 1705 233d
0.0062194755 -0.04252159 0.011821233 -0.033307705 0.02209318 0.016065596 -0.0013408989 0.049753334
0.044473514 0.056453634 0.026381055 -0.0036368864 0.043083988 -0.037483096 0.01327382 0.008122019
-0.031329878 0.047506757 -0.020197472 0.026060252 0.05754656 0.00090117723 0.036250968 0.060473587
0.023666672 0.02202949 -0.052539106 -0.061523303 0.027324911 0.031369116 0.037632387 0.060050458
-0.050135326 0.0062782452 -0.017119916 0.056211133 -0.040236536 0.011311743 0.0028351892 -0.023065867
0.0025362538 -0.012193924 0.012052294 0.014969676 -0.014680566 -0.0011644529 0.04649947 0.042251598
0.015265384 -0.013692709 -0.030837651 -0.010237358 -0.0504054 0.0073502613 0.058796734 -0.056739453
-0.020469474 -0.030552624 -0.049289938 0.0053052404 0.017853707 0.0031957496 -0.052496523 -0.021761807
-0.051207192 0.036288325 0.036487404 0.00039122158 -0.06010156 0.009774595 0.01726759 -0.04114132
0.02922261 -0.016871192 0.011100947 0.06256613 -0.009018832 -0.035157066 -0.0036084498 0.047816344
0.0029585217 -0.039851848 -0.008375661 -0.035745822 -0.036633667 -0.056961026 0.04533557 -0.009122381
-0.0332102 -0.056183033 -0.041448858 -0.06254867 0.04568016 0.056540873 -0.01132087 -0.016029365
0.043674022 -0.0051747886 0.039651766 -0.055208005 -0.02947142 -0.017569082 0.0022038666 0.028554402
-0.0101405475 0.04851951 -0.02033682 0.040754408 0.013242141 -0.024883162 -0.015018319 0.03937234
0.0272854 -0.045903437 0.059470173 -0.0073583447 -0.012961847 -0.05132765 -0.044051044 -0.048571274
-0.020054368 0.042559426 -0.0200629 -0.043218784 0.04035892 -0.061619468 -0.0029680545 0.039799776

bn2.weight f4 [128]
00000000: 75fd 6d3f abc8 623f 5a2c 763f 1c63 823f
00000010: cb03 6c3f bd7b 713f c441 743f 77c1 6e3f
00000020: 6820 823f a109 733f 913d 713f 9fed 743f
00000030: f07a 813f cf5f 763f 9c79 623f b4ff 713f
00000040: bdcb 823f 9d5c 813f f35a 773f 996a 5f3f
00000050: 6472 5f3f 7158 653f 3b4b 713f 568f 693f
00000060: a7d8 753f ee49 813f 1729 773f 56ee 5a3f
00000070: 5e02 803f 36bb 7a3f 6429 723f 90d9 5c3f
00000080: 8ff4 703f 5539 6f3f d1bd 683f 0e2d 613f
00000090: 6810 673f f280 673f 5338 823f 6d8f 823f
000000a0: 69b7 673f 11b1 6b3f f496 5f3f 1947 643f
000000b0: caea 6e3f 6366 6a3f e61f 813f e841 6e3f
000000c0: b361 743f 0161 703f ded8 613f 1092 813f
000000d0: 26f9 673f a801 853f b525 733f ca2e 863f
000000e0: 0524 773f 792d 623f 789d 863f e40d 6b3f
000000f0: dfa2 7f3f 001f 853f 1e50 6f3f 4342 6c3f
00000100: d36e 773f 18ef 733f fcf0 813f 85e2 663f
00000110: 7f2e 7f3f 461e 6b3f 8fe4 7b3f 68fc 7f3f
00000120: 9fdc 723f 7345 633f 89f6 6e3f b35e 763f
00000130: 54df 7e3f 5876 6e3f ed31 863f 3d4a 723f
00000140: 3bf8 673f 671c 633f 7a9b 703f 6b2e 773f
00000150: 8815 803f 9f70 7d3f 786d 673f 2610 743f
00000160: a9d5 633f c8e9 673f 475b 6b3f c66e 633f
00000170: c987 6f3f 6902 5c3f acf9 753f b9ff 6c3f
00000180: 19fa 813f c3aa 693f 40ae 743f dbfd 783f
00000190: f685 803f 7059 623f 3fdd 6a3f 9ab6 653f
000001a0: 9f45 5b3f b717 843f 7374 663f eda4 643f
000001b0: a206 6a3f f6c9 653f a435 5d3f fd16 753f
000001c0: f624 6f3f fa84 613f 34d3 703f f6a4 693f
000001d0: 2c77 6b3f 7002 643f de37 7c3f 1bad 6b3f
000001e0: bc71 7f3f 814d 7f3f 00ef 713f 5332 653f
000001f0: 765d 6c3f b372 7b3f b81a 8c3f 86ae 683f
0.9296487 0.88587445 0.96161425 1.0186496 0.9219329 0.94329435 0.9541285 0.93263954
1.016614 0.9493657 0.9423457 0.9567508 1.0115643 0.9623994 0.8846681 0.94530797
1.0218426 1.0106388 0.9662315 0.8727203 0.8728392 0.89588076 0.9425542 0.9123434
0.9603371 1.0100687 0.96547073 0.8551992 1.0000722 0.9794191 0.9459441 0.86269474
0.94123167 0.93446857 0.90914637 0.87959373 0.9025941 0.9043113 1.0173439 1.020002
0.90514237 0.92067057 0.8733971 0.89170986 0.9332701 0.9156248 1.008786 0.93069315
0.9546158 0.93898016 0.8822154 1.01227 0.90614545 1.039113 0.9497941 1.0483029
0.96539336 0.88350636 1.0516806 0.9181807 0.99857897 1.0400085 0.93481624 0.9228861
0.9665348 0.95286703 1.0151668 0.9018939 0.9968032 0.9184307 0.9839563 0.99994516
0.9486789 0.88777846 0.9334493 0.9623825 0.9955952 0.9314933 1.0483986 0.9464453
0.90613145 0.88715214 0.9398724 0.96555203 1.0006571 0.9899997 0.9040141 0.9533714
0.88997895 0.90591097 0.91936153 0.888409 0.93566567 0.8594118 0.96084094 0.925777
1.0154449 0.91276187 0.95578384 0.9726235 1.0040882 0.8841772 0.91743845 0.8973175
0.8565311 1.0319737 0.9002144 0.89314157 0.9141637 0.8976129 0.86409974 0.957382
0.9341577 0.8809353 0.9407227 0.91267335 0.91978717 0.8906622 0.98522747 0.92061013
0.9978292 0.99727637 0.9450531 0.89529914 0.9233011 0.9822189 1.0945654 0.908913
