DNN/dnnsmall/models/best_model.pt (torch, 748853 bytes, 26 tensors)

fc1.weight f4 [512, 14]
0	0x3dd79b1a	0.1052763
1	0x3d70b8b5	0.0587699
2	0x3e32f475	0.17476065
3	0x3e85eb22	0.26155955
4	0xbd9834ec	-0.07431969
5	0xbd59b9ac	-0.053155586
6	0xbc96873a	-0.018375028
7	0xbe41191a	-0.18857232
8	0x3e040526	0.12892589
9	0xbd61f7b5	-0.055167872
10	0xbc2eb624	-0.010663543
11	0x3aa895e3	0.0012862053
12	0xbe6ea887	-0.23306476
13	0xbdc3aa88	-0.09554011
14	0xbd5cf2c0	-0.053942442
15	0xbe223ef9	-0.15844335
16	0x3e3d0c4a	0.18461719
17	0xbc918fda	-0.01776879
18	0xbdea8f71	-0.114531405
19	0x3ce5b291	0.028039249
20	0xbe11ab4a	-0.14225498
21	0x3dec2811	0.115310796
22	0xbd94a800	-0.07258606
23	0xbdfd921c	-0.12381384
24	0xbe098e5c	-0.13433212
25	0xbde62761	-0.1123798
26	0xbebb21ad	-0.3654913
27	0xbe853a0d	-0.26020852
28	0x3d1ba512	0.03799922
29	0xbdeed299	-0.11661262
30	0xbe4cb426	-0.19990596
31	0xbe913e2c	-0.28367746
32	0xbe286638	-0.16445243
33	0xbe28aa17	-0.16471134
34	0x3d6a1d9d	0.057157148
35	0xbe3d30ac	-0.18475598
36	0x3e0f2698	0.13979566
37	0xbdbaab35	-0.091146864
38	0x3e1ab620	0.15108538
39	0x3e4222ab	0.18958537
40	0xbe9c0a74	-0.30476725
41	0x3d3c0556	0.045903526
42	0xbe5c1522	-0.21492437
43	0xbddc26af	-0.10749566
44	0x3b9a2707	0.0047043595
45	0x3e4a5973	0.19760685
46	0xbd7ffd25	-0.062497277
47	0x3d1faf9c	0.038985834
48	0x3ddf3e48	0.10900551
49	0x3e571f19	0.21007957
50	0x3d003156	0.03129705
51	0x3cd77a9e	0.026303586
52	0xbe46cf59	-0.19415034
53	0xbdef1fc0	-0.11675978
54	0xbe1b3057	-0.15155159
55	0xbe93b5e1	-0.288497
56	0x3e6f241a	0.23353615
57	0x3cb24d7d	0.021765465
58	0x3dc596da	0.09647913
59	0x3d72fcaf	0.05932301
60	0x3e9062d7	0.2820041
61	0x3cda426d	0.026643002
62	0x3e22ab14	0.15885574
63	0xbe048085	-0.12939651
64	0xbe0b356d	-0.13594599
65	0xbe822433	-0.25418243
66	0x3e2fa0a6	0.17151126
67	0xbc864a65	-0.016392896
68	0x3ea7f7be	0.328062
69	0xbe2d0f5e	-0.16900393
70	0x3e4d476d	0.20046778
71	0xbe3665e4	-0.17812306
72	0x3e2d41fa	0.169197
73	0xbe22b8e5	-0.15890844
74	0x3e5927c0	0.2120657
75	0xbc5bb110	-0.013408914
76	0x3c4fe185	0.012688045
77	0x3e6c522f	0.23078226
78	0x3d034d15	0.032055933
79	0x3dbb404e	0.091431245
80	0x3d7abaaa	0.061213173
81	0x3d49c161	0.049256686
82	0xbe391d95	-0.18077691
83	0xbec934bf	-0.39298055
84	0x3e00be14	0.12572509
85	0xbe10e52a	-0.14149919
86	0x3d8a4bbe	0.06752728
87	0xbe3ee24a	-0.1864101
88	0x3e310a66	0.17289123
89	0x3e30bb64	0.17258984
90	0xbd28b75c	-0.04119049
91	0x3e024a8c	0.1272375
92	0xbe05c430	-0.13063121
93	0x3c3bde3d	0.01146656
94	0xbdd07724	-0.10178974
95	0x3e178ddb	0.14800207
96	0xbdf230cb	-0.11825713
97	0xbee0a075	-0.4387242
98	0xbd18d226	-0.03730979
99	0xbe0f8069	-0.14013828
100	0xbd3158fc	-0.043297753
101	0x3e129cdd	0.14317651
102	0xbd137b3f	-0.03600621
103	0xbe11acab	-0.14226024
104	0x3de47736	0.1115555
105	0x3e1c57ac	0.15267819
106	0x3da89365	0.08231238
107	0x3c6f9106	0.014621979
108	0x3dbe342e	0.09287296
109	0xbdb5fa95	-0.08885685
110	0xbec14ba6	-0.37753028
111	0x3e24b189	0.1608335
112	0x3e0904fa	0.13380805
113	0x3e508009	0.20361342
114	0xbd867889	-0.06565959
115	0x3e0517e9	0.12997402
116	0xbdf24e4d	-0.11831341
117	0x3d83d431	0.06436957
118	0x3d7f4686	0.062323116
119	0xbd7f2cd6	-0.06229862
120	0x3c4ee666	0.012628173
121	0x3e274ba1	0.16337444
122	0x3dba9f35	0.091123976
123	0x3b7a23ed	0.0038168386
124	0xbe2511a8	-0.16120017
125	0x3e369b1b	0.17832606
126	0xbcf73ff5	-0.030181864
127	0xbd84f68c	-0.064923376
128	0x3d1269b2	0.03574533
129	0xbd95cf6d	-0.07314954
130	0xbe58f8dd	-0.21188684
131	0xbe1903b9	-0.14942826
132	0x3df52487	0.11969858
133	0x3d0cb797	0.034354772
134	0xbd93793d	-0.07200859
135	0x3dab87c1	0.083755024
136	0x3b6bd0c9	0.00359826
137	0x3d2f380a	0.042778052
138	0x3a2a161a	0.0006488279
139	0xbe49ab58	-0.19694269
140	0x3e77abfa	0.24186698
141	0xbd072860	-0.03299749
142	0x3e8d8900	0.27643585
143	0xbe06c763	-0.13161997
144	0xbdd5e488	-0.104439795
145	0xbd608974	-0.054818586
146	0x3cc6d956	0.024273556
147	0x3e2df02c	0.1698615
148	0x3ec13ace	0.37740177
149	0x3e793441	0.2433634
150	0xbb49a714	-0.0030769752
151	0xbc8befe4	-0.017082162
152	0x3d984b90	0.074362874
153	0xbec9a652	-0.39384705
154	0xbd48b131	-0.048997108
155	0xbe22748a	-0.15864769
156	0x3e5d13fc	0.21589655
157	0xbe3754f9	-0.17903508
158	0xbde00885	-0.10939125
159	0x3de89231	0.11356009
160	0x3ced89a3	0.028996294
161	0x3e0e2a2a	0.13883272
162	0x3e0fd96c	0.14047784
163	0x3de98ec8	0.114041865
164	0xbe325849	-0.1741649
165	0x3e66bf74	0.22533971
166	0xbdb136ea	-0.08653052
167	0xbee6d98d	-0.45087853
168	0x3d408cf1	0.047009412
169	0x3d1cbd9f	0.038266774
170	0x3d39017e	0.04516744
171	0xbdcbb3ca	-0.099464014
172	0x3deed37a	0.1166143
173	0x3e002cb6	0.12517056
174	0xbd3a00d7	-0.045410957
175	0x3ddeaa0f	0.1087228
176	0x3d81c382	0.06336118
177	0x3daed52c	0.08536753
178	0xbddd6676	-0.108105585
179	0x3e3917a3	0.18075423
180	0xbea53a63	-0.32271108
181	0x3d8fb9c4	0.07017854
182	0x3e5c1f0a	0.21496215
183	0xbc9a3141	-0.018822314
184	0xbe0c3a23	-0.13694052
185	0x3dba034e	0.090826616
186	0x3e0fe23d	0.14051147
187	0xbe2c2d09	-0.16814055
188	0xbe266500	-0.16249466
189	0xbdc05c6f	-0.0939263
190	0xbdd582b6	-0.10425322
191	0x3eb7ef89	0.35924938
192	0x3e4c5db7	0.19957624
193	0x3e3188a5	0.17337282
194	0xbe80de3f	-0.2516956
195	0xbea0d614	-0.3141333
196	0xbe991820	-0.29901218
197	0xbe563747	-0.20919524
198	0xbdfcf6dd	-0.12351773
199	0xbc18f185	-0.0093349265
200	0xbe4e0940	-0.20120716
201	0x3e39031e	0.18067595
202	0x3c54b1b3	0.01298182
203	0x3e5af505	0.2138253
204	0x3e28df7b	0.16491501
205	0xbe92d5b4	-0.28678668
206	0x3d4f9ba2	0.050685532
207	0x3e221084	0.15826613
208	0x3cfc4a8e	0.03079727
209	0x3e01e182	0.1268368
210	0xbcf3c9c2	-0.029759292
211	0x3d1654a2	0.036701806
212	0x3da39b99	0.07988662
213	0x3d00097d	0.03125905
214	0xbbc5e9d5	-0.006039838
215	0xbc3f2f5f	-0.011669009
216	0xbd7c9fc0	-0.061675787
217	0xbb1e8966	-0.0024190783
218	0x3dc8efe6	0.09811382
219	0x3dd9fffb	0.106445275
220	0x3e0296eb	0.12752883
221	0x3c8bfef2	0.01708934
222	0x3ebb5a96	0.3659255
223	0x3e873c92	0.264134
224	0x3daa3db3	0.083125494
225	0x3d6ae690	0.057348788
226	0xbd1417e8	-0.03615561
227	0xbdffda97	-0.124928646
228	0x3e27a85f	0.16372822
229	0xbe048efa	-0.12945166
230	0x3de1bc38	0.11022228
231	0xbe8379ce	-0.25678867
232	0xbe3d58b5	-0.1849087
233	0x3d436aab	0.04770915
234	0x3df930f6	0.12167542
235	0x3db105af	0.08643662
236	0x3da03ac8	0.07823712
237	0x3e883c91	0.26608709
238	0xbe336d9e	-0.17522284
239	0x3d9bec53	0.07613435
240	0x3d28ded6	0.041228138
241	0xbe253bff	-0.16136168
242	0xbe145097	-0.14483868
243	0xbe1bc90a	-0.15213409
244	0x3e4748ee	0.19461414
245	0x3d0e7213	0.03477676
246	0xbd558cbd	-0.05213617
247	0xbe09cec9	-0.13457789
248	0x3dc11c00	0.09429169
249	0x3d037073	0.03208966
250	0x3e813dc5	0.2524244
251	0x3e2fc213	0.17163877
252	0xbda88487	-0.082284026
253	0xbc8c250e	-0.017107513
254	0xbdeca730	-0.11555326
255	0x3e8cd6c1	0.27507594

fc1.bias f4 [512]
0	0xb3d05623	-9.701423e-08
1	0xb8b78972	-8.751721e-05
2	0xb5963f49	-1.1194289e-06
3	0x37207cf8	9.56584e-06
4	0xb58aaf6e	-1.0332858e-06
5	0xb67e14b2	-3.7860996e-06
6	0x36be372c	5.668864e-06
7	0xb8f055d3	-0.00011460078
8	0xb3397bfe	-4.318644e-08
9	0x36ba76ba	5.5570536e-06
10	0x35fd8ec2	1.8891517e-06
11	0xb6070eff	-2.0125296e-06
12	0xb49e5b40	-2.9496186e-07
13	0xb5eb0af4	-1.7512052e-06
14	0xb562796e	-8.4368264e-07
15	0xb4af0fc8	-3.2607772e-07
16	0xb46e2b91	-2.2181327e-07
17	0x398ac468	0.00026467745
18	0xb5a8f123	-1.2587155e-06
19	0x3803aa7b	3.1391606e-05
20	0xb580a7d1	-9.585584e-07
21	0x361d0e04	2.3402981e-06
22	0xb7fc36a2	-3.0066181e-05
23	0xb263e15e	-1.3264382e-08
24	0x35b1054c	1.3189069e-06
25	0xb3de65c5	-1.0356192e-07
26	0xb953e20d	-0.00020206739
27	0x372f66ff	1.04547935e-05
28	0xb94773ca	-0.00019021254
29	0xb624a54e	-2.4534124e-06
30	0x34432328	1.817358e-07
31	0xb6bc9b27	-5.6208987e-06
32	0xb542feca	-7.26414e-07
33	0x386a28b4	5.5827855e-05
34	0x34f07295	4.4786853e-07
35	0xb7b5eb35	-2.1686408e-05
36	0xb3cc8466	-9.5235734e-08
37	0x3a7e22b6	0.00096945034
38	0x355f1df2	8.311755e-07
39	0x363bb0a9	2.7968001e-06
40	0x36519e6f	3.1235647e-06
41	0xba195582	-0.00058492285
42	0x35b79431	1.3677692e-06
43	0x32a71412	1.9450486e-08
44	0xb59df800	-1.1769589e-06
45	0xb47f5e22	-2.3782971e-07
46	0xba085de2	-0.0005201978
47	0x37078251	8.076969e-06
48	0xb68dbfc6	-4.224453e-06
49	0x384c3e84	4.8695612e-05
50	0xb69c9015	-4.6659356e-06
51	0xb395bf0f	-6.9731065e-08
52	0x382cfba1	4.1242343e-05
53	0xb9690e68	-0.00022225978
54	0xb482b91c	-2.4349072e-07
55	0xb3d0a542	-9.715815e-08
56	0x3672ab41	3.6160493e-06
57	0x34cd9dd3	3.8299058e-07
58	0x36b5fcb2	5.423638e-06
59	0x34a880bb	3.1386102e-07
60	0x349848dc	2.8365218e-07
61	0x378f9549	1.7116445e-05
62	0xb508dbd4	-5.098384e-07
63	0x38054ebb	3.1782994e-05
64	0x3623a883	2.438698e-06
65	0x39957147	0.00028503893
66	0xb44ed1d8	-1.9261586e-07
67	0xb8bc7fcb	-8.988342e-05
68	0xb704206f	-7.875365e-06
69	0xb5e1fe9a	-1.6837905e-06
70	0x367f5566	3.804767e-06
71	0x35ea367e	1.7450218e-06
72	0x34a2af21	3.0302274e-07
73	0x37f5882c	2.9269686e-05
74	0xb701c4a4	-7.734783e-06
75	0x365bcee9	3.275398e-06
76	0xb6983c7f	-4.5369957e-06
77	0xb400fa2b	-1.201194e-07
78	0xb87d0bde	-6.0330953e-05
79	0xb6c64468	-5.9088234e-06
80	0xba90cbed	-0.0011047103
81	0x356d9542	8.850658e-07
82	0xb42d15b0	-1.611977e-07
83	0x3648a275	2.9896885e-06
84	0x392f01d1	0.00016689977
85	0xb4e16752	-4.198469e-07
86	0x34c9c090	3.7579275e-07
87	0xb65d060b	-3.2935084e-06
88	0x39093c30	0.0001308776
89	0x36524891	3.1334678e-06
90	0x356c1547	8.7947814e-07
91	0xb6a1ddd7	-4.8239995e-06
92	0xb98a12c7	-0.000263354
93	0x37adc1d0	2.0713458e-05
94	0x3791a2e7	1.7361204e-05
95	0x342f91dd	1.635121e-07
96	0x361204ac	2.1758415e-06
97	0xb3bc7c68	-8.7770616e-08
98	0x39ec9c08	0.0004512968
99	0xb5180a88	-5.663974e-07
100	0x3619e250	2.2930508e-06
101	0xb7015aeb	-7.710168e-06
102	0xb9c5240c	-0.00037601625
103	0x35996b30	1.1430584e-06
104	0x34298747	1.5788565e-07
105	0x33410277	4.4938556e-08
106	0x33479eda	4.6477773e-08
107	0x347ca4a0	2.3529219e-07
108	0xb4bca554	-3.513802e-07
109	0x361f7d23	2.3765685e-06
110	0x35d771fe	1.6051924e-06
111	0x34478c24	1.8584302e-07
112	0x35b854c6	1.3733741e-06
113	0xb80c24ca	-3.3412864e-05
114	0xb6e44506	-6.802965e-06
115	0x35a1cd00	1.2055098e-06
116	0xb60ce38e	-2.099408e-06
117	0xb7c14554	-2.3039676e-05
118	0xb75938de	-1.2947448e-05
119	0x37040195	7.8681815e-06
120	0x342055f6	1.4932434e-07
121	0xb3213fd6	-3.7543792e-08
122	0x33870ac9	6.288389e-08
123	0xb74b7a2c	-1.2128188e-05
124	0x378d0ac6	1.6813527e-05
125	0x399551cd	0.0002848044
126	0xb940a54b	-0.00018372123
127	0x39a1c8a4	0.00030857802
128	0x38ee64f0	0.000113675254
129	0x364c6970	3.0459742e-06
130	0x36016684	1.928217e-06
131	0xb8ccc0b3	-9.763371e-05
132	0x357ed1cc	9.492767e-07
133	0x34019df9	1.2071531e-07
134	0xb68e8e53	-4.2484985e-06
135	0xb5031bd4	-4.88418e-07
136	0x34432d03	1.8177165e-07
137	0xba883d41	-0.0010394232
138	0xb700d1cd	-7.678243e-06
139	0x368a5ce3	4.123534e-06
140	0xb3121cb9	-3.4019397e-08
141	0xb5f830ea	-1.8491676e-06
142	0xb82bad9d	-4.0931267e-05
143	0xb8382ea3	-4.3912452e-05
144	0x35748579	9.109131e-07
145	0x339c3e86	7.275689e-08
146	0x38faa823	0.00011952247
147	0xb343a361	-4.5550568e-08
148	0x34d1168e	3.8945694e-07
149	0x352c053c	6.408261e-07
150	0xb6112d65	-2.1633107e-06
151	0x3590be0f	1.078415e-06
152	0xb5e9ae5c	-1.7410598e-06
153	0x371c3d66	9.31262e-06
154	0x36db45e2	6.534844e-06
155	0x35741ffa	9.0943615e-07
156	0xb7e9da9e	-2.7877566e-05
157	0x35934b76	1.0974316e-06
158	0x369701d3	4.500363e-06
159	0xba310b69	-0.00067537144
160	0x32f8d0c0	2.8965928e-08
161	0x34599d0e	2.0266836e-07
162	0xb420ae37	-1.496454e-07
163	0xb64ec186	-3.0809038e-06
164	0xb9f2a62b	-0.00046281642
165	0xb5cd6fd0	-1.5306232e-06
166	0xb8d02f60	-9.927037e-05
167	0x37e83eac	2.7685739e-05
168	0x35bf2fa8	1.4244479e-06
169	0xba424c18	-0.00074118515
170	0x34c52eac	3.6728068e-07
171	0xb48121f5	-2.405283e-07
172	0xb535c18f	-6.770942e-07
173	0x3a743e75	0.0009317168
174	0x36ac688b	5.13817e-06
175	0xb71cacb1	-9.338532e-06
176	0x33dcde26	1.0284957e-07
177	0xb6f3d396	-7.266596e-06
178	0x32a3bb2e	1.9060817e-08
179	0x3537040a	6.817869e-07
180	0x36867871	4.0075324e-06
181	0xb91e8aed	-0.00015119808
182	0xb6e91879	-6.94679e-06
183	0xb79c2e19	-1.8618115e-05
184	0x348c10d6	2.6089282e-07
185	0x355d90da	8.25397e-07
186	0x363df501	2.8305806e-06
187	0xb3d6928f	-9.9918104e-08
188	0x397a1ab5	0.00023851807
189	0x3601496a	1.926523e-06
190	0xb71eb3bb	-9.459381e-06
191	0xb729ea22	-1.0127698e-05
192	0x3397008d	7.0315856e-08
193	0x388ca010	6.705534e-05
194	0x395e5129	0.00021201804
195	0xb413a8db	-1.3751871e-07
196	0x36467f1c	2.9578287e-06
197	0x3794db42	1.7745075e-05
198	0x39ea709a	0.00044715853
199	0xb7382a38	-1.09770845e-05
200	0xb66745bb	-3.446227e-06
201	0xb6ce9b44	-6.1573537e-06
202	0xb7949de6	-1.7716502e-05
203	0x33995575	7.140162e-08
204	0x356dc61b	8.857766e-07
205	0xb72f3124	-1.0442254e-05
206	0x35bfbede	1.4286159e-06
207	0xb1d7abd0	-6.2768564e-09
208	0xb2e5b360	-2.6740679e-08
209	0x3898467b	7.261053e-05
210	0x34848225	2.468161e-07
211	0xb77c06f0	-1.5021986e-05
212	0x37097bab	8.19463e-06
213	0x36a14418	4.806101e-06
214	0xba3e668e	-0.00072632066
215	0xb671ad04	-3.6012507e-06
216	0xb2ea0fc6	-2.7248358e-08
217	0x32000a64	7.452943e-09
218	0x3654d914	3.1716818e-06
219	0xb4f7c95d	-4.6153846e-07
220	0x37340b20	1.0731426e-05
221	0x361362a3	2.196212e-06
222	0x3522ab35	6.059884e-07
223	0xb93280f6	-0.00017023445
224	0xb3fd69cf	-1.1800477e-07
225	0xb6c38623	-5.8270684e-06
226	0xb6d2a65c	-6.2778545e-06
227	0xb92a78aa	-0.00016257414
228	0x37407cc4	1.1473141e-05
229	0xb7ef6df2	-2.8542217e-05
230	0x36e37f3a	6.7799383e-06
231	0xb26f8c66	-1.3943554e-08
232	0x3623c42e	2.4403084e-06
233	0xb897a976	-7.231806e-05
234	0xb6b96db7	-5.526202e-06
235	0x3640fa22	2.8755826e-06
236	0x34fa3139	4.6601943e-07
237	0x3486827a	2.505438e-07
238	0x3a2034e9	0.00061114
239	0xb78f2d0e	-1.7067909e-05
240	0x39f47fd0	0.00046634534
241	0x32c36bc6	2.2749997e-08
242	0xb610243a	-2.1478759e-06
243	0x362c6e76	2.5694294e-06
244	0xb4e41a78	-4.2487568e-07
245	0xb65dc7a7	-3.304778e-06
246	0x3618efa8	2.2789263e-06
247	0xb6013a74	-1.9256522e-06
248	0xb858a431	-5.165133e-05
249	0x37425bc7	1.158467e-05
250	0x34cad4da	3.7780302e-07
251	0x374fbc9f	1.2382078e-05
252	0xb62a3057	-2.5360112e-06
253	0xb8cb0364	-9.680426e-05
254	0xb9f94d84	-0.00047550735
255	0xb77218f6	-1.4430136e-05

bn1.weight f4 [512]
0	0x3f4841b6	0.78225267
1	0x3f80dd10	1.0067463
2	0x3f71751b	0.94319314
3	0x3f703971	0.9383765
4	0x3f5c88a1	0.8614598
5	0x3f79dd04	0.9760287
6	0x3f6a1486	0.91437566
7	0x3f7e8e16	0.99435556
8	0x3f4f8b8e	0.8107232
9	0x3f69403d	0.91113645
10	0x3f6c6b27	0.92351
11	0x3f7ab0ec	0.9792621
12	0x3f53cddb	0.82735986
13	0x3f7be255	0.9839223
14	0x3f682b5e	0.90691173
15	0x3f704a32	0.93863213
16	0x3f5b81a6	0.857447
17	0x3f5d14be	0.86359775
18	0x3f75b103	0.95973223
19	0x3f5bed3e	0.8590888
20	0x3f6b9855	0.92029315
21	0x3f719d11	0.9438029
22	0x3f8fa6ef	1.1222819
23	0x3f51c04a	0.81934035
24	0x3f6f976a	0.93590415
25	0x3f61c0ae	0.8818463
26	0x3f7e74b6	0.99396837
27	0x3f76554e	0.96223915
28	0x3f6bc9bd	0.92104703
29	0x3f5e69f0	0.868804
30	0x3f75c924	0.9601004
31	0x3f769232	0.96316826
32	0x3f6a0d7d	0.9142683
33	0x3f5e4136	0.86818254
34	0x3f6e610c	0.9311683
35	0x3f745f05	0.9545749
36	0x3f4da326	0.8032707
37	0x3f7ecd1c	0.9953172
38	0x3f71de95	0.9448026
39	0x3f7ce281	0.9878312
40	0x3f63753d	0.88850766
41	0x3f5fbf09	0.8740087
42	0x3f7d4c81	0.9894486
43	0x3f485c92	0.7826625
44	0x3f7a3249	0.9773298
45	0x3f50effe	0.816162
46	0x3f574732	0.8409301
47	0x3f796c48	0.9743085
48	0x3f71630f	0.94291776
49	0x3f72f6f0	0.94908047
50	0x3f638942	0.88881314
51	0x3f4b3c3b	0.7938878
52	0x3f83b539	1.028968
53	0x3f65f66c	0.89829135
54	0x3f661223	0.89871424
55	0x3f59f964	0.85146165
56	0x3f64ae26	0.8932823
57	0x3f7b4ac6	0.9816097
58	0x3f7112da	0.9416939
59	0x3f734779	0.95030934
60	0x3f7711a6	0.96511304
61	0x3f710664	0.94150376
62	0x3f5d8264	0.86527085
63	0x3f674be1	0.9035016
64	0x3f600e84	0.8752215
65	0x3f85e242	1.0459673
66	0x3f7f3ca4	0.99701905
67	0x3f671630	0.9026823
68	0x3f7920d9	0.97315747
69	0x3f5e4b45	0.868336
70	0x3f84dd6c	1.0380073
71	0x3f60dc06	0.8783573
72	0x3f652db2	0.8952285
73	0x3f72700c	0.9470222
74	0x3f7d5f0e	0.98973167
75	0x3f7e5ad4	0.9935734
76	0x3f71e6dd	0.94492894
77	0x3f636b69	0.8883577
78	0x3f505090	0.8137293
79	0x3f808b93	1.0042595
80	0x3f899b72	1.0750563
81	0x3f5e61c8	0.8686795
82	0x3f807e06	1.0038459
83	0x3f808bee	1.0042703
84	0x3f7c790a	0.9862219
85	0x3f60a12d	0.87745935
86	0x3f618761	0.88097197
87	0x3f54bb67	0.83098453
88	0x3f814df8	1.0101919
89	0x3f713af4	0.9423058
90	0x3f588cb8	0.8458972
91	0x3f7afc81	0.9804154
92	0x3f51f6a6	0.8201698
93	0x3f90d881	1.1316072
94	0x3f5ff12c	0.87477374
95	0x3f5c8b5f	0.86150163
96	0x3f7ecd6b	0.9953219
97	0x3f5d23b8	0.8638263
98	0x3f7db4f1	0.9910422
99	0x3f62b382	0.8855516
100	0x3f70e4c1	0.9409905
101	0x3f50ba54	0.81534314
102	0x3f7fb699	0.99887997
103	0x3f73f74f	0.9529924
104	0x3f5d7db5	0.8651994
105	0x3f617dc8	0.8808255
106	0x3f60f7d0	0.8787813
107	0x3f692f7a	0.9108807
108	0x3f6d95e6	0.9280685
109	0x3f7a6bbe	0.9782065
110	0x3f57be67	0.84274906
111	0x3f67b0d4	0.90504193
112	0x3f62ea3c	0.88638663
113	0x3f6d08c4	0.925915
114	0x3f7ccfcb	0.98754567
115	0x3f6cb720	0.92466927
116	0x3f74bc71	0.9560004
117	0x3f851f17	1.0400113
118	0x3f7eaa84	0.99478936
119	0x3f785d68	0.97017527
120	0x3f59db6d	0.8510044
121	0x3f4ec654	0.80771375
122	0x3f69e4e3	0.9136488
123	0x3f81f7b4	1.0153718
124	0x3f784e7c	0.9699476
125	0x3f7f222d	0.99661523
126	0x3f4889c2	0.783352
127	0x3f5b8c9d	0.85761434
128	0x3f7484d1	0.9551516
129	0x3f79b970	0.9754858
130	0x3f81c721	1.0138894
131	0x3f56c865	0.8389953
132	0x3f720dee	0.94552505
133	0x3f4fe2a3	0.81205195
134	0x3f802e57	1.0014142
135	0x3f738537	0.95125145
136	0x3f6ac3e4	0.91705155
137	0x3f64966d	0.8929203
138	0x3f4eca31	0.8077727
139	0x3f817d95	1.011645
140	0x3f4f88c7	0.8106808
141	0x3f740526	0.95320356
142	0x3f5bbcfe	0.85835254
143	0x3f8d3572	1.1031935
144	0x3f597a94	0.84952664
145	0x3f4c18fc	0.79725623
146	0x3f71671a	0.94297945
147	0x3f586c4d	0.84540254
148	0x3f5e54a0	0.8684788
149	0x3f6f6a17	0.93521255
150	0x3f612a34	0.8795502
151	0x3f5c3f37	0.8603396
152	0x3f6cec4e	0.9254807
153	0x3f7ef0c1	0.9958611
154	0x3f7458dc	0.9544809
155	0x3f73dc59	0.952581
156	0x3f875f73	1.0576004
157	0x3f5a55b6	0.85287035
158	0x3f7662c8	0.9624448
159	0x3f6449a6	0.8917488
160	0x3f5d2615	0.86386234
161	0x3f4e4c69	0.8058534
162	0x3f55fcc0	0.8358879
163	0x3f837b39	1.027198
164	0x3f82270d	1.0168167
165	0x3f56eea3	0.8395788
166	0x3f7d67d5	0.9898656
167	0x3f842d4c	1.0326324
168	0x3f7ef5e3	0.99593943
169	0x3f75e363	0.9605009
170	0x3f64f406	0.8943485
171	0x3f6b926f	0.92020315
172	0x3f75ae3f	0.95969003
173	0x3f71993e	0.94374454
174	0x3f7858a4	0.97010255
175	0x3f777171	0.9665747
176	0x3f4b2dd5	0.7936681
177	0x3f802afa	1.0013115
178	0x3f507bac	0.8143871
179	0x3f77bdac	0.9677379
180	0x3f65b11b	0.89723366
181	0x3f65d0d9	0.897718
182	0x3f8f0d90	1.1176014
183	0x3f7e3209	0.992951
184	0x3f5da768	0.86583567
185	0x3f5943d6	0.84869134
186	0x3f7aefe8	0.9802232
187	0x3f5b61ea	0.8569628
188	0x3f5cb42c	0.8621242
189	0x3f6710a8	0.9025979
190	0x3f7224eb	0.9458758
191	0x3f79041e	0.9727191
192	0x3f42e637	0.7613253
193	0x3f55ed25	0.8356498
194	0x3f6dc1ab	0.9287364
195	0x3f669c24	0.90082
196	0x3f843e07	1.0331429
197	0x3f7407ec	0.9532459
198	0x3f643391	0.89141184
199	0x3f871830	1.0554256
200	0x3f70d36b	0.940726
201	0x3f878158	1.0586348
202	0x3f7df973	0.99208754
203	0x3f578b3f	0.8419685
204	0x3f6e1ff2	0.93017495
205	0x3f82eb97	1.0228146
206	0x3f79d091	0.9758387
207	0x3f7c801a	0.9863297
208	0x3f6bd2f6	0.92118776
209	0x3f54e5cd	0.8316315
210	0x3f4a59f7	0.79043525
211	0x3f5631ad	0.8366955
212	0x3f51289a	0.8170258
213	0x3f77cf1b	0.9680039
214	0x3f782417	0.9693007
215	0x3f80d8fd	1.006622
216	0x3f548b38	0.8302493
217	0x3f5a36d6	0.85239923
218	0x3f895bfc	1.0731196
219	0x3f67c72f	0.90538305
220	0x3f761d00	0.96138
221	0x3f754431	0.95807177
222	0x3f7287d7	0.94738525
223	0x3f73be30	0.9521208
224	0x3f4e2164	0.805197
225	0x3f726ae1	0.94694334
226	0x3f823de3	1.0175136
227	0x3f5a7d51	0.8534747
228	0x3f81f4e7	1.0152863
229	0x3f8269d9	1.0188552
230	0x3f8a4e87	1.0805215
231	0x3f4774df	0.77912706
232	0x3f82bfde	1.0214803
233	0x3f623ba9	0.88372284
234	0x3f815025	1.0102583
235	0x3f6faef8	0.93626356
236	0x3f59ab16	0.8502668
237	0x3f5d3c14	0.86419797
238	0x3f51b335	0.81914073
239	0x3f7ae6ff	0.9800872
240	0x3f74c65c	0.9561517
241	0x3f474bea	0.7785021
242	0x3f72d72f	0.94859594
243	0x3f7766d8	0.966413
244	0x3f628600	0.8848572
245	0x3f7e2de6	0.99288785
246	0x3f7089d9	0.9396034
247	0x3f5c5a74	0.8607552
248	0x3f817f19	1.0116912
249	0x3f55424c	0.83304286
250	0x3f595058	0.8488822
251	0x3f6bdf5a	0.9213768
252	0x3f71de95	0.9448026
253	0x3f6da6d7	0.928327
254	0x3f634533	0.88777465
255	0x3f73e49b	0.952707

bn1.bias f4 [512]
0	0xbdc7aca8	-0.097497284
1	0xbe2c6909	-0.16836943
2	0xbde697fe	-0.11259459
3	0xbd7c06fa	-0.06153009
4	0xbbf18acc	-0.007371282
5	0xbe662150	-0.22473645
6	0xbe5d8e53	-0.21636324
7	0xbdf6bbdd	-0.12047551
8	0xbd9a195c	-0.07524368
9	0xbd905bc6	-0.070487544
10	0xbdd98634	-0.106213
11	0xbe103124	-0.14081246
12	0xbe147609	-0.14498152
13	0xbdd08553	-0.101816796
14	0xbdff9893	-0.12480273
15	0xbd91f082	-0.07125951
16	0xbdf646b0	-0.12025201
17	0xbcc5e16a	-0.024155337
18	0xbdccc924	-0.09999302
19	0xbd8f49dd	-0.0699651
20	0xbdf0a302	-0.11749841
21	0xbe855235	-0.2603928
22	0xbd7c328e	-0.06157165
23	0xbdf69506	-0.12040143
24	0xbe01e30a	-0.12684265
25	0xbda3cf16	-0.07998483
26	0xbcef32a4	-0.029198952
27	0xbdba93dd	-0.09110234
28	0xbd8efe32	-0.06982078
29	0xbe0a3eb8	-0.13500488
30	0xbd7e7d4e	-0.06213122
31	0xbe402424	-0.18763787
32	0xbd95e316	-0.07318704
33	0xbe3defd9	-0.18548526
34	0xbe090bcc	-0.13383406
35	0xbe2a264c	-0.16616172
36	0x3c08c6ee	0.00834821
37	0xbe017ed2	-0.12646034
38	0xbe00c214	-0.12574035
39	0xbda94a36	-0.08266108
40	0xbd7aef6c	-0.061263487
41	0xbc864afb	-0.016393175
42	0xbe44150b	-0.19148652
43	0xbe0660d6	-0.13122877
44	0xbcb4f622	-0.022090022
45	0xbdc92fa2	-0.09823538
46	0xbb2cd015	-0.0026369144
47	0xbe62633d	-0.22108169
48	0xbde7125d	-0.112827994
49	0xbe058d50	-0.13042188
50	0xbe182cac	-0.14860791
51	0xbda5ec5d	-0.08101723
52	0xbce36af8	-0.027760968
53	0xbd325e32	-0.043546863
54	0xbe1b8246	-0.15186414
55	0xbd3b0b59	-0.04566512
56	0xbd809817	-0.06279009
57	0xbdd5c912	-0.10438742
58	0x3cc8e62f	0.024523823
59	0xbdfba2e8	-0.12286931
60	0xbe0e207b	-0.13879578
61	0xbdaaafcb	-0.08334311
62	0xbcbc8f46	-0.023017537
63	0xbe249ba4	-0.16074997
64	0xbd531d53	-0.051541638
65	0xbe36d421	-0.17854358
66	0xbd748b2c	-0.059703037
67	0xbdf1df28	-0.11810142
68	0xbe128c51	-0.14311339
69	0xbdfed42f	-0.124428146
70	0xbc73e08b	-0.014885078
71	0x3db78389	0.08960635
72	0xbe1551d9	-0.14582004
73	0xbdffd9b9	-0.12492699
74	0xbe58465b	-0.21120588
75	0xbe1ba4e2	-0.15199617
76	0xbe413371	-0.1886728
77	0xbddc44e5	-0.10755328
78	0xbe242635	-0.160302
79	0xbcedec00	-0.029043198
80	0xbe105eae	-0.14098617
81	0xbd550b0a	-0.05201248
82	0xbda2c329	-0.0794738
83	0xbdf4d72d	-0.11955104
84	0xbe08f4bd	-0.1337461
85	0xbcf01879	-0.029308544
86	0xbd8d8afc	-0.06911275
87	0xbd9295cd	-0.071574785
88	0xbe547945	-0.20749386
89	0xbdbca041	-0.092102535
90	0xbe15badf	-0.14622067
91	0xbe0ca52b	-0.13734882
92	0xbdd46a4b	-0.10371836
93	0xbd3f2fd4	-0.04667647
94	0xbd0c14c5	-0.034199495
95	0xbdeb4eb2	-0.11489619
96	0xbe2926b2	-0.16518667
97	0xbe0a8cce	-0.13530275
98	0xbd5ffab9	-0.054682467
99	0xbd91f08e	-0.0712596
100	0xbe457d70	-0.19286132
101	0xbd88632c	-0.066595405
102	0xbe1ee357	-0.15516411
103	0xbe3d674d	-0.18496437
104	0xbde92c52	-0.113854066
105	0xbdc99eed	-0.09844766
106	0xbc9ac4a9	-0.018892603
107	0xbd76a238	-0.060213298
108	0xbdc1e8f2	-0.09468259
109	0xbe3d29e9	-0.18473019
110	0xbda4441d	-0.08020804
111	0xbd6013e6	-0.054706477
112	0xbda7f2ec	-0.082006305
113	0xbdf0e2c6	-0.117620036
114	0xbe33645b	-0.17518751
115	0xbe0256ac	-0.12728375
116	0xbdc0ebfb	-0.0942001
117	0xbe0b4ad2	-0.1360276
118	0xbdda7c14	-0.10668197
119	0xbe11eeb6	-0.14251217
120	0xbdb16a55	-0.08662859
121	0xbd5c470e	-0.0537787
122	0xbe0bea99	-0.1366371
123	0xbe2cdaad	-0.16880293
124	0xbe16e45b	-0.14735548
125	0xbce22363	-0.027604764
126	0xbc763d71	-0.015029297
127	0xbdc2da63	-0.0951431
128	0xbda086a4	-0.07838181
129	0xbd9d226a	-0.076725796
130	0xbe302208	-0.17200482
131	0xbd6cc09d	-0.057800878
132	0xbe11074b	-0.14162938
133	0xbdba0275	-0.090825
134	0xbdbf3374	-0.09335986
135	0xbe2c2d2d	-0.16814108
136	0xbdac2e1a	-0.08407231
137	0xbdfdae33	-0.123867415
138	0x3c0fb110	0.008770242
139	0xbd9c322b	-0.07626756
140	0xbd7e3fe7	-0.06207266
141	0xbe3c9abb	-0.184184
142	0xbdd147f9	-0.10218806
143	0xbd414dc9	-0.047193322
144	0xbd9d6ad5	-0.07686392
145	0xbc0caaec	-0.008585673
146	0xbd969685	-0.07352928
147	0xbdb08389	-0.08618838
148	0xbdbc8613	-0.0920526
149	0xbc6da8a8	-0.014505543
150	0xbd6fd35a	-0.05855117
151	0x3c5722cc	0.013130855
152	0xbe3dbdb8	-0.18529403
153	0xbe71aaba	-0.23600283
154	0xbe3b2b2b	-0.18278186
155	0xbd436627	-0.047704842
156	0xbe03c5aa	-0.12868372
157	0xbdf5bc70	-0.11998832
158	0xbda4d474	-0.08048335
159	0xbe10daac	-0.14145917
160	0xbdf02a63	-0.117268346
161	0xbd225427	-0.039631035
162	0xbdb7a02a	-0.08966096
163	0xbe3c912f	-0.18414758
164	0xbdc31eca	-0.09527357
165	0xbc8dbb20	-0.017301142
166	0xbd99f14d	-0.075167276
167	0xbd20360e	-0.03911405
168	0xbe30b854	-0.17257816
169	0xbdcdf2ca	-0.10056074
170	0xbc7db5bb	-0.015485222
171	0xbcc1311c	-0.023582987
172	0xbdc5052c	-0.09620127
173	0xbdeaed98	-0.11471099
174	0xbe1eb158	-0.15497339
175	0xbe4694ec	-0.19392747
176	0xbdd32dc6	-0.10311465
177	0xbe277bca	-0.16355816
178	0xbd959513	-0.07303824
179	0xbe2b628c	-0.16736811
180	0xbde94b78	-0.11391348
181	0xbdebfc7e	-0.115227684
182	0xbdd21dca	-0.10259588
183	0xbde57500	-0.112039566
184	0xbdd95a62	-0.10612942
185	0xbdebc77d	-0.11512659
186	0xbdcab00d	-0.0989686
187	0xbd7f7bff	-0.06237411
188	0xbd58100d	-0.052749682
189	0xbd4fb2a7	-0.050707486
190	0xbe007f30	-0.12548518
191	0xbca2b98b	-0.019863864
192	0xbd93c386	-0.072150275
193	0xbcce76cb	-0.02520313
194	0xbe213d86	-0.15746126
195	0xbdd3ee0a	-0.10348137
196	0xbdfaa9df	-0.122394316
197	0xbe0fcdb6	-0.14043316
198	0xbe078918	-0.13235891
199	0xbd9e0e73	-0.077176
200	0xbd4f4f21	-0.050612573
201	0xbdc48281	-0.09595204
202	0xbbfeb7d5	-0.0077733793
203	0xbd88659e	-0.06660007
204	0xbdb34dab	-0.08755048
205	0xbdf85558	-0.12125653
206	0xbe57f5e6	-0.21089897
207	0xbe22f5ba	-0.1591405
208	0xbded30f6	-0.11581604
209	0xbddb7270	-0.107151866
210	0xbdf85036	-0.12124674
211	0xbd010a7d	-0.031504143
212	0xbd613356	-0.0549806
213	0xbe2dbf18	-0.16967428
214	0xbd9e6995	-0.07734982
215	0xbdf2894a	-0.11842592
216	0xbd0a8cba	-0.033825614
217	0xbded4062	-0.11584546
218	0xbda20233	-0.07910576
219	0xbbf4b7e1	-0.007468209
220	0xbb2f8f57	-0.0026788318
221	0xbd9cd866	-0.07658462
222	0xbdaac206	-0.08337788
223	0xbe56325b	-0.20917647
224	0xbd86bb1b	-0.06578656
225	0x3cb7676b	0.02238818
226	0xbe2649a4	-0.16239029
227	0x3b446d56	0.0029972396
228	0xbd9382a4	-0.07202652
229	0xbe35c62e	-0.17751381
230	0x3cb4da20	0.022076666
231	0xbd85c27e	-0.06531237
232	0xbe1b4aa5	-0.15165193
233	0xbd9a3532	-0.075296775
234	0xbe198767	-0.14993058
235	0xbdc54278	-0.096318185
236	0xbdb5fe0d	-0.08886347
237	0xbdcda43c	-0.10041091
238	0xbd942271	-0.07233132
239	0xbe229946	-0.15878782
240	0xbe0da17f	-0.13831137
241	0xbd9d25b7	-0.07673209
242	0xbdba6556	-0.091013595
243	0xbe11244c	-0.14174002
244	0xbd80b129	-0.062837906
245	0xbd97ae2f	-0.0740627
246	0xbdc386b4	-0.09547177
247	0x3a5ac8f0	0.0008345982
248	0x3abb4d15	0.001428994
249	0xbdf66bd5	-0.12032286
250	0x3c3a520a	0.011372099
251	0xbe3acdfc	-0.1824264
252	0xbe2b6849	-0.16739
253	0xbe12e454	-0.14344913
254	0x3b183ba4	0.0023228908
255	0xbe857b10	-0.26070452

bn1.running_mean f4 [512]
0	0x3d82b831	0.06382788
1	0xbfc769b7	-1.5579137
2	0xbed8add4	-0.4232012
3	0xbf9ebde6	-1.2401702
4	0xbe26e2b8	-0.16297424
5	0xbfc96deb	-1.5736669
6	0xbf9bea26	-1.2180831
7	0xbfa8068d	-1.3126999
8	0x3ff79dde	1.9345052
9	0xbeb11a10	-0.34590197
10	0x3d84ae67	0.06478577
11	0xbfa50768	-1.2892885
12	0x3ebbbebc	0.36668956
13	0xbe806783	-0.25078973
14	0xbfcabf9f	-1.5839728
15	0x3ea096e4	0.3136512
16	0x3ed939ea	0.42426997
17	0x3f686ad4	0.90788007
18	0xbebfe184	-0.37476742
19	0x3f09c03b	0.53808945
20	0x3d3d0190	0.04614407
21	0xbf5d4838	-0.8643832
22	0x3dc50a53	0.0962111
23	0xbd85b3e6	-0.065284535
24	0xbf44d4a1	-0.76886946
25	0xbeebcb61	-0.46053603
26	0x3dbe14f0	0.09281337
27	0xbee4600a	-0.44604522
28	0x3e93fadd	0.2890233
29	0xbfdecb2e	-1.7405756
30	0xbe5d6b0e	-0.2162287
31	0xbff5d543	-1.9205707
32	0x3d6ea121	0.058259133
33	0xc007077b	-2.1098316
34	0xbf54863f	-0.83017343
35	0xbfcf56d9	-1.6198379
36	0x3f9c8424	1.2227826
37	0xbfb25542	-1.3932269
38	0xbfb667b3	-1.4250396
39	0xbddff844	-0.10936025
40	0x3da8e681	0.0824709
41	0xbda00124	-0.078127176
42	0xbfb89034	-1.4419007
43	0x3f9c4935	1.2209841
44	0x3d97f824	0.07420376
45	0x3f1e02d2	0.61723053
46	0xbe6ac49c	-0.22926563
47	0xbfd7ca56	-1.6858623
48	0x3e87634c	0.26442945
49	0xbe0b6a8b	-0.13614862
50	0xbf08c4ef	-0.53425497
51	0x3fbf8fe0	1.4965782
52	0xbea4bbd9	-0.32174566
53	0x3f2051ad	0.6262463
54	0xbfccaf05	-1.5990912
55	0xbd135093	-0.035965513
56	0xbe50ee3f	-0.20403384
57	0xbe9cb866	-0.30609435
58	0x3dc3a51a	0.09552975
59	0xbf4a7514	-0.790849
60	0xbf922754	-1.1418252
61	0x3ef2ae8d	0.47398797
62	0x3d12f50a	0.03587822
63	0xbfb26e52	-1.3939917
64	0x3f42f1be	0.7615012
65	0x3cba49be	0.022740241
66	0xbec09a47	-0.37617704
67	0xbfba2fbf	-1.4545821
68	0xbf95d002	-1.1704104
69	0x3e5e72a4	0.2172342
70	0xbe4c53ce	-0.19953844
71	0x3e2b3971	0.16721131
72	0x3ebdb7be	0.37054247
73	0xbf0d23de	-0.55132854
74	0xbfd0e0f6	-1.6318653
75	0xbf741a9f	-0.9535312
76	0xbf8d76f2	-1.1051924
77	0xbee88a86	-0.45418185
78	0x3fa2243d	1.2667309
79	0xbe112e2e	-0.14177772
80	0xbf4aa822	-0.791628
81	0x3f3ba3fd	0.732971
82	0x3dc0289d	0.09382746
83	0xbde6bb24	-0.11266163
84	0xbf6d5888	-0.9271321
85	0xbe8d9d5f	-0.27659127
86	0xbe922081	-0.28540424
87	0x3f47bd4e	0.7802323
88	0xbfde6ec8	-1.7377558
89	0xbf874190	-1.0566883
90	0xbe02b9a4	-0.12766129
91	0xbf1a43b7	-0.60259575
92	0x3f754234	0.9580414
93	0x3d6d9c9a	0.058010675
94	0xbe58235b	-0.21107237
95	0x3dbd6c58	0.092491806
96	0xbf8701bf	-1.0547408
97	0x3c64ab4c	0.013956856
98	0xbe238e05	-0.15972145
99	0x3f804da3	1.0023693
100	0xbf80f8d2	-1.0075934
101	0x3fd08d41	1.6293107
102	0x3d7d5c22	0.061855443
103	0xbff7238b	-1.9307722
104	0xbdfc4601	-0.1231804
105	0x3efa52d3	0.48891315
106	0x3fa4c311	1.287203
107	0x3f742ad5	0.95377856
108	0xbe970fcb	-0.29504237
109	0xbfcca7e8	-1.5988741
110	0xbf42b40f	-0.76056
111	0x3ef9dec2	0.48802763
112	0xbc214574	-0.009843219
113	0x3e0bc4dc	0.13649315
114	0xbfb8f136	-1.4448612
115	0x3d6f1ce2	0.058377154
116	0xbf918285	-1.1367956
117	0xbf45ce20	-0.77267647
118	0xbf5646a6	-0.8370155
119	0xbf812c82	-1.0091708
120	0x3f0232aa	0.5085856
121	0x3f317667	0.6932129
122	0xbfed9fc3	-1.856438
123	0xbfe381d3	-1.7773994
124	0xbfa7217a	-1.3057091
125	0xbd84fee7	-0.06493931
126	0x3fe95959	1.8230392
127	0xbf680756	-0.90636194
128	0xbe8a903e	-0.27063173
129	0x3e8f83e7	0.2803032
130	0xbf6e0fe5	-0.92993003
131	0x3f584608	0.8448186
132	0xbff981dd	-1.9492756
133	0x3f0e2621	0.5552693
134	0xbf3a8ea6	-0.72873914
135	0xc0006760	-2.0063095
136	0xbe32a99c	-0.17447513
137	0x3e535136	0.20636448
138	0x3f3230c7	0.6960568
139	0x3d9f5623	0.07780101
140	0x3fb44e7a	1.4086449
141	0xbf8d0844	-1.1018147
142	0x3f447d0d	0.7675331
143	0x3c96f5b9	0.018427717
144	0x3ee470a8	0.446172
145	0xbec490a4	-0.38391602
146	0xbe24029d	-0.16016622
147	0x3f3597a7	0.7093453
148	0x3efd70c2	0.4950009
149	0xbeb71913	-0.35761318
150	0x3f0ad1c5	0.5422633
151	0x3f77ed01	0.96846014
152	0xbfdce61a	-1.7257721
153	0xbfc6cdf1	-1.5531598
154	0xbfb025b4	-1.3761506
155	0xbe3dfdfb	-0.18553917
156	0x3c968d29	0.018377857
157	0x3eb8098e	0.3594479
158	0xbf3e34c7	-0.7429928
159	0xbf899bcb	-1.0750669
160	0x3f7d1bbb	0.9887044
161	0xbf7d5ee1	-0.989729
162	0x3f16f4bc	0.58967185
163	0xbfbcdc96	-1.4754817
164	0x3e5ff256	0.21869788
165	0x3ed94d0d	0.42441598
166	0xbd99c84b	-0.07508906
167	0xbdbbf118	-0.09176844
168	0xbfe53fe4	-1.7910123
169	0xbee80565	-0.45316616
170	0x3f59970a	0.8499609
171	0xbe19f1e7	-0.15033685
172	0xbf60082b	-0.87512463
173	0xbeff74f7	-0.49893925
174	0xbfafd12d	-1.373571
175	0xbf9e2f0a	-1.2358105
176	0x4017fc0e	2.3747592
177	0xbe9e1e53	-0.3088251
178	0x3fafa618	1.3722563
179	0xbf863a81	-1.0486604
180	0xbf56ca64	-0.83902574
181	0x3f3b0940	0.7306099
182	0x3da73006	0.081634566
183	0xbe84af7d	-0.25915137
184	0x3e25c5b6	0.16188702
185	0xbe8d9455	-0.2765223
186	0xbec8e9b8	-0.39240813
187	0x3eed1f40	0.46312904
188	0x3f4c7392	0.79863846
189	0x3dce843e	0.10083817
190	0xbf5b5bd9	-0.85687023
191	0xbe22037a	-0.15821639
192	0x3f42d40b	0.761048
193	0x3ff8cb5a	1.9437058
194	0xbeb50d7f	-0.3536186
195	0x3f01edcb	0.5075347
196	0xbeb14390	-0.3462186
197	0x3e0f7c8e	0.14012358
198	0x3eeca31a	0.46218187
199	0x3db2650c	0.087106794
200	0xbe8a9e3b	-0.27073845
201	0xbcb759ed	-0.022381747
202	0x3dce9257	0.10086506
203	0x3ec15bd9	0.37765387
204	0xbf3e5328	-0.74345636
205	0xbd5b820f	-0.05359083
206	0xbfcf5f94	-1.6201043
207	0xbf7dfc1c	-0.99212813
208	0x3ede89e4	0.43464577
209	0x3f322413	0.69586295
210	0x3fa2cd62	1.2718928
211	0x3f8d30c8	1.1030512
212	0x3f9a5145	1.2056051
213	0xbfb0e30f	-1.3819293
214	0xbdc56314	-0.09638038
215	0xbe5778a0	-0.21042109
216	0x3f803841	1.0017167
217	0x3e693301	0.22773363
218	0x3e16dc67	0.14732514
219	0x3f6903a2	0.9102117
220	0x3dcb7ba2	0.099356905
221	0x3e5b3bac	0.21409482
222	0xbf2c6d39	-0.6735416
223	0xbfc6a1b2	-1.5518095
224	0x3eb2aba7	0.34896585
225	0xbe1813b2	-0.14851263
226	0xbf658bb6	-0.89666307
227	0x3f992772	1.1965163
228	0xbd3a8d38	-0.045544833
229	0xbfe221b1	-1.7666532
230	0xbeaf200d	-0.3420414
231	0x3f90ca82	1.13118
232	0xbf273d1b	-0.65327615
233	0x3e93f3c2	0.2889691
234	0x3d8da55d	0.06916306
235	0xbe8ae673	-0.27128944
236	0x3ecd9f07	0.4016039
237	0x3f66e6ad	0.90195733
238	0x3f645352	0.89189637
239	0xbfc42e41	-1.5326616
240	0xbe680596	-0.22658381
241	0x3fa05da5	1.2528578
242	0xbea6e540	-0.3259678
243	0xbfdd863c	-1.730659
244	0xbf031592	-0.5120479
245	0x3e0d9544	0.13826472
246	0xbeb802ef	-0.35939738
247	0xbecfec4a	-0.40609962
248	0xbeaa84d7	-0.33304474
249	0x3ed77434	0.42080843
250	0x3f169c2b	0.58832043
251	0xbffb4404	-1.9630132
252	0xbf845204	-1.0337529
253	0x3e35a452	0.17738464
254	0xbda63d1e	-0.08117126
255	0xbfb2824a	-1.3946011

bn1.running_var f4 [512]
0	0x42041c1a	33.027443
1	0x42499bee	50.402275
2	0x419d509b	19.664358
3	0x42219930	40.399597
4	0x415932c1	13.574891
5	0x425b21a8	54.782867
6	0x4206b77b	33.67918
7	0x4204966c	33.146896
8	0x423c81ef	47.12689
9	0x40b2b50b	5.5846
10	0x401eec52	2.4831738
11	0x41ff1cb7	31.88902
12	0x410279c1	8.154725
13	0x415b0cf5	13.690663
14	0x426fc689	59.943882
15	0x415e28f1	13.884995
16	0x41cb6ff9	25.429674
17	0x41817a33	16.184668
18	0x41485db6	12.522879
19	0x4128d642	10.552309
20	0x40f83b62	7.757249
21	0x417b322b	15.699748
22	0x3e471bc4	0.19444185
23	0x41e96789	29.175554
24	0x41808a78	16.067612
25	0x4178e628	15.5561905
26	0x3f9ba571	1.2159864
27	0x4110935a	9.0359745
28	0x416807d8	14.501915
29	0x4233d820	44.96106
30	0x40c36eb6	6.1072645
31	0x4280a979	64.331
32	0x408bd5e2	4.3698587
33	0x42733b1b	60.80772
34	0x413aad6d	11.66734
35	0x4262c27d	56.68993
36	0x41927282	18.305912
37	0x420d4e3c	35.3264
38	0x4255cf74	53.45259
39	0x4077dd8c	3.8728971
40	0x417988e5	15.5959215
41	0x41038821	8.220735
42	0x4250bc32	52.183784
43	0x41ed592e	29.668545
44	0x3f4fc22a	0.81155646
45	0x42868e38	67.27777
46	0x41bf0815	23.878946
47	0x424cc7f0	51.19525
48	0x41893cc2	17.154667
49	0x402e3baa	2.7223916
50	0x41a1542f	20.166105
51	0x41cea9bd	25.83288
52	0x4108e476	8.555777
53	0x41c8a9aa	25.082844
54	0x422f877e	43.882317
55	0x4175862b	15.345256
56	0x4194da5b	18.606619
57	0x41446b04	12.276127
58	0x4003531f	2.0519483
59	0x41cb92ec	25.44674
60	0x42044b42	33.073494
61	0x41932ba4	18.396309
62	0x41805dca	16.045795
63	0x42476715	49.850666
64	0x417dab1e	15.854277
65	0x3f3b8475	0.7324899
66	0x40c65a57	6.198528
67	0x4275b606	61.427757
68	0x4204bef4	33.186478
69	0x409293d9	4.580548
70	0x400912ac	2.1417646
71	0x41d184d6	26.189861
72	0x42672306	57.784203
73	0x4196d9b5	18.856302
74	0x423e0551	47.50519
75	0x418e0907	17.754408
76	0x41ba4c15	23.28715
77	0x41301c5f	11.006927
78	0x41b5050c	22.627464
79	0x40085fdf	2.1308515
80	0x416c3f30	14.765427
81	0x4192d66c	18.354698
82	0x3f996e42	1.1986773
83	0x40e75929	7.229634
84	0x4182af2a	16.33553
85	0x4186b804	16.839851
86	0x420441c7	33.064236
87	0x4189bc17	17.21684
88	0x4264aeb0	57.170593
89	0x42249d96	41.153893
90	0x41b9642c	23.173912
91	0x41065704	8.396244
92	0x419d42e4	19.657661
93	0x3e3bb8ac	0.18332165
94	0x413e191b	11.881129
95	0x426596e6	57.39736
96	0x41ad42e3	21.65766
97	0x422bfb8e	42.99566
98	0x412b4b75	10.705922
99	0x41ae6409	21.798845
100	0x41b05d6a	22.045612
101	0x41e40aab	28.505209
102	0x3ddcd9cc	0.10783729
103	0x42a791aa	83.7845
104	0x41383dc5	11.51508
105	0x42437ecc	48.873825
106	0x4242bc92	48.68415
107	0x41e497b6	28.574078
108	0x40c28950	6.079262
109	0x4248ee56	50.23275
110	0x41dd5fcd	27.671778
111	0x413e3774	11.888538
112	0x40fd42f8	7.914425
113	0x414b3384	12.700077
114	0x421cc12c	39.188644
115	0x41b78114	22.938026
116	0x422df51f	43.489376
117	0x41ae73ba	21.806507
118	0x41cb3fda	25.406178
119	0x42181974	38.024857
120	0x429df439	78.977
121	0x4131473b	11.07989
122	0x423fd2de	47.955925
123	0x429516b1	74.54432
124	0x42121e1b	36.5294
125	0x401066f4	2.2562838
126	0x421c6af3	39.104443
127	0x421dcc69	39.44962
128	0x408ee13c	4.4649944
129	0x3fca986b	1.5827764
130	0x41b25b3b	22.294546
131	0x41ba61ed	23.297815
132	0x42afb429	87.851875
133	0x40cfc427	6.4926944
134	0x419ecb4c	19.849266
135	0x426af629	58.74039
136	0x4182f7e6	16.371044
137	0x42260442	41.504158
138	0x415e381f	13.888701
139	0x3ea1104d	0.3145775
140	0x41b039b6	22.02818
141	0x41e1755d	28.182306
142	0x41d24373	26.282934
143	0x3ea74345	0.3266851
144	0x41d390f6	26.445782
145	0x423a0f7d	46.515125
146	0x405a06ac	3.4066572
147	0x41aa71d7	21.305586
148	0x418dfb9f	17.747862
149	0x413610a3	11.379062
150	0x41d4183c	26.511833
151	0x4151960f	13.099135
152	0x4287ec92	67.96205
153	0x42233422	40.80091
154	0x42121b0e	36.52642
155	0x40ba1bc1	5.815888
156	0x3e3a374d	0.18185158
157	0x4181df4b	16.23403
158	0x41971625	18.885813
159	0x41d88692	27.065708
160	0x41c1046f	24.127165
161	0x4277a5de	61.91198
162	0x41195815	9.584004
163	0x42360a76	45.510216
164	0x3f0bd8d7	0.54627746
165	0x41520041	13.125062
166	0x3f5c8dd2	0.861539
167	0x3f7354bd	0.95051175
168	0x42710b01	60.260746
169	0x411ff5cc	9.997509
170	0x4234a5ee	45.16204
171	0x4080e42c	4.027853
172	0x417f5497	15.958152
173	0x40f45b29	7.636128
174	0x420b10f9	34.766575
175	0x41e64144	28.781868
176	0x42837bb9	65.741646
177	0x406e642e	3.7248645
178	0x41d5e8ff	26.738768
179	0x41cb27d4	25.394447
180	0x41fb4920	31.410706
181	0x4214bded	37.185474
182	0x3e2d102f	0.16900705
183	0x40a77cea	5.2339983
184	0x408fb8c6	4.4913054
185	0x414f2e2c	12.948772
186	0x408484c4	4.1412067
187	0x41538fe6	13.222631
188	0x4220f10f	40.23541
189	0x41576446	13.461981
190	0x415b5188	13.707405
191	0x406f7c44	3.7419596
192	0x41f49c28	30.576248
193	0x4221b3ea	40.425697
194	0x40aed8f3	5.463983
195	0x41f4cbf4	30.599586
196	0x4106469f	8.3922415
197	0x41986b1f	19.052305
198	0x417a1e1f	15.632354
199	0x3e981420	0.29702854
200	0x41590dad	13.565839
201	0x3f90041b	1.1251253
202	0x3f8084c3	1.0040516
203	0x40e0c3b1	7.023888
204	0x41c96e46	25.178844
205	0x3f76a75c	0.9634912
206	0x424ab2b1	50.674503
207	0x41bf3e39	23.905382
208	0x41706ef4	15.027088
209	0x418916aa	17.136066
210	0x4207e338	33.971893
211	0x4193dbcc	18.482323
212	0x421ad74d	38.710255
213	0x420d62f9	35.346653
214	0x3faa5c5c	1.3309436
215	0x3f3dd4b7	0.741527
216	0x419fe125	19.984934
217	0x414a662c	12.649944
218	0x3e986c5c	0.29770172
219	0x4195c19c	18.719536
220	0x3f3c4623	0.7354452
221	0x4014c0db	2.324271
222	0x4176891e	15.408476
223	0x42871efd	67.560524
224	0x40f7ae42	7.7400217
225	0x406a99b7	3.665632
226	0x4198d69f	19.104795
227	0x4192d70c	18.355003
228	0x4075f36f	3.842983
229	0x427a04f3	62.504833
230	0x402312b3	2.5480163
231	0x422a5bd6	42.589684
232	0x41806fa1	16.054506
233	0x413a74e4	11.653538
234	0x3e71c32c	0.23609608
235	0x40e1a8f4	7.051874
236	0x4231866f	44.381283
237	0x414af691	12.685197
238	0x4141bf80	12.109253
239	0x423b8f18	46.88974
240	0x4089bb05	4.3040795
241	0x4208c5d6	34.1932
242	0x40b04576	5.508479
243	0x4276c78c	61.69487
244	0x41a48812	20.56644
245	0x409c8bf1	4.8920827
246	0x40e4552d	7.1353974
247	0x41bb910f	23.44583
248	0x40096602	2.146851
249	0x4119a34a	9.6023655
250	0x410109ff	8.06494
251	0x426a935a	58.643898
252	0x41917b6a	18.18526
253	0x40cd2c15	6.411631
254	0x413d326e	11.824812
255	0x4226251a	41.536232

fc2.weight f4 [256, 512]
0	0x3b82fb6a	0.003997256
1	0x3d8ab106	0.06772046
2	0xbd06b786	-0.032889865
3	0x3d42d8fa	0.047570206
4	0xbc633198	-0.013866805
5	0x3da9ad1b	0.082849704
6	0x3da93524	0.08262089
7	0x3cb9d99a	0.022686768
8	0xbd0a7248	-0.033800393
9	0xbcaa5abe	-0.020795222
10	0x3cacdba9	0.021100836
11	0x3bcba501	0.0062147384
12	0xbd62210a	-0.05520729
13	0xbd2c9797	-0.042136755
14	0xbae32872	-0.0017330779
15	0x3d0cf767	0.03441563
16	0x3cab4408	0.020906463
17	0xbcbec5e1	-0.023287715
18	0xbd5575c3	-0.05211426
19	0x3d18dc65	0.03731956
20	0xbc500d64	-0.012698505
21	0xbb6a93e1	-0.003579371
22	0xbd7927b5	-0.060828883
23	0x3d0c2c2e	0.03422182
24	0xbcb1c2df	-0.021699367
25	0xbb412198	-0.0029469486
26	0xbc9ebdb1	-0.019377561
27	0xbccf9e03	-0.0253439
28	0xbc8ce747	-0.017200125
29	0x3d38c4d4	0.045109585
30	0xbd102717	-0.03519353
31	0x3dab5aef	0.083669536
32	0xbcf59980	-0.029980421
33	0xbcd706e8	-0.02624841
34	0xbd13edb1	-0.036115352
35	0xbafb5721	-0.0019175747
36	0x3c817e2e	0.015807237
37	0x3d0f7772	0.03502602
38	0x3b859fbc	0.0040778797
39	0xbdf296a1	-0.118451364
40	0xba1bdbdc	-0.00059455424
41	0xbd3873eb	-0.045032423
42	0x3d8102d0	0.062993646
43	0x3c29c614	0.010362167
44	0xbd055647	-0.032552984
45	0x3c705a1a	0.014669919
46	0xbc12fac7	-0.008970923
47	0x3db1c1f9	0.086795755
48	0xbda9aa99	-0.08284492
49	0x3c23c084	0.00999463
50	0xbcb9914a	-0.022652287
51	0x3c3aa9d0	0.0113930255
52	0x3cc7875b	0.024356535
53	0x3cfc04d8	0.030764028
54	0x3cdfd452	0.027322922
55	0xbd711e90	-0.058867037
56	0x3b60f575	0.0034325991
57	0x3c46dd7a	0.012137765
58	0xbd2c14e7	-0.04201212
59	0x3c93016b	0.017945012
60	0xb8addc38	-8.290302e-05
61	0x3ce3147f	0.027719734
62	0x3cc4eccd	0.024038697
63	0xbd92525d	-0.07144616
64	0x3cd20993	0.025639331
65	0xbe12d2e8	-0.14338267
66	0xbc5f34a2	-0.0136233885
67	0x3cd84d7d	0.026404137
68	0x3ce95dc5	0.028487096
69	0x3cf992a4	0.030465432
70	0xbbd1cbb5	-0.0064024576
71	0xbd726933	-0.059182357
72	0x3d245478	0.04011962
73	0x3d65bf34	0.05609055
74	0x3daf38dc	0.08555767
75	0xbb89f5dc	-0.004210217
76	0x3cbe6caa	0.023245174
77	0xbd20c1ec	-0.03924744
78	0xbd0f8504	-0.035038963
79	0xbd23037e	-0.039798252
80	0x3c64e50f	0.013970627
81	0x3d346450	0.044040978
82	0x3c45e980	0.0120795965
83	0xbda978aa	-0.08274968
84	0xbb4ceb80	-0.0031268299
85	0xbb9311ac	-0.0044881906
86	0x3d728cef	0.059216436
87	0xbd02cf7f	-0.031936165
88	0x3d9ac56c	0.075571865
89	0x3dadb241	0.08481265
90	0xbcd7f123	-0.0263601
91	0x3d2882d5	0.041140396
92	0xbd1c74bb	-0.03819726
93	0xbb1e52ed	-0.0024158314
94	0x3c99ff03	0.018798357
95	0x3d047587	0.032338645
96	0x3cbbb564	0.022913642
97	0xbc67a651	-0.014138774
98	0xbd72b375	-0.059253175
99	0x3d477ca1	0.04870284
100	0x3dc4ff99	0.09619064
101	0x3d521f4e	0.051299386
102	0xbcf94a77	-0.030431015
103	0xbc3593ce	-0.011082603
104	0x3afc4375	0.0019246178
105	0x3d3421f0	0.043977678
106	0x3c5e49ab	0.0135673685
107	0x3bae9296	0.005327533
108	0x3c18087e	0.009279368
109	0x3c1806d1	0.009278969
110	0x3d2fa00a	0.042877235
111	0x3d14f36d	0.03636496
112	0xbbe280d1	-0.006912329
113	0xbc8a6665	-0.016894529
114	0x3d7ed576	0.06221529
115	0x3cdd566d	0.02701875
116	0x3d07af83	0.033126365
117	0x3cac9bbe	0.021070357
118	0xbd2ec4c6	-0.042668127
119	0x3c9b6c8c	0.018972658
120	0x3d0cca3e	0.03437256
121	0x3c5dc92b	0.013536732
122	0x3c5b6966	0.013391828
123	0x3dc9e837	0.098587446
124	0x3d3b21a9	0.045686398
125	0xbce0e5cf	-0.027453331
126	0xbcd847d2	-0.026401434
127	0x3d0222c6	0.031771444
128	0xbd24c12e	-0.040223293
129	0x3d288fb3	0.041152667
130	0x3db171d4	0.08664289
131	0x3cd666c9	0.026172059
132	0x3d01ff5d	0.031737674
133	0xbcd75c3f	-0.026289104
134	0x3d04a792	0.03238637
135	0x3d89d272	0.067295924
136	0x3c80d28c	0.015725397
137	0x3c044278	0.008072488
138	0xbcc3eb3c	-0.02391588
139	0xbb640b05	-0.0034796607
140	0x3cbc472a	0.022983152
141	0x3d029d54	0.03188832
142	0x3ae16651	0.001719663
143	0xbbce6397	-0.006298493
144	0xbd3f2c8d	-0.046673346
145	0x3c1ae2f8	0.009453528
146	0xbcfb9f71	-0.030715676
147	0x3c814d64	0.015783973
148	0x3cb1aa8c	0.021687768
149	0xbb376d70	-0.0027988814
150	0x3c4f6343	0.012657943
151	0x3c3fe326	0.011711871
152	0x3cecddf2	0.028914426
153	0x3cb8c093	0.022552764
154	0x3d17f309	0.03709701
155	0x3ccae72f	0.02476844
156	0x3b6bfee2	0.0036010076
157	0xbc46c193	-0.012131113
158	0xbc973d81	-0.018461945
159	0xbbdf993f	-0.0068236883
160	0xbd150a43	-0.03638674
161	0xbcd109f7	-0.025517447
162	0xbc603ff0	-0.013687119
163	0x3d21471a	0.03937445
164	0xbccea307	-0.025224222
165	0x3c88e73f	0.01671183
166	0xbc88d19d	-0.016701514
167	0xbd486310	-0.0489226
168	0x3d169047	0.036758687
169	0xbb4edba1	-0.0031564014
170	0x3d823728	0.063581765
171	0xbcd83816	-0.026393931
172	0x3d4cb16d	0.049973894
173	0x3b9a9415	0.00471736
174	0x3daeaf78	0.08529562
175	0x3d4b0d98	0.04957351
176	0x3a9e6c17	0.0012086657
177	0xbd8f5519	-0.06998653
178	0x3c2d75ec	0.010587197
179	0x3cf724d7	0.030168934
180	0x3c8be204	0.017075546
181	0x3ccd3afa	0.025052536
182	0x3c9e677f	0.01933646
183	0xbd118f72	-0.03553719
184	0xbc843e0a	-0.016142864
185	0xbc534855	-0.012895663
186	0xbd25c35a	-0.040469505
187	0xbcf67546	-0.030085217
188	0x3d1fb524	0.03899111
189	0xbd042fd8	-0.03227219
190	0xbc814548	-0.015780106
191	0x3c629bc0	0.013831079
192	0xbbea9193	-0.007158467
193	0x3d5500ad	0.052002598
194	0x3c3ba896	0.011453768
195	0x3d24855e	0.04016625
196	0xbdd61613	-0.10453429
197	0x3cd25b46	0.025678288
198	0x3c0e6e8c	0.008693349
199	0xbd560fda	-0.05226121
200	0xbd8d167b	-0.068890534
201	0xbd690a09	-0.056894336
202	0xbd9be662	-0.076123014
203	0xbce8be86	-0.028411161
204	0x3d00c48f	0.031437453
205	0x3c67cc85	0.014147882
206	0x3d4edd91	0.05050427
207	0x3cb67cd7	0.022276325
208	0xbc2aa631	-0.0104156
209	0xbc869a18	-0.0164309
210	0xbc7071cf	-0.014675572
211	0x3d00727b	0.031359177
212	0xbae18a52	-0.001720736
213	0x3d12cd32	0.03584022
214	0xbc7a81ca	-0.015289733
215	0xbcda38a9	-0.026638346
216	0x3c0addc7	0.008475727
217	0x3bd5f2a1	0.0065291678
218	0x3d1ff43a	0.039051272
219	0xbcba1d81	-0.022719147
220	0xbd83b9e2	-0.06431939
221	0x3cce75c2	0.025202636
222	0x3c8798f6	0.01655243
223	0x3d1b41a5	0.0379044
224	0xbc155dae	-0.009116573
225	0xbc9ceb72	-0.019155238
226	0x3d2984e5	0.041386504
227	0x3c97a7b8	0.018512592
228	0xbd69f1d2	-0.057115383
229	0x3d9038d7	0.07042091
230	0xbb94c613	-0.004540214
231	0xba50db64	-0.0007967262
232	0xbc8a8a9d	-0.0169118
233	0xbd1c0bc1	-0.038097147
234	0x3d2b4723	0.041815888
235	0xbbd3f208	-0.0064680614
236	0x3d2b1c43	0.041775
237	0x3d10327e	0.035204403
238	0xbb64f026	-0.0034933179
239	0x3d156dce	0.03648167
240	0xbd3e7878	-0.046501607
241	0xbc908a0d	-0.017643953
242	0xbc856bfa	-0.016286839
243	0x3cea8b2a	0.028630812
244	0x3d2bb310	0.041918814
245	0x3c27a9ad	0.010233325
246	0xbd49205c	-0.049103126
247	0xbbaac664	-0.0052116383
248	0x3cdf9942	0.027294759
249	0xbbdcbb56	-0.0067361994
250	0x3ce6dd81	0.028181793
251	0x3d6c7d72	0.05773682
252	0x3d66317b	0.056199532
253	0xbd2defa9	-0.042464886
254	0xbc82c96c	-0.015965186
255	0x3ddb88cf	0.107194535
