DNN/models/best_model1.pt (torch, 837026 bytes, 26 tensors)

fc1.weight f4 [512, 57]
00000000: 18b3 bbbe 94c2 4a3d b8a7 87bb 39cd 913d
00000010: bc3a 143e 1073 6a3d 507c 8c3d fd8d d5bc
00000020: c11f eb3c f6ed 883d 9917 493c 8f5a 1fbd
00000030: e4e8 5abe fa6e 903c edc4 fd3d a573 9ebd
00000040: 2615 643e 1191 be3c e642 10be 11a3 ebba
00000050: 2d4f 2c3e 68cb 683c 8900 5ebd fd86 89bb
00000060: 674c 8cbd a6f8 cdbb 7b21 6f3d 5f5e 9a3c
00000070: 74e8 043d 9cb4 963c f343 92bc e638 323d
00000080: 4f04 963c 2f48 1fbc dea8 3b3d e516 70bb
00000090: 94e5 283d d21b fe3b ff86 56bc e857 4fbc
000000a0: 2947 5cbc 4faf 6ebc f721 973b 43ac 503b
000000b0: c34e f3bb 6761 f9bc 7a39 9fbd 4faa 33be
000000c0: 769b 84bc 6692 61be ae9a e7bd 8236 f73e
000000d0: 8a72 e93d e138 973d e9d7 88bd 6217 d23b
000000e0: 5768 e53c 1990 92ba 71f3 413e 6f5d 433e
000000f0: a4e0 303e 2b21 6f3c 4b2e 523e 1e08 143c
00000100: be41 443c 3212 b8bc 2361 aabc 3654 5ebc
00000110: 9d94 a9bc d731 6abd 7b63 f63c ca03 65be
00000120: 5950 a4bc 3f2d 913e 9689 f1bc bce5 12bd
00000130: 040c 433e ee3b 653d 33ea 35bc 9e60 7f3d
00000140: 3c12 8bbc 3220 c73c 9b34 203c 1283 e2bb
00000150: 6d4b df3c 8d34 67bc 8429 a53c 64a4 de3c
00000160: 2e7b b2bc 54e6 e43c 15ff 263b f39c a3bb
00000170: ed55 fdbb 702c c0bc a6cd e43c 20fe 8c3c
00000180: aba7 dcbc 76e1 05bd 2b50 a43c 2d0a f9bc
00000190: d31f 12bd dcd8 9cbd 0be7 28be e5f2 05be
000001a0: 6931 f1bd be41 abbd bfa9 b0bd f6ec 66bd
000001b0: 3d9e a0be ad2d d5be 43bc 403b 1a4c 99be
000001c0: efd4 4cbe 299e 64be e005 d53b f0e2 48bd
000001d0: 4f42 a73c 37fc 2dbc 7377 ba3c 3144 fabd
000001e0: 19cd 9fbd 998a 353d 3b76 8bbd 40a1 d4bd
000001f0: f466 17bc 6bbb a5ba 95ef 763e aa93 433d
00000200: 367b 81bd 205f 653e e4e3 f3bd a70e 0f3e
00000210: c672 123e 4b00 68ba 4fe5 9f3d 3916 d5bd
00000220: 0c1e 2ebb 752e 853b 2c42 4abd 814c 6fbd
00000230: 293b 423d e9fc 893b 83c6 f9bd 9957 eb3d
00000240: 8e96 df3c 9215 b43c 4191 3c3c cfb5 ab3d
00000250: 5711 b73c 2ef9 ca3b a91a 90bd 3ee9 743d
00000260: 64dc 49bd c2ba 0a3d 315b 833d 35c4 0f3d
00000270: a8ae 023a 1f05 6bbb ed3d 98bd 028a 14ba
00000280: f390 883d 9856 0b3e 6610 bebc c535 ad3d
00000290: 2d2c 093e eb61 ecbe 9a9a e7bd edde f2bd
000002a0: 1425 973d e3cf 6abd 1961 d2be f0a5 3c3b
000002b0: 40ac d43d 1653 663c bc67 4dbe ff43 693c
000002c0: b6b4 42be 033b 51bd 618e 413c f095 18bd
000002d0: 4db5 97bd ca02 32bc dc69 27bd e27b 03bc
000002e0: 3862 e63c e13a 26be 0691 3f3e 3993 d0be
000002f0: 1c9b fbbb ca18 00bd 48b8 47b9 6194 a13d
00000300: e6a5 61bd 4c49 af3c 9cc0 4bbc fc50 b83c
00000310: d144 f03d 3d32 fb3d 94bb 633d fa34 003d
00000320: 6010 3c3d 194a d23b adc9 f8bc 2d08 87bd
00000330: c3f7 2f3d 9b81 54bc bbd9 4dbc 7801 b53b
00000340: 3245 1cbd 0e88 44bd 42c0 083d 693b 7dbd
00000350: 566a 7cbd 874e 083d b366 a73d 9f96 1abd
00000360: cd79 e33b 42b7 89be 6767 073e a803 123d
00000370: 0e1e eebd b139 323d 0f66 423c 67e4 fe3d
00000380: 1581 0abe 2b65 0b3e 3d63 97be 9f42 adbe
00000390: a5b6 c93d 88ef a9bc 01de 8a3d 7fb1 6cbd
000003a0: 68bd eb3c 089d 06be 5c4e a83d 8112 a9bd
000003b0: df3d f4bc 1602 4bbc 94c8 debb e213 26bc
000003c0: 61d1 e1bc 5f6a 51bd 815c 253e afc2 ecbc
000003d0: 7f5e dcbd bddb 303e 2439 cdbc 8377 b2bc
000003e0: d733 98bc b6ea d3bd 9f7c cd3c 7055 a2bb
000003f0: d9e0 80bc 3623 49bd 59cc 12bd 8dba c3bd
-0.36660075 0.04950197 -0.0041398667 0.07119221 0.1447553 0.05723864 0.06859648 -0.026068682
0.028701665 0.066860124 0.0122736925 -0.038904723 -0.21377903 0.017631043 0.12391076 -0.07736901
0.22273692 0.023262532 -0.1408802 -0.0017977675 0.16827078 0.014208652 -0.05419973 -0.004197
-0.0685051 -0.0062857447 0.05838154 0.018843828 0.032448247 0.018396668 -0.017854666 0.043511294
0.018312601 -0.0097218 0.04581534 -0.003663474 0.041234568 0.0077547813 -0.013093709 -0.012655236
-0.0134447 -0.014568164 0.004612203 0.0031840957 -0.0074251606 -0.030441953 -0.07774635 -0.17545436
-0.01618741 -0.22028503 -0.113088 0.48283774 0.113988 0.07383896 -0.066818066 0.006411479
0.028003855 -0.001118186 0.18940522 0.19078611 0.17273194 0.01459531 0.20525472 0.009035138
0.011978565 -0.022469614 -0.020798272 -0.013569882 -0.020700747 -0.057176437 0.030076733 -0.22364727
-0.020057844 0.28354833 -0.029484551 -0.035863623 0.19047552 0.055965357 -0.011103201 0.062348
-0.016976468 0.024307344 0.009778167 -0.0069125975 0.027257646 -0.01411165 0.020161398 0.027177997
-0.021787252 0.02794186 0.002548163 -0.004993075 -0.0077311904 -0.02345869 0.027930092 0.01721102
-0.026935419 -0.03268572 0.020057758 -0.03040036 -0.03567488 -0.0765855 -0.16494386 -0.13080938
-0.11777002 -0.08362149 -0.086261265 -0.056378327 -0.31370726 -0.4163641 0.0029409088 -0.29940873
-0.20003103 -0.22325958 0.0065009445 -0.04904455 0.02041736 -0.010619215 0.022762036 -0.12220038
-0.07802791 0.04432163 -0.0680966 -0.103823185 -0.0092408545 -0.0012644356 0.24114831 0.047748245
-0.06322329 0.22399569 -0.11908701 0.13970433 0.14301595 -0.00088501413 0.07807409 -0.10404629
-0.0026568202 0.004064376 -0.049379513 -0.05842257 0.0474197 0.0042110574 -0.12196066 0.11491317
0.02729347 0.021982942 0.011509241 0.083842866 0.022347135 0.0061942553 -0.07036335 0.05979275
-0.049282447 0.033869512 0.06413878 0.035099227 0.0004985132 -0.0035861207 -0.074336864 -0.0005666317
0.06668272 0.13607252 -0.023201179 0.08457521 0.13395758 -0.46168455 -0.11308785 -0.11858926
0.07380119 -0.057327162 -0.41089705 0.002878543 0.103844166 0.014057895 -0.20059103 0.014237403
-0.19014248 -0.05108167 0.011813731 -0.037252367 -0.07407627 -0.010864923 -0.04087244 -0.008025141
0.028123006 -0.16233398 0.18707666 -0.40737322 -0.0076784026 -0.03127364 -0.00019046769 0.07889629
-0.055089854 0.021397255 -0.012436058 0.022499554 0.11731876 0.122654416 0.05559881 0.031300522
0.045914054 0.0064175245 -0.030369604 -0.06593356 0.042960893 -0.0129703535 -0.012564118 0.0055238567
-0.038151927 -0.047981314 0.033386476 -0.061824236 -0.061624847 0.033278015 0.08173885 -0.0377413
0.00694201 -0.26897627 0.13223039 0.035648018 -0.11626826 0.04351205 0.011865153 0.12445908
-0.13525803 0.13612811 -0.295679 -0.3383989 0.0984929 -0.0207441 0.06780625 -0.05778646
0.02877684 -0.1314584 0.08218071 -0.082554825 -0.029814659 -0.012390634 -0.006798813 -0.010136576
-0.02756566 -0.051126834 0.16148569 -0.028901426 -0.10760211 0.17271324 -0.02505166 -0.021785503
-0.018579407 -0.10347502 0.025083838 -0.0049540326 -0.015732216 -0.049105845 -0.035839412 -0.09557066

fc1.bias f4 [512]
00000000: b0aa 2db6 188d 29b7 7d3b 1cb8 e88b b6b6
00000010: 7a63 0835 28b1 6f36 676d 0b35 221c 3937
00000020: 8aae de36 ed97 dab4 2022 1c35 0d82 cfb7
00000030: f52e d536 c861 04b7 6c59 8e36 ca93 62b7
00000040: d096 f0b4 f667 a7b7 7c61 ac35 47b7 cbb7
00000050: db79 beb3 e06e 98b3 c49b 08b4 debd 2037
00000060: dec2 0d36 ed38 aab7 9439 8e37 9afc e9b5
00000070: 8e5e 0536 69fb 9db6 651c 3536 ffb6 53b5
00000080: 94fc f036 26d4 3a35 80f4 ceb2 f25c 2cb6
00000090: f852 9537 5111 8bb7 28a3 a134 e4c2 6cb3
000000a0: 0cb6 8837 39da 7034 f5d9 1db6 df32 53b5
000000b0: 2a64 af35 88e0 aeb5 de8d 78b6 0a39 2435
000000c0: eed2 3735 e090 6f34 b191 75b5 0399 4db7
000000d0: 2b8d 02b6 58f8 0730 a307 35b6 74f9 cfb6
000000e0: e5f1 4e34 0cc6 ca34 7111 b236 1d67 9036
000000f0: d83e 4837 92c1 85b5 184e 25b7 3127 beb7
00000100: 3482 1436 8519 dbb6 88e1 6d35 6f02 5b37
00000110: 71e6 1436 c6cc 6433 7820 8535 6e78 d536
00000120: eb8c 96b5 4257 a8b5 dd7c d737 abca 4535
00000130: 8327 22b5 8680 c8b7 7243 60b5 8b20 82b7
00000140: faf8 78b5 f657 5537 c588 3435 8cb3 6c38
00000150: 0d3a 14b7 cc80 c135 007c 21af 7ead 22b6
00000160: 3dae 35b6 f2a7 92b8 f264 bbb6 e05d 5837
00000170: 4065 24b3 7487 44b4 3f61 a1b6 2720 5eb2
00000180: b806 8336 1851 43b3 1d8c 9736 cd67 1e37
00000190: ad62 2db6 ac7c e637 7409 9e34 544e 9037
000001a0: fa04 ae35 a039 8237 b23b da36 888b 88b5
000001b0: d33b 49b7 cbdd f7b6 60a9 d2b6 d11f 7d33
000001c0: 6467 78b5 9ba6 9033 0a4a a236 62b1 02b6
000001d0: ebf7 08b1 6cf7 acb7 865f 2237 8afc 2ab7
000001e0: b02d 5c36 71a0 6b35 f185 b3b4 c49f 3436
000001f0: d60d e235 e6d0 7634 e45a 1c36 120c 52b7
00000200: 4e1d d7b6 7ced e1b5 f274 2d35 f66f ea33
00000210: 49c7 5ab7 bccd 0436 5ac8 61b7 915e 3536
00000220: a5c9 01b6 f3fc a436 5a6b 06b4 c602 bb37
00000230: 6b9c 6835 cea8 9f36 b84a c2b5 6be6 17b7
00000240: e261 20b7 9b72 1db6 e379 b937 b7b8 02b7
00000250: d4e5 bf35 bb88 db37 922f cdb6 d435 29b7
00000260: 5c50 beb7 3eee 1fb6 62e0 9635 d8bd 2237
00000270: 1938 d8b6 34fd cc35 26b6 34b7 fb1b ad36
00000280: 7bfd d7b6 582e 3db8 97e6 96b7 e699 1ab7
00000290: 0460 ccb6 8946 0838 7d69 6735 f913 a837
000002a0: 6c26 9b36 847a d0b6 bc85 9535 8431 9337
000002b0: 79ec 0737 6ca2 8eb4 1a8f abb7 a73d a734
000002c0: 9e70 8eb5 02ad 3cb7 5e52 50b6 79ef f0b7
000002d0: 0e9a a535 4c2d dd37 28fa 3535 1036 45b4
000002e0: 2a4f 8437 3151 9235 0c4a 8036 799b 95b6
000002f0: 3ab3 3fb7 2bba 2ab7 c6c2 4735 16da 08b4
00000300: f28d 25b6 c031 e6b5 fd27 f134 4b8e d7b4
00000310: acc7 0cb8 1c18 c435 7aa9 1cb5 5439 3035
00000320: 2292 1cb7 1bc8 98b5 91a2 4736 8a4e 1234
00000330: 261f 9535 88f2 7fb7 b7e9 8eb5 5481 f1b5
00000340: 9ea3 6036 94aa 1937 92b7 b6b7 68d3 43b6
00000350: 483c 35b7 7ffc 18b7 19dc 2036 fa53 1137
00000360: 78fc 60b6 fbdb 5036 a2b0 b8b5 73e8 e8b5
00000370: ad00 5d38 607d 9934 ced4 9bb6 b0ad 3935
00000380: 29c6 0c37 1f38 6a36 ee37 b435 4043 6eb1
00000390: 9491 52b7 e507 21b7 4787 7c35 e469 09b6
000003a0: 80a5 4637 e07a 9fb7 70c8 5635 59a3 25b7
000003b0: de0e 1036 3aee 6636 7dd9 1b37 0003 4d37
000003c0: 5a5e 7937 60cf 3cb4 342f d0b6 88af 6137
000003d0: 57b2 c936 45df 8334 5818 6837 004e 5333
000003e0: 0052 87b5 1c61 1b36 2721 86b5 0bf3 04b7
000003f0: ea53 47b4 b911 9435 89dc 1d38 c84b 6337
-2.5878362e-06 -1.0106036e-05 -3.72487e-05 -5.44031e-06 5.0808706e-07 3.5716894e-06 5.1940737e-07 1.10334095e-05
6.6364346e-06 -4.0716205e-07 5.8164187e-07 -2.4736883e-05 6.353361e-06 -7.89058e-06 4.24234e-06 -1.35050595e-05
-4.4813214e-07 -1.9956362e-05 1.284337e-06 -2.4284831e-05 -8.86973e-08 -7.0982196e-08 -1.2722654e-07 9.58095e-06
2.1124065e-06 -2.0292087e-05 1.6954531e-05 -1.743337e-06 1.9873582e-06 -4.7082326e-06 2.698763e-06 -7.886992e-07
7.1819613e-06 6.9599116e-07 -2.4092742e-08 -2.5684099e-06 1.780082e-05 -1.6578155e-05 3.01073e-07 -5.5125284e-08
1.6297236e-05 2.2431131e-07 -2.352169e-06 -7.867765e-07 1.3067668e-06 -1.3029357e-06 -3.7037457e-06 6.1177764e-07
6.8479756e-07 2.2311315e-07 -9.148162e-07 -1.2254578e-05 -1.945368e-06 4.946563e-10 -2.6975547e-06 -6.198121e-06
1.9273246e-07 3.776953e-07 5.306844e-06 4.3035384e-06 1.1935561e-05 -9.965609e-07 -9.852949e-06 -2.2668015e-05
2.2129507e-06 -6.5296795e-06 8.861757e-07 1.3053984e-05 2.2187853e-06 5.3271627e-08 9.918722e-07 6.3619145e-06
-1.1216883e-06 -1.2542371e-06 2.5688141e-05 7.368314e-07 -6.04072e-07 -2.3901706e-05 -8.354465e-07 -1.5512362e-05
-9.274951e-07 1.2716269e-05 6.725425e-07 5.6434e-05 -8.835003e-06 1.4417105e-06 -1.4686918e-10 -2.4240867e-06
-2.7072522e-06 -6.993105e-05 -5.584786e-06 1.289646e-05 -3.8276312e-08 -1.83032e-07 -4.809495e-06 -1.2929411e-08
3.9048864e-06 -4.547573e-08 4.516462e-06 9.441702e-06 -2.5836446e-06 2.7476191e-05 2.943667e-07 1.7202612e-05
1.2965459e-06 1.5524041e-05 6.5038557e-06 -1.0173399e-06 -1.19944625e-05 -7.3869937e-06 -6.2782055e-06 5.893509e-08
-9.253765e-07 6.735828e-08 4.8365955e-06 -1.947476e-06 -1.993153e-09 -2.0619213e-05 9.678193e-06 -1.0191588e-05
3.2809148e-06 8.7777795e-07 -3.3438803e-07 2.6915086e-06 1.6842339e-06 2.2986532e-07 2.3298717e-06 -1.2519786e-05
-6.410911e-06 -1.6832923e-06 6.46177e-07 1.091684e-07 -1.3040212e-05 1.9789286e-06 -1.3457693e-05 2.7026147e-06
-1.933987e-06 4.917028e-06 -1.2518777e-07 2.2293429e-05 8.6654353e-07 4.7582207e-06 -1.4475872e-06 -9.05395e-06
-9.559533e-06 -2.3461532e-06 2.2110476e-05 -7.791611e-06 1.4297498e-06 2.6170504e-05 -6.115014e-06 -1.0085718e-05
-2.2687185e-05 -2.3831522e-06 1.1241175e-06 9.700154e-06 -6.4438323e-06 1.5272876e-06 -1.0771246e-05 5.159059e-06
-6.4370083e-06 -4.5104272e-05 -1.798877e-05 -9.214948e-06 -6.0908515e-06 3.2490618e-05 8.620771e-07 2.0036461e-05
4.623833e-06 -6.2131458e-06 1.1140287e-06 1.7546823e-05 8.101685e-06 -2.656774e-07 -2.0451425e-05 3.1151032e-07
-1.06126e-06 -1.1245955e-05 -3.104236e-06 -2.8721743e-05 1.2338294e-06 2.6366346e-05 6.779178e-07 -1.8366723e-07
1.577249e-05 1.0901477e-06 3.8233175e-06 -4.4586454e-06 -1.1426217e-05 -1.0176135e-05 7.441671e-07 -1.2745326e-07
-2.466954e-06 -1.7150815e-06 4.4918843e-07 -4.0150402e-07 -3.356456e-05 1.4610155e-06 -5.836115e-07 6.564853e-07
-9.332349e-06 -1.1383121e-06 2.9747937e-06 1.3625882e-07 1.111043e-06 -1.5255653e-05 -1.0647844e-06 -1.7993539e-06
3.3473839e-06 9.1592265e-06 -2.1781572e-05 -2.918032e-06 -1.0802476e-05 -9.118695e-06 2.3969972e-06 8.662226e-06
-3.3525557e-06 3.112246e-06 -1.3760475e-06 -1.7352999e-06 5.2691135e-05 2.8589693e-07 -4.6441337e-06 6.917062e-07
8.390788e-06 3.4901384e-06 1.3427323e-06 -3.4671785e-09 -1.255087e-05 -9.598186e-06 9.407417e-07 -2.0476227e-06
1.1840253e-05 -1.9011495e-05 8.001289e-07 -9.872799e-06 2.1466326e-06 3.4411337e-06 9.289358e-06 1.2219651e-05
1.48635245e-05 -1.7584307e-07 -6.204378e-06 1.3451914e-05 6.0110283e-06 2.45631e-07 1.3833946e-05 4.9198206e-08
-1.0082149e-06 2.3153325e-06 -9.993427e-07 -7.924401e-06 -1.8563847e-07 1.1032017e-06 3.7637106e-05 1.3547899e-05

bn1.weight f4 [512]
00000000: 2dc1 cb3e 6822 693f ae28 1f3f 5f5a 553f
00000010: 0454 923e 24cf 853f 1321 c63e 6c56 893f
00000020: e6e1 103f 3394 d73e 9ab8 743f e837 813f
00000030: e8d6 913f f5a5 313f b2aa 3c3f 558f 413f
00000040: 19c1 b93e 3f58 3a3f c43f bd3e 039d 313f
00000050: c360 8c3e eb91 c83e 68a5 df3e ad3f 3e3f
00000060: c240 0f3f aa3c 7f3f 5b26 663f dd30 223f
00000070: e17a 103f b99c 773f 0d24 9a3e cc57 2a3f
00000080: 7eed 553f 1103 263f 62ad 543f 3900 bc3e
00000090: b2cf 783f 3aac 123f aeed f33e 38cd 4d3e
000000a0: 9c94 6b3f 7ddd 8d3e e7f4 633f 4fcd 033f
000000b0: a298 a93e 69ae f23e 59e5 3f3f 176d d33e
000000c0: e3f2 e33e 6af1 8d3f 9385 c73e fdaf 843f
000000d0: 5d40 933e efdc a33b 8925 0d3f 6052 583f
000000e0: 3a9f 2f3f c207 e83e 3988 bc3e eac8 0b3f
000000f0: 422b 293f 2e34 fc3e 2296 f83e 5a3f 313f
00000100: 35fa 453f 2657 803f f3d4 c53e f847 7a3f
00000110: 9af0 1f3f 9121 923e 950d a03f 4494 583f
00000120: a641 f23e f7af 003f 143e 163f 4ee6 753f
00000130: 619a 903e 9a4a 593f 61f8 e03e 7b2d 0e3f
00000140: ba06 0f3f 339c 783f 7a76 2b3f 7ab4 4e3f
00000150: c67b 863f 5f40 213f 4f26 ce3e 770a 273f
00000160: e936 633f 6331 333f fa11 fa3e 976e 2a3f
00000170: 8ce9 253f d9b0 ea3e c976 813f 203b 303d
00000180: c6ce b73e e3e2 bd3e de7d 1d3f 96cb 413f
00000190: 20c2 113f 7ed0 603f 162b 1f3f 80f2 303f
000001a0: 60b0 473f 6f23 683f 34cd 963f 3950 a63e
000001b0: f2df 813f 031a 253f c332 6e3f b632 c33d
000001c0: c12a 833f 3c27 e43e fbd3 7a3f d700 0f3f
000001d0: f21c 2a3c a251 6e3f 574d 503f add4 233f
000001e0: f568 6d3f 4382 fe3e 21e8 c33e 66a3 8f3f
000001f0: 0865 393f 4d60 f03e 256d 2d3f a156 6b3f
00000200: bcc4 633f 4e8b d53e 0800 353f 0526 113e
00000210: 70df 283f 2994 113f 6b0c 153f 3e45 3e3f
00000220: 183c 243f bc7e 993f 2d4f 253f c4c8 8e3f
00000230: 05cc c53e d30b 2c3f 5d16 f93e 3571 263f
00000240: f16a 893f bedc 203f e3ed 043f 8a0a 533f
00000250: 86ba b93e 7dc2 013f 6491 863f ac2c 7d3f
00000260: 2c95 0f3f 213b 9c3e 8a9c b73e b265 713f
00000270: 0cd4 823f 5c48 b03e 1b52 843f 882c 5d3f
00000280: 9896 683f 836b 473f 4722 ea3e f4d8 8e3f
00000290: ee1b 513f 0530 4c3f 8990 d53e b4c2 3a3f
000002a0: 5142 8a3f 6b4e 573f 7f84 703f 2b13 083f
000002b0: 1b3b 403f a1c8 8b3e 1d2d cd3e 34cc 153f
000002c0: 3b18 1e3f 11fe 6a3f aef8 743f 47fa 073f
000002d0: 467f 833f cd3c 113f 8576 153f 7692 fa3e
000002e0: 4d70 333f 79a8 e13e 05ab 5b3f 14dc 873f
000002f0: d952 093f 9fc5 243f bb86 d43e 5ebe d23e
00000300: 044b 853f 476b 7e3f 87a1 0d3f 6e82 b93e
00000310: 5b37 1b3f f63f 083f dfce 223f a8ca cb3e
00000320: 7b55 9b3f 0f2f 2d3f 1b54 5a3f 0583 013f
00000330: f2cb ca3e d14a 443f c363 033f 349c 793f
00000340: 6ad7 8c3f 5125 483f b0be 863f fc1d 133f
00000350: 6c4d 383f 898c 6b3f 3a99 793f 184f 303f
00000360: 424b 903f 626a 3b3f 5888 083f 4b07 663f
00000370: 0a5e 5a3f ab9d c73e e1dd 583f a643 263f
00000380: cae3 973e 8354 233f d6c9 f13e 066b 1d3f
00000390: aa1e 2b3f 4ba7 133f 5245 c43e 9d11 133f
000003a0: b92a 233f 2e2c 933f 3220 593f ad04 6c3f
000003b0: 5168 013f 80a7 cd3e 1c89 3c3f 9f1f 513f
000003c0: 99f7 833f 1963 d83e b3d0 c43e 0647 9c3f
000003d0: 34ae 053f 536a e43e d298 4c3f 49be a33e
000003e0: bd62 d83e b1d6 a93e 7e47 4e3f 0ff3 163f
000003f0: 9acf dd3e 5b0b f73e d44c 883f b4b9 833f
0.3979582 0.91068125 0.6217145 0.8334102 0.28579724 1.0453839 0.3869711 1.0729499
0.56594694 0.42105255 0.9559418 1.0095186 1.1393709 0.69393855 0.7369796 0.7560933
0.36280134 0.727909 0.36962712 0.69380206 0.27417573 0.39173827 0.43680882 0.7431591
0.5595819 0.9970194 0.89902276 0.6335581 0.564375 0.96723515 0.3010563 0.6654022
0.8356551 0.6484843 0.8307706 0.3671892 0.9719192 0.57294047 0.47642273 0.20097816
0.92023635 0.27708045 0.89045566 0.5148515 0.33124262 0.4739869 0.7495933 0.41294166
0.44521245 1.1089299 0.38969097 1.0366207 0.28760043 0.0050007026 0.551354 0.84500694
0.68602335 0.4531842 0.3682268 0.54603446 0.6608163 0.4925856 0.48552042 0.6923729
0.7733491 1.0026596 0.3863903 0.97766066 0.62476504 0.28541234 1.2504145 0.84601235
0.4731571 0.502685 0.58688474 0.9605454 0.28242782 0.8487946 0.43939498 0.5553815
0.5586964 0.9711334 0.66977656 0.80744135 1.0506523 0.6298885 0.40263602 0.65250343
0.8875566 0.69997233 0.4884184 0.66574997 0.6480949 0.4583805 1.0114375 0.043025136
0.35899943 0.37087163 0.61520183 0.7570127 0.56936836 0.87818134 0.6217512 0.69120026
0.780035 0.9067907 1.1781373 0.3248308 1.0146468 0.64492816 0.93046206 0.09531157
1.0247422 0.44561183 0.97979707 0.55860656 0.010382878 0.9309331 0.8136801 0.6399639
0.92738277 0.49708757 0.38263038 1.122174 0.72419786 0.46948472 0.67744666 0.9192906
0.8897207 0.41707844 0.7070317 0.1417466 0.6596594 0.568667 0.58222073 0.74324405
0.64154196 1.1991801 0.6457394 1.1155019 0.38632217 0.6720554 0.48649874 0.6501649
1.0735761 0.62836826 0.51925486 0.82437956 0.3627512 0.5068739 1.051312 0.9889629
0.56086993 0.30513862 0.35861617 0.942958 1.0220962 0.34430206 1.0337557 0.86396074
0.9085479 0.77898425 0.45729277 1.1159959 0.8168324 0.7976077 0.41711834 0.72953343
1.0801488 0.8410403 0.93952173 0.5315425 0.7509019 0.27301505 0.4007348 0.58514714
0.6175572 0.91793925 0.95691955 0.5311627 1.0273216 0.567334 0.5838397 0.48939866
0.7009323 0.44073847 0.8580783 1.0614038 0.5364204 0.64364046 0.4150904 0.41160864
1.0413518 0.9938244 0.55324596 0.36232322 0.6063134 0.53222597 0.6359691 0.39803052
1.2135462 0.6764993 0.85284585 0.50590545 0.39608723 0.7667666 0.513241 0.9750397
1.1003239 0.7818194 1.0526943 0.5746763 0.71993136 0.92011315 0.9749943 0.6887069
1.1272967 0.732092 0.53333044 0.8985488 0.8529974 0.3898748 0.8471356 0.64946973
0.29665977 0.6380083 0.472243 0.6149143 0.66843665 0.57677144 0.38334137 0.5744875
0.63737065 1.1497858 0.8481475 0.92194635 0.505498 0.40166855 0.7364671 0.81688875
1.0309936 0.42263106 0.38440475 1.2209175 0.5221894 0.4461237 0.79920685 0.31981114
0.4226283 0.3317161 0.8057784 0.5896463 0.4332245 0.4825085 1.0648446 1.0291047

bn1.bias f4 [512]
00000000: 7e70 07bd ef33 25be 2cc4 adbe eae0 a7be
00000010: 0497 7fbd 82c4 7fbe 9f8b 25bb 620e 20be
00000020: b3be 7abe 57dc 093d 6d44 10be 9ede 19be
00000030: 0129 39be e404 fdbd e7ff 00be 233e 12be
00000040: 60c5 26be f767 57be 6977 95bc 83a9 89be
00000050: ba3a c8bc f545 f13b 9e3a 21bd 60a6 94be
00000060: 518d 3fbe b94f 1bbe 0953 1bbe 659e f4bd
00000070: 460d 47be 3c8d 31bd a064 473c fb0c 3fbe
00000080: 3fdb 01be a44c a9bd 0d74 19be 5d20 38bd
00000090: 916f 89be b02c 3fbe 3774 42bd 42c7 8abc
000000a0: 3f19 49be 424d a0bd 47b1 edbd 44bb ccbd
000000b0: f9bb ebbc cd5b 4bbe ce30 9cbe 5f3f 733b
000000c0: 39d5 953d 304d 1dbe 5d8b cebd b3b0 2ebe
000000d0: 35e9 9dbc 75d5 beba e53f f3bd 5814 efbd
000000e0: 1684 86be 06b9 f1bd a3ab 05bd 3b41 4a3d
000000f0: b1c3 71be d3f9 08be d5e4 c9bd dc0d d1be
00000100: 057f efbd 782f 20be 0e2b 6f3c f77c 1bbe
00000110: ab96 27be 32bd 92bd 2da7 32be 2fb9 e2bd
00000120: 0025 13bd 319e 73be 00c3 b6be 0507 0dbe
00000130: 8a17 49bc 87d7 babe a685 13be 91f1 22be
00000140: 4a43 1abe 8727 03be 55e8 13be 487d d1be
00000150: c551 12be 2d62 14be 73c1 8d3b bb7f 23be
00000160: a670 cdbd a35c 83be bd6b ee3d 1f21 00bf
00000170: 0d4f 40be f4bc d9bd 4f31 10be 3b3c 91bd
00000180: 037f ff3b 6bec 50bd 8fb2 eebd fea8 0dbe
00000190: 27e1 14be b69f 1dbe 4981 16be 0364 1cbe
000001a0: c464 04be 615b 01be 0a85 1dbe f7ec d9bd
000001b0: ec65 09be c9da 3ebe c3fb 19be 5254 d0bd
000001c0: f22f 16be ee72 49be 321a e5bd 3343 1fbe
000001d0: 606f 14bc 1e1f 06be bdd0 1fbe 1409 08be
000001e0: 1237 16be 752b c83d 9c34 be3c 6eaa 1ebe
000001f0: 2095 93bd a20f 16be fea8 f1be 71a5 11be
00000200: adae b1bd 471b d3ba 81a8 f4bd 72e9 5bbc
00000210: b3c1 a3be 6ead c7be f379 7cbe a907 37be
00000220: 47f3 abbe f192 1cbe 95d3 17be f807 1bbe
00000230: 0bc3 a0bb 5e7b bbbd 88d1 12bd 9749 b5be
00000240: b6e7 26be 4eea 59be 0e3f b43c e03d 34be
00000250: 9e0f 493c cbf7 9ebe b328 24be a3ea 13be
00000260: 8451 91be 0df9 01bb 451b f6bb 5579 fcbd
00000270: 7ef6 1fbe 991b 9c3d 984b 05be b741 f3bd
00000280: 53ca 21be b789 6ebe 0f00 45be 5c52 25be
00000290: a41c b7be d3b3 84be 1be1 fdbc b6b9 efbe
000002a0: 1b3c 24be 19f3 ddbe 7de9 eabd f8e0 e9bd
000002b0: d279 06be 7fed 2cbe 0a96 dcbd 85bf 20be
000002c0: e3df 4abe 537f 11be 5e34 16be 1953 4bbe
000002d0: 3812 1ebe b815 b2be 467a 2fbe 5b61 21be
000002e0: 50e6 afbe fe62 51bb 0a50 20be 738d 13be
000002f0: 3432 86be c838 9dbe 7b98 a7bd 8a4b 15be
00000300: a6e5 0abe 664b 0dbe 6c77 c9bd 0c94 453d
00000310: 26f9 54be b988 0abe 619f 0dbe 3498 f23c
00000320: 80e4 49be 9a3a 0bbe 1b14 febd 66cb 53be
00000330: 8bab b2bb 20c6 febd 5944 bdbd a6ae 04be
00000340: 7ce8 18be 4ed6 b6be 22d2 17be 0fe4 493d
00000350: c2a6 29be 2d9b 09be d2d6 0bbe 8a5c 8bbe
00000360: 325d 27be 51e6 4abe 73d2 e0bd 5a1c 09be
00000370: ff7a dabe 5857 cb3b 33ec 73be bfe6 2fbe
00000380: f5ae a23c 159d 1dbe 199a 89bd c7a1 0dbe
00000390: 3b1d 78be 3793 6dbe e964 d6bd e3e5 6abe
000003a0: 5d2b 70bd 336c 1bbe 7096 07be af5b dcbd
000003b0: bf79 373d a1df 4b3d 213c 7cbe 77ed 06be
000003c0: 583c 13be 1bd7 233b 2864 0d3d 60ae 2ebe
000003d0: 753a b5be fa6f 28bd 31cd 06be d9fb a4bd
000003e0: b8f7 873d db20 42bc 5dda a7bd 5999 86be
000003f0: ddbd a73d 360c 03be 3295 14be b830 17be
-0.033066265 -0.16133092 -0.3393873 -0.32788783 -0.06239988 -0.24977306 -0.0025260223 -0.15630487
-0.24486808 0.033657398 -0.14088602 -0.15026328 -0.18082048 -0.123544484 -0.12597619 -0.14281516
-0.1628623 -0.21035753 -0.018245416 -0.2688714 -0.024442066 0.007363076 -0.039362542 -0.29033184
-0.18706252 -0.1516713 -0.15168394 -0.11944274 -0.19438657 -0.043347582 0.012169987 -0.18657295
-0.12681292 -0.08266571 -0.14985676 -0.04495274 -0.2684293 -0.1866939 -0.047474112 -0.016940717
-0.19638537 -0.07827236 -0.116060786 -0.099966556 -0.028776156 -0.19859238 -0.30505985 0.003711663
0.073160596 -0.15361476 -0.10085175 -0.17059593 -0.01927624 -0.0014559465 -0.11877421 -0.11673802
-0.2627265 -0.118028685 -0.03263439 0.049378615 -0.23609807 -0.1337655 -0.09858099 -0.40830886
-0.11694149 -0.15643108 0.014597667 -0.15184389 -0.16366069 -0.071649924 -0.17446585 -0.11070477
-0.035923958 -0.23790814 -0.35695648 -0.13772209 -0.012273679 -0.3649256 -0.14406452 -0.15912463
-0.15064731 -0.12808047 -0.14444096 -0.40915895 -0.14289005 -0.14490576 0.0043260395 -0.15966694
-0.100312516 -0.25656614 0.11641643 -0.5005054 -0.18780155 -0.10631743 -0.1408131 -0.07091566
0.0077971234 -0.051006716 -0.11655151 -0.13833997 -0.14539014 -0.15392956 -0.14697756 -0.15272526
-0.12929064 -0.12632515 -0.15382782 -0.106409006 -0.13417786 -0.18638147 -0.15037446 -0.10172333
-0.14666727 -0.19672748 -0.11186637 -0.15552978 -0.009059757 -0.13097808 -0.15606971 -0.13284713
-0.14669445 0.09773914 0.023218445 -0.15494701 -0.07206178 -0.14654401 -0.47199243 -0.14223267
-0.08675895 -0.0016106152 -0.11946202 -0.013422357 -0.31983718 -0.38999504 -0.24655895 -0.17874016
-0.33584043 -0.15290429 -0.14826806 -0.15139759 -0.0049060634 -0.0915439 -0.035844356 -0.35407707
-0.16299328 -0.21280786 0.022002723 -0.17601728 0.01227179 -0.31048426 -0.1603115 -0.14444976
-0.28382504 -0.0019832284 -0.007510575 -0.1232783 -0.15621373 0.07622451 -0.13017118 -0.118777685
-0.15799837 -0.23294722 -0.19238304 -0.16144699 -0.3576404 -0.25918445 -0.030991128 -0.46821374
-0.16038553 -0.4334953 -0.114703156 -0.114198625 -0.13132408 -0.16887473 -0.10770805 -0.15698059
-0.19811969 -0.14208727 -0.14668414 -0.19855918 -0.15436637 -0.34782195 -0.17136487 -0.15759794
-0.34355402 -0.0031949873 -0.15655532 -0.14409427 -0.26210177 -0.30707383 -0.0818338 -0.14579597
-0.13564166 -0.13798293 -0.09837231 0.04823689 -0.20798168 -0.13528718 -0.1383033 0.029613592
-0.19716072 -0.13596573 -0.124061786 -0.20683059 -0.0054525784 -0.12440133 -0.09241552 -0.12957248
-0.14932436 -0.35710377 -0.14826253 0.04928976 -0.1656752 -0.13438101 -0.13656166 -0.2721904
-0.16344145 -0.19814421 -0.1097764 -0.13389722 -0.42671964 0.0062054805 -0.23820572 -0.17177866
0.019858817 -0.15391953 -0.06718845 -0.13831244 -0.242299 -0.2320069 -0.10468466 -0.22939257
-0.058635104 -0.15177993 -0.13240981 -0.10759675 0.04479384 0.049773816 -0.24632312 -0.13176523
-0.14378488 0.002500004 0.034519345 -0.17058706 -0.35396162 -0.041122414 -0.13164212 -0.08055849
0.066390455 -0.011848654 -0.08195946 -0.2628887 0.081905104 -0.12797627 -0.14510038 -0.14764678

bn1.running_mean f4 [512]
00000000: f482 b7bf 5e76 ebbd 7b71 e93d 95b0 003d
00000010: a86e 173f 1ae4 003f 4e5c f13e 9e0e 94bf
00000020: b428 2bbf 676a 5a3f fe4c a6be 32ab 90bf
00000030: 3e8b 3ebf 8b0f eabd 1442 f6be 5f0b 92bf
00000040: 13f3 993e 9791 183d 5d26 0e3e d171 4c3e
00000050: 6abd b3be cbe3 ed3e b695 0f3f 902a a1be
00000060: cfab 55bf 616d 2dbd c44a 4cbf 9591 17bf
00000070: 0891 66bf 2f67 b7be 00d4 d73e 136f 82bf
00000080: 5551 00bf ff61 0ac0 04d5 24bf 9226 8a3d
00000090: 011c cfbe f0e3 813e 5461 06c0 07a2 a13e
000000a0: f6c9 31be fdb4 ceba def7 ccbe 56d6 09bf
000000b0: 3213 3b3e aca7 963e 09fb 97bf f06e 133f
000000c0: e3eb b03e d734 8ebf f772 673d 0f10 bc3e
000000d0: a189 19bf 590a 0abe a898 453e 3cfe 2fbf
000000e0: 5e01 97bf fab1 cfbe bc4d 47be 8e2e ee3d
000000f0: f617 a3be 9f78 1ebe 8ec6 573e a4b2 8a3d
00000100: 985e da3c 389d 9abe 0285 d63e 6816 bcbd
00000110: 2e5b 24bf a38f f4bf ac53 aebf f30b 48bf
00000120: 9417 5a3f 570f 683e eac5 95be 6d6b aebf
00000130: d461 873f 0048 9f3d 9e3b 953b 7f5c c1bf
00000140: a097 2dbf 18df 1fbf 0258 10bf 5757 83bd
00000150: ff98 8fbf 8da4 65be efbc e43e b170 e2bf
00000160: f2b6 13bf aa65 1a3e 6775 413e 52f9 43bc
00000170: 8d9d 10bf 9618 c2bf 14eb 66be 3ef0 dbbe
00000180: c0e3 f43d 27f0 193f 8e2f a1be 08f2 4dbe
00000190: 3a94 ce3e 2352 c4be 3af6 8abd 84a8 653d
000001a0: 9bdb 44bf c902 91bf a012 58bf 8f9b b3bb
000001b0: 991d 62be 24a5 723e 9c89 9fbe 1343 e6bd
000001c0: f217 afbe b2a5 06bf 2641 6fbf 64ae b2bf
000001d0: 192c d7bd c995 96bf 0ceb 2dbf fe99 97be
000001e0: a367 e1be c3ae 1d3f 37cc 653f f9f8 11be
000001f0: f127 8bbe 2fff b5bf 2ed5 5b3f fd26 f9be
00000200: 3440 5fbf 0142 073f 76ba 4f3e f730 ca3d
00000210: 9913 8cbe d507 67be cf08 bbbf e856 59bf
00000220: 9ab5 10bf 0b4b 96bf 0610 50bf dffe 98bf
00000230: c7ae c03e 5569 17bf f86c 9ebe bd6b 853e
00000240: ce65 87bf 5e7b 26bf e4ce e33e 04ab c83d
00000250: c534 26bf 5ecd 0abf f47e 84bf 0b1a 93be
00000260: d4b3 79bf cd9a b03e 3d89 c33e 52e9 66bf
00000270: 2e78 9fbf 0e04 db3e 658b 37bf a009 46bf
00000280: 6bb5 b6bf 59c0 babd 0c92 083e b5de b0be
00000290: 4e2c c1be 5dec 0cbf 8842 f03e 1e42 643e
000002a0: 4250 2fbf b03c c83e 804c cdbf 455b 20bf
000002b0: e3e4 10be 6ec9 9fbe b291 64be a876 d1be
000002c0: 4f6f 1dbf f906 8abf ddfa 97bf bd15 00bf
000002d0: c163 28bf 8187 61bf ddbc a0be 2073 c1be
000002e0: c164 cf3e 772f d93e 698c 2dbd 7b78 5cbf
000002f0: 91a7 a8be 187a c4bd 2ef4 663f 760c 2abf
00000300: b51e cebf 0127 2dbf 3ac9 6dbf d85d 6cbe
00000310: 8b82 17bf c8f4 98bf 6614 afbf e3c0 b23f
00000320: 107c 8cbf e9d4 40bf 2682 3abe 003b ddbe
00000330: f7b6 98be 78d1 22bf 97ce 28bf 9e9a 90bf
00000340: eb98 96bf 082e 01bf 5cad 2abd fb8c a73e
00000350: db45 8ebe 8cc6 463e 8dcc 21bf 824f 3bbe
00000360: fc3d a4be 0a0d 94bf bb50 e5be 2b08 15bf
00000370: 3625 fbbd af34 5b3f a9e0 98be 7a5b 43bd
00000380: 2028 3ebf f236 dcbf 1594 693f b249 0cbf
00000390: 2c56 2c3e 1c67 8ebe 1ab6 16be d4e5 96be
000003a0: 18b1 a4be ea3b 65bf 6d58 61bf 3263 80bf
000003b0: ee2c 9c3f a116 1fbe 2e74 30be e266 dfbe
000003c0: b4a6 8dbf c587 f53e 7fc6 b23e 8151 97bf
000003d0: d971 473f 9d13 8d3f ce94 3dbe eeef 74bf
000003e0: aba0 98be cabc 90bf ee6b bbbf 2734 76bf
000003f0: 0596 293f 7fff cdbf dccc 81bf 0537 01bf
-1.4336839 -0.11497186 0.11398598 0.0314184 0.59153223 0.50348055 0.47140735 -1.1566961
-0.66858983 0.8531861 -0.32480615 -1.1302245 -0.74431217 -0.11428746 -0.4809729 -1.140972
0.30068263 0.03724822 0.13881822 0.19965293 -0.3510545 0.46462855 0.56087816 -0.31477785
-0.83465284 -0.04234064 -0.79801583 -0.59206516 -0.9006505 -0.3582091 0.4215393 -1.0190147
-0.501241 -2.1622312 -0.64387536 0.06745638 -0.40451053 0.25369215 -2.0996904 0.3156893
-0.17362198 -0.0015770491 -0.40032858 -0.53842676 0.18269041 0.29424798 -1.1873485 0.5759115
0.34554967 -1.1109875 0.056506123 0.36731002 -0.5997563 -0.1348051 0.19296515 -0.68747306
-1.1797292 -0.40565473 -0.19463247 0.11629973 -0.31854218 -0.15475701 0.21071836 0.06772354
0.026656434 -0.30198073 0.41898352 -0.09183961 -0.6420163 -1.9106334 -1.3619285 -0.78143233
0.8519223 0.22662102 -0.2925256 -1.3626534 1.057673 0.07777405 0.004554226 -1.5106353
-0.67809486 -0.6244979 -0.5638429 -0.06413143 -1.1218566 -0.22426052 0.44675395 -1.7690641
-0.5770103 0.15077844 0.18892442 -0.011961298 -0.56490403 -1.5163753 -0.22550613 -0.42956728
0.11957502 0.6013207 -0.31481594 -0.20111859 0.40347463 -0.38343915 -0.06785245 0.056068912
-0.7689759 -1.1328975 -0.8440342 -0.0054811905 -0.22081603 0.23695809 -0.31159675 -0.11243262
-0.34197956 -0.5259658 -0.93458784 -1.395947 -0.10506458 -1.1764461 -0.6793678 -0.29609674
-0.4402438 0.6159479 0.8976473 -0.14255132 -0.2717891 -1.4218501 0.8587216 -0.48662558
-0.8720734 0.5283509 0.20285973 0.098726206 -0.27358702 -0.22561581 -1.4612063 -0.84898233
-0.565271 -1.1741651 -0.8127445 -1.195278 0.37633345 -0.591451 -0.30942512 0.2605876
-1.0577943 -0.65031993 0.44493783 0.09798244 -0.6492427 -0.54219615 -1.0351243 -0.28730807
-0.9754002 0.34493104 0.38190642 -0.9019977 -1.2458551 0.4277653 -0.71697074 -0.77358437
-1.4274114 -0.09118719 0.13336962 -0.34544912 -0.37729114 -0.5504816 0.4692576 0.22290847
-0.6848184 0.391088 -1.6038971 -0.62639266 -0.14149813 -0.31208366 -0.22321203 -0.4091084
-0.6149797 -1.0783378 -1.1873432 -0.5003317 -0.6577721 -0.8809739 -0.3139409 -0.37783146
0.40506557 0.42419025 -0.042370234 -0.8612134 -0.32940343 -0.095936 0.9021634 -0.66425264
-1.6103121 -0.6763764 -0.9288517 -0.23082674 -0.5918357 -1.1949701 -1.36781 1.3965114
-1.0975361 -0.75324875 -0.1821371 -0.43209076 -0.2982709 -0.63600874 -0.6594023 -1.1297185
-1.1765417 -0.50460863 -0.041669235 0.32724747 -0.2778767 0.19411677 -0.63202745 -0.18292049
-0.3207854 -1.1566479 -0.44788155 -0.5821559 -0.12262957 0.85627264 -0.29858902 -0.04769466
-0.74279976 -1.7204268 0.9124158 -0.5479995 0.16829747 -0.2781304 -0.14717904 -0.2947222
-0.32166362 -0.89544547 -0.8802555 -1.0030272 1.2201211 -0.15535976 -0.17231819 -0.4363318
-1.1066499 0.47955146 0.34917066 -1.1821748 0.7790809 1.102161 -0.18513796 -0.95678604
-0.2981008 -1.1307614 -1.4642313 -0.9617333 0.66244537 -1.6093596 -1.0140643 -0.5047458

bn1.running_var f4 [512]
00000000: ed76 ef3f 7eda 0342 ed23 363f 0454 843f
00000010: 7b2f 5a41 cb0e 6740 a8cd f841 8fc6 ac42
00000020: 9fea cf3f b224 f241 5366 1e41 ee7d a042
00000030: 6e3a 8142 6c5e b040 c330 0240 ccc4 b240
00000040: 188b 0041 94f3 0b40 4f0e e141 7b17 203f
00000050: 7276 9940 1808 fc41 5ba0 d741 767f ce3f
00000060: f587 e840 aade a440 f751 a940 5130 3340
00000070: e82f 1a41 b3d4 8e42 06e8 8940 cc3c 0841
00000080: 871d 4842 4543 5141 f415 6441 7112 2740
00000090: f8c7 b43f 8a6b 703f 5073 ed3f c772 2a41
000000a0: bed7 4f40 2137 a540 01bb 5542 8fe0 c841
000000b0: c355 f040 8872 d53f 3e74 0641 e629 c641
000000c0: e2db 9140 9a54 9442 faa1 b240 04a1 e540
000000d0: 1245 f73f 92c6 db3e 3cf4 5f40 677e 1641
000000e0: 206c 5d41 efa6 4241 1bb3 1140 0a6a 0e42
000000f0: 14a0 cf3f d8c4 b240 633a 2640 7d27 913f
00000100: 8f5d a340 f871 6542 8cf1 e841 62ea d541
00000110: 0888 6741 730a 2540 b755 b142 feca 2942
00000120: 29d2 c541 6202 2c40 8b17 8a3f ab61 9142
00000130: 52b3 ab40 f37e 163f 9c60 1041 2e46 5e40
00000140: c22a 6241 9961 8342 42c1 8240 7c3b 5a3f
00000150: 7425 ae42 43d4 0a41 ee71 fc41 e265 4b40
00000160: 36cc 2c42 d24d 043f abb9 1140 db57 d43e
00000170: 0a9d d940 18ce 9741 be9a 5542 093a a040
00000180: df74 e53f c71c 7141 a66a ac40 335f 4a40
00000190: b4c0 3740 0ca2 cc40 0a7b 3741 3586 4d40
000001a0: 8e22 3541 cfd5 b542 4b82 b542 1733 a940
000001b0: bfd8 6d42 536e c33f f8c5 db40 ceed ad3f
000001c0: 66b5 3341 6d75 9d40 661f 6242 69cb a641
000001d0: 2afb 863e 638f 9442 adc6 4640 599c c13f
000001e0: cbbb 6b41 b2b8 8f40 6a1a f241 e25c 8d42
000001f0: 75d8 bb41 127e 3c41 c076 913f 18b9 0242
00000200: 48a9 7f42 162c 5a40 740d 2241 3999 0c40
00000210: 4e1d 4940 cfaf 9b3f 99cf df3f 0916 dc40
00000220: f9ec 773f 50b6 a442 d027 d441 6415 c742
00000230: fabd 1c40 e3c0 0141 b320 4840 e068 523f
00000240: 7d10 9f42 276a f840 a89b 753f 3284 8841
00000250: 54e3 5940 9242 aa3f 5594 4642 8097 8d42
00000260: 493d 8c3f 010e af40 1c17 e441 801c 8442
00000270: 910e 7742 ccf3 e940 1376 b242 b90e 9042
00000280: e696 5a42 d196 8b3f fcdb 303f a8c7 7342
00000290: f804 943f 2377 d93f 14bd 1042 c1cd 743f
000002a0: 92a3 ee41 8eb7 733f b6b8 c342 a82f f93f
000002b0: 9fda 8d40 cf6f 5d40 448c bb3f 7c47 5e41
000002c0: 5865 1241 bae1 0f41 7ed2 5d42 2d60 a23f
000002d0: d8c0 8342 9bed 973f 0f1d aa41 ed02 9d40
000002e0: 7c7c 573f f0ac ff41 a43d 1341 cb35 6242
000002f0: 810c 873f 23ff aa3f 8ed0 b140 5fca 3941
00000300: 8da6 b442 7ce0 a342 a76a 1041 e2ef cf40
00000310: 6f76 193f a880 6d41 b414 c240 95de 7841
00000320: 844b 5d42 a6e2 0b40 1b07 4041 e1d6 7440
00000330: d2ac 9840 8211 2440 987b d641 20b1 be42
00000340: a6be b142 9370 343f 5edb eb41 7e93 6c3f
00000350: 6336 0240 9bc5 2341 f773 4842 8222 bd3f
00000360: cb71 9b42 8322 2341 ce7f 9a41 aa3b 1f41
00000370: 7446 833f 6117 de41 cc72 f13f 7a86 6d41
00000380: e8f7 fe3f 6559 bb40 5cbe 2b40 cf7c b641
00000390: fa43 163f 2194 573f 7a7d 8e40 6a09 0c40
000003a0: 05f7 b03f cb4e 8542 7a6d 1241 c109 3d42
000003b0: 33f4 0542 5422 d33f e1cb 0540 0450 ed40
000003c0: 3b26 9e42 f0af f841 db86 ed3f 3432 a142
000003d0: 11fc b03f c416 c641 c477 1841 207a 3641
000003e0: f9c3 bb40 b0a5 2b40 2259 4742 7942 723f
000003f0: 34e4 0341 afe4 e340 c6c6 9b42 6e9a c442
1.8708168 32.96337 0.7114857 1.033814 13.636592 3.610278 31.100418 86.38781
1.6243476 30.267918 9.8999815 80.24596 64.61412 5.511526 2.0342262 5.586523
8.033958 2.1867418 28.131987 0.6253583 4.7957087 31.503952 26.953299 1.6132648
7.2665963 5.1521807 5.2912555 2.799824 9.636696 71.41543 4.309573 8.514843
50.028835 13.078923 14.25536 2.6105006 1.4123526 0.9391409 1.8550816 10.653022
3.2475429 5.1629796 53.43262 25.109648 7.510469 1.6675577 8.403379 24.770458
4.558091 74.16524 5.5822725 7.175905 1.9317954 0.42924935 3.499282 9.40586
13.838898 12.165755 2.2765567 35.603554 1.6220727 5.586529 2.5973136 1.1340176
5.1051707 57.361298 29.117943 26.739445 14.470711 2.5787628 88.66741 42.448235
24.727617 2.6876454 1.0788435 72.69076 5.3656397 0.5878746 9.023586 3.4730334
14.135439 65.69062 4.086091 0.85247016 87.07315 8.676822 31.55563 3.1780934
43.199425 0.51681244 2.2769573 0.41473278 6.80042 18.975632 53.401115 5.0070844
1.7926291 15.069526 5.3880186 3.1620605 2.8711367 6.394781 11.467539 3.2113163
11.320936 90.917595 90.75448 5.2874866 59.461666 1.5268043 6.867916 1.3588197
11.231787 4.920584 56.530663 20.849321 0.26363498 74.28005 3.1058762 1.5125839
14.733348 4.491296 30.262897 70.68141 23.480692 11.780779 1.1364365 32.680756
63.915314 3.4089408 10.128284 2.196852 3.1424136 1.2163028 1.7485229 6.87769
0.96845967 82.35608 26.51944 99.54178 2.4490952 8.1095915 3.1269958 0.82191277
79.5322 7.762958 0.9594064 17.064548 3.4045 1.3301566 49.644855 70.7959
1.0956203 5.4704595 28.511284 66.055664 61.764225 7.3110104 89.23061 72.028755
54.64736 1.09054 0.6908567 60.944977 1.1564016 1.6989483 36.184647 0.95626456
29.829868 0.9520196 97.86076 1.9467669 4.432937 3.4599493 1.4652181 13.892452
9.149742 8.992609 55.45556 1.26856 65.87665 1.1869386 21.264189 4.906607
0.84174323 31.959442 9.202549 56.552532 1.0550691 1.3359112 5.5567083 11.611907
90.325294 81.938446 9.026038 6.4980326 0.5994634 14.84391 6.065027 15.554341
55.323746 2.1857085 12.001735 3.8256152 4.771096 2.5635686 26.810349 95.34595
88.87236 0.70484275 29.482113 0.92412555 2.0345695 10.2357435 50.113247 1.4776156
77.72225 10.195926 19.312405 9.952066 1.0255876 27.761415 1.8863158 14.845331
1.9919405 5.8546624 2.6834936 22.810942 0.58697474 0.842104 4.452817 2.1880746
1.3825384 66.65389 9.151728 47.259525 33.488476 1.6494851 2.0905688 7.4160175
79.07467 31.085907 1.855678 80.59805 1.3826925 24.761116 9.52924 11.404816
5.8676724 2.6819878 49.837044 0.9463268 8.243214 7.1216655 77.88823 98.30162

fc2.weight f4 [256, 512]
00000000: cd90 493c 5284 6cbd a77e ea3d 0ba6 b03d
00000010: 572e b1bb 60d6 63bd 097a a83c efa8 6e3d
00000020: ef80 253b 79e3 dd3c c4de c4ba 9ed7 2f3d
00000030: 6ca2 1a3d 34cb c63b cf49 96be 73e2 36bd
00000040: 35ed 953c 7e5b 233e 52f1 c63c ca8a 3f3e
00000050: 1949 76bd ca10 c2bb 3f40 a8bc 907e 0fbd
00000060: 83aa ca3c 8395 873d 8771 93bd f79f f4bd
00000070: 654f 7cbd 596f 48bc 0016 ecbc 475b f43c
00000080: 92a2 73bd 6e58 a8bd 9dbd 3f3d 932f 87bd
00000090: 01df 663e 40e4 debc 762a 97bd f82a 063d
000000a0: a1a6 cf3d 3e4c bc3d 5b79 80bd 5630 b1bc
000000b0: 9d9e fabc 78f7 4ebc 592c b73d 67de 963c
000000c0: a97d a5bd b44c a73d ba84 b6bd 820f 6d3d
000000d0: 6124 2cbd f978 0c3b 052f 79bd 0474 cbbb
000000e0: d153 753d 60f6 3e3c 29dc c33b 3754 2abd
000000f0: 3afb e2bd 6ebd 333d ee05 0abd ad64 c33d
00000100: 0eca 943c abcb 083d 3728 70bd 4a61 94bc
00000110: cbd1 343d 7288 863c a288 913c acec 203c
00000120: 4dc5 b63a 0db0 ab3b 2a6c d93c 87ab 363d
00000130: e59f ffbc d240 5a3e 90b1 f2bc 4ef7 ac3c
00000140: 54ee 7f3a cc2a eebb 5202 e3bc f3eb 043e
00000150: 98ec f23c 42bf 513d 4177 a8bc d778 12bd
00000160: 6305 bb3c 2f41 843d 5580 5fbd 78d8 223e
00000170: 2fca e7bd f90d 9d3d 0ade 28bd f7ce e2bb
00000180: 26e1 f3bc 6ded 793c 0120 86bd 4172 6abe
00000190: 4237 bdbc dc0f 31bd d9d9 00be ad51 96bc
000001a0: f41e 35bd 3a54 893d b18a 843d b978 483c
000001b0: a9b1 3dbb 5892 df3d b44e f33d 8591 0d3b
000001c0: 82f7 013e a5d7 70bb f33d 2d3c 3156 28bd
000001d0: 206f f73b ec30 643d 1621 943b bfae 25bd
000001e0: 800e 06bd 6da8 9ebd abbc f3bc 8251 e63c
000001f0: 4728 72bb e296 38bc c999 fabd e1bb 1c3d
00000200: abb1 3c3c 5e7a 7cbc 5ad6 d3bd 8bde 4cbd
00000210: e371 53be 7a69 abbd a49e 99bd e732 f23d
00000220: 3695 2abe bdca 4d3d 3bae 17bd bcbc bdbb
00000230: 14c0 91bd 0b54 59bd 5ad1 803c f411 dcbd
00000240: d0a2 123d 7397 b83c 0094 24bd 2708 0fbd
00000250: 1974 233d 61bd a5bd bf84 bc3b 6b8c 02bd
00000260: 70b2 32be 1d46 acbd 132c 5b3b dffb 7d3b
00000270: 8f6f 353b 55c6 7cbd 88ce 0e3c c032 353d
00000280: 02f1 543d 0793 eebd 7d35 1e3d 6ac6 323c
00000290: 56d0 c2be 70e3 783b 1188 363b 5b6f 9cbd
000002a0: 3047 16bb c97e 46be 7309 d53b cf7b c6bd
000002b0: 9304 0a3d 8e96 213d ba4e 9ebd 820b 653a
000002c0: ef6a 1fbd 5410 8abd a56b ae3b dcde e23b
000002d0: 0271 b0bd f685 38be 7f5d 393c c370 d53c
000002e0: 34a1 aabd 5b04 de3c d1df 4cbd c0c9 fc3c
000002f0: fac4 ca3c 9169 b9bc 3988 f7bc d29c 60bd
00000300: 550a 48bc c298 ed3c 45b1 39bc 19d6 fabd
00000310: 2aaa 1e3e 6822 0f3a a862 0fbe 1bfd a03c
00000320: b73b 5a3c 3490 16be e35a e33b 2f45 f2bc
00000330: e20f 163d dd24 07be 4b00 50bc 7131 e03c
00000340: 479c 28bd 1125 fd3d ec9d 183c 6fe9 50bd
00000350: a172 76be e33f 88bd b233 95bd ffa8 1a3e
00000360: 124f 88bc ff4f 91bd c575 6cbd 47fd 0cbd
00000370: 21ae 813e dda7 993c 1c0e 013d 0bdc 5cbd
00000380: 98e2 ac3c 428d c9bd a82f ad3d 57fb 8bbc
00000390: 0e9d 9d3d 0178 04be 1221 43bd 11ef ac3d
000003a0: eb39 88bd de99 233d 8f64 223d 208e 693a
000003b0: 8bd8 b4bb 55cd 113c c069 413e eddd 2ebc
000003c0: e146 d83c efb5 c3bb b87a 82bd 8476 84bd
000003d0: 1840 82bd 1c85 583c 5729 ac3c 74b2 5b3d
000003e0: 749d 34be 6b95 843d fff9 bebc 8231 38bc
000003f0: b75f 61bd e936 9cbc 915d 3a3d 4fa0 673d
0.01230259 -0.057743378 0.11449938 0.0862542 -0.0054071355 -0.055624366 0.020566003 0.058266576
0.0025253852 0.027086006 -0.0015020003 0.042930238 0.037752554 0.006066704 -0.29353186 -0.044649553
0.018301586 0.1595287 0.024284992 0.18705288 -0.060128305 -0.0059224116 -0.020538447 -0.03503281
0.02473951 0.06620314 -0.07199388 -0.119445734 -0.061599154 -0.012233579 -0.028819084 0.02982868
-0.05948121 -0.082199916 0.04681169 -0.06600871 0.22546007 -0.027208447 -0.07381146 0.032755822
0.10139204 0.091942295 -0.06273147 -0.021629494 -0.03059321 -0.012632243 0.089440055 0.018416597
-0.080806084 0.08168927 -0.08912034 0.057876118 -0.04202688 0.002143441 -0.060835857 -0.0062088985
0.059894387 0.01165542 0.005977173 -0.04158422 -0.11083074 0.043881826 -0.03369706 0.09540687
0.018162753 0.033397358 -0.058632102 -0.018112797 0.044145387 0.016422484 0.017765347 0.009822052
0.0013944298 0.0052394927 0.026540834 0.044597175 -0.031204173 0.2131379 -0.029625684 0.021114018
0.00097629917 -0.0072682854 -0.027711067 0.12980632 0.029653832 0.05120779 -0.020564677 -0.035759773
0.022829717 0.06457745 -0.054565746 0.15902889 -0.1131786 0.07668681 -0.041227378 -0.006921645
-0.029770445 0.015254361 -0.06549073 -0.22895147 -0.023097638 -0.043228015 -0.12583102 -0.018349493
-0.044218972 0.06705518 0.06471766 0.012235814 -0.0028945005 0.10916585 0.11880246 0.002160163
0.12692073 -0.0036749628 0.010573852 -0.041097824 0.007551089 0.055710718 0.0045205457 -0.040449854
-0.032728672 -0.077469684 -0.02975305 0.028115038 -0.0036950277 -0.011266442 -0.122363634 0.038265113
0.011516969 -0.015410034 -0.10343619 -0.05001692 -0.20648913 -0.083697274 -0.075009614 0.11826115
-0.16658482 0.050242174 -0.037031393 -0.005790321 -0.07116714 -0.053058665 0.015724827 -0.10745612
0.0357998 0.022533154 -0.040180206 -0.034919884 0.03990564 -0.08092762 0.0057531293 -0.031872194
-0.17450881 -0.084118105 0.0033443018 0.0038754863 0.0027684902 -0.06171258 0.008716233 0.044237852
0.051987655 -0.11649137 0.03862523 0.010911563 -0.38049573 0.003797736 0.0027852098 -0.07638427
-0.0022930615 -0.19384302 0.0065013706 -0.09691583 0.03369577 0.03945022 -0.0772986 0.00087373715
-0.03892034 -0.067413956 0.005322891 0.0069235396 -0.086153045 -0.18019852 0.011313795 0.026054746
-0.08331528 0.027101686 -0.050018135 0.03085792 0.024752129 -0.022633346 -0.030216323 -0.054837056
-0.012209495 0.029003505 -0.011333768 -0.12247867 0.154946 0.0005460144 -0.14002478 0.01965194
0.013319901 -0.14703447 0.006938325 -0.029574005 0.03663624 -0.13197656 -0.012695382 0.027367325
-0.041164663 0.123605855 0.009314995 -0.05100387 -0.24067165 -0.066528104 -0.07285251 0.1510353
-0.016639266 -0.07095336 -0.0577295 -0.03442123 0.25328162 0.018756801 0.031507596 -0.053920787
0.021104142 -0.09841396 0.08456355 -0.017087622 0.076959714 -0.12936403 -0.04763896 0.08444036
-0.06651672 0.03994166 0.03964668 0.0008909423 -0.005518978 0.008899053 0.18887997 -0.010673028
0.026400985 -0.005972616 -0.06371063 -0.064679176 -0.06359881 0.0132153295 0.021015806 0.053636983
-0.17638189 0.06473812 -0.023312567 -0.011242272 -0.05502292 -0.019069152 0.045499388 0.056549367
