DNN/models/best_model2.pt (torch, 888034 bytes, 46 tensors)

shared_fc1.weight f4 [256, 57]
0.009336838 -0.043112073 0.022469435 0.10844803 -0.11443028 0.11162319 0.055770192 -0.015197293
-0.059592046 0.022153007 0.014745752 0.0063995686 -0.1579498 -0.03137542 -0.10751665 0.11721927
-0.05591658 -0.22939113 0.12345762 -0.41234535 -0.0724401 0.033056404 -0.023907576 -0.004190837
0.00028465257 -0.01624744 -0.002970366 -0.011887099 -0.03201695 0.057628434 0.008961458 -0.0022084087
0.035385173 -0.03251878 0.018262742 0.012217586 0.020106735 0.008273012 0.007588388 -0.022295605
0.002942388 -0.045932796 0.027298765 -0.0019388419 -0.09408619 0.11098558 0.17589626 -0.3272414
0.19951561 0.4148924 0.15774517 0.21848786 -0.021491973 0.24729137 0.05346348 -0.36769763
0.013367944 1.0334547e-32 9.43626e-33 -1.020736e-32 -9.887434e-33 -7.084086e-33 -1.02196046e-32 9.774327e-33
-1.04386624e-32 9.66716e-33 8.475553e-33 3.9296754e-33 1.0361583e-32 1.0218672e-32 1.0590462e-32 1.0406485e-32
-9.09449e-33 1.0092983e-32 1.0498893e-32 -1.05207714e-32 -9.5580474e-33 -1.0767532e-32 -1.0320837e-32 9.767281e-33
1.0547828e-32 1.06179e-32 -1.0329268e-32 9.9812776e-33 -1.0077931e-32 2.8448234e-33 -1.0545683e-32 -1.0444083e-32
-1.0397155e-32 -1.0191928e-32 -1.0497811e-32 1.0551093e-32 -1.0380504e-32 -1.04700716e-32 -9.833869e-33 -1.0495697e-32
1.0541202e-32 1.0059006e-32 9.81076e-33 9.707161e-33 -9.669739e-33 -9.8475225e-33 1.1219529e-32 -1.0105454e-32
9.507756e-33 1.0610787e-32 9.962472e-33 1.0329682e-32 1.00240354e-32 -1.0278058e-32 -6.039439e-33 -1.05527155e-32
1.0511638e-32 1.6140772e-33 1.0253395e-32 9.6564304e-33 -1.0545185e-32 -1.05184175e-32 -1.00537064e-32 4.2725697e-33
-1.00750695e-32 -9.765099e-33 -6.808212e-33 9.136973e-33 1.0606884e-32 -1.00446404e-32 9.901833e-33 -9.8983545e-33
1.0166295e-32 -1.06040905e-32 8.6372114e-33 1.01991914e-32 -9.873279e-33 -1.0475696e-32 4.9197833e-33 1.0549487e-32
-1.02565585e-32 1.0869882e-32 -1.0380804e-32 1.05184204e-32 1.0553878e-32 -1.0393769e-32 -9.765893e-33 -1.0513859e-32
-1.0910343e-32 1.1000625e-32 -9.552052e-33 1.0499101e-32 9.973843e-33 -1.0145695e-32 1.0502841e-32 -1.0171175e-32
9.624329e-33 -9.9521826e-33 -1.05683194e-32 1.0117965e-32 -1.1111252e-32 9.824872e-33 1.0097191e-32 -9.7780794e-33
1.054457e-32 -1.048455e-32 1.0150664e-32 1.04874366e-32 3.784774e-33 1.010081e-32 1.05173816e-32 1.04064774e-32
-1.0642963e-32 1.05543406e-32 -9.027807e-33 -9.828642e-33 1.0208778e-32 -9.9530385e-33 -1.03793124e-32 -1.02541e-32
1.0591113e-32 -9.793941e-33 -9.806317e-33 -1.0279009e-32 9.8563475e-33 9.782458e-33 -5.4389764e-33 1.0028347e-32
-9.466126e-33 -1.01686455e-32 -9.6025906e-33 9.966728e-33 -9.911256e-33 -1.04177254e-32 -9.707648e-33 1.0772483e-32
-9.851518e-33 9.4759076e-33 1.1072536e-32 -1.0919205e-32 -9.804175e-33 9.525309e-33 -1.0217215e-32 -1.0219281e-32
1.0313027e-32 -9.84205e-33 1.02594774e-32 9.5279364e-33 -9.5966595e-33 1.0362623e-32 -1.02307336e-32 1.0449802e-32
-9.938856e-33 9.927535e-33 -1.0451006e-32 -1.0258245e-32 -1.0341545e-32 -9.894694e-33 -9.925479e-33 1.0403748e-32
9.912363e-33 -9.8134096e-33 1.04257856e-32 5.066145e-33 -6.2673766e-33 1.0063749e-32 -1.03143076e-32 -9.443532e-33
7.237021e-33 -1.0161816e-32 9.935475e-33 1.05599154e-32 -0.005223484 0.108900726 0.044227056 -0.13106267
0.15039566 0.04926624 -0.16022977 0.038049858 -0.18910058 0.21889609 -0.026774568 -0.060694773
0.053011324 -0.040551197 0.17286591 0.01982788 -0.14589949 -0.19923186 0.25948146 -0.20249633
-0.0043272697 0.026562339 0.017177582 0.012671506 -0.01478995 -0.02532787 -0.0031381645 -0.0125330575
00000000: 89f9 183c 4996 30bd d211 b83c 001a de3d
00000010: 6c5a eabd b39a e43d 496f 643d 11fe 78bc
00000020: ca16 74bd 397a b53c 2b98 713c 79b3 d13b
00000030: 98bd 21be 8383 00bd b031 dcbd a810 f03d
00000040: c908 65bd 82e5 6abe 59d7 fc3d ee1e d3be
00000050: 7a5b 94bd 2766 073d d2d9 c3bc 4a53 89bb
00000060: 6c3d 9539 5a19 85bc 79aa 42bb 1bc2 42bc
00000070: 3524 03bd cb0b 6c3d 14d3 123c f3ba 10bb
00000080: 0bf0 103d 6a32 05bd bf9b 953c 452c 483c
00000090: e1b6 a43c 878b 073c 03a8 f83b 46a5 b6bc
000000a0: 14d5 403b 0724 3cbd a9a1 df3c bd20 feba
000000b0: 43b0 c0bd 684c e33d 261e 343e 2f8c a7be
000000c0: d24d 4c3e c76c d43e f387 213e 48bb 5f3e
000000d0: ef0f b0bc f339 7d3e 86fc 5a3d dd42 bcbe
000000e0: 3905 5b3c e0a3 560a c4fb 430a a2ff 538a
000000f0: 9e5a 4d8a 7621 138a bd40 548a 3d01 4b0a
00000100: 73cd 588a 70c7 480a c507 300a 7a3b a309
00000110: a033 570a c83b 540a 8ef4 5b0a 5d22 580a
00000120: 9ae2 3c8a 819f 510a b10d 5a0a 0482 5a8a
00000130: 4c83 468a 05a2 5f8a fb5a 568a c6db 4a0a
00000140: e011 5b0a 7186 5c0a cf87 568a 934d 4f0a
00000150: 794f 518a b456 6c09 7806 5b8a 45ea 588a
00000160: c2f0 578a 96ad 538a f007 5a8a 3c23 5b0a
00000170: 3a98 578a 7374 598a d13d 4c8a b2fc 598a
00000180: a5ee 5a0a d9ea 500a f3c2 4b0a 1f9c 490a
00000190: 27d5 488a 6986 4c8a 4005 690a cfe1 518a
000001a0: e777 450a 9f60 5c0a 96e9 4e0a 038a 560a
000001b0: ea30 500a 8877 558a 55de fa89 dc2b 5b8a
000001c0: 7451 5a0a a017 0609 66f4 540a 648e 480a
000001d0: d203 5b8a 8075 5a8a acce 508a c179 b109
000001e0: 4240 518a 2cd0 4a8a aa66 0d8a 7bc4 3d0a
000001f0: de4b 5c0a 789e 508a 2da7 4d0a ae94 4d8a
00000200: 4c25 530a 043d 5c8a 4b63 330a 34d4 530a
00000210: 5b0f 4d8a 5b92 598a 1c5c cc09 b21a 5b0a
00000220: 3805 558a 35c2 610a d299 578a 8475 5a0a
00000230: 0a32 5b0a c1de 578a 65d4 4a8a 435d 5a8a
00000240: 5599 628a 5b79 640a 6b63 468a cc0e 5a0a
00000250: 0c26 4f0a c4b7 528a ae22 5a0a 3e3f 538a
00000260: b6e3 470a e1b2 4e8a d37e 5b8a 5424 520a
00000270: 8dc5 668a fb0d 4c0a e0b5 510a 3015 4b8a
00000280: 8d00 5b0a 6ec1 598a 30d2 520a c7d0 590a
00000290: 9f36 9d09 1ec9 510a fe6f 5a0a 5322 580a
000002a0: b30b 5d8a 8034 5b0a 0e80 3b8a 0622 4c8a
000002b0: 2d07 540a 6eb7 4e8a e491 578a 26f8 548a
000002c0: 04f8 5b0a 8669 4b8a 53ab 4b8a 967c 558a
000002d0: 55b5 4c0a 782c 4b0a 1eed e189 d747 500a
000002e0: 8f9a 448a cb31 538a 2170 478a 3700 4f0a
000002f0: 47d9 4d8a 215e 588a b69e 498a 58bc 5f0a
00000300: a79b 4c8a 91ce 440a b3f7 650a 74c8 628a
00000310: ef9f 4b8a 3bd5 450a 0834 548a 053f 548a
00000320: 7531 560a 5069 4c8a bd14 550a 33e3 450a
00000330: 9850 478a 2839 570a e97b 548a ad08 590a
00000340: 066c 4e8a d42f 4e0a 140f 598a 300e 558a
00000350: 16c9 568a 3881 4d8a e624 4e8a d013 580a
00000360: 29df 4d0a 09d1 4b8a fc88 580a 7e70 d209
00000370: 172b 028a 1104 510a 4438 568a 6e22 448a
00000380: 9b4e 160a 7b0d 538a 0c5a 4e0a 2452 5b0a
00000390: c229 abbb 5807 df3d 6e27 353d 4b35 06be
000003a0: 5201 1a3e 66cb 493d 4613 24be 2bda 1b3d
000003b0: 95a3 41be 4c26 603e 5756 dbbc 159b 78bd
000003c0: 6722 593d 0319 26bd c303 313e 146e a23c
000003d0: ad66 15be 7003 4cbe c1da 843e 335b 4fbe
000003e0: c5cb 8dbb 4399 d93c 00b8 8c3c 269c 4f3c
000003f0: 8c51 72bc 657c cfbc aaa9 4dbb 7457 4dbc

shared_fc1.bias f4 [256]
-4.7712415e-06 9.56493e-33 -1.1615283e-32 1.1458129e-32 -9.0265416e-07 -1.16879264e-32 1.1486475e-32 -2.2367479e-23
1.06646725e-32 -1.0090148e-06 -8.965291e-06 -4.1219523e-06 1.0527442e-32 1.1375284e-32 1.101922e-32 1.1589244e-32
6.126799e-06 1.1383031e-32 2.8638697e-33 -7.3795476e-08 1.0867062e-32 5.6645934e-33 -1.1661543e-32 -1.15351555e-32
1.0837024e-32 1.1632953e-32 4.624052e-07 1.0653573e-32 -1.1749886e-32 -9.539847e-33 1.1695661e-32 -1.0829609e-32
1.107375e-32 -6.259395e-06 1.1015399e-32 -1.1522697e-32 4.30206e-07 -1.1747327e-32 -9.15512e-33 1.04756e-32
1.0903629e-32 -2.8307673e-05 -1.1655604e-32 -4.759182e-06 -1.7452173e-07 -1.0575822e-32 1.1476051e-32 -9.010839e-07
2.699505e-33 1.0573705e-05 8.451217e-33 1.0851118e-32 -1.1579587e-32 3.202164e-33 -9.903683e-05 -1.12227384e-32
-2.1255619e-06 1.11003056e-32 -1.1142447e-32 1.09207246e-32 1.10994276e-32 -1.0961043e-32 3.19869e-07 1.1638656e-32
-1.9038896e-06 -1.0808659e-32 1.0843797e-32 -1.10474825e-32 9.2533367e-07 8.41496e-33 -9.984745e-33 2.678272e-07
2.6711648e-05 -7.127758e-34 1.5913073e-06 -1.1721833e-32 -1.11806315e-32 -1.1532119e-32 1.1018377e-32 3.3104484e-06
-2.0505945e-06 -1.12405795e-32 -1.1338071e-32 3.4806167e-34 1.0926758e-32 -1.1661843e-32 1.0794972e-32 1.15735155e-32
-1.1528233e-32 2.4262922e-06 1.09400725e-32 -1.0907051e-32 -5.344582e-33 -1.1510705e-32 1.1470195e-32 -5.072822e-33
1.1101577e-32 -1.0266732e-32 1.1696963e-32 -1.1546178e-32 -5.64319e-07 1.0749039e-32 4.5422483e-33 -1.1217008e-32
1.0925883e-32 2.3838544e-05 2.4821514e-07 -1.1304391e-32 -1.163782e-32 1.1160489e-32 0.0 1.1054421e-32
-6.854626e-06 -8.854072e-33 -5.676812e-33 -1.0800132e-32 4.548534e-06 5.1572724e-33 -9.264562e-06 1.1312749e-32
1.16861315e-32 -1.9855932e-10 -4.8029906e-33 -3.5915718e-07 -8.742172e-33 1.0981299e-32 -8.227383e-33 -1.1511868e-32
6.284634e-06 -5.9351663e-07 1.14099014e-32 1.15425074e-32 1.11059046e-32 1.1428628e-33 -1.14054734e-32 1.4650147e-06
-9.1985915e-33 8.709696e-05 4.1618745e-33 2.6481133e-11 1.14014775e-32 -7.426752e-33 2.5309773e-06 -1.0690532e-32
-1.0347664e-32 -2.281099e-33 1.0627091e-32 1.7838041e-05 -5.271351e-33 -1.1697805e-32 -2.753639e-07 -9.935561e-07
-2.6207894e-05 -1.1150203e-32 1.26646355e-05 1.09196835e-32 6.2925337e-06 -1.0987734e-32 1.1617481e-32 9.191965e-33
3.8303114e-07 -4.533162e-33 1.13333716e-32 -1.2837344e-06 1.05340824e-32 2.1871474e-06 -1.0854215e-32 -1.054081e-32
-1.1482412e-32 -1.13142345e-32 -1.07837795e-32 4.58283e-06 1.1460321e-05 5.0130893e-08 -5.232062e-06 -1.0783483e-32
-6.648804e-33 -7.463572e-06 6.5807495e-07 1.0809542e-32 3.118289e-05 3.6627935e-05 1.0887648e-32 1.8989192e-06
-1.0552224e-32 1.11650694e-32 -1.0806787e-32 -4.32194e-07 -1.0878735e-32 3.8593184e-06 1.0515478e-32 1.1263505e-32
5.6925323e-33 -8.5853185e-34 1.06318e-32 -1.1074811e-32 -5.230717e-06 1.0822549e-32 3.042599e-27 1.7252318e-05
1.152796e-32 1.2164749e-05 -1.06982674e-32 -1.0885037e-32 1.1302802e-32 1.1479454e-32 -2.227512e-07 1.1668407e-32
-3.2438797e-06 -1.1479684e-32 -1.9926233e-06 -1.07017035e-32 1.0823925e-32 2.2672159e-05 -1.11433984e-32 1.1355766e-32
-1.2646115e-34 1.0264936e-32 -3.4857553e-06 -1.8122988e-05 -1.4695621e-05 -6.2096326e-31 -3.1840818e-06 -1.1450022e-32
3.8318267e-06 5.9385136e-05 -9.6166054e-33 1.0662775e-32 -1.0050396e-32 -3.461014e-08 5.5489312e-05 1.3303026e-05
1.1248921e-32 2.7640073e-05 1.0908382e-32 -1.1558108e-32 2.7500042e-16 9.444553e-33 1.0932825e-32 1.10598076e-32
-1.06573374e-32 2.341019e-09 -7.283813e-33 4.1677507e-07 -1.0611827e-32 2.0546102e-33 1.4530741e-05 -1.1702231e-32
-2.5139916e-06 9.694481e-33 6.7682004e-07 0.00012013845 7.1640224e-33 3.5567748e-33 -1.107776e-32 4.0270443e-06
00000000: a718 a0b6 e4a7 460a 703d 718a ddf9 6d0a
00000010: ec4d 72b5 adbf 728a 9490 6e0a 3253 d899
00000020: 207f 5d0a 7c6d 87b5 a269 16b7 4d4f 8ab6
00000030: 7ca5 5a0a 6241 6c0a 39dc 640a feb2 700a
00000040: cd94 cd36 936a 6c0a c6eb 6d09 7e79 9eb3
00000050: 36b3 610a 4a4c eb09 6633 728a 6893 6f8a
00000060: 8113 610a 639b 710a 7d40 f834 1c44 5d0a
00000070: 1c09 748a 8722 468a cde8 720a 14ec 608a
00000080: 27fe 650a cb07 d2b6 e8c7 640a 2a51 6f8a
00000090: 10f7 e634 81fb 738a f824 3e8a d891 590a
000000a0: a375 620a 4476 edb7 d213 728a 10b1 9fb6
000000b0: 2b64 3bb4 b7a6 5b8a 2759 6e0a 04e2 71b5
000000c0: 1f44 6009 b865 3137 6086 2f0a 705e 610a
000000d0: a57f 708a 4003 8509 feb1 cfb8 5016 698a
000000e0: e0a4 0eb6 598b 660a 696b 678a 88d0 620a
000000f0: ae86 660a e7a6 638a 76ba ab34 b6b9 710a
00000100: 2689 ffb5 b07c 608a 8437 610a 7e72 658a
00000110: 7264 7835 9ac5 2e0a 0360 4f8a e4c9 8f34
00000120: d412 e037 42dc 6c88 e794 d535 f473 738a
00000130: 6f36 688a 4383 6f8a bed7 640a 1229 5e36
00000140: f29c 09b6 2c75 698a 877b 6b8a a053 e707
00000150: 9cf0 620a fe34 728a ea33 600a 5d5f 700a
00000160: 9a6e 6f8a 62d3 2236 6737 630a d587 628a
00000170: 5801 de89 6811 6f8a 043a 6e0a 7fb7 d289
00000180: 1c92 660a 4f3b 558a b9ef 720a 03ce 6f8a
00000190: b57b 17b5 b23f 5f0a 78ad bc09 d8f7 688a
000001a0: f5eb 620a e2f8 c737 6e42 8534 74c8 6a8a
000001b0: 44b5 718a 56cb 670a 0000 0000 6297 650a
000001c0: ca00 e6b6 52e4 378a 38ce eb89 5a4f 608a
000001d0: 9c9f 9836 8739 d609 fe6e 1bb7 e4f4 6a0a
000001e0: 22b6 720a 7b51 5aaf 2882 c789 30d2 c0b4
000001f0: 5c91 358a 9a12 640a 45e0 2a8a 9717 6f8a
00000200: 98e0 d236 2752 1fb5 71f9 6c0a 7fba 6f0a
00000210: 1ea9 660a 02e4 bd08 e6e1 6c8a 86a1 c435
00000220: 1a0c 3f8a d3a7 b638 a4e0 ac09 36ee e82d
00000230: a7cc 6c0a 633f 1a8a dcd9 2936 9e08 5e8a
00000240: 9ee9 568a 9c81 3d89 4fb7 5c0a e7a2 9537
00000250: 9ef6 da89 33f4 728a bad5 93b4 545a 85b5
00000260: 06d9 dbb7 a694 678a 327a 5437 ffca 620a
00000270: 7424 d336 d134 648a 2049 710a dee8 3e0a
00000280: 66a3 cd34 d94c bc89 8a62 6b0a c74c acb5
00000290: cac8 5a0a e8c6 1236 e86e 618a 8fec 5a8a
000002a0: f97a 6e8a cafc 6a8a 68f8 5f8a 36c6 9936
000002b0: b445 4037 804f 5733 128f afb6 d4f6 5f8a
000002c0: 1b17 0a8a 986f fab6 91a6 3035 6281 600a
000002d0: 60ca 0238 f2a0 1938 ab20 620a 5ede fe35
000002e0: 3f29 5b8a b1e3 670a bc72 608a 4b08 e8b4
000002f0: 47f1 618a 4b7f 8136 df65 5a0a 11ef 690a
00000300: 6375 ec09 e8a5 8e88 58d0 5c0a cc03 668a
00000310: 8483 afb6 8ac6 600a 3d0f 7113 12b9 9037
00000320: 266d 6f0a 3317 4c37 bf31 5e8a c912 628a
00000330: 01c0 6a0a 3f6b 6e0a 622d 6fb4 e557 720a
00000340: 6eb1 59b6 786c 6e8a 02b9 05b6 0444 5e8a
00000350: dbcd 600a 1730 be37 7870 678a 9cd9 6b0a
00000360: 8018 2887 c331 550a d2ec 69b6 d206 98b7
00000370: 368d 76b7 9c83 498d 1cae 55b6 c2ce 6d8a
00000380: 2493 8036 4e14 7938 a5ba 478a 0975 5d0a
00000390: 12bd 508a 40a6 14b3 32bd 6838 1030 5f37
000003a0: 86a1 690a 9bdc e737 e88e 620a 710d 708a
000003b0: e686 9e25 db27 440a de10 630a 06b4 650a
000003c0: 2058 5d8a a4df 2031 6547 178a 21c1 df34
000003d0: 2666 5c8a bab0 2a09 0fc9 7337 bb0b 738a
000003e0: 0cb6 28b6 b458 490a b8ae 3535 d7f2 fb38
000003f0: 7aca 140a 1ebe 9309 7a13 668a 0c20 8736

shared_bn1.weight f4 [256]
0.47772813 1.0504991e-32 -7.063929e-33 -1.0486669e-32 0.58760726 -1.00753994e-32 -9.413183e-33 7.8927753e-10
1.00957744e-32 0.56013316 0.59752464 0.3682532 1.0223957e-32 -1.01858584e-32 -9.7636465e-33 -1.02925066e-32
0.4392915 -9.478338e-33 -1.0400803e-32 0.1058411 -9.474705e-33 1.0064585e-32 9.882578e-33 -7.2012525e-33
1.0406572e-32 1.0013312e-32 0.21811295 9.458199e-33 1.0188217e-32 1.0479142e-32 9.784999e-33 -9.441647e-33
-1.0375839e-32 0.33312997 1.05711994e-32 -1.03992415e-32 0.756726 9.874808e-33 1.0097383e-32 3.4393962e-22
-1.0209018e-32 0.40262836 9.801067e-33 0.59343946 0.38423386 1.0466537e-32 9.7295814e-33 0.89384633
-9.9062046e-33 0.5002002 1.00941434e-32 9.472212e-33 9.720624e-33 -1.0333626e-32 1.6081904 -9.8354465e-33
0.60749876 1.02194165e-32 9.994802e-33 -1.0278715e-32 -1.0068242e-32 8.1836785e-33 0.33022568 -1.0179874e-32
0.46958694 1.01149224e-32 -1.0299873e-32 9.667896e-33 0.34348223 9.4379016e-33 1.2712348e-33 0.3361666
0.53536713 1.0221925e-32 0.5350719 1.00185995e-32 -1.0452742e-32 -1.0026518e-32 1.04799076e-32 0.59285104
0.5170409 -1.0076128e-32 1.04850276e-32 1.05831696e-32 1.00548084e-32 1.00421145e-32 1.0494372e-32 -9.8563394e-33
-9.8365926e-33 0.23195072 5.306721e-33 9.9658286e-33 1.0163697e-32 -9.8557186e-33 -1.0528599e-32 -9.956102e-33
-1.04065406e-32 1.0016139e-32 1.04813916e-32 -1.02800956e-32 0.21795529 -9.996703e-33 1.0176441e-32 1.00754736e-32
1.0050153e-32 2.3847644 0.4859188 -1.024842e-32 -1.0380391e-32 -5.3280828e-33 -9.971106e-33 9.994273e-33
1.8247242 -1.00213465e-32 9.985642e-33 9.778936e-33 0.67089623 -9.65367e-33 0.47870168 1.0444781e-32
9.909221e-33 0.0028430177 9.4149604e-33 0.3181524 -9.428351e-33 -1.0200058e-32 1.0252839e-32 9.819856e-33
0.938954 0.39448634 1.0545586e-32 9.7794275e-33 1.0176437e-32 1.0255888e-32 1.04176725e-32 0.35949823
-1.046302e-32 0.97924113 9.4611624e-33 0.00074778136 9.77636e-33 -1.0022774e-32 0.37772414 9.9382956e-33
-1.0027871e-32 1.0407224e-32 -9.988781e-33 0.68959886 1.0014668e-32 1.0475119e-32 0.38074392 0.65695924
0.4938358 1.0137359e-32 0.543781 1.03772e-32 0.60295784 1.0522121e-32 -9.9337e-33 9.881725e-33
0.3437253 1.0231351e-32 9.888959e-33 0.40551198 8.417574e-34 0.47352496 1.0429965e-32 1.0267947e-32
1.0446612e-32 1.04807076e-32 1.0127268e-32 0.53520966 0.54137665 0.43829083 0.6535475 -1.0504021e-32
1.03041976e-32 0.6598503 0.48268262 9.808615e-33 0.8537751 0.86449933 -9.6759495e-33 0.4692054
1.0302147e-32 -9.8467496e-33 -9.9894296e-33 0.6668741 -9.709463e-33 0.48143727 9.737251e-33 9.914909e-33
1.0025986e-32 9.8841825e-33 9.9701904e-33 -1.0313517e-32 0.3777639 -1.0170598e-32 5.4720795e-13 0.8370279
9.71354e-33 0.38917285 -1.0012974e-32 1.0008853e-32 1.0528482e-32 9.951045e-33 0.34282076 -9.7577676e-33
0.40638524 1.03657795e-32 0.18351343 -1.0158628e-32 9.672066e-33 0.4834625 -9.447245e-33 -9.662455e-33
-9.9932e-33 -1.0501497e-32 0.7042184 1.8849969 0.3987316 -5.466792e-16 0.61105865 8.1985566e-33
0.47565755 0.5428693 -1.04545786e-32 -1.00995426e-32 -1.0072207e-32 0.9807376 0.9190676 1.0705366
-9.997923e-33 0.45344853 -1.0013018e-32 -9.866203e-33 -1.7071028e-06 -1.02596934e-32 -9.7289724e-33 -1.0250461e-32
-9.753853e-33 0.031350784 -9.4738894e-33 0.29644126 1.0060087e-32 -1.0217174e-32 0.79171574 1.02519755e-32
0.6937054 -1.0439e-32 0.5572658 0.8395869 -1.03317894e-32 1.04375e-32 -1.4171733e-33 0.67582566
00000000: c898 f43e 1d2e 5a0a 4ab6 128a b2cc 598a
00000010: 6e6d 163f 0342 518a 1181 438a 78f4 5830
00000020: 58ae 510a e364 0f3f 60f7 183f af8b bc3e
00000030: e157 540a 508d 538a 73c8 4a8a 5ac4 558a
00000040: d1ea e03e 7ddb 448a 2704 588a 38c3 d83d
00000050: 2cc8 448a 8308 510a cc40 4d0a 6d90 158a
00000060: d422 580a e6f7 4f0a 0059 5f3e 6970 440a
00000070: da99 530a ada4 590a fa39 4b0a 6818 448a
00000080: 6c7f 578a 0390 aa3e 238e 5b0a dafb 578a
00000090: ccb8 413f 7c17 4d0a e6b6 510a 14e6 cf1b
000000a0: 7308 548a 4e25 ce3e 698f 4b0a a6eb 173f
000000b0: 4dba c43e a861 590a 5413 4a0a 1dd3 643f
000000c0: 6bbe 4d8a 1f0d 003f aca5 510a ebba 440a
000000d0: b4e3 490a fb9e 568a 2fd9 cd3f 3446 4c8a
000000e0: 0a85 1b3f bd3f 540a 7c95 4f0a 067b 558a
000000f0: f51b 518a e6f7 290a 5713 a93e 7e6d 538a
00000100: b36d f03e 2714 520a 85eb 558a 5acb 480a
00000110: e7dc af3e 7e04 440a 5938 d308 071e ac3e
00000120: d20d 093f 134d 540a 79fa 083f 0314 500a
00000130: 4f18 598a 1d3e 508a bfa8 590a 16c5 173f
00000140: cb5c 043f e345 518a f8c3 590a c8cd 5b0a
00000150: 88d4 500a 0a91 500a a7f5 590a 4ab5 4c8a
00000160: 4c4c 4c8a 7d84 6d3e bd6e dc09 6ffb 4e0a
00000170: 7b17 530a fdb1 4c8a a2ab 5a8a b8c7 4e8a
00000180: a922 588a ee06 500a a3b0 590a 5d82 558a
00000190: ac2f 5f3e 979f 4f8a 3e5b 530a 6842 510a
000001a0: c7bb 500a fb9f 1840 59ca f83e f2d9 548a
000001b0: a097 578a e551 dd89 7e17 4f8a ab92 4f0a
000001c0: 9090 e93f 9e22 508a c864 4f0a be19 4b0a
000001d0: dbbf 2b3f b77f 488a 6318 f53e fbed 580a
000001e0: 75ce 4d0a ec51 3a3b 848a 430a dfe4 a23e
000001f0: b6d1 438a d0d8 538a 71f1 540a 4ff3 4b0a
00000200: 4a5f 703f 1dfa c93e f405 5b0a 5b1c 4b0a
00000210: 385b 530a a701 550a d95d 580a 2710 b83e
00000220: f54e 598a 8caf 7a3f 2b80 440a c206 443a
00000230: 0c0c 4b0a 352a 508a 0f65 c13e 0b69 4e0a
00000240: 4f45 508a 4b26 580a 7875 4f8a 8d89 303f
00000250: 1cff 4f0a 498f 590a def0 c23e 7b2e 283f
00000260: 0cd8 fc3e 728b 520a 3b35 0b3f a986 570a
00000270: 725b 1a3f 3189 5a0a 9c50 4e8a 433c 4d0a
00000280: c3fc af3e 317f 540a b962 4d0a 449f cf3e
00000290: 66dc 8b08 dd71 f23e 359f 580a c541 550a
000002a0: b7f7 580a 00ad 590a cb55 520a 8003 093f
000002b0: a997 0a3f a867 e03e e44e 273f f528 5a8a
000002c0: 8302 560a f3eb 283f 2d22 f73e 8bb7 4b0a
000002d0: 0191 5a3f d44f 5d3f 2cf6 488a b13b f03e
000002e0: 9cf7 550a 4d82 4c8a eb78 4f8a 43b8 2a3f
000002f0: 5ca8 498a f27e f63e 1b3c 4a0a b3ec 4d0a
00000300: 493b 500a 5449 4d0a a012 4f0a 1034 568a
00000310: 456a c13e 2d3c 538a 7d06 1a2b 7647 563f
00000320: 0abe 490a aa41 c73e 1af6 4f8a 31e0 4f0a
00000330: 03ab 5a0a d5ac 4e0a 3486 af3e 31a9 4a8a
00000340: ba11 d03e f049 570a f2ea 3b3e 88fc 528a
00000350: 86e1 480a 6688 f73e 2c36 448a 6cae 488a
00000360: f78c 4f8a 891b 5a8a a847 343f 9447 f13f
00000370: 8c26 cc3e ce91 1da6 576e 1c3f 0147 2a0a
00000380: 6389 f33e 7cf9 0a3f 1322 598a 61c2 518a
00000390: 0a31 518a 9f11 7b3f 0448 6b3f 5807 893f
000003a0: 14a6 4f8a 682a e83e 56f6 4f8a bce9 4c8a
000003b0: 9b1f e5b5 e315 558a 1710 4a8a cde4 548a
000003c0: 6194 4a8a ae69 003d d6c3 448a 26c7 973e
000003d0: 99f0 500a d133 548a e2ad 4a3f daec 540a
000003e0: ad96 313f 3fcf 588a f9a8 0e3f 2bef 563f
000003f0: 3795 568a 45c7 580a e377 eb88 e902 2d3f

shared_bn1.bias f4 [256]
-0.21509007 -2.6973112e-31 -1.7055765e-31 -1.308153e-31 0.14230457 -9.811356e-33 -8.1406416e-32 -4.2089287e-06
1.2338718e-31 -0.19508791 -0.15286803 -0.14616203 -1.081342e-31 -1.3879715e-31 -5.6555866e-32 -1.02891065e-32
-0.01667534 4.4969876e-32 -1.8391429e-32 -0.06933733 -3.041526e-31 -1.4291722e-32 -1.3567968e-31 3.397861e-31
5.5940887e-31 -2.0815748e-32 -0.04642796 7.096614e-32 -4.6815714e-32 -1.5083186e-31 -1.4459595e-31 -4.6040617e-33
2.7721654e-33 -0.088793665 2.9763226e-32 1.2376412e-31 -0.10513427 -1.7006321e-31 6.438124e-32 -6.696056e-32
-3.5643022e-32 0.008550993 -1.47449e-31 -0.113304704 -0.084450535 5.025824e-31 4.542894e-31 -0.23644947
2.3280134e-32 -0.10796976 -1.476803e-32 6.951618e-32 3.3416488e-31 4.0475632e-32 -0.48352048 -9.4472606e-32
-0.14923067 -1.1089821e-31 2.8988984e-32 -6.828027e-32 -1.1829652e-31 -9.0695954e-32 -4.2138512e-05 -2.8125139e-31
0.060388997 6.984338e-32 9.914765e-32 -7.8350225e-32 0.023342814 7.4272045e-31 -1.507187e-31 0.046383068
-0.2787308 -3.4134607e-32 -0.058733292 1.2650561e-32 7.185403e-32 -2.4627035e-31 -9.3497434e-32 -0.43744025
0.13457797 2.453832e-31 -3.1333848e-31 -9.696538e-32 2.1553961e-32 -4.6137436e-32 -2.5726249e-31 -5.3003987e-32
-5.600832e-32 -0.16672832 -1.4453809e-31 3.667417e-31 6.8460427e-32 -1.0475434e-31 4.4282988e-33 2.3266816e-31
-1.2993849e-31 -3.8929628e-32 -1.3554484e-32 9.1796634e-32 0.0070502553 -1.7929155e-31 -2.6048643e-32 -1.7808185e-31
5.166318e-32 -0.26855677 -0.17857838 -8.8489416e-32 -1.8929659e-32 2.4463446e-31 -4.427551e-31 -2.7224055e-32
-0.19136807 -8.089045e-33 -1.1016926e-31 -1.3913374e-32 -0.36831757 -1.4376143e-31 -0.17199865 -1.3230177e-32
-1.5355282e-31 -0.003115914 -9.5189975e-32 -0.03260125 -1.158457e-32 -2.296349e-31 4.0811057e-32 -1.2041772e-31
-0.12161446 -0.049872115 1.721813e-31 -4.8691054e-32 -1.2499685e-31 9.470299e-32 -7.457745e-32 0.014175964
3.3326264e-32 -0.5028877 -4.6146438e-32 -0.038006686 -1.3527074e-31 -1.5559232e-31 -0.22728302 -7.446782e-32
-2.4564849e-32 -1.2228346e-31 -2.316905e-31 -0.4142837 -3.5670787e-32 -8.9786803e-32 -0.12914865 -0.096893065
-0.54689723 -1.683076e-32 -0.07643455 -1.8297693e-31 -0.5379817 3.5141613e-31 -6.8166435e-32 -2.8163744e-31
-0.13800836 -7.2080085e-32 -6.542362e-31 -0.31836534 1.269151e-31 -0.24827337 -8.090883e-32 -1.0555139e-31
1.1585672e-31 -7.8505214e-32 -1.3826442e-31 -0.012666081 -0.16652372 -0.3047037 -0.43191516 -1.1968578e-31
-8.5960987e-32 -0.3987418 -0.13248152 -9.6721944e-32 -0.22427054 -0.4209219 -2.1472393e-31 -0.05559591
-2.9885726e-31 -9.667751e-32 -4.8054237e-31 -0.058502853 -2.5720525e-32 -0.3040632 1.8764158e-31 4.4237666e-31
6.996409e-33 -5.3207635e-32 -1.5854659e-31 -5.472714e-32 -0.07714659 4.7081365e-31 -1.9664301e-07 -0.117118955
-9.213276e-32 -0.05106671 -7.142424e-33 -2.2839867e-32 -4.0665414e-31 2.16999e-31 -0.1916642 -2.5473383e-31
-0.14650203 3.7475612e-32 -0.12231191 1.4755488e-31 -1.1772796e-32 0.011589429 -3.3297253e-31 -1.4055498e-31
-6.0696504e-32 -1.9427062e-31 -0.08714515 -0.18335143 -0.17473839 -3.266317e-08 -0.104395635 3.124684e-32
-0.06285807 -0.54155135 -4.7024182e-33 -7.45576e-32 -5.6655995e-32 -0.11611336 -0.29270944 -0.1181153
-1.0197053e-31 -0.14856581 -6.0602076e-32 9.1063044e-32 -0.0006584195 -1.5391016e-31 -9.3329914e-32 7.115335e-32
4.19902e-31 -0.039144065 -9.1261655e-32 -0.15121618 -2.2997245e-31 1.6176946e-31 -0.3140395 4.2327887e-31
-0.0828967 -6.419374e-32 -0.12206603 -0.2183551 1.1309221e-31 -4.886372e-32 -1.0248066e-31 -0.52910656
00000000: 9240 5cbe c510 af8c 8065 5d8c d7ce 298c
00000010: 4ab8 113e 1ec6 4b8a d857 d38b 6c3a 8db6
00000020: 6c2a 200c 20c5 47be 7089 1cbe 80ab 15be
00000030: c05d 0c8c 442b 348c d2d3 928b 46b2 558a
00000040: b99a 88bc 387f 690b cefc be8a bb00 8ebd
00000050: 0568 c58c ea69 948a 4f1f 308c a688 dc0c
00000060: df89 350d c029 d88a 3f2b 3ebd 173d b80b
00000070: c214 738b 7cca 438c 3fb2 3b8c c83e bf89
00000080: 704d 6609 74d9 b5bd 1d8a 1a0b afa7 200c
00000090: a350 d7bd 32c1 5c8c ac24 a70b edd6 ad8b
000000a0: b411 398b 7719 0c3c 5666 3f8c 4c0c e8bd
000000b0: 67f4 acbd ea18 230d e36c 130d cf1f 72be
000000c0: 36c1 f10a 401f ddbd 285c 998a 6d79 b40b
000000d0: aae2 d80c 5829 520b ff8f f7be d143 f58b
000000e0: edcf 18be 40f4 0f8c f884 160b 0644 b18b
000000f0: c38e 198c cd75 eb8b e2bd 30b8 e78a b68c
00000100: 745a 773d e352 b50b 75b3 000c a868 cb8b
00000110: 6e39 bf3c cd06 710d e1a4 438c 2cfc 3d3d
00000120: ceb5 8ebe ad3c 318b 5292 70bd f65e 830a
00000130: 328b ba0b aed6 9f8c b4bb f28b 2bf8 dfbe
00000140: cfce 093e 4743 9f0c 495e cb8c 8dbc fb8b
00000150: 42d4 df0a 2c8f 6f8b 10f9 a68c 319b 898b
00000160: ea67 918b d4ba 2abe 059f 3b8c 6b07 ee0c
00000170: c2bb b10b 9afa 078c c0f1 b709 a102 970c
00000180: 78ab 288c 5a22 4a8b 00c2 8c8a 5451 ee0b
00000190: d405 e73b d6bb 688c 9640 078b d829 678c
000001a0: 1320 860b 4680 89be 40dd 36be 4ebb e58b
000001b0: aa93 c48a dfc6 9e0c a8ae 0f8d fa5a 0d8b
000001c0: fef5 43be be00 288a 0402 0f8c 187c 908a
000001d0: 1f94 bcbe ee9c 3a8c 6a20 30be d863 898a
000001e0: ad52 478c 5d34 4cbb 9720 f78b e388 05bd
000001f0: 249a 708a a40a 958c 33e7 530b a74f 1c8c
00000200: 0111 f9bd b446 4cbd 0d81 5f0c 83d1 7c8b
00000210: 5441 228c efdc f50b 389d c18b 4d42 683c
00000220: 340a 2d0b 40bd 00bf 239b 6f8b e6ac 1bbd
00000230: 6a97 2f8c 6bf8 498c e1bc 68be 5b54 c18b
00000240: 9218 ff8a a6bb 1e8c 3060 968c fe1c d4be
00000250: 9c36 398b 9119 e98b 8b3f 04be df6f c6bd
00000260: 7501 0cbf d6c7 ae8a b889 9cbd 8484 6d8c
00000270: 2bb9 09bf 0515 e40c 5ef8 b08b 0ccb b68c
00000280: 1052 0dbe 6f21 bb8b d14f 548d c800 a3be
00000290: c7be 240c 603b 7ebe 240d d28b 7703 098c
000002a0: 0064 160c aacf cb8b 3c7a 338c 6585 4fbc
000002b0: 3285 2abe 2002 9cbe fc23 ddbe 6c5c 1b8c
000002c0: e02a df8b e327 ccbe 3ca9 07be c21a fb8b
000002d0: 2da7 65be 1383 d7be 225d 8b8c 89b8 63bd
000002e0: 2ef8 c18c 3afd fa8b e6f1 1b8d b0a0 6fbd
000002f0: 718c 058b 2cae 9bbe 9c92 730c 378f 0f0d
00000300: 4a4f 110a 8a22 8a8b 24ce 4d8c 6c14 8e8b
00000310: 08ff 9dbd abc9 180d d224 53b4 10dc efbd
00000320: b930 ef8b 542b 51bd a457 148a c82e ed8a
00000330: 81f7 038d 25d7 8c0c 9f43 44be eb54 a58c
00000340: a104 16be a295 420b ab7e fabd 8589 3f0c
00000350: ec82 748a 97e1 3d3c 8d1c d88c 6773 368c
00000360: bf93 9d8b 7d2d 7c8c 2879 b2bd 7ac0 3bbe
00000370: 9fee 32be 8949 0cb3 61cd d5bd 2d3e 220b
00000380: bbbb 80bd 1ca3 0abf b054 c389 0690 c18b
00000390: 5e16 938b d7cc edbd 03de 95be 6fe6 f1bd
000003a0: 855d 048c a321 18be fd54 9d8b c669 ec0b
000003b0: c999 2cba 6cc9 478c 5e4c f28b 83b9 b80b
000003c0: 1844 080d 8755 20bd c6ed ec8b 6ad8 1abe
000003d0: ba42 958c 20fd 510c c9c9 a0be a25c 090d
000003e0: bfc5 a9bd 0fa8 a68b c1fd f9bd 7b98 5fbe
000003f0: 55cd 120c 06b7 7d8b 0a07 058c 8773 07bf

shared_bn1.running_mean f4 [256]
-0.0925448 6.0433375e-32 8.7043964e-32 1.6027397e-32 1.980397 -6.698949e-32 1.5007084e-31 3.6524301e-09
1.3382221e-31 -2.0995393 -1.9622693 -0.36170945 -3.524819e-32 4.57393e-32 -6.9097727e-32 1.6499374e-32
-0.36639667 3.730245e-32 -1.2986981e-31 -0.17193778 5.3043877e-32 1.2388989e-32 -2.706231e-32 8.625397e-32
2.1838574e-32 6.369013e-32 -0.6904147 5.8381573e-32 7.292545e-32 -5.158435e-32 2.3608172e-32 2.0336584e-32
1.0407993e-31 -0.9381242 4.852687e-32 -1.1180839e-31 -0.2996762 -5.434803e-32 1.2229663e-31 -1.7880136e-20
-8.6552435e-33 1.1579189 -5.5452435e-32 -0.4990693 -0.067606546 -9.550795e-32 7.972527e-32 -0.69994044
1.0669175e-31 -0.060250133 9.3503505e-32 -3.6355824e-32 1.20834795e-32 2.4183741e-33 0.11422 -5.7697753e-32
-3.3002665 8.125583e-32 7.682972e-32 1.6411112e-32 8.2161977e-32 1.05186815e-16 -0.65462756 6.994058e-32
-1.1154789 -7.699964e-33 4.3589608e-32 1.5617345e-32 0.7804895 1.2683751e-31 -1.5254102e-33 -0.50898117
0.007959773 -9.459839e-32 -1.3280524 7.3161464e-32 2.94737e-32 7.539675e-32 2.100487e-32 -0.02739366
-1.0260924 3.6353133e-32 9.132652e-32 1.370589e-31 4.9753463e-33 -1.0081851e-32 1.4770884e-32 8.9661654e-32
-3.447451e-32 1.3462217 8.679882e-32 1.005882e-31 -4.5176408e-32 8.815085e-32 9.230161e-33 -3.1941773e-32
-5.2922584e-32 6.979815e-33 2.7097454e-33 2.8790196e-32 -0.01582275 -1.0380895e-31 1.5108309e-31 1.0962095e-31
1.1312519e-31 -2.3898418 -0.61146486 2.7170128e-33 1.1825789e-31 5.3239385e-32 -4.552131e-32 9.849591e-32
-2.3343263 -7.9330235e-32 -4.6868882e-32 6.4426653e-32 -0.3065553 -1.05945315e-32 -0.7194625 6.149067e-32
-2.3215944e-33 -0.02399405 1.0890023e-31 0.030869387 8.769259e-32 -6.5300633e-32 1.1237094e-31 5.3276084e-32
-1.2127924 -1.0291451 3.7015015e-32 9.949712e-32 1.4158745e-31 9.7295973e-32 8.471425e-32 0.4965242
-5.52677e-32 0.082708776 -2.4967144e-32 -0.021432735 7.299219e-33 3.95577e-32 0.2991866 -4.1674146e-32
-3.337443e-32 4.0965402e-32 5.5950034e-32 0.97706896 9.58093e-32 -2.3561693e-32 -0.60994804 -0.549406
0.1594546 8.1557126e-32 -0.40653032 -5.0523323e-32 -0.19198784 3.4778975e-32 6.754526e-32 9.230498e-32
-0.53958344 1.935898e-32 8.1329415e-32 -0.11547229 9.9001185e-33 -0.0926257 4.6909116e-32 -1.9467366e-32
-5.646694e-32 9.026431e-32 1.3902151e-32 -0.7448231 -0.11076861 -0.716125 0.5536325 -7.263409e-33
-2.9405793e-32 0.9801883 -1.811113 -9.5628617e-32 -0.39009836 0.4292851 2.9498346e-32 -0.9139144
-1.3548588e-31 -7.259717e-32 1.4612854e-32 -1.1772395 -1.6634803e-32 -0.81843716 -3.6867306e-32 6.587611e-32
-6.599162e-32 1.9719857e-32 -4.08634e-32 1.4153474e-31 -0.558555 1.6798543e-31 -5.9582667e-17 -0.71220845
6.129082e-32 -0.42944527 -3.3973656e-32 1.0345093e-31 3.5226374e-32 -7.3275675e-32 -0.6725696 1.1491823e-31
-0.7298399 -9.7855026e-32 0.19577073 6.662292e-32 -4.1212882e-32 0.76444185 -1.3333103e-32 -1.5493229e-33
8.8391445e-32 5.792987e-32 -1.3209878 -2.5363543 -1.0395863 9.667228e-14 -0.35891557 -1.9419096e-32
-1.4008442 -0.2201713 7.460692e-33 4.490381e-32 3.5538357e-33 -1.6315739 -0.25632304 -1.3546878
1.3986649e-31 0.36052185 6.2030267e-32 1.1076139e-32 -0.03786361 -4.7690432e-32 1.6050444e-31 1.023948e-31
1.3805737e-32 -0.05133725 7.9564035e-32 -0.3667643 2.3186323e-33 1.6847583e-32 0.104716726 8.8855183e-32
-0.14866614 5.894541e-32 -0.2070605 0.033626616 6.2188847e-32 -5.4681634e-32 -5.1562263e-33 0.051556695
00000000: 2188 bdbd dee4 9c0b a3fa e10b 2170 a60a
00000010: a67d fd3f 27ea ad8b 97cd 420c 3bfe 7a31
00000020: 0fb6 2d0c da5e 06c0 a42b fbbf fb31 b9be
00000030: e204 378b f57d 6d0b 5163 b38b dc56 ab0a
00000040: 5898 bbbe 76af 410b a694 288c 7510 30be
00000050: b4b5 890b 95a7 800a fb83 0c8b 99ed df0b
00000060: e3c8 e20a 5a59 a50b 05bf 30bf 3691 970b
00000070: 4653 bd0b aeeb 858b 4929 f50a ea2f d30a
00000080: 7d1a 070c e828 70bf 46f7 7b0b b622 118c
00000090: 296f 99be 7618 8d8b 07c0 1e0c 84df a89e
000000a0: 2bc3 338a b036 943f 77f6 8f8b 0386 ffbe
000000b0: 4d75 8abd ecf3 f78b 88fa ce0b 4c2f 33bf
000000c0: 6a7e 0a0c d8c8 76bd bdbf f20b 2ec5 3c8b
000000d0: ccf6 7a0a 21e9 4809 2dec e93d bcca 958b
000000e0: 9137 53c0 c3f3 d20b 1b76 c70b 386c aa0a
000000f0: 004e d50b 568b f224 ac95 27bf 7d93 b50b
00000100: 03c8 8ebf 08ec 1f8a 8754 620b 062e a20a
00000110: 29ce 473f fea4 240c c673 fd88 974c 02bf
00000120: b569 023c 6a97 f58b 9ffd a9bf 22f0 bd0b
00000130: 4409 190b bcbd c30b 8620 da0a ab68 e0bc
00000140: ff56 83bf 9ac1 3c0b e218 ed0b a2e9 310c
00000150: f5aa ce09 5064 518a bf63 990a 64c6 e80b
00000160: 7c00 338b fe50 ac3f b657 e10b 2a92 020c
00000170: bf91 6a8b 4ada e40b f4b3 3f0a e6d9 258b
00000180: 1765 898b 10f7 100a e91d 6109 bc7c 150b
00000190: b69e 81bc 71c0 068c f81d 440c cf4b 0e0c
000001a0: 4bd8 120c 2bf3 18c0 f688 1cbf 79b8 6109
000001b0: ed81 190c a437 8a0b 335c 6c8b c3b5 ff0b
000001c0: 9a65 15c0 fcf3 cd8b 6e5b 738b db42 a70b
000001d0: d1f4 9cbe 310a 5c8a b22e 38bf 8fa3 9f0b
000001e0: dade 4089 2c8f c4bc 4f5c 0d0c cce1 fc3c
000001f0: b9a9 e30b b787 a98b a6dd 110c 0850 8a0b
00000200: c83c 9bbf 07bb 83bf 6531 400b 9727 010c
00000210: 80ca 370c 4498 fc0b 47ee db0b 6c38 fe3e
00000220: b07b 8f8b 3863 a93d 07a3 018b b493 afbc
00000230: 4e99 170a 3465 4d0b fc2e 993e 7162 588b
00000240: 3a4a 2d8b 5cb4 540b 2d41 910b 3121 7a3f
00000250: 34bc f80b b9ad f48a 8e25 1cbf dfa5 0cbf
00000260: 1148 233e 02bc d30b be24 d0be 822a 838b
00000270: 7698 44be 3095 340b 865b af0b 2fa3 ef0b
00000280: 2422 0abf ff08 c90a ab24 d30b bc7c ecbd
00000290: 0f9e 4d0a 8bb2 bdbd e990 730b 2329 ca8a
000002a0: b898 928b ed56 ea0b 425e 900a baac 3ebf
000002b0: a7da e2bd f853 37bf dcba 0d3f e8da 168a
000002c0: 01af 188b 9fed 7a3f 8dd2 e7bf 1e44 f88b
000002d0: f9ba c7be 42cb db3e 072a 190b 4bf6 69bf
000002e0: e8de 2f8c 1879 bc8b a1bf 970a c9af 96bf
000002f0: e4be ac8a 1985 51bf 0e6d 3f8b 2f06 ab0b
00000300: f452 ab8b 5fc8 cc0a c62c 548b fcb8 370c
00000310: 76fd 0ebf bc0e 5a0c 6663 89a4 4b53 36bf
00000320: bd1e 9f0b 40e0 dbbe bc66 308b 7849 060c
00000330: e2e7 360b 0a3c be8b 852d 2cbf 222c 150c
00000340: cad6 3abf d20b fe8b 1f78 483e 86f6 ac0b
00000350: 51fd 558b 76b2 433f 7875 8a8a 74b6 0089
00000360: 317a e50b 0165 960b 2116 a9bf a153 22c0
00000370: 2a11 85bf c6af d929 c8c3 b7be d0a8 c98a
00000380: dd4e b3bf 9674 61be d8f3 1a0a 6727 690b
00000390: dd9e 9309 6ad7 d0bf c63c 83be 6966 adbf
000003a0: 9d8e 350c 5296 b83e 2f0a a10b db0a 660a
000003b0: df16 1bbd 759f 778b c058 500c 82ea 040c
000003c0: f25d 8f0a 0247 52bd 5f8f ce0b 88c8 bbbe
000003d0: db9f 4009 8ff4 ae0a b975 d63d 66ae e60b
000003e0: f03b 18be f207 990b ab07 54be 10bc 093d
000003f0: 9473 a10b 2ef6 8d8b 672e d689 1d2d 533d

shared_bn1.running_var f4 [256]
1.6003716 0.0 0.0 0.0 80.42092 0.0 0.0 3.188366e-12
0.0 7.6588616 8.913426 2.035097 0.0 0.0 0.0 0.0
8.403909 0.0 0.0 2.1020944 0.0 0.0 0.0 0.0
0.0 0.0 13.266263 0.0 0.0 0.0 0.0 0.0
0.0 2.4461122 0.0 0.0 3.2258422 0.0 0.0 0.0
0.0 2.4538245 0.0 30.085907 26.46598 0.0 0.0 17.886053
0.0 4.5084195 0.0 0.0 0.0 0.0 4.8552303 0.0
8.522793 0.0 0.0 0.0 0.0 2.5950136e-31 49.393963 0.0
46.993256 0.0 0.0 0.0 48.934196 0.0 0.0 30.617107
1.323757 0.0 118.35685 0.0 0.0 0.0 0.0 2.2095795
54.20618 0.0 0.0 0.0 0.0 0.0 0.0 0.0
0.0 1.6601617 0.0 0.0 0.0 0.0 0.0 0.0
0.0 0.0 0.0 0.0 10.437493 0.0 0.0 0.0
0.0 273.52322 4.1744046 0.0 0.0 0.0 0.0 0.0
262.8345 0.0 0.0 0.0 1.8402473 0.0 6.8088017 0.0
0.0 0.037034553 0.0 39.24759 0.0 0.0 0.0 0.0
97.87496 85.94324 0.0 0.0 0.0 0.0 0.0 44.94461
0.0 2.1207113 0.0 0.02160391 0.0 0.0 1.499218 0.0
0.0 0.0 0.0 2.9897099 0.0 0.0 10.295424 29.203978
1.4264389 0.0 17.544828 0.0 1.7122638 0.0 0.0 0.0
13.447524 0.0 0.0 1.2991501 0.0 3.620338 0.0 0.0
0.0 0.0 0.0 18.858496 4.3340664 2.465426 2.9356148 0.0
0.0 1.8015664 53.55705 0.0 3.3781276 2.0623431 0.0 77.92615
0.0 0.0 0.0 54.36099 0.0 1.8791641 0.0 0.0
0.0 0.0 0.0 0.0 8.378709 0.0 8.304547e-32 3.6934662
0.0 3.3224387 0.0 0.0 0.0 0.0 2.199264 0.0
10.700782 0.0 2.0524645 0.0 0.0 4.1835747 0.0 0.0
0.0 0.0 106.895935 282.4873 1.7299628 1.5214672e-22 3.3735547 0.0
101.10186 1.3158365 0.0 0.0 0.0 166.73874 2.7503803 171.94655
0.0 3.250954 0.0 0.0 0.042923994 0.0 0.0 0.0
0.0 0.3988975 0.0 7.2201433 0.0 0.0 2.4747524 0.0
3.161898 0.0 2.4433153 1.5491855 0.0 0.0 0.0 2.7075288
00000000: fad8 cc3f 0000 0000 0000 0000 0000 0000
00000010: 83d7 a042 0000 0000 0000 0000 7f5c 602c
00000020: 0000 0000 6515 f540 659d 0e41 073f 0240
00000030: 0000 0000 0000 0000 0000 0000 0000 0000
00000040: 6976 0641 0000 0000 0000 0000 b788 0640
00000050: 0000 0000 0000 0000 0000 0000 0000 0000
00000060: 0000 0000 0000 0000 9d42 5441 0000 0000
00000070: 0000 0000 0000 0000 0000 0000 0000 0000
00000080: 0000 0000 1a8d 1c40 0000 0000 0000 0000
00000090: 3374 4e40 0000 0000 0000 0000 0000 0000
000000a0: 0000 0000 760b 1d40 0000 0000 f0af f041
000000b0: 54ba d341 0000 0000 0000 0000 a316 8f41
000000c0: 0000 0000 f944 9040 0000 0000 0000 0000
000000d0: 0000 0000 0000 0000 0c5e 9b40 0000 0000
000000e0: 5c5d 0841 0000 0000 0000 0000 0000 0000
000000f0: 0000 0000 0f6d a80c 6b93 4542 0000 0000
00000100: 18f9 3b42 0000 0000 0000 0000 0000 0000
00000110: 9ebc 4342 0000 0000 0000 0000 d6ef f441
00000120: df70 a93f 0000 0000 b5b6 ec42 0000 0000
00000130: 0000 0000 0000 0000 0000 0000 c069 0d40
00000140: 21d3 5842 0000 0000 0000 0000 0000 0000
00000150: 0000 0000 0000 0000 0000 0000 0000 0000
00000160: 0000 0000 2e80 d43f 0000 0000 0000 0000
00000170: 0000 0000 0000 0000 0000 0000 0000 0000
00000180: 0000 0000 0000 0000 0000 0000 0000 0000
00000190: f9ff 2641 0000 0000 0000 0000 0000 0000
000001a0: 0000 0000 f9c2 8843 b994 8540 0000 0000
000001b0: 0000 0000 0000 0000 0000 0000 0000 0000
000001c0: d16a 8343 0000 0000 0000 0000 0000 0000
000001d0: 398d eb3f 0000 0000 b4e1 d940 0000 0000
000001e0: 0000 0000 8bb1 173d 0000 0000 88fd 1c42
000001f0: 0000 0000 0000 0000 0000 0000 0000 0000
00000200: fbbf c342 f0e2 ab42 0000 0000 0000 0000
00000210: 0000 0000 0000 0000 0000 0000 48c7 3342
00000220: 0000 0000 bcb9 0740 0000 0000 affa b03c
00000230: 0000 0000 0000 0000 60e6 bf3f 0000 0000
00000240: 0000 0000 0000 0000 0000 0000 6857 3f40
00000250: 0000 0000 0000 0000 0fba 2441 bfa1 e941
00000260: 8d95 b63f 0000 0000 cf5b 8c41 0000 0000
00000270: 762b db3f 0000 0000 0000 0000 0000 0000
00000280: 0f29 5741 0000 0000 0000 0000 8d4a a63f
00000290: 0000 0000 9eb3 6740 0000 0000 0000 0000
000002a0: 0000 0000 0000 0000 0000 0000 33de 9641
000002b0: acb0 8a40 8ac9 1d40 1de1 3b40 0000 0000
000002c0: 0000 0000 ba99 e63f 6b3a 5642 0000 0000
000002d0: 3e33 5840 6efd 0340 0000 0000 30da 9b42
000002e0: 0000 0000 0000 0000 0000 0000 a771 5942
000002f0: 0000 0000 7388 f03f 0000 0000 0000 0000
00000300: 0000 0000 0000 0000 0000 0000 0000 0000
00000310: 310f 0641 0000 0000 2f99 d70b c061 6c40
00000320: 0000 0000 d6a2 5440 0000 0000 0000 0000
00000330: 0000 0000 0000 0000 bec0 0c40 0000 0000
00000340: 6736 2b41 0000 0000 945b 0340 0000 0000
00000350: 0000 0000 d8df 8540 0000 0000 0000 0000
00000360: 0000 0000 0000 0000 b8ca d542 603e 8d43
00000370: 6c6f dd3f 21ef 371b 52e8 5740 0000 0000
00000380: 2734 ca42 556d a83f 0000 0000 0000 0000
00000390: 0000 0000 1ebd 2643 3b06 3040 51f2 2b43
000003a0: 0000 0000 a10f 5040 0000 0000 0000 0000
000003b0: 12d1 2f3d 0000 0000 0000 0000 0000 0000
000003c0: 0000 0000 4b3c cc3e 0000 0000 6a0b e740
000003d0: 0000 0000 0000 0000 5862 1e40 0000 0000
000003e0: 895c 4a40 0000 0000 475f 1c40 b64b c63f
000003f0: 0000 0000 0000 0000 0000 0000 2748 2d40

fingerprint_fc.0.weight f4 [128, 256]
0.12255252 -7.567127e-33 -6.33468e-33 -2.0673629e-33 0.078609854 -3.3367663e-33 1.0336496e-32 -3.1860818e-12
-2.537561e-33 -0.11190233 -0.030635264 -0.030127322 -4.8489002e-33 1.2771342e-33 3.5466185e-33 5.9851764e-33
0.04346911 -6.502088e-33 8.847208e-33 -0.011173605 8.685084e-34 1.0778853e-33 -2.3968888e-33 1.3932233e-33
1.0856085e-32 -1.0018441e-32 0.09342557 3.228044e-33 8.706307e-33 0.0 1.6249988e-33 -5.723036e-33
-7.8734494e-33 0.05293173 -1.2478834e-33 -2.421266e-33 -0.03848192 -3.4890098e-33 -1.1086641e-32 -9.005562e-33
-2.5677359e-33 0.06158341 -6.5851855e-33 -0.024591975 0.0022339341 1.6448799e-33 1.6780355e-33 -0.11967171
-4.5278885e-33 -0.21264414 1.0079936e-32 -8.731583e-33 -1.06376655e-32 -3.7122512e-33 0.015449705 -2.1272137e-33
-0.14644432 1.18446234e-32 1.0366131e-32 -2.6184e-33 1.6630655e-34 9.900344e-34 0.037340045 6.0750955e-33
0.059130684 -4.0405076e-33 3.921929e-33 -3.1810806e-34 0.12524931 -3.0390283e-33 -7.186223e-33 0.10815224
0.0029949641 -1.4556362e-33 0.11516577 -5.986726e-33 1.5654462e-33 -9.6184135e-33 -3.0332732e-33 -0.020591028
0.062310163 6.6461996e-34 -8.357783e-33 7.4356204e-33 -6.935671e-33 5.5449295e-33 -8.193505e-33 3.9800714e-34
1.8136227e-33 0.0015019709 5.7264435e-33 5.394923e-33 -1.0516154e-32 -3.221356e-33 2.6598315e-33 -9.272069e-33
-3.151924e-33 5.929997e-34 -4.4237287e-33 -4.272602e-33 -0.036295593 1.8535336e-33 -5.851985e-33 7.148529e-33
-5.7691587e-34 0.44618165 0.012423264 -1.0871563e-32 6.192917e-33 6.1459624e-33 -1.4154854e-33 -6.94278e-34
0.19461794 5.988693e-33 -1.5340548e-33 -6.098742e-33 0.0017451961 -1.8302712e-33 -0.0017948869 -1.53180515e-33
-7.657902e-33 -0.0025341685 9.586455e-35 0.13927755 -8.8089864e-33 -7.8401675e-33 -9.814468e-33 6.1068353e-33
0.08927355 0.04696991 5.662348e-33 4.1651886e-33 -8.18057e-33 -2.776348e-33 3.8179722e-33 0.09034947
9.322707e-33 -0.05448879 -3.547124e-33 -0.00036718728 -7.959923e-33 -2.9732453e-33 0.07459293 8.397162e-33
6.4955706e-34 -5.2204913e-33 -4.2125868e-33 -0.117427826 2.8317282e-33 -9.506633e-33 0.04686422 -0.042013645
0.04897049 2.677979e-33 0.026287297 9.675599e-33 0.028185613 2.4290312e-33 2.8875826e-34 7.9795525e-33
-0.016185693 -4.245298e-33 -9.1307685e-33 0.09220395 8.348348e-33 -0.05586297 5.734294e-33 -1.5225618e-34
-9.091559e-33 3.4989402e-34 -9.969081e-33 0.07705812 0.023314986 -0.015911976 -0.033093005 -8.515089e-33
-5.3844742e-33 0.03876684 0.09168773 -3.0960453e-33 0.051100716 -0.05406632 4.4236776e-33 0.08095578
-8.470542e-33 1.9430446e-33 -9.876472e-33 0.09449411 6.7335696e-33 0.066599846 1.5803394e-33 1.0328097e-32
5.2782705e-33 -5.6499507e-34 -7.605587e-33 -6.177073e-33 -0.05246173 1.01955584e-32 -1.5480043e-13 -0.06543469
-8.8521976e-33 0.087949984 4.0409705e-33 1.3523542e-33 5.40276e-33 -1.07599706e-32 -0.05143417 -4.8609895e-33
0.0071397526 -9.489575e-33 0.052967258 -4.3482587e-33 -4.9844362e-33 0.0014657929 3.410777e-33 -9.786724e-33
2.1942729e-33 4.5176665e-33 0.13237643 0.21326031 -0.0040425994 -1.8263753e-14 -0.0087053925 -8.8958834e-33
0.07820171 0.021897241 1.04878826e-32 2.669849e-34 6.5930194e-33 0.20894225 -0.021586146 0.21890372
4.3407755e-33 0.027981818 -6.404021e-33 -5.1152118e-33 2.4038405e-07 3.8733016e-34 -5.35062e-33 9.329723e-33
-1.0608759e-32 0.013660548 2.7838112e-34 -0.01203513 4.1707594e-33 4.618701e-33 0.031226994 6.6574284e-33
0.06424962 -3.0186004e-33 -0.040307213 -0.05989503 6.201538e-34 -1.2308649e-33 -1.0507928e-34 -0.026343483
00000000: d1fc fa3d c029 1d8a f090 038a f2bf 2b89
00000010: 34fe a03d 969a 8a89 3dae 560a 5933 60ac
00000020: f4cf 5289 0c2d e5bd cef6 fabc 93cd f6bc
00000030: 5a6a c989 4833 d408 1e52 9309 509d f809
00000040: aa0c 323d 080b 078a d4bf 370a 7f11 37bc
00000050: 434e 9008 2c18 b308 3020 4789 2a7d e708
00000060: d978 610a 2b13 508a e855 bf3d 7416 8609
00000070: abd2 340a 0000 0000 e7ff 0609 c2b9 ed89
00000080: 7086 238a f1ce 583d 1757 cf88 a226 4989
00000090: 389f 1dbd 84ed 9089 b242 668a c809 3b8a
000000a0: b451 5589 e33e 7c3d dac4 088a 1c75 c9bc
000000b0: 3267 123b baa6 0809 de67 0b09 7116 f5bd
000000c0: c514 bc89 63bf 59be 225a 510a 0f59 358a
000000d0: 88ef 5c8a 6d33 9a89 c220 7d3c d5b8 3089
000000e0: 80f5 15be d200 760a ce4b 570a 3687 5989
000000f0: 300f 5d07 687f a408 e0f1 183d 7f59 fc09
00000100: 0433 723d 0cd6 a789 1ae9 a209 486b d387
00000110: 5b41 003e fc78 7c89 8440 158a ec7e dd3d
00000120: 2947 443b ebdb f188 08dc eb3d caad f889
00000130: 5c0d 0209 42c4 478a 96fe 7b89 84ae a8bc
00000140: f138 7f3d 9ddb 5c08 9995 2d8a 8a6e 1a0a
00000150: 5a0c 108a ce53 e609 252c 2a8a b442 0408
00000160: 7dab 1609 c8dd c43a fedd ed09 a918 e009
00000170: 7769 5a8a 55cf 8589 5cf8 5c09 c692 408a
00000180: 01ed 8289 d60e 4508 27c1 b789 197a b189
00000190: b0aa 14bd 4dfc 1909 fa14 f389 1978 140a
000001a0: 93b6 3f88 ec71 e43e f28a 4b3c 25cb 618a
000001b0: 329f 000a 154b ff09 1730 eb88 a4b6 6688
000001c0: ed49 473e b5c2 f809 7ae3 fe88 f354 fd89
000001d0: 10bf e43a 900d 1889 6942 ebba c983 fe88
000001e0: 640c 1f8a 4b14 26bb 08da fe06 c69e 0e3e
000001f0: 9bf4 368a 7bd5 228a aad6 4b8a 03ab fd09
00000200: 0dd5 b63d 8563 403d 6934 eb09 e203 ad09
00000210: 5fe7 298a 64a6 6689 a597 9e09 2509 b93d
00000220: 03a0 410a a32f 5fbd 7e57 9389 0b83 c0b9
00000230: 3652 258a ef01 7789 2ec4 983d f966 2e0a
00000240: 34da 5708 c9d9 d889 e8fb ae89 007e f0bd
00000250: 3340 6b09 ee71 458a b2f4 3f3d 8016 2cbd
00000260: 4895 483d 517a 5e09 7558 d73c 4ff4 480a
00000270: 84e5 e63c c8cb 4909 ace9 bf07 94ba 250a
00000280: dc97 84bc c057 b089 7ea3 3d8a 6dd5 bc3d
00000290: 6e63 2d0a 92d0 64bd 7931 ee09 1862 4a87
000002a0: 05d3 3c8a 628b e807 ba0c 4f8a a6d0 9d3d
000002b0: 12ff be3c d559 82bc 888c 07bd fbd9 308a
000002c0: 8da9 df89 fac9 1e3d c7c6 bb3d cd9a 8089
000002d0: fc4e 513d a574 5dbd 9cc0 b709 25cc a53d
000002e0: 20ed 2f8a fd6b 2109 5520 4d8a 2186 c13d
000002f0: ccd9 0b0a 8065 883d 1a4a 0309 9581 560a
00000300: 3340 db09 77c0 3b88 3df6 1d8a f44a 008a
00000310: 1ce2 56bd e3c0 530a 304a 2eaa 9f02 86bd
00000320: 5bda 378a 1f1f b43d f8da a709 c9b2 e008
00000330: 006c e009 d179 5f8a a3ac 52bd e8ea c989
00000340: 96f4 e93b 3c17 458a 32f4 583d 9e9e b489
00000350: 9e0b cf89 d91f c03a 9aad 8d09 2643 4b8a
00000360: 064b 3609 12a8 bb09 b08d 073e e960 5a3e
00000370: c877 84bb 5981 a4a8 10a1 0ebc a1c2 388a
00000380: 3828 a03d d861 b33c 26d3 590a 2071 b107
00000390: 81ee 080a f5f4 553e 6ed5 b0bc 4c28 603e
000003a0: 0b4f b409 203a e53c 9e01 058a 437a d489
000003b0: 220e 8134 68b6 0008 8d41 de89 51c5 410a
000003c0: d655 5c8a 7ed0 5f3c 1804 b907 fe2e 45bc
000003d0: 1f3f ad09 74da bf09 c1cf ff3c f644 0a0a
000003e0: 4e95 833d 88c6 7a89 2d19 25bd 7e54 75bd
000003f0: da14 4e08 3483 cc88 a0ac 0b87 4ace d7bc

fingerprint_fc.0.bias f4 [128]
3.1229712e-05 -6.095925e-06 2.0124036e-08 7.1253303e-06 5.442965e-06 -1.3301103e-05 6.1836913e-09 7.892978e-08
-1.0069523e-05 -7.9764175e-07 2.1784432e-05 -3.6298363e-05 1.7809672e-05 7.2206394e-06 6.3313464e-06 1.1075095e-05
-2.4871759e-05 6.4858186e-06 -1.3865421e-05 -7.4396144e-07 2.9400305e-06 1.5184492e-05 -8.995203e-06 6.059382e-06
4.186153e-06 7.325388e-10 1.4198476e-05 6.4906476e-06 9.01425e-06 -4.3336922e-07 -3.8322443e-05 1.1745469e-05
3.149748e-05 -9.481413e-06 -8.5309694e-07 -8.52569e-06 1.6800474e-06 4.9594155e-06 -2.2916964e-05 1.463019e-05
-3.6580943e-05 -1.19698425e-05 -3.079109e-05 -4.3066566e-06 -3.858987e-06 -6.080881e-06 1.6003914e-06 -2.800793e-06
3.483054e-05 6.331872e-06 4.11389e-05 -2.5418682e-05 -4.05246e-06 -4.742821e-05 -3.9323504e-07 -4.3267293e-05
3.7837464e-07 -6.097115e-06 -4.5634115e-06 -7.1820405e-06 -9.061187e-09 3.6192916e-05 9.406304e-06 -4.934461e-05
-5.229731e-07 -1.1427311e-05 4.1343992e-07 2.1632095e-06 3.1958065e-05 4.205209e-06 1.13797705e-05 -5.1963357e-06
-2.5820548e-06 -3.2154674e-06 -2.7244519e-06 3.8280023e-06 -6.502847e-06 -6.824064e-06 -7.2934326e-06 -3.2045347e-05
1.079706e-06 -2.7972546e-05 -4.010835e-06 1.0714301e-06 -2.697066e-05 4.7397916e-05 2.6748353e-08 1.2480248e-09
-1.0539738e-05 6.304342e-05 -1.4279321e-06 7.032494e-10 -1.0083804e-05 -3.3994949e-10 -2.3550387e-05 -2.400582e-05
-7.874451e-06 1.1031953e-05 2.793267e-06 2.3423695e-07 8.2640645e-06 -1.8248997e-05 1.5497499e-05 -4.1800195e-07
2.1344675e-05 2.7657609e-06 -2.0316189e-05 2.451639e-06 9.6897265e-06 -9.106395e-06 9.173333e-07 -1.9561242e-11
3.3604895e-06 8.5216925e-07 -1.3182251e-05 4.148069e-06 -2.0738196e-05 -7.0836554e-06 -3.550994e-05 -8.497036e-06
2.9822746e-05 -2.4109397e-05 -2.5533805e-06 -1.3317347e-05 -1.9189265e-05 -5.439625e-06 1.7363058e-05 -2.0982784e-06
00000000: a6fc 0238 998b ccb6 39dd ac32 1f16 ef36
00000010: b7a2 b636 cd27 5fb7 5378 d431 1b80 a933
00000020: 46f0 28b7 861d 56b5 b6bd b637 123f 18b8
00000030: fb65 9537 d248 f236 da71 d436 2ccf 3937
00000040: b2a3 d0b7 c2a0 d936 889f 68b7 a4b4 47b5
00000050: 574d 4536 e6c0 7e37 1aea 16b7 b251 cb36
00000060: c876 8c36 d65b 4930 fd35 6e37 3dca d936
00000070: e93b 1737 d0a9 e8b4 69bc 20b8 680e 4537
00000080: 291c 0438 5c12 1fb7 6000 65b5 8f09 0fb7
00000090: fd7d e135 0e69 a636 ce3d c0b7 3074 7537
000000a0: 7d6e 19b8 15d2 48b7 ae25 01b8 e681 90b6
000000b0: 727c 81b6 5f0a ccb6 08cd d635 42f5 3bb6
000000c0: 0217 1238 5e76 d436 8f8c 2c38 343a d5b7
000000d0: 5efa 87b6 a7ed 46b8 d01d d3b4 e779 35b8
000000e0: 6a23 cb34 d295 ccb6 681f 99b6 42fd f0b6
000000f0: 86ab 1bb2 d9cd 1738 c5cf 1d37 5ff7 4eb8
00000100: 7062 0cb5 edb7 3fb7 c0f6 dd34 a82b 1136
00000110: b60a 0638 781a 8d36 beeb 3e37 2f5c aeb6
00000120: 5d47 2db6 4fc9 57b6 bad5 36b6 4a72 8036
00000130: 0833 dab6 43fa e4b6 1cba f4b6 6e68 06b8
00000140: 6aea 9035 96a6 eab7 cf94 86b6 0fce 8f35
00000150: 0d3f e2b7 20cd 4638 40c4 e532 f886 ab30
00000160: d4d3 30b7 2e36 8438 60a7 bfb5 c74e 4130
00000170: 9c2d 29b7 a3e3 baaf 128e c5b7 1b60 c9b7
00000180: 821c 04b7 e115 3937 f673 3b36 9082 7b34
00000190: e3a5 0a37 6c15 99b7 a000 8237 c069 e0b4
000001a0: 570d b337 699b 3936 af6c aab7 d686 2436
000001b0: 0f91 2237 abc7 18b7 aa3e 7635 0010 acad
000001c0: c584 6136 a0c0 6435 5629 5db7 a42f 8b36
000001d0: f0f6 adb7 23b0 edb6 82f0 14b8 7e8e 0eb7
000001e0: dc2b fa37 893e cab7 be5a 2bb6 926d 5fb7
000001f0: a2f8 a0b7 0686 b6b6 e2a6 9137 26d0 0cb6
