DNN/models/best_model3.pt (torch, 837026 bytes, 26 tensors)

fc1.weight f4 [512, 57]
0	0xbd75ffc5	-0.060058374
1	0xbdfed16e	-0.12442289
2	0x3c8fb488	0.017542139
3	0x3d53e504	0.05173208
4	0xbda7a97e	-0.08186625
5	0x3d98aaef	0.07454478
6	0x3d36d1dd	0.044633735
7	0xbddb1667	-0.10697632
8	0x3e7a3ab9	0.24436463
9	0xbe5cde6d	-0.21569224
10	0xbd42f044	-0.047592416
11	0x3c819c5f	0.015821634
12	0x3d22dbaa	0.03976027
13	0xbdaa695a	-0.083208755
14	0x3c5aab60	0.013346523
15	0xbdc5075a	-0.09620543
16	0x3cb33f39	0.021880733
17	0x3db6b9f0	0.089221835
18	0xbd302848	-0.043007165
19	0x3cf21955	0.029553095
20	0xbde5c4a7	-0.11219149
21	0x3d05300e	0.03251653
22	0x3d710b0e	0.058848433
23	0x3b222c20	0.0024745539
24	0xbc733a4f	-0.014845445
25	0xbd02a8ee	-0.031899385
26	0xbde7a456	-0.113106415
27	0xbd4eaec9	-0.050459657
28	0xbdae48bc	-0.08509967
29	0xbda948cd	-0.08265839
30	0xbb643540	-0.0034821779
31	0x3cc5bd2d	0.024138058
32	0xbd296f06	-0.041365646
33	0xbd406526	-0.046971463
34	0xbd5d3a01	-0.054010395
35	0xbc500ae4	-0.012697909
36	0x3dd1959a	0.10233612
37	0x3d3224d4	0.043492153
38	0x3d067bf1	0.032833043
39	0xbcd55a37	-0.026043994
40	0xbcce5d33	-0.025190925
41	0x3acb7634	0.0015522898
42	0x3d423171	0.047410432
43	0x3d100b4a	0.035167016
44	0x3c837e32	0.016051386
45	0x3e0d0eb5	0.13775142
46	0x3de56250	0.11200392
47	0x3d4898fd	0.048974026
48	0x3d89ab3d	0.06722114
49	0xbcaaea56	-0.020863693
50	0x3df11204	0.11771014
51	0xbd312efd	-0.043257702
52	0x3e28edd1	0.1649697
53	0xbc6b142d	-0.014348072
54	0x3d069384	0.032855526
55	0xbc5cc829	-0.013475456
56	0x3de52331	0.11188353
57	0x3d02da96	0.03194674
58	0xbdc99357	-0.09842556
59	0x3d5c6f9b	0.053817373
60	0x3d449128	0.047989994
61	0x3c11b08d	0.008892191
62	0x3d837299	0.06418342
63	0xbd148902	-0.036263473
64	0x3d3d00c1	0.046143297
65	0x3c889931	0.01667461
66	0xbe2260ca	-0.15857235
67	0xbd16c5d3	-0.036809754
68	0xbd88a972	-0.06672944
69	0x3e059abf	0.13047312
70	0x3cdcfe85	0.026976833
71	0xbe9ba2fb	-0.30397782
72	0xbc65e06b	-0.014030556
73	0xbd669a40	-0.056299448
74	0x3e03c17c	0.12866777
75	0xbe274aca	-0.16337124
76	0x3c362a10	0.011118427
77	0x3e8db232	0.27675015
78	0x3c25fe78	0.010131471
79	0xbc5af826	-0.013364827
80	0xbd7ae637	-0.061254706
81	0xbd7982f5	-0.060915906
82	0x3cee7023	0.029106205
83	0x3c473c19	0.0121603245
84	0x3bd58297	0.0065158117
85	0xbc80d493	-0.015726363
86	0x3c8dd6f3	0.01731441
87	0x3d2aa926	0.04166522
88	0x3b61f1eb	0.003447647
89	0x3d504542	0.0508473
90	0x3c3a94a8	0.0113879815
91	0xbd629210	-0.055315077
92	0xbb922f5a	-0.004461211
93	0x3cad4de0	0.021155298
94	0xbbe92d72	-0.007116013
95	0x3c2fecfd	0.010737655
96	0xbd9d9d8e	-0.07696067
97	0x3dadfc89	0.08495433
98	0x3d225b92	0.03963811
99	0xbd21134b	-0.03932504
100	0x3d915fe9	0.070983715
101	0x3a957a44	0.0011404236
102	0xbbf919a7	-0.007601935
103	0xbdf89f4c	-0.121397585
104	0x3d8bdb4d	0.06828938
105	0xbccac7f9	-0.024753558
106	0xbe1205d1	-0.14260031
107	0xbd8bee26	-0.068325326
108	0x3c92e5be	0.017931815
109	0xbeefc5ff	-0.46830747
110	0x3e57fe28	0.21093047
111	0xbedb33fe	-0.42813104
112	0xbda9fe19	-0.083004184
113	0x3dbb79ef	0.09154116
114	0x3d28c10c	0.04119973
115	0x3e103c78	0.14085567
116	0x3e2733d7	0.16328369
117	0x3d320da9	0.04347006
118	0xbdcae769	-0.09907419
119	0x3d57da8d	0.05269866
120	0xbc3b9392	-0.011448758
121	0xbc35d17e	-0.01109731
122	0xbdae4ae0	-0.08510375
123	0x3db021d5	0.08600203
124	0xbbab670a	-0.005230789
125	0xbdad98ea	-0.08476432
126	0xbd68d2cc	-0.056841657
127	0xbb8c713f	-0.004285961
128	0xbe07df47	-0.13268767
129	0xbe405726	-0.18783244
130	0x3e1ca02b	0.15295474
131	0xbdfee287	-0.124455504
132	0x3d154cc9	0.03645018
133	0x3ddf8ae8	0.10915166
134	0xbd993055	-0.07479922
135	0xbdd1c72d	-0.10243068
136	0x3b9fc581	0.004875839
137	0x3d0009a3	0.03125919
138	0x3cd4aa05	0.025959978
139	0xbc8802f3	-0.016602969
140	0xbd5ad7c8	-0.05342844
141	0xbcfe019c	-0.031006627
142	0x3c40c94c	0.011766743
143	0xbd1d4a32	-0.038400836
144	0x3c480af6	0.012209645
145	0xbbbeaf96	-0.0058192713
146	0xbddb4fc8	-0.107085764
147	0xba4f8ea4	-0.00079176784
148	0xbcafa771	-0.021442147
149	0xbc08f910	-0.008360162
150	0x3d0656bf	0.03279757
151	0x3dfc51b8	0.12320274
152	0xbd68c67a	-0.056829907
153	0xbc54a1e6	-0.012978053
154	0x3b74bb25	0.0037342992
155	0x3be47fd5	0.0069732466
156	0xbd8961f3	-0.067081355
157	0x3d487603	0.04894067
158	0x3dbdff0b	0.09277161
159	0x3cb65419	0.022256898
160	0xbcf4a8dc	-0.029865675
161	0xbd8d778d	-0.06907568
162	0xbde8d53f	-0.113687985
163	0xbdef7456	-0.11692111
164	0xbca98052	-0.02069107
165	0x3c44dc31	0.012015388
166	0xbe821cb0	-0.25412512
167	0x3cc24ad5	0.023717323
168	0xbe4df79a	-0.20113984
169	0xbd162d6f	-0.036664423
170	0x3d83c78b	0.06434544
171	0x3ddd1b04	0.107961684
172	0x3d4dc76e	0.05023902
173	0x3c307451	0.0107699195
174	0xbcf2c360	-0.029634178
175	0x3b672e6e	0.0035275477
176	0xbc81c6ce	-0.015841868
177	0xbd05843a	-0.032596804
178	0x3d5637be	0.052299254
179	0xbd110b97	-0.035411444
180	0x3cc31480	0.023813486
181	0xbcb74873	-0.022373414
182	0x3b39fb21	0.0028378444
183	0xbdd20bc8	-0.10256153
184	0x3d0fa4bc	0.035069212
185	0x3e261770	0.16219878
186	0x3ddc3e00	0.10754013
187	0xbd723ff2	-0.059143014
188	0xbdf19d94	-0.11797634
189	0x3cf6897d	0.030094856
190	0x3dd34582	0.10315992
191	0x3d115884	0.035484806
192	0xbd43f3f1	-0.047840063
193	0xbd1212e8	-0.03566256
194	0x3d8ed049	0.06973321
195	0xbc6e4dad	-0.014544887
196	0xbb785f75	-0.0037898694
197	0x3d8880f7	0.06665223
198	0xbdc5943f	-0.09647416
199	0x3b2adfd9	0.0026073365
200	0x3cbe506b	0.023231706
201	0xbb220d8a	-0.0024727308
202	0xbc9f36dd	-0.01943534
203	0xbcd4bb0a	-0.025968093
204	0xbc14b1bd	-0.009075579
205	0x3ab29564	0.0013624844
206	0xbd74f9c3	-0.059808504
207	0x3cab5f8d	0.020919586
208	0xbc83d291	-0.016091617
209	0x3cef40e7	0.029205753
210	0xbbb57098	-0.005537104
211	0x3d94782c	0.072494835
212	0xbc82d53c	-0.015970819
213	0xbd7597ce	-0.059959225
214	0xbcb15787	-0.021648182
215	0xbbeaf57a	-0.0071703764
216	0xbdaf34dd	-0.08555005
217	0x3e0c3f06	0.13695917
218	0x3d4da8cb	0.0502098
219	0xbd88cba8	-0.06679469
220	0xbe00a504	-0.12562948
221	0x3dbd68b0	0.09248483
222	0xbe0ec8ef	-0.13943838
223	0x3eeba3cd	0.46023408
224	0xbd49055a	-0.04907737
225	0x3e52d57d	0.20589252
226	0x3cf529e2	0.029927198
227	0x3cd38ff9	0.025825487
228	0xbd8e53b2	-0.06949557
229	0x3d86731a	0.06564923
230	0x3e0f905a	0.1401991
231	0x3ae06e0f	0.0017122644
232	0x3d972b6f	0.07381331
233	0x3d35d8fe	0.044396393
234	0x3d12fab8	0.035883635
235	0x3dfbc01a	0.122925
236	0xbdfeeb25	-0.12447194
237	0xbce8b774	-0.02840779
238	0xbafff681	-0.001952842
239	0x3b4c0056	0.003112813
240	0x3d89428f	0.06702148
241	0x3d92ec81	0.07174016
242	0xbe2e1791	-0.17001177
243	0x3d4a7488	0.04942754
244	0x3d730de7	0.05933943
245	0xbe0011d7	-0.12506805
246	0x3dab150e	0.08353625
247	0x3e45b1cf	0.1930611
248	0xbd8d8abf	-0.06911229
249	0xbd4c9c5e	-0.04995381
250	0xbc0a4a8a	-0.008440623
251	0xbd229fab	-0.039703052
252	0x3c92ba75	0.017911175
253	0xbcbdb76c	-0.023158751
254	0x3d298940	0.041390657
255	0x3c04d750	0.008107975

fc1.bias f4 [512]
0	0x36014d2e	1.9267422e-06
1	0x3885ab7e	6.373877e-05
2	0x33f8f72c	1.159336e-07
3	0x360f8e80	2.1391606e-06
4	0xb72c4664	-1.0268388e-05
5	0x34bbda99	3.4990515e-07
6	0xb715338f	-8.8930965e-06
7	0xb42b41c7	-1.5949546e-07
8	0x36866456	4.005192e-06
9	0xb6ab7dd1	-5.110844e-06
10	0x377a74ef	1.4928387e-05
11	0x36d651bd	6.3872126e-06
12	0xb68e4167	-4.2395436e-06
13	0x37151c41	8.88767e-06
14	0x36e79960	6.9021917e-06
15	0xb5f73c44	-1.8420474e-06
16	0x35175c16	5.6385886e-07
17	0x351bd426	5.8050716e-07
18	0x3706eb98	8.041876e-06
19	0x38b2f179	8.532679e-05
20	0x36405fbd	2.8665957e-06
21	0x3639607e	2.7623314e-06
22	0xb7856e5f	-1.5906231e-05
23	0x36701a2e	3.5778025e-06
24	0xb3b26a60	-8.3081204e-08
25	0x37ccbb07	2.4405786e-05
26	0x36e9b575	6.9650655e-06
27	0xb5a4e6d0	-1.2286127e-06
28	0xb82cf725	-4.1238167e-05
29	0xb5167533	-5.60499e-07
30	0xb76aa8a7	-1.3986754e-05
31	0xb786b117	-1.6056509e-05
32	0x35ef6fbb	1.7839405e-06
33	0x3744bac7	1.1725998e-05
34	0x391d6ceb	0.00015013262
35	0x372fc392	1.0476348e-05
36	0x3723447e	9.731504e-06
37	0x3615edcb	2.2341144e-06
38	0xb71b537e	-9.2581595e-06
39	0x377cf054	1.5076326e-05
40	0xb74f1275	-1.2342459e-05
41	0x33ea4b10	1.0910128e-07
42	0xb608f45e	-2.040782e-06
43	0x36f68c6c	7.3477186e-06
44	0x37bd7d36	2.2588862e-05
45	0x3628d156	2.51558e-06
46	0x37924440	1.7436338e-05
47	0x36533aa0	3.1475574e-06
48	0x35c691e8	1.4794614e-06
49	0xb32d435c	-4.0340964e-08
50	0x3927004b	0.0001592647
51	0xb6494d0b	-2.999618e-06
52	0xb678da7a	-3.708205e-06
53	0xb5321fdc	-6.635653e-07
54	0x34c84780	3.7304926e-07
55	0x3481bb54	2.4164422e-07
56	0xb6d6842d	-6.3930843e-06
57	0xb54c29f2	-7.605696e-07
58	0x3701e0ef	7.741371e-06
59	0xb710992f	-8.618735e-06
60	0xb5451010	-7.3411593e-07
61	0x3858ec3c	5.1718423e-05
62	0x380fa0b4	3.4243523e-05
63	0x370b48ad	8.301967e-06
64	0xb749e0b5	-1.2032852e-05
65	0xb6c24ff6	-5.790959e-06
66	0xb8218e0e	-3.851769e-05
67	0x354f1788	7.714775e-07
68	0x36bd703e	5.6457056e-06
69	0xb60a9058	-2.0647622e-06
70	0xb827ad26	-3.997716e-05
71	0xb653ea23	-3.1577736e-06
72	0x342292a6	1.5140776e-07
73	0xb308dce8	-3.186588e-08
74	0x371cfa63	9.356622e-06
75	0x36645cd1	3.4028674e-06
76	0xb6f23d74	-7.219316e-06
77	0xb7432b65	-1.1633009e-05
78	0xb5f37b1e	-1.8140743e-06
79	0x3700215e	7.637163e-06
80	0x34bd40ee	3.5251236e-07
81	0xb392ac40	-6.829987e-08
82	0xb5fc9f48	-1.882182e-06
83	0xb683ffae	-3.9338693e-06
84	0x36a216de	4.8306383e-06
85	0x36f97479	7.4343375e-06
86	0xb72af4c7	-1.0189781e-05
87	0x352de0ed	6.477483e-07
88	0xb6025f67	-1.942704e-06
89	0x3718acac	9.100109e-06
90	0x3819c557	3.666183e-05
91	0xb630f5dc	-2.6369153e-06
92	0x3676572b	3.6707595e-06
93	0xb6b14bb6	-5.283825e-06
94	0xb68226f9	-3.878839e-06
95	0x361eb064	2.3646508e-06
96	0xb63c8304	-2.8090444e-06
97	0xb68890d4	-4.069976e-06
98	0xb66e7a0c	-3.5535804e-06
99	0x363dcc54	2.828213e-06
100	0xb881abe1	-6.183214e-05
101	0xb905919d	-0.00012738114
102	0x37dda8b0	2.6423804e-05
103	0x37261d55	9.9012e-06
104	0x370d9142	8.438075e-06
105	0x3724bc56	9.819012e-06
106	0x34b13990	3.30107e-07
107	0xb7d1c46c	-2.5006208e-05
108	0xb82d0e2e	-4.125962e-05
109	0x35810e00	9.615324e-07
110	0xb7054fec	-7.946026e-06
111	0xb6524c4a	-3.1336845e-06
112	0xb760b4c6	-1.339353e-05
113	0xb60feda9	-2.1446997e-06
114	0x372418b0	9.78091e-06
115	0xb4b972c2	-3.4542433e-07
116	0x384cad47	4.8798767e-05
117	0xb81925b6	-3.6513164e-05
118	0x3855a54d	5.0937106e-05
119	0x36787df1	3.7028187e-06
120	0xb9374603	-0.00017478321
121	0xb86f96b4	-5.7122394e-05
122	0x37906e8e	1.7217619e-05
123	0x37f8e95a	2.9672567e-05
124	0xb7799389	-1.4875907e-05
125	0x33f31788	1.13198496e-07
126	0x360f18ba	2.1323053e-06
127	0xb72444c5	-9.791173e-06
128	0xb786ed31	-1.6084496e-05
129	0x37551253	1.2700056e-05
130	0x38ba9913	8.8976834e-05
131	0x3886db6d	6.430489e-05
132	0x34a9d123	3.163087e-07
133	0x3764b3c0	1.363171e-05
134	0x35aef68e	1.3035767e-06
135	0x3752f79c	1.2574626e-05
136	0xb614b9b7	-2.2161819e-06
137	0x3796d61f	1.7981101e-05
138	0x378f55ca	1.7086877e-05
139	0x368041b7	3.8223475e-06
140	0x368df2d8	4.230398e-06
141	0x36263628	2.476745e-06
142	0xb5d8f648	-1.6164931e-06
143	0xb4f1a5dd	-4.501043e-07
144	0xb7bdea48	-2.2639651e-05
145	0x37d529a9	2.5410978e-05
146	0x37bde21d	2.2635848e-05
147	0xb78c8b58	-1.6754188e-05
148	0xb60b9a75	-2.080252e-06
149	0x36944447	4.4186922e-06
150	0x36c6bb22	5.922645e-06
151	0xb4ce07e8	-3.8376243e-07
152	0x37f6009e	2.9325773e-05
153	0xb81bb630	-3.7124555e-05
154	0xb71d5fbe	-9.380221e-06
155	0x368ef71d	4.2606976e-06
156	0x37ac20b2	2.0519223e-05
157	0x358df64e	1.0577003e-06
158	0xb5e36710	-1.6942813e-06
159	0xb72b2383	-1.02006625e-05
160	0xb82ed668	-4.1684514e-05
161	0x34df5aa0	4.1602925e-07
162	0x373a3430	1.1098615e-05
163	0xb70a4bb7	-8.24307e-06
164	0xb88099e7	-6.132182e-05
165	0xb867a282	-5.522604e-05
166	0xb53e928e	-7.099378e-07
167	0x3584cb74	9.893979e-07
168	0x35c4753c	1.4637258e-06
169	0xb6062250	-1.9987529e-06
170	0x38f404ee	0.00011635745
171	0x35fad44a	1.8688236e-06
172	0x35c6314e	1.4766499e-06
173	0xb54dad98	-7.6621063e-07
174	0x3773666e	1.4507777e-05
175	0x359215a4	1.0884146e-06
176	0xb76aed63	-1.4002758e-05
177	0x37dc415a	2.6256475e-05
178	0x38b5e315	8.67305e-05
179	0x37a0a746	1.915138e-05
180	0xb7008334	-7.659943e-06
181	0xb6abfe7c	-5.125823e-06
182	0xb623eec8	-2.4427882e-06
183	0x37643ce6	1.3604038e-05
184	0xb7f122f8	-2.8745722e-05
185	0xb667c6bb	-3.4537359e-06
186	0x370d68c3	8.428647e-06
187	0xb7cf8ede	-2.474285e-05
188	0xb5de2d0a	-1.6553397e-06
189	0x36ae4098	5.193124e-06
190	0xb76d4e0d	-1.4144473e-05
191	0xb6840179	-3.934078e-06
192	0x35aa3dd6	1.2683984e-06
193	0x3659db12	3.2463035e-06
194	0x36e25e65	6.746314e-06
195	0x37c3c033	2.3335311e-05
196	0x3706534f	8.006419e-06
197	0x36710fe4	3.5921048e-06
198	0x380df7b3	3.3847708e-05
199	0x36e86748	6.9261623e-06
200	0xb64e9ecf	-3.078883e-06
201	0x37b0299c	2.100021e-05
202	0x376c6550	1.4090285e-05
203	0x3754629c	1.2659144e-05
204	0xb683376c	-3.910556e-06
205	0xb5855d73	-9.93647e-07
206	0x3748750e	1.1948183e-05
207	0x37a7c40c	1.9999243e-05
208	0x369e4a0a	4.717386e-06
209	0xb78e3258	-1.6951162e-05
210	0x35b92a32	1.3795855e-06
211	0xb740f771	-1.1501704e-05
212	0xb668a8da	-3.4668979e-06
213	0x37d85529	2.5788862e-05
214	0x33f638f1	1.1465625e-07
215	0x388184f4	6.175964e-05
216	0x35f04a9c	1.7903108e-06
217	0xb6921396	-4.353419e-06
218	0x378185b6	1.5440262e-05
219	0xb35cfa00	-5.1450115e-08
220	0x36bd13d2	5.6349463e-06
221	0xb4d51770	-3.9691395e-07
222	0x373d08f9	1.1267367e-05
223	0xb745514e	-1.1761045e-05
224	0x385c20be	5.248258e-05
225	0xb62c806e	-2.5704753e-06
226	0x36153d48	2.22384e-06
227	0x37d7f94f	2.574609e-05
228	0x34a09d80	2.991692e-07
229	0x36a590d0	4.9342416e-06
230	0x37365dfe	1.086993e-05
231	0xb80c2e12	-3.3421507e-05
232	0x36db24f6	6.5310114e-06
233	0x37ef699d	2.85402e-05
234	0x3746a3b7	1.18398375e-05
235	0x346190fa	2.10075e-07
236	0x366ed048	3.5586e-06
237	0x386038ca	5.345865e-05
238	0xb795dd10	-1.7865124e-05
239	0xb5860316	-9.984676e-07
240	0xb6f55908	-7.3119336e-06
241	0xb65489b4	-3.1670615e-06
242	0x37d566e8	2.5439498e-05
243	0xb60201d9	-1.9372585e-06
244	0x3757744a	1.2842074e-05
245	0x3668e1c9	3.4702118e-06
246	0x36a220bf	4.8317884e-06
247	0x38e8744e	0.000110842855
248	0x37d52c8a	2.5412319e-05
249	0xb60653b2	-2.0016273e-06
250	0x36dae004	6.522985e-06
251	0xb83317f8	-4.269925e-05
252	0xb65aec08	-3.262192e-06
253	0x377be56a	1.50141805e-05
254	0x36796254	3.7161126e-06
255	0x38c682f0	9.465765e-05

bn1.weight f4 [512]
0	0x3f24e760	0.6441555
1	0x3f909996	1.1296871
2	0x3f2643cd	0.64947206
3	0x3f1eab40	0.61980057
4	0x3f61c744	0.8819468
5	0x3ed53bca	0.41647178
6	0x3f5f8556	0.8731283
7	0x3f63875c	0.88878417
8	0x3f3eb606	0.74496496
9	0x3f5fffe2	0.8749982
10	0x3f8ae35a	1.0850632
11	0x3f6d69a6	0.9273933
12	0x3f419283	0.75614184
13	0x3f68a1a1	0.90871626
14	0x3f73f889	0.9530111
15	0x3f52454f	0.82137007
16	0x3f2d3b71	0.67668825
17	0x3f17cd0f	0.5929727
18	0x3f8759cc	1.0574279
19	0x3f8bf1af	1.0933131
20	0x3f43672b	0.76329297
21	0x3f4a2a5b	0.7897088
22	0x3f45cd29	0.77266175
23	0x3f7e7430	0.9939604
24	0x3f2f277a	0.6841961
25	0x3f5ad031	0.85473925
26	0x3f59ce42	0.8508035
27	0x3f7db58c	0.99105144
28	0x3f60e41e	0.8784808
29	0x3f23e33f	0.64018625
30	0x3f515cf8	0.81782484
31	0x3f58d110	0.84694004
32	0x3f32c062	0.698248
33	0x3fa25eb6	1.2685153
34	0x3f59464e	0.848729
35	0x3f948246	1.1602256
36	0x3f3d401c	0.7392595
37	0x3f289713	0.6585552
38	0x3f5008a7	0.812632
39	0x3f4ef395	0.80840427
40	0x3f33a07c	0.70166755
41	0x3f34e426	0.70660627
42	0x3f2b663b	0.66952866
43	0x3f593cc6	0.8485836
44	0x3f69cb04	0.913254
45	0x3f3dbd9e	0.7411746
46	0x3f3fd18e	0.7492913
47	0x3fb2bc42	1.3963702
48	0x3f3fbada	0.7489449
49	0x3f105ca1	0.5639134
50	0x3f848339	1.0352546
51	0x3f81dac9	1.0144893
52	0x3f3d1046	0.73852956
53	0x3f4e1965	0.805075
54	0x3f3d54f2	0.7395774
55	0x3ebc5a76	0.36787766
56	0x3f0a1252	0.53934205
57	0x3f6010ed	0.87525827
58	0x3f702956	0.93813074
59	0x3f691e61	0.9106198
60	0x3f5f1685	0.8714374
61	0x3f27c992	0.65541947
62	0x3f504011	0.8134776
63	0x3f0cf42a	0.55060065
64	0x3f5d4d46	0.86446035
65	0x3f49282d	0.7857693
66	0x3f7d9465	0.9905456
67	0x3f2f206e	0.6840886
68	0x3f395143	0.7238962
69	0x3f1e6779	0.61876637
70	0x3f6eb092	0.93238175
71	0x3f961264	1.1724362
72	0x3ea72709	0.3264697
73	0x3f027dc7	0.5097317
74	0x3f875d87	1.0575417
75	0x3f56fad7	0.839765
76	0x3f440563	0.7657072
77	0x3f0f539f	0.5598697
78	0x3f0f5f5b	0.56004876
79	0x3f29f5e6	0.66390836
80	0x3f043760	0.51646996
81	0x3f56ac4f	0.8385667
82	0x3f4c52eb	0.7981402
83	0x3f6b58ad	0.91932184
84	0x3f5d0510	0.8633585
85	0x3f399f19	0.7250839
86	0x3f3813fe	0.71905506
87	0x3f4045cd	0.7510651
88	0x3f42c5a6	0.7608284
89	0x3f64eca4	0.89423585
90	0x3f3e8e6c	0.7443607
91	0x3f3a84bf	0.72858804
92	0x3f1fea2a	0.6246668
93	0x3f6772a3	0.90409297
94	0x3f86fff8	1.0546865
95	0x3f332eb9	0.6999317
96	0x3f538d3d	0.8263739
97	0x3f389570	0.72103024
98	0x3f2c49cf	0.6730012
99	0x3f410385	0.75395995
100	0x3f4dfa0b	0.8045966
101	0x3f7a278f	0.9771661
102	0x3f9c6258	1.2217512
103	0x3f543d74	0.8290627
104	0x3f8259b1	1.0183622
105	0x3f53c9d2	0.8272983
106	0x3f05f20c	0.5232246
107	0x3f69b8a7	0.9129738
108	0x3f68b9b7	0.9090838
109	0x3f18a280	0.59622955
110	0x3f3b9ae6	0.7328323
111	0x3f2f7a93	0.6854641
112	0x3f791f17	0.97313064
113	0x3f660df6	0.8986505
114	0x3f8cb4ee	1.0992715
115	0x3ea7079f	0.32623002
116	0x3f7bcb5c	0.98357177
117	0x3fab2a41	1.337227
118	0x3f8af17f	1.0854949
119	0x3f35c6c1	0.710064
120	0x3f72a15d	0.9477747
121	0x3f6cbcec	0.9247577
122	0x3f4c5896	0.7982267
123	0x3f4f3253	0.80936164
124	0x3f368188	0.712914
125	0x3f219a1c	0.6312578
126	0x3f519023	0.8186056
127	0x3f8be7e0	1.0930138
128	0x3f4d400f	0.8017587
129	0x3fa3de58	1.2802229
130	0x3f85453a	1.0411751
131	0x3f519a4f	0.8187608
132	0x3f010d78	0.50411177
133	0x3f8173d0	1.0113468
134	0x3f4d1a76	0.801185
135	0x3f6e0d89	0.92989403
136	0x3f16ec03	0.58953875
137	0x3f58291b	0.8443772
138	0x3f8e9e47	1.1142052
139	0x3f4a41f9	0.79006916
140	0x3f7c6213	0.9858715
141	0x3f3bedca	0.7340971
142	0x3f1b9243	0.6077005
143	0x3f2dddfb	0.6791684
144	0x3f585709	0.84507805
145	0x3fc004a1	1.5001413
146	0x3f549c4e	0.83051
147	0x3f22bb92	0.6356746
148	0x3f3e9ae2	0.7445508
149	0x3f408758	0.7520652
150	0x3f9585c4	1.1681447
151	0x3f4b1271	0.79325014
152	0x3f6d9e53	0.9281971
153	0x3f807a1f	1.0037268
154	0x3f4eef65	0.8083404
155	0x3f3cb795	0.73717624
156	0x3f7c794c	0.98622584
157	0x3f142170	0.5786352
158	0x3f4a1658	0.78940344
159	0x3f53eab7	0.8278002
160	0x3fb0f21f	1.382389
161	0x3f2f32fd	0.68437177
162	0x3f3f78d4	0.74793744
163	0x3f5085ad	0.81453973
164	0x3f3f6062	0.74756444
165	0x3f76c907	0.96400493
166	0x3f623663	0.8836424
167	0x3f3c1c69	0.7348085
168	0x3f5784ac	0.84186816
169	0x3f276201	0.6538392
170	0x3f9ee654	1.241404
171	0x3f1fbe48	0.6239972
172	0x3f2fa4d9	0.6861091
173	0x3f01279b	0.5045106
174	0x3f3e1af5	0.74259883
175	0x3f4a6038	0.7905307
176	0x3f1fef95	0.6247495
177	0x3f84b36b	1.0367254
178	0x3f87975c	1.0593066
179	0x3f5f57cb	0.87243336
180	0x3f3a5071	0.72778994
181	0x3f4c2d36	0.79756486
182	0x3fa5dbcc	1.2957702
183	0x3f106a85	0.56412536
184	0x3f211b0d	0.629319
185	0x3f386668	0.7203126
186	0x3f566ee8	0.8376298
187	0x3f51f2c8	0.8201108
188	0x3f229357	0.6350607
189	0x3f5f285d	0.87170964
190	0x3f641657	0.8909659
191	0x3f504f1e	0.81370723
192	0x3f3fcc59	0.74921185
193	0x3f46a1aa	0.7759043
194	0x3f3268ed	0.69691354
195	0x3f625f98	0.88427114
196	0x3f722ee6	0.9460281
197	0x3f2764ec	0.6538837
198	0x3f5796da	0.84214556
199	0x3f255ca1	0.64594465
200	0x3f28e147	0.65968746
201	0x3fa2f8f9	1.273223
202	0x3f3e78a5	0.7440284
203	0x3f4b9d76	0.7953714
204	0x3f45dfd8	0.77294683
205	0x3f27febf	0.65623087
206	0x3f2e97b8	0.68200254
207	0x3f5494c4	0.830395
208	0x3f51f8e9	0.8202043
209	0x3f1682d6	0.5879339
210	0x3f2e61dc	0.6811807
211	0x3f63ee4d	0.89035493
212	0x3f3d12b3	0.7385666
213	0x3f8b368d	1.0876023
214	0x3ec77367	0.38955233
215	0x3f6a43c8	0.91509676
216	0x3f854219	1.0410796
217	0x3f4c24f0	0.7974386
218	0x3f409b16	0.7523664
219	0x3f38d3ab	0.7219798
220	0x3f446830	0.7672148
221	0x3f5a5bf3	0.85296553
222	0x3f8eb345	1.1148459
223	0x3f36673e	0.71251285
224	0x3f81e207	1.0147103
225	0x3fb6afd6	1.4272411
226	0x3f1913b9	0.5979572
227	0x3f8cc931	1.0998899
228	0x3f42d86f	0.761115
229	0x3f88c66f	1.0685557
230	0x3f38f542	0.72249234
231	0x3f4ebf8c	0.8076103
232	0x3f6b4f0e	0.919175
233	0x3f81d7a7	1.0143937
234	0x3f4e7227	0.8064293
235	0x3eb5c131	0.35498956
236	0x3f473071	0.7780829
237	0x3f7055ef	0.93881124
238	0x3f49a06b	0.78760403
239	0x3f2ba031	0.6704131
240	0x3f5f00a1	0.87110335
241	0x3f3f2796	0.7466978
242	0x3f7e66f8	0.9937587
243	0x3f286b97	0.6578917
244	0x3f592cdb	0.8483407
245	0x3f3d757c	0.7400739
246	0x3f4619ca	0.773831
247	0x3f73177a	0.949577
248	0x3f25fba9	0.6483713
249	0x3f3a13db	0.7268655
250	0x3f644521	0.8916798
251	0x3f5a9827	0.85388416
252	0x3f5c5280	0.86063385
253	0x3f625eec	0.8842609
254	0x3f43fb98	0.76555777
255	0x3f60fdc0	0.8788719

bn1.bias f4 [512]
0	0xbdcd1dc9	-0.10015447
1	0xbdf3ae7c	-0.11898515
2	0xbd16834e	-0.036746316
3	0xbe0935ab	-0.13399379
4	0xbdbbba36	-0.09166376
5	0xbd5bbdd5	-0.053647835
6	0xbda337b9	-0.07969613
7	0xbe0f1670	-0.13973403
8	0xbd250d7d	-0.040296067
9	0xbdeb1f1d	-0.11480544
10	0xbe018aef	-0.12650655
11	0xbe728e8d	-0.23687191
12	0xbe012923	-0.12613349
13	0xbe307cf3	-0.17235164
14	0xbe8195c8	-0.25309587
15	0xbe22879c	-0.15872043
16	0xbd876f28	-0.06612998
17	0xbd37cc9c	-0.044872865
18	0xbe0e6833	-0.13906936
19	0xbe0042a7	-0.12525426
20	0x3b472e25	0.0030392495
21	0xbe42bda9	-0.19017662
22	0xbe48d97f	-0.19614218
23	0xbdeb87dc	-0.115005225
24	0xbe1212b7	-0.14264952
25	0xbdfea838	-0.12434429
26	0xbe0e2388	-0.13880742
27	0xbdf0ae03	-0.1175194
28	0xbe4cb677	-0.1999148
29	0xbe031cd3	-0.12803964
30	0xbe45bb82	-0.1930981
31	0xbe85d740	-0.26140785
32	0xbd8608a1	-0.065446146
33	0xbdff30cc	-0.12460479
34	0xbe2f17bc	-0.17098898
35	0xbdefe808	-0.11714178
36	0xbe418412	-0.18898037
37	0xbd51c58c	-0.051213786
38	0xbe4fb8ad	-0.20285292
39	0xbe8999e8	-0.26875234
40	0xbc228d00	-0.009921312
41	0xbde6b0de	-0.112642035
42	0xbd7b9a18	-0.061426252
43	0xbde198c2	-0.11015464
44	0xbe45798b	-0.19284646
45	0xbe902639	-0.28154162
46	0xbe92c3da	-0.28665048
47	0xbe0ebe16	-0.139397
48	0xbe0e9f7f	-0.1392803
49	0xbcb77ac1	-0.0223974
50	0xbe1cbd99	-0.15306701
51	0xbdb8452b	-0.08997568
52	0xbe05558d	-0.13020916
53	0xbd54278e	-0.051795535
54	0xbdaa0783	-0.08302214
55	0xbd26f1be	-0.040757887
56	0x3bea9acd	0.007159567
57	0xbe1a5e42	-0.15075019
58	0xbe2fe28a	-0.17176262
59	0xbdb07fa3	-0.08618095
60	0xbdbad94b	-0.091234766
61	0xbd6a0446	-0.05713298
62	0xbe29423d	-0.16529174
63	0xbd777de1	-0.06042278
64	0xbe065c35	-0.13121112
65	0xbe2ca207	-0.16858684
66	0xbe2d3e4e	-0.16918299
67	0xbdf3de84	-0.11907676
68	0xbc1a461b	-0.0094161285
69	0x3b34fa81	0.0027615132
70	0xbe025205	-0.127266
71	0xbe2227e7	-0.15835534
72	0xbdc3b050	-0.09555113
73	0x3c03e88b	0.008051048
74	0xbe121d3b	-0.14268963
75	0xbe5f9128	-0.21832716
76	0xbe008113	-0.12549238
77	0xbc36230b	-0.011116753
78	0xbd8843e1	-0.06653572
79	0xbe005da0	-0.12535715
80	0xbd858b33	-0.06520691
81	0xbea72f40	-0.32653236
82	0xbde639c0	-0.11241484
83	0xbd8fc464	-0.070198804
84	0xbe0506af	-0.12990831
85	0xbe480e4b	-0.19536702
86	0xbe0de25f	-0.13855885
87	0xbe19865a	-0.14992657
88	0xbc684653	-0.014176923
89	0xbe0f1768	-0.13973773
90	0xbdee914a	-0.116488054
91	0xbc2f86d0	-0.010713294
92	0xbdfe59b0	-0.1241945
93	0xbda22a7c	-0.079182595
94	0xbe0f6e55	-0.14006932
95	0xbe195c6f	-0.14976667
96	0xbe865428	-0.2623608
97	0xbdc74072	-0.09729089
98	0xbdcff4d8	-0.10154122
99	0xbd020c94	-0.031750277
100	0xbd979157	-0.07400768
101	0xbe1b28f0	-0.15152335
102	0xbdcb0f1d	-0.09914992
103	0xbe15920a	-0.1460649
104	0xbddd1bb5	-0.107963
105	0xbe023644	-0.12716013
106	0xbdb5ce39	-0.088772245
107	0xbe19abba	-0.15006915
108	0xbdb5c624	-0.08875683
109	0xbe1b759c	-0.15181583
110	0xbe0ab1d1	-0.13544394
111	0xbe084099	-0.13305892
112	0xbe229d02	-0.15880206
113	0xbdda55d2	-0.106609
114	0xbe1096b8	-0.14119995
115	0x3cb2c129	0.021820622
116	0xbdc32ff0	-0.09530628
117	0xbe178941	-0.14798452
118	0xbdfd50ef	-0.123689525
119	0xbe13dd15	-0.14439805
120	0xbe1a960a	-0.15096298
121	0xbe46675d	-0.19375367
122	0xbedefe7f	-0.4355354
123	0xbe17d525	-0.14827402
124	0xbdd3d73d	-0.10343788
125	0xbdfef762	-0.12449528
126	0xbdfa1a66	-0.12212066
127	0xbdb43935	-0.08799974
128	0xbddc9582	-0.10770704
129	0xbe103e2e	-0.1408622
130	0xbe1e74b2	-0.15474203
131	0xbe81defb	-0.25365433
132	0xbd5c9571	-0.053853456
133	0xbe27ef28	-0.16399825
134	0xbe309db4	-0.17247659
135	0xbe4a8a0f	-0.19779228
136	0xbde3f6d4	-0.11131063
137	0xbbc61d6e	-0.0060459888
138	0xbdf9bfa5	-0.121947564
139	0xbc21b025	-0.009868656
140	0xbdf150f1	-0.117830165
141	0xbe062b34	-0.13102418
142	0xbdb61ff3	-0.088928126
143	0xbd962bd4	-0.07332578
144	0xbdb27516	-0.087137386
145	0xbe24b79c	-0.16085666
146	0xbe0a4429	-0.13502564
147	0xbd70d70e	-0.058798842
148	0xbe118574	-0.14211065
149	0xbdfcca2d	-0.123432495
150	0xbded2067	-0.11578446
151	0xbdceac99	-0.10091514
152	0xbe6cb286	-0.23114976
153	0xbe0a500d	-0.135071
154	0xbdd025fe	-0.101634964
155	0xbdc8d080	-0.09805393
156	0xbe09959f	-0.13435982
157	0xbd86cab5	-0.06581632
158	0xbe4568c9	-0.19278254
159	0xbdac3734	-0.08408967
160	0xbe1fc8b9	-0.15603913
161	0xbd507d48	-0.050900728
162	0xbe59fac1	-0.21287061
163	0xbe2988f6	-0.16556153
164	0xbe84f7e2	-0.2597037
165	0xbe13ee86	-0.14446458
166	0xbe790f8d	-0.24322338
167	0xbe226c14	-0.15861541
168	0xbc5d8fb7	-0.013523034
169	0xbd90b19a	-0.07065125
170	0xbddae1d9	-0.10687608
171	0xbe04f950	-0.1298573
172	0xbdd3da3d	-0.1034436
173	0xbd944eb7	-0.07241576
174	0xbe007180	-0.12543297
175	0xbd81de5b	-0.06341239
176	0xbdcf3ef3	-0.101194285
177	0xbdeaf451	-0.11472381
178	0xbe261df9	-0.16222371
179	0xbddf81d1	-0.109134324
180	0xbdce1c5b	-0.10064002
181	0xbdb83952	-0.08995308
182	0xbe21ea46	-0.15812024
183	0xbe57eacc	-0.21085662
184	0xbe23acb7	-0.15983854
185	0xbe0bc030	-0.13647532
186	0xbe2df663	-0.1698852
187	0xbe299964	-0.1656242
188	0x3c76c573	0.015061724
189	0xbdd43528	-0.10361701
190	0xbe26f031	-0.16302563
191	0xbe693319	-0.22773398
192	0xbd9e82e9	-0.07739813
193	0xbe36e93b	-0.17862408
194	0xbde17e4f	-0.110104196
195	0x3c87c51e	0.016573485
196	0xbe3b5420	-0.1829381
197	0xbe4dc32a	-0.2009398
198	0xbe74cc41	-0.23906042
199	0xbe0f2069	-0.13977207
200	0x3b452d99	0.0030086993
201	0xbe05aaf6	-0.13053498
202	0xbe568d87	-0.20952426
203	0xbe2c70e4	-0.1683994
204	0xbe01a2d9	-0.12659778
205	0xbdd73855	-0.10508791
206	0xbc6aac55	-0.014323314
207	0xbe818e76	-0.25304002
208	0xbe4f55d5	-0.20247586
209	0xbd43f18e	-0.047837786
210	0xbe620bb2	-0.22074774
211	0xbe129509	-0.14314665
212	0xbdc4112a	-0.09573586
213	0xbe09bb18	-0.13450277
214	0xbdeeb93c	-0.116564244
215	0xbd808c1c	-0.06276724
216	0xbe0d6b34	-0.13810426
217	0xbd498c24	-0.049205914
218	0xbe39b941	-0.18137075
219	0xbdf91d99	-0.121638484
220	0xbe3787c2	-0.17922881
221	0xbde8150d	-0.1133214
222	0xbdf35093	-0.11880603
223	0xbd9a4877	-0.07533353
224	0xbe18aa5b	-0.14908735
225	0xbe2db81a	-0.1696476
226	0xbdb755fa	-0.089519456
227	0xbed2a560	-0.41141796
228	0xbda89365	-0.08231238
229	0xbde30f43	-0.11086895
230	0xbdeef004	-0.11666873
231	0xbe9e7863	-0.30951223
232	0xbe2b161e	-0.16707656
233	0xbe01eb59	-0.12687434
234	0xbe16c0cb	-0.14721982
235	0xbe41ea4c	-0.18937033
236	0x3d7deaae	0.061991386
237	0xbe094179	-0.13403882
238	0xbdb012b4	-0.08597317
239	0xbd8b9f77	-0.06817525
240	0xbdda64af	-0.10663735
241	0xbe2e1a5e	-0.17002246
242	0xbe6cdc93	-0.23131017
243	0xbdb27957	-0.0871455
244	0xbdeb737d	-0.11496637
245	0xbd770db5	-0.060315806
246	0xbe0a3114	-0.13495284
247	0xbe232751	-0.15932967
248	0xbc423dff	-0.011855601
249	0xbd0e647b	-0.034763794
250	0xbdd6164d	-0.10453472
251	0xbe062c1a	-0.13102761
252	0xbde5322b	-0.111912094
253	0xbdb58b26	-0.08864431
254	0xbdf86af4	-0.12129775
255	0xbe90b237	-0.28260967

bn1.running_mean f4 [512]
0	0xbf520a7b	-0.8204724
1	0xbf1c9077	-0.61157936
2	0x3de77b08	0.11302763
3	0x3ea55c85	0.3229715
4	0x3d31e1d8	0.043428272
5	0x3f6de470	0.9292669
6	0xbeb7cfd9	-0.35900763
7	0xbf051dc6	-0.51998556
8	0xbd965141	-0.07339717
9	0xbe692645	-0.22768505
10	0xbed15087	-0.4088175
11	0xbe1e5bde	-0.15464732
12	0xbf234bd8	-0.63787603
13	0xbe77724b	-0.24164693
14	0xbd85dfc7	-0.06536823
15	0xbe9b6ec8	-0.30357957
16	0x3e00bade	0.12571284
17	0x3e900971	0.28132203
18	0xbf0eea95	-0.55826694
19	0xbe9bd190	-0.3043332
20	0x3dd3e639	0.10346646
21	0xbf11f046	-0.57007253
22	0xbe43ce44	-0.19121653
23	0xbf0881ee	-0.53323257
24	0xbe060051	-0.13086058
25	0xbe6c7e51	-0.23095061
26	0xbf1f1c9f	-0.6215305
27	0xbe1ce71b	-0.15322535
28	0xbe3c7ae6	-0.18406257
29	0xbe9282a6	-0.28615302
30	0xbf037719	-0.51353604
31	0xbe54030e	-0.2070429
32	0xbf4943ce	-0.78619087
33	0xbf1dfd7a	-0.617149
34	0xbceb63da	-0.028734136
35	0xbed0f6a0	-0.4081316
36	0xbe02488f	-0.12722991
37	0x3e1812d4	0.14850932
38	0xbeb6e9a2	-0.35725123
39	0x3c17f74c	0.009275269
40	0x3ed0be45	0.40770164
41	0xbf03213c	-0.51222587
42	0x3e3ad284	0.18244368
43	0xbe29ca01	-0.16580965
44	0xbe2e5975	-0.17026313
45	0xbd3b6834	-0.045753673
46	0xbd23d7d9	-0.04000077
47	0xbf38c77b	-0.72179383
48	0xbecd9647	-0.40153715
49	0x3ecd990a	0.40155822
50	0xbe24a994	-0.16080314
51	0xbec9ba6b	-0.39400038
52	0xbe14ff67	-0.14550553
53	0x3eb3bf4b	0.35106882
54	0xbee548e7	-0.44782183
55	0x3f05e9b5	0.52309734
56	0x3e2dcdb1	0.16972996
57	0xbf2db658	-0.6785636
58	0xbf0aa7c5	-0.54162246
59	0xbf0bfcce	-0.54682624
60	0xbebf919d	-0.37415782
61	0x3e4d6528	0.2005812
62	0xbe0303a0	-0.12794352
63	0x3d9ba529	0.07599861
64	0xbef65fb9	-0.48119906
65	0xbe6c3918	-0.23068655
66	0xbdcaf85a	-0.099106506
67	0xbeaf4db6	-0.34238976
68	0x3e52117c	0.20514482
69	0x3e82624c	0.2546562
70	0xbdf6fa7a	-0.12059493
71	0xbf2c7886	-0.67371404
72	0x3e8cc51b	0.2749413
73	0x3eb9f1c6	0.3631727
74	0xbf1245eb	-0.57137936
75	0xbea60a4c	-0.3242973
76	0xbe29421a	-0.16529122
77	0x3e907e75	0.2822148
78	0x3f34fefe	0.7070159
79	0xbf2e7b45	-0.68156844
80	0x3f01581e	0.5052508
81	0x3e403901	0.18771745
82	0xbefefd50	-0.49802637
83	0xbd87f935	-0.06639329
84	0xbe85751a	-0.26065904
85	0xbc915679	-0.017741429
86	0xbe55e1fa	-0.20886984
87	0xbf094005	-0.5361331
88	0x3eb1c480	0.3472023
89	0x3c2e1a3c	0.010626372
90	0xbe3938ba	-0.18088046
91	0x3e8ffbeb	0.28121886
92	0x3ebd78cc	0.37006223
93	0xbe668222	-0.22510579
94	0xbf2d98a9	-0.67811066
95	0xbf0c79ad	-0.5487316
96	0x3cd28c32	0.025701616
97	0xbec4e052	-0.38452393
98	0xbf26ca78	-0.6515269
99	0x3ed1ffcd	0.41015473
100	0xbd72a5c0	-0.059240103
101	0xbe2e179f	-0.17001198
102	0xbea52a87	-0.32259008
103	0xbef5ee43	-0.48033342
104	0xbf08a884	-0.53382134
105	0xbed381f6	-0.4131009
106	0x3ea6a055	0.325442
107	0xbdfe8f9f	-0.12429737
108	0xbdc4f4c7	-0.09617
109	0x3eb01856	0.34393567
110	0xbe3c2554	-0.18373615
111	0xbf014098	-0.5048919
112	0xbe3c8e35	-0.18413623
113	0xbe929d10	-0.28635454
114	0xbf001c46	-0.5004314
115	0x3ec87028	0.39148068
116	0xbe4c9c43	-0.19981484
117	0xbf2572b5	-0.64628154
118	0xbed5c192	-0.41749245
119	0xbf05044d	-0.5195969
120	0xbe64adb3	-0.22331886
121	0xbe78c4a9	-0.2429377
122	0x3c08c47e	0.008347629
123	0xbe4e2e2a	-0.20134798
124	0x3c0cd6a4	0.008596096
125	0xbf1d1687	-0.613625
126	0xbee0f912	-0.43940026
127	0xbeeaa458	-0.4582851
128	0x3e0eb931	0.13937832
129	0xbf320254	-0.695348
130	0xbe124626	-0.14284572
131	0x3d509e24	0.050932065
132	0x3f13efca	0.57787764
133	0xbe5a645b	-0.21327345
134	0xbefe2144	-0.49634755
135	0xbe607592	-0.2191985
136	0xbe8cf1d4	-0.2752825
137	0x3e9d8a7d	0.3076972
138	0xbebb5d95	-0.36594835
139	0x3d0444dd	0.032292236
140	0xbf0a4fc5	-0.5402797
141	0xbf1d11fa	-0.61355555
142	0x3ebac82d	0.36480847
143	0xbeb637b3	-0.3558937
144	0x3e0e9cf8	0.13927066
145	0xbf254fe0	-0.64575005
146	0xbe96239f	-0.29324052
147	0xbcdf4d9a	-0.027258683
148	0xbeb79c6a	-0.35861522
149	0xbf25f205	-0.6482242
150	0xbf31ecad	-0.69501764
151	0xbe8b64fa	-0.27225477
152	0xba83dbf8	-0.0010060063
153	0xbe0f24f5	-0.13978942
154	0xbe5382a4	-0.20655304
155	0xbef12128	-0.4709561
156	0xbe155359	-0.14582576
157	0x3ebba4b5	0.366491
158	0xbe9e9f28	-0.30980802
159	0xbe9031e3	-0.2816306
160	0xbf0ef618	-0.5584426
161	0xbe9d9101	-0.30774692
162	0xbd76bc65	-0.06023826
163	0xbdafcc31	-0.08583868
164	0xbd776eef	-0.06040853
165	0xbe1289bc	-0.14310354
166	0xbe9e6ea1	-0.30943778
167	0xbed16a47	-0.40901396
168	0xbd8beeba	-0.06832643
169	0xbf19c6c5	-0.60068923
170	0xbed2be0c	-0.4116062
171	0xbe062ef2	-0.13103846
172	0xbed2ed62	-0.41196734
173	0x3effa475	0.49930158
174	0xbe977638	-0.2958238
175	0xbe9e8c2e	-0.30966324
176	0xbb9ea9b7	-0.004842009
177	0xbe154390	-0.14576554
178	0xbe44d8d0	-0.19223332
179	0xbd59f296	-0.053209864
180	0xbe79a1c9	-0.24378122
181	0xbef9531b	-0.48696217
182	0xbf0da218	-0.5532546
183	0x3e0a5a42	0.13510993
184	0xbd4cfea6	-0.05004754
185	0xbf159c77	-0.5844187
186	0xbe8055a6	-0.25065345
187	0xbe01d390	-0.12678361
188	0x3dd454de	0.1036775
189	0xbee1b8d0	-0.44086313
190	0xbe5306f5	-0.20608123
191	0xbe9fe74b	-0.3123115
192	0xbf1b7d83	-0.6073839
193	0xbe175f41	-0.1478243
194	0xbf3f3fcb	-0.74706715
195	0xbc90a4f0	-0.017656773
196	0xbddbcfa6	-0.10732965
197	0x3d9330cd	0.071870424
198	0xbd1f083b	-0.03882621
199	0xbe7b48b8	-0.24539459
200	0x3e0db837	0.13839804
201	0xbf1bc9ba	-0.60854685
202	0xbd19b6c3	-0.03752781
203	0xbeb62e96	-0.35582417
204	0xbecd4c0d	-0.40097085
205	0xbf11559e	-0.56771266
206	0x3e7ca802	0.24673465
207	0xbdb47b68	-0.088126004
208	0xbee82e12	-0.4534765
209	0x3d484bbc	0.04890035
210	0xbe29d76c	-0.16586083
211	0xbf7853f0	-0.9700308
212	0xbe1b6cba	-0.15178195
213	0xbe17a74e	-0.14809915
214	0xbd2e983e	-0.04262566
215	0xbd8efaa7	-0.06981402
216	0xbf260432	-0.6485015
217	0xbf0ad828	-0.5423608
218	0xbed2438e	-0.41067165
219	0xbea1e262	-0.3161803
220	0xbe33ccef	-0.17558645
221	0xbf05ddcf	-0.5229158
222	0xbead5391	-0.3385282
223	0xbe7d6cba	-0.24748507
224	0xbe0099e3	-0.12558703
225	0xbf1b97e0	-0.6077862
226	0x3edda39e	0.43288893
227	0xbdc964f2	-0.09833707
228	0xbefb5538	-0.49088454
229	0xbf258143	-0.6465036
230	0xbec01303	-0.37514505
231	0xbdf0b552	-0.11753334
232	0xbe216081	-0.1575947
233	0xbebc35f9	-0.36759928
234	0x3e002f39	0.12518014
235	0xbce8c0f8	-0.028412327
236	0x3de3379e	0.110945925
237	0xbdd4adda	-0.10384722
238	0x3cbcfc2b	0.023069462
239	0xbf241255	-0.6409047
240	0xbf070012	-0.5273448
241	0xbe3ea84a	-0.18618885
242	0xbd15aade	-0.036539905
243	0xbf2cd8c6	-0.6751827
244	0xbf1671a7	-0.5876717
245	0xbef373eb	-0.47549376
246	0xbed8a6d1	-0.4231477
247	0xbe108335	-0.14112552
248	0x3e901df8	0.28147864
249	0x3c984758	0.018588707
250	0xbe9617c4	-0.29315007
251	0xbe3ff0d6	-0.18744215
252	0xbe368667	-0.17824708
253	0xbe1355de	-0.14388224
254	0xbdf279bc	-0.11839625
255	0xbd5acb7d	-0.053416718

bn1.running_var f4 [512]
0	0x4202f85e	32.742546
1	0x421f4983	39.82179
2	0x4132d274	11.17638
3	0x41961ff1	18.765596
4	0x40de23c9	6.9418683
5	0x4203ba6b	32.93205
6	0x42143a47	37.05691
7	0x4179b592	15.606829
8	0x40c809d6	6.2512007
9	0x4101b7e1	8.107392
10	0x419477d5	18.558512
11	0x4015e059	2.341818
12	0x41a661ae	20.797695
13	0x40ad1df6	5.4099073
14	0x3fa1f22c	1.265203
15	0x410e934f	8.910964
16	0x4184414d	16.531885
17	0x4103912f	8.222945
18	0x41db8f26	27.444897
19	0x415c9e82	13.788698
20	0x40d6d746	6.7137785
21	0x416da7ca	14.853464
22	0x40081988	2.1265583
23	0x41f1c3c2	30.220585
24	0x4106ecb6	8.432791
25	0x40ebd396	7.3695784
26	0x41b4a380	22.579834
27	0x402f11dc	2.735465
28	0x408acc1e	4.3374166
29	0x40ce4ef2	6.447137
30	0x4178b147	15.543281
31	0x4071a819	3.7758849
32	0x41c75914	24.918495
33	0x42251332	41.268745
34	0x3f9b4714	1.2131066
35	0x41efcba2	29.97443
36	0x400949c5	2.1451275
37	0x40c98e06	6.298587
38	0x40df6d31	6.982079
39	0x4021fe82	2.531159
40	0x40b93b4c	5.7884884
41	0x41515a68	13.084572
42	0x418a3623	17.276434
43	0x4091827a	4.5471773
44	0x3fdf0b49	1.7425319
45	0x3fa83a07	1.3142709
46	0x3f1ea944	0.6197703
47	0x424ff344	51.987564
48	0x41092c76	8.573355
49	0x412f259f	10.946685
50	0x40986aa1	4.763016
51	0x419ab032	19.336033
52	0x40ecfbcf	7.4057384
53	0x41d5f780	26.74585
54	0x4134f1a0	11.3089905
55	0x4185b759	16.714525
56	0x4049e41a	3.1545472
57	0x41b53c39	22.654406
58	0x41a55bb5	20.669779
59	0x41abf5d6	21.495037
60	0x42150488	37.254425
61	0x40575eba	3.3651567
62	0x3f8aca5f	1.0843009
63	0x3fed487b	1.8537744
64	0x418ade25	17.358469
65	0x409c1fb2	4.878869
66	0x3fe59939	1.7937385
67	0x40d75465	6.729052
68	0x4038e4b9	2.8889601
69	0x408b81f0	4.3596115
70	0x40505370	3.2550926
71	0x4214993b	37.14964
72	0x4148a9cb	12.541453
73	0x411fabfd	9.979489
74	0x41aee801	21.863283
75	0x40aa5949	5.323399
76	0x401492b1	2.3214533
77	0x404f903f	3.243179
78	0x419f7327	19.931227
79	0x41dbf6fc	27.495598
80	0x41107f05	9.031011
81	0x4015d283	2.3409736
82	0x412920c1	10.570497
83	0x3f8ca258	1.0987043
84	0x40b3f133	5.6231933
85	0x3f8917b7	1.0710362
86	0x40aedb08	5.464237
87	0x419bdf06	19.483898
88	0x41eb845d	29.43963
89	0x3f81c937	1.0139531
90	0x404a9cec	3.1658278
91	0x410d3940	8.826477
92	0x40e8ac35	7.2710214
93	0x4091bc89	4.5542645
94	0x4238ebee	46.2304
95	0x417919d0	15.568802
96	0x3fbb2362	1.4620173
97	0x41091b24	8.569126
98	0x41adb1f7	21.711897
99	0x4209c436	34.441612
100	0x3f48429a	0.78226626
101	0x40482c8e	3.1277194
102	0x4194c6f1	18.59714
103	0x41319d2e	11.100874
104	0x41a13f25	20.155832
105	0x4172c71a	15.173609
106	0x40a7e182	5.246278
107	0x40c5290c	6.1612606
108	0x3f832a81	1.0247346
109	0x41b4b2bc	22.587273
110	0x40019d03	2.0252082
111	0x4147addd	12.479947
112	0x40d356ea	6.6043596
113	0x407eb20a	3.9796166
114	0x41bde9d0	23.739166
115	0x410d522b	8.832561
116	0x401d1c9b	2.454871
117	0x424618a9	49.524082
118	0x41ce1bf6	25.763653
119	0x416cbffe	14.796873
120	0x4097c854	4.743204
121	0x409cc581	4.8991094
122	0x3f94cd39	1.1625129
123	0x405946c5	3.3949444
124	0x3fe73ed8	1.8066053
125	0x41a5f40e	20.744167
126	0x410000c8	8.000191
127	0x41afcb80	21.974365
128	0x4002dce0	2.0447311
129	0x422cb250	43.174133
130	0x409d0b03	4.907594
131	0x3fb417e0	1.4069786
132	0x413453a6	11.270422
133	0x4073927d	3.805816
134	0x412fd584	10.989628
135	0x406a332b	3.659373
136	0x4159bf8e	13.609266
137	0x40999fd4	4.8007603
138	0x41e34fca	28.41396
139	0x3f4244b0	0.7588606
140	0x41cf74ef	25.932096
141	0x419b99e4	19.450142
142	0x40907f30	4.515526
143	0x40f1b88a	7.5537767
144	0x3fe1e4be	1.7647932
145	0x423b7b37	46.870327
146	0x40d9d30d	6.807013
147	0x40687f88	3.632784
148	0x4111c90e	9.111586
149	0x4193c99d	18.473444
150	0x426bb7b9	58.929417
151	0x405e9475	3.477811
152	0x3f8ef6eb	1.1169103
153	0x40e1bc6e	7.0542517
154	0x40a7d7c6	5.2450895
155	0x411749b0	9.45549
156	0x409837a8	4.756794
157	0x40eb7918	7.358532
158	0x40c82b8b	6.2553153
159	0x40bd0462	5.906785
160	0x421df2f4	39.48726
161	0x41027a34	8.154835
162	0x3f6abda1	0.916956
163	0x40230def	2.5477254
164	0x3f908a90	1.1292286
165	0x406484d8	3.5706081
166	0x40a1778b	5.0458426
167	0x417f2bf5	15.948232
168	0x3ebf8e70	0.3741336
169	0x416e311d	14.886991
170	0x41ed689e	29.676083
171	0x40dc90e2	6.892686
172	0x40fb433f	7.8519588
173	0x414d16a9	12.818032
174	0x40b17e54	5.546671
175	0x418b2b90	17.39627
176	0x3fd03fc7	1.6269463
177	0x4098122a	4.7522173
178	0x406d897b	3.7115161
179	0x3f500d8a	0.8127066
180	0x40865996	4.198436
181	0x415ba608	13.728035
182	0x4203406d	32.812916
183	0x400e3920	2.2222366
184	0x4028a7fa	2.6352525
185	0x4140be74	12.046497
186	0x409efb90	4.9682083
187	0x4080c568	4.0240974
188	0x3fa6cb62	1.3030818
189	0x415e0443	13.87604
190	0x4119e45d	9.618253
191	0x40830a72	4.095025
192	0x4194db3d	18.60705
193	0x417f52c5	15.957707
194	0x41ac2ecb	21.522848
195	0x3f6b4bfc	0.9191282
196	0x3fa221f8	1.2666616
197	0x40524f6e	3.286098
198	0x3ff4c640	1.9123001
199	0x406ba328	3.6818333
200	0x411b6609	9.712411
201	0x422550a8	41.328766
202	0x3fe604cd	1.7970215
203	0x4106cbdc	8.42477
204	0x412cc17f	10.79724
205	0x416887ec	14.533184
206	0x4032600a	2.7871118
207	0x4000b213	2.0108688
208	0x4128ddff	10.554198
209	0x3fda9d41	1.707924
210	0x408f91de	4.486556
211	0x42379313	45.893627
212	0x4061c338	3.5275402
213	0x4076cc2d	3.856212
214	0x40f88cb5	7.767176
215	0x40357498	2.8352413
216	0x41cc9991	25.574984
217	0x419b98b4	19.449562
218	0x41145313	9.270282
219	0x417b72a2	15.715487
220	0x405e27a8	3.4711704
221	0x4168e4c0	14.555847
222	0x4198f0a2	19.117496
223	0x416cd5fc	14.802242
224	0x40a53372	5.16253
225	0x422c143e	43.019768
226	0x40dcdc0a	6.90186
227	0x3fcff355	1.6246134
228	0x410e168d	8.880506
229	0x421d3133	39.298046
230	0x40b0fa52	5.5305567
231	0x3f994194	1.1973138
232	0x401da54c	2.463214
233	0x41592084	13.570438
234	0x40581b6d	3.376674
235	0x40764036	3.8476691
236	0x4028079e	2.625465
237	0x40db3c51	6.851113
238	0x3f9d93f5	1.2310778
239	0x41c39240	24.446411
240	0x4184e97a	16.614002
241	0x406d0e52	3.703999
242	0x3fb12ab5	1.3841158
243	0x41aac0c0	21.344116
244	0x41a318eb	20.387167
245	0x41222abd	10.135434
246	0x411adf9e	9.679594
247	0x4018f656	2.3900352
248	0x407fbc8f	3.9958837
249	0x41140e34	9.253468
250	0x40878b06	4.2357206
251	0x40b1c267	5.5549808
252	0x419120b7	18.140974
253	0x3fc2c849	1.5217372
254	0x405a7466	3.4133544
255	0x3f052193	0.52004355

fc2.weight f4 [256, 512]
0	0xbd32ccbd	-0.043652285
1	0x3ca78f95	0.020454207
2	0xbbebc8b7	-0.007195558
3	0xbcfce13e	-0.030869123
4	0xbc72d43b	-0.0148211075
5	0x3d33dd24	0.043912068
6	0x3d38c400	0.045108795
7	0x3db55e02	0.08855821
8	0xbd12439b	-0.035709005
9	0xbbb7efea	-0.005613317
10	0xbdc87a8a	-0.097889975
11	0xbd8ad739	-0.06779332
12	0x3bf4909b	0.0074635274
13	0x3c1578bf	0.009123026
14	0xbdb6c3d0	-0.08924067
15	0xbd17792f	-0.036980804
16	0x3dc794d8	0.097451866
17	0xbda25021	-0.079254396
18	0xbccb748d	-0.02483585
19	0xbdc64ba0	-0.09682393
20	0xbccdb52a	-0.0251108
21	0xbdc93747	-0.098249964
22	0xbdb9723d	-0.09054992
23	0xbbfac384	-0.007652702
24	0x3d5b5a68	0.053553015
25	0x3db89de0	0.09014487
26	0xbc734d82	-0.014850022
27	0x3d15eb9e	0.036601655
28	0xbd12fc16	-0.03588494
29	0x3cf5d199	0.03000717
30	0x3bffc316	0.0078052385
31	0xbd81ddc9	-0.0634113
32	0xbd8ce747	-0.0688005
33	0x3d456872	0.04819531
34	0xbd6b21b0	-0.057405174
35	0x3db1a1ba	0.08673425
36	0xbd1daaa6	-0.03849282
37	0x3b8ba5cb	0.0042617074
38	0x3d612826	0.05496993
39	0xbd5bc7dc	-0.053657398
40	0x3dcb5fa3	0.09930351
41	0x3d85e4ff	0.06537818
42	0x3deaa809	0.114578314
43	0x3d451767	0.04811802
44	0xbc36c450	-0.011155203
45	0xbbfdf75e	-0.0077504357
46	0xbe09c96d	-0.13455744
47	0x3b6a6a08	0.0035768766
48	0x3d16d5d2	0.03682501
49	0x3d92abbe	0.071616635
50	0xbc98e865	-0.018665502
51	0x3d3a0ce9	0.04542247
52	0xbca8ee0d	-0.020621324
53	0x3cdedf5a	0.027206112
54	0xbd34b6ed	-0.044119764
55	0x3b583b3e	0.0032994295
56	0x3d4c3c2e	0.04986208
57	0x3ca12a66	0.019673537
58	0xbc601962	-0.013677927
59	0xbd361088	-0.04444936
60	0x3da34284	0.07971671
61	0x3dd46140	0.103701115
62	0xbd199bbb	-0.03750203
63	0x3dd0b851	0.101914056
64	0xbda3b42f	-0.07993352
65	0xbd1f8288	-0.038942844
66	0xbdae1b78	-0.08501333
67	0xbbba6ad8	-0.0056890063
68	0xbd0fb0a4	-0.035080567
69	0xba3ca6dc	-0.0007196495
70	0x3d8cc96f	0.06874358
71	0xbc531868	-0.012884237
72	0x3d2b7f31	0.041869346
73	0x3b5ed304	0.0034000287
74	0x3d93c6eb	0.07215675
75	0xbb7b962f	-0.0038389077
76	0x3d0328fe	0.032021515
77	0x3d8dbd4f	0.069208734
78	0x3cfe7369	0.031060891
79	0xbd8de637	-0.069286756
80	0x3c623698	0.0138069615
81	0xbc9c7db4	-0.019102909
82	0x3ccc8ac5	0.024968514
83	0x3bbe68e9	0.005810846
84	0xbd6940f8	-0.056946725
85	0x3dd5a822	0.104324594
86	0xbd90862c	-0.07056841
87	0xbcf5de40	-0.030013204
88	0x3d06c483	0.032902252
89	0xbc9a99c2	-0.018872146
90	0xbcdd2bf7	-0.026998503
91	0x3d373d90	0.044736445
92	0x3cea4cba	0.02860104
93	0x3c07ba65	0.008284186
94	0xbd1636cc	-0.036673352
95	0xbdabb4ff	-0.08384132
96	0xbcc9abe9	-0.024618106
97	0xbac8d3b6	-0.0015321884
98	0xbdabfed1	-0.08398212
99	0x3d83763e	0.06419037
100	0xbdb79348	-0.089636385
101	0x3d0fb521	0.035084847
102	0x3cf7a7cf	0.030231385
103	0x3bbb40e7	0.005714524
104	0x3e179e84	0.14806563
105	0xbcc2ec8c	-0.023794435
106	0xbc16c975	-0.009203305
107	0x3d134db0	0.03596276
108	0xbd588480	-0.052860737
109	0x3cb28d84	0.021795996
110	0x3dbf0b6e	0.09328352
111	0x3c2c94a8	0.010533489
112	0x3d657f36	0.05602952
113	0xbd28ec12	-0.04124076
114	0xbd828d5d	-0.06374619
115	0x3d89db7a	0.06731315
116	0x3bd06d1b	0.0063606626
117	0x3c0cd1dc	0.008594956
118	0x3d0b0ec3	0.033949625
119	0xbd7ec3ea	-0.062198557
120	0x3c811ba5	0.015760252
121	0xbdb9fb43	-0.090811275
122	0x3beaf9b4	0.00717088
123	0xbbb25f22	-0.0054434696
124	0x3d468271	0.048464242
125	0xbd52666f	-0.05136722
126	0xbdc5b90e	-0.09654437
127	0x3ded2be9	0.11580641
128	0x3d526368	0.051364332
129	0xb972ea4e	-0.00023166204
130	0xbd12bc6f	-0.035824236
131	0xb99af7b8	-0.00029557734
132	0x3db3bfd2	0.08776821
133	0xbca1b369	-0.01973887
134	0xbd33190a	-0.04372505
135	0xbd59713d	-0.053086508
136	0xbce53462	-0.02797908
137	0x3d147bdb	0.03625093
138	0x3dc994c4	0.09842828
139	0x3cb74d07	0.022375597
140	0xbd371195	-0.044694502
141	0x3d61f70a	0.055167235
142	0x3b926ed0	0.0044687763
143	0x3d97db49	0.07414872
144	0xbd419895	-0.047264654
145	0xbb0f056a	-0.0021823295
146	0x3ca5d25c	0.020241909
147	0xbd2d0b48	-0.042247087
148	0x3b8b702d	0.0042553158
149	0xbd45df4a	-0.04830865
150	0xbcdd253e	-0.026995298
151	0x3e0ee292	0.13953617
152	0xbd8ba309	-0.06818206
153	0x3e3da6b6	0.18520626
154	0x3d2f7390	0.04283482
155	0xbc4943d3	-0.012284237
156	0x3dab996f	0.083788745
157	0xbcca5754	-0.024699844
158	0xbe069e7e	-0.13146397
159	0x3d940239	0.072269864
160	0xbc6d8fc0	-0.014499605
161	0xbc0855db	-0.008321251
162	0xbba6f37d	-0.005094944
163	0x3c0364a1	0.008019597
164	0xbd455e95	-0.048185904
165	0xbd149685	-0.03627636
166	0xbccb2d68	-0.024801925
167	0xbd985ed0	-0.07439959
168	0xbda598b3	-0.08085766
169	0x3bd4cd47	0.0064941975
170	0xbc3281a5	-0.0108951675
171	0x3c59e1ae	0.013298435
172	0x3d822717	0.06355112
173	0x3d9c2ce6	0.07625751
174	0xbce87b5c	-0.028379135
175	0x3d87acf5	0.06624786
176	0xbd50fe41	-0.051023725
177	0xbd5eb586	-0.054372333
178	0xbb92cad3	-0.004479745
179	0x3d8ae50f	0.06781971
180	0x3d26f43d	0.040760268
181	0x3e05279f	0.13003395
182	0xbc8fe352	-0.01756445
183	0xbd0fa660	-0.035070777
184	0x3da16dce	0.07882272
185	0xbcd6134d	-0.02613225
186	0x3d391e62	0.04519499
187	0xbcb0d2b1	-0.02158484
188	0x3daca3ef	0.08429705
189	0xbda01701	-0.07816888
190	0xbdc6208e	-0.09674178
191	0xbd87ad15	-0.0662481
192	0xbd11b01d	-0.035568345
193	0xbd580119	-0.05273542
194	0xbd0bc298	-0.034121126
195	0xbd62c0e0	-0.05535972
196	0xbd8ecf85	-0.06973175
197	0x3d41e696	0.047339045
198	0x3db210a3	0.086945795
199	0xbd612cb4	-0.054974273
200	0x3da62062	0.08111645
201	0x3c82e27f	0.015977142
202	0xbc23165c	-0.009954061
203	0xbd79779a	-0.060905077
204	0x3d21fecb	0.03954963
205	0x3d71f5e0	0.059072375
206	0xbd04ba72	-0.03240437
207	0x3d60b7bf	0.054862734
208	0xbde1ed59	-0.110315986
209	0x3ce86a1a	0.028370906
210	0xbd9be5d4	-0.076121956
211	0x3d9dd374	0.07706347
212	0x3df34863	0.11879041
213	0x3d2694a5	0.040669102
214	0x3d3d33e8	0.04619208
215	0xbd94755e	-0.072489485
216	0x3c37b517	0.011212609
217	0xbc43b7d7	-0.011945686
218	0xbd31c33f	-0.04339909
219	0xbca2fb25	-0.019895146
220	0x3cb384f6	0.021913987
221	0x3d586adf	0.052836295
222	0xbd222186	-0.03958275
223	0x3d7eb100	0.06218052
224	0xbc79b481	-0.015240789
225	0x3dac7398	0.08420485
226	0xbb887eda	-0.0041655125
227	0xbd05baaf	-0.03264874
228	0xbcf492ba	-0.02985512
229	0x3cb7d96a	0.022442538
230	0x3da19912	0.07890524
231	0xbd890e85	-0.066922225
232	0xbe138b23	-0.14408545
233	0xbca238e8	-0.019802526
234	0xbd20d5fc	-0.03926657
235	0x3d270cf8	0.040783852
236	0xbbea91af	-0.00715848
237	0x3e3ed556	0.18636069
238	0x3d8e2cea	0.069421604
239	0x3d6c12ae	0.057635
240	0x3dd29eac	0.102841705
241	0x3d1d131f	0.038348313
242	0xbe0ede64	-0.13952023
243	0xbc394e29	-0.011310139
244	0x3cd794e1	0.026316108
245	0xbc09186c	-0.008367639
246	0xbdcab670	-0.098980784
247	0xbc36cfee	-0.011157973
248	0xbcc48b51	-0.023992212
249	0x3d9ed86f	0.07756125
250	0xbda1e065	-0.07904128
251	0xbd869d6f	-0.06572997
252	0xbbfb9e0f	-0.007678754
253	0xbd22756b	-0.03966276
254	0x3e14e636	0.14540944
255	0xbdd3c44c	-0.10340175
