DNN/models/fifth_iteration.pth (torch, 229928 bytes, 10 tensors)

fc1.weight f4 [256, 49]
00000000: b90a 33bf c512 cfbc df1b 823d b470 e83c
00000010: e41f e0bd 3aae 063d 1ad4 24be 05ca 823d
00000020: e2c7 c6bd 11dd 58bd e6df 833e 78bd acbd
00000030: 1fe8 cdbe 2bef 1d3e c3da 8fbc bba1 0d3d
00000040: c6bc 4a3e e510 cebe 32a5 01bf aa70 963e
00000050: 784c be3d c3b3 3c3d 95d6 85be e69f 523e
00000060: ce8f 93be 8a61 39be d163 fa3d 776f a13e
00000070: 7878 203e a710 f23a 61f1 1cbe 7dfd 193e
00000080: 7082 a23d ffec 0c3d fa6f 3cbd 9809 4a3c
00000090: c31d 713d 7b06 1ebd d801 b73d 7dd6 073e
000000a0: 97dc 553e f5e1 65bd dcc8 acbd e812 d4bb
000000b0: 9b94 b5be 82a0 dabe f847 c9be b89b 66be
000000c0: a801 70bd ab8d efbf 5721 7fbe c288 a4be
000000d0: ee27 95be 96d9 703e 65b3 c1bc 45b4 33bf
000000e0: cecd 873e 106a 30bd 75b7 afbe ae9a b33d
000000f0: 7d83 de3d b160 6bbd 4c26 8d3e 2a53 d13d
00000100: b263 6e3e 5675 4c3e b2cc 563c db76 133e
00000110: 4f01 bfbd 85e7 8bbd b54a 21bd c65f ef3c
00000120: 1fc8 87be 49a3 cfbe 65f5 1abe 6f3f f43d
00000130: bbc8 1cbc 1deb b93d 6e08 cebc 402e a3bd
00000140: b1eb 963e 8fda 0e3e 9b0b e3bb d8d0 abbd
00000150: 946c 6bbe a6cd eabc 61dc 58be 4881 703e
00000160: b97f e23d 4084 2a3e 7fdd 1c3e 431b 8cbd
00000170: 61b7 d0bc 6173 91be 120d 6ebe 0ebf 4a3e
00000180: 4480 893b 6076 9dbe 4e3a 16bf 79eb 1dbe
00000190: e0c2 77bc d317 87be f0dd a8be abde cebe
000001a0: f68b 67bd 772e 9dbd b3d9 a03d 59d2 c1bd
000001b0: 9165 143e cdda 7f3e 57f5 1e3d 05e2 4bbe
000001c0: 7aba 913e a130 81be e149 bfbe 51e4 d23e
000001d0: e232 c4be 0cf6 16be 7101 8cbe 3f53 2abe
000001e0: fc63 8d3e 4c6d febe aba7 cc3e d4c5 5c3e
000001f0: 0b6d 453e 34d4 a6bb adfc 47be 2e11 41be
00000200: 0f3d d1be de60 7fbe f0bf 41be 1997 ed3d
00000210: fd21 833e e144 b5be ca67 d03e 2446 14be
00000220: a573 a9be 323b efbd 853e 16bc 1038 2dbd
00000230: 383f 913e 0067 0a3f 6464 b43e 939b b0bd
00000240: 1931 53be 9cdd db3d abdb 1cbe 7b16 2dbf
00000250: 6fca 3abe fa9d 843d fca0 003e 74bd 913c
00000260: 5df3 143f 11ef 70be 8b47 5a38 9dce 9fbd
00000270: 8afd d03d 6f16 67bd a6ed d5bd f727 963d
00000280: 04eb f23e 45dc f8bd a8fb 8ebd 77dc a13e
00000290: 3471 353e 922b 193f 4d54 f5bc 8d40 cdbd
000002a0: 786a cb3e 042a 52be badd 0f3f b3ef 133e
000002b0: 4d22 8ebe a27e 20bd a966 c73d e8de 823e
000002c0: eabe d03d ca53 923d d94c 0e3e 77ef 503d
000002d0: 8fe1 133d a2c8 de3d acaa 493e bab1 08be
000002e0: 7012 28be 92b6 d53d 4bd5 eabd 67be e13d
000002f0: 4b8d 533d 5679 893d 0536 5a3e 8ea8 97be
00000300: 856c 143d 6a1f 763e 8c48 483e 3a69 223d
00000310: 2252 a9be 0fec 293d c72a f1bd 4a4e 13bf
00000320: 9b15 a43e 3f99 dfbe f618 f8bd 0ad9 9c3a
00000330: 2f85 21be a7ce 5d3d 21cc f33d fddc 6b3c
00000340: 383b 82be 6b85 b7be 6e94 dc3e 0793 3a3e
00000350: d8e8 cfbe 4db8 1c3e f49c 74bc 8a32 423d
00000360: 5151 08bf be07 30be 28f6 9c3e f7d9 0dbe
00000370: 3662 e63d e813 823e 39d6 3dbd 748c 92bd
00000380: 4388 8fbc ff12 ac3d 9ea7 dd3d 2e64 0abe
00000390: 2014 cfbd 3d79 0cbe 3e73 aa3e fbd0 073e
000003a0: f51e 2f3d 5f7e adbd 6a1c 823d dae4 933d
000003b0: d027 603e afdc c3bb 05ac 963e aee7 01be
000003c0: 2db3 7a3e a26b 33bd 6155 bf3c 1afe 423e
000003d0: cef4 bebd de08 e0bd 838b 103e 64c7 443e
000003e0: 6cc2 103e 3d56 06be ee4d 333e 6014 95be
000003f0: 1cbd c03d 3873 c7be 3b9e 903e 6e40 fc3e
-0.69938236 -0.025277505 0.06352972 0.028374054 -0.10943583 0.032881 -0.16096535 0.063861884
-0.09706093 -0.0529452 0.25756758 -0.08434576 -0.40216157 0.15423267 -0.017560368 0.034578066
0.19798574 -0.40247265 -0.50642693 0.2938283 0.09291929 0.04606987 -0.26140276 0.20568809
-0.28820652 -0.18103614 0.1222607 0.31530353 0.15670955 0.0018468098 -0.15326454 0.15038104
0.07935035 0.034405705 -0.046005227 0.012331389 0.058866274 -0.0385804 0.089358985 0.13265415
0.2088493 -0.056123693 -0.084367484 -0.0064719804 -0.3546494 -0.42700583 -0.3931272 -0.2252034
-0.05859533 -1.8715109 -0.24915062 -0.32135588 -0.29132026 0.23520502 -0.023645112 -0.70196944
0.26524204 -0.0430699 -0.34319654 0.08769737 0.10864923 -0.05746526 0.2756828 0.102209404
0.23280218 0.19966635 0.013110327 0.14400809 -0.093264215 -0.06831268 -0.039377887 0.029220473
-0.26519868 -0.40554264 -0.15132673 0.119261615 -0.009569342 0.090780474 -0.025150504 -0.07967806
0.29476693 0.13950561 -0.0069288737 -0.08389443 -0.22990638 -0.028662514 -0.21177818 0.23486817
0.110595174 0.16652012 0.15318869 -0.06841137 -0.025478067 -0.2840834 -0.23247173 0.19799444
0.0041961987 -0.30754375 -0.58682716 -0.15421857 -0.015122145 -0.26385364 -0.32981825 -0.40404257
-0.05652996 -0.07674878 0.07854023 -0.09463949 0.1449187 0.2498581 0.038808193 -0.19910438
0.28462583 -0.25232413 -0.37361053 0.41189817 -0.3832007 -0.14742297 -0.2734485 -0.16633318
0.27615345 -0.49692762 0.3997167 0.2155984 0.19279878 -0.0050912146 -0.19529982 -0.1885421
-0.40866897 -0.24939296 -0.18920875 0.11601085 0.25611869 -0.35404113 0.40704185 -0.14479882
-0.33096042 -0.116812125 -0.009170179 -0.042289793 0.28368545 0.54063416 0.35232842 -0.086234234
-0.20624198 0.10735628 -0.15318172 -0.6761243 -0.18241285 0.06475444 0.1256141 0.017790534
0.5818384 -0.23528697 5.204188e-05 -0.0780308 0.10204609 -0.05641788 -0.104457185 0.073318414
0.47444928 -0.12151388 -0.06981593 0.31613514 0.17718965 0.5983211 -0.029947424 -0.10022078
0.39729667 -0.2052384 0.561977 0.14446907 -0.27760544 -0.039183266 0.09736378 0.2556069
0.10192664 0.07144888 0.13896503 0.05100962 0.03610378 0.108781114 0.19694012 -0.13349047
-0.16413283 0.10435213 -0.11466464 0.110226445 0.05164842 0.06712596 0.2130967 -0.29620785
0.036236305 0.24035421 0.19558924 0.039651133 -0.33070475 0.04148489 -0.11775737 -0.57541335
0.32047734 -0.43671605 -0.12114136 0.0011966538 -0.15773462 0.054152157 0.11904169 0.014395949
-0.25435805 -0.35843977 0.43081993 0.18220149 -0.40607333 0.1530468 -0.014929999 0.04741148
-0.5324908 -0.17190453 0.30656552 -0.13852678 0.11249201 0.25405812 -0.046346877 -0.071556956
-0.01752103 0.08402061 0.10822986 -0.13514778 -0.101112604 -0.13718124 0.33291048 0.13263313
0.042754132 -0.08471369 0.06353076 0.07221384 0.21890187 -0.0059772353 0.29428115 -0.12686035
0.24482413 -0.04380382 0.023356142 0.19042245 -0.093240365 -0.10939191 0.1411572 0.19216686
0.14136666 -0.13118835 0.17510197 -0.29117107 0.0941107 -0.38955092 0.2824572 0.49267906

fc1.bias f4 [256]
00000000: 20aa a4bd 57bd 593f 1377 fbbe ba57 38be
00000010: ea88 e7be 9930 cabe 4899 b1be 6ba3 eebe
00000020: e1f7 f5be b9ef 91be d2d1 bfbe 44d8 79be
00000030: 764e 18bf c1b1 1d3e 9fb0 97be 8aba 6abd
00000040: f550 8c3e f462 dcbe 25b8 46bf 11a3 70be
00000050: 81ba 77be 0c24 c2be 2339 b9bd 9dff 25bf
00000060: 70b6 82be b472 59bf 7f5b 87be 20bd d8be
00000070: ca5e 85be 34c1 24be 2448 01bd 5520 f1bd
00000080: 1dcb 32bf 38f8 95be 67b8 053f 4cdb b9bd
00000090: 9c85 e83e ea9e 953e 0c6a 9bbe d287 aebe
000000a0: 6de6 bfbe 0402 143e 4621 cfbe da00 62be
000000b0: 84b8 84be 88de f2bd 29c2 94be 4b09 093f
000000c0: 6947 cebd db42 a33e 09b3 ae3c 7e9f dcbe
000000d0: 22a4 0ebc 7871 b4be 4412 e8be a306 ad3d
000000e0: e725 ac3d c6ca 4fbe e969 7cbe a1bd efbe
000000f0: 0a9e 2c3f 36ba 8fbe b00d 77be 269c 1bbf
00000100: 08cf 90be d048 393d 0672 10bf 612a fcbe
00000110: 1b69 37be ab8c 1a3f 4fe9 83bf cd40 07be
00000120: 583a 413e e059 f8be beb3 24be f449 32be
00000130: 4f78 213f 8918 b33e 069e 8fbc 6776 24be
00000140: fc1a a53c d8f6 01bf 335b ce3d bd75 aebe
00000150: 2150 30bf 6514 0cbf 8be4 34bc 0610 b33e
00000160: 397e 04bf 3bdc 173f 3c6c ebbe cdb0 713e
00000170: 26ff 8fbe 9af2 abbe f00f 40bf 8005 b1bd
00000180: b5df 85bd df3a 19bf 1082 773f 4f87 db3e
00000190: fdf9 c3bd 419d 91be 8be0 3dbf c637 f2bd
000001a0: 7957 9b3e e75e 1d3f ec64 4cbe b28b 043e
000001b0: f301 91be dae8 dfbe babf 373d a9b3 af3e
000001c0: a021 fe3d 80fe 5cbe eebd 10bf ddaf b53d
000001d0: 3629 7ebe 72b4 f4be b796 ecbe a6a1 e2bd
000001e0: 3c1c 643e aeff 18bf 0c1a 18be 33b2 09be
000001f0: 9337 653e 68e5 493e c103 bf3c b106 2f3f
00000200: 594e 12be fb3c f5be 3784 413d aa42 5dbe
00000210: df93 65bf 8bb7 9e3e 51b8 bbbe 5f43 97be
00000220: 63ea b63e 73cb cfbe c62d c4be 8247 a7be
00000230: 05c9 28be 8b44 713e d6b5 cabe 8043 b6bd
00000240: fb89 bbbe f818 27bf 49e0 3e3e 2416 87be
00000250: 5c1a 27bf a1f4 00bf 28e1 8ebe c9c0 0fbf
00000260: a45b 2dbe 83c3 b2be bc75 f6bd 2500 57bf
00000270: ff39 5c3e ee7f 21bf ccb8 1bbf c682 8a3e
00000280: 11f3 e1be 9cfd 3bbf 8e59 333d 7652 11be
00000290: 9bf8 2cbe 5bf7 183f aedf eebe 18ee 1cbf
000002a0: 5380 9d3e a9f4 e23d 56f2 92be f3d7 27be
000002b0: 4ee9 dabd a14f 2fbf 8428 e33d bc28 4bbe
000002c0: 4244 cbbe 0d33 74be 6e55 cfbe 70c8 c8bd
000002d0: da37 2abf d68c 22bf d47a bdbd ea59 2bbe
000002e0: c15f 01bf 448e efbe 2282 c3be 08db ab3e
000002f0: f03c 07bf 5fae 03bf d9f0 0abf 8c16 17bf
00000300: f600 d2be ebde e4bd 4108 0cbe a286 213c
00000310: b630 88be 1b61 82be 1f73 11bf 4f6b e8be
00000320: d6b1 6f3d ce7f 1b3e 69fc d93e d400 cc3e
00000330: 3e5f 52be 9f96 32be ddd1 703f 052e 93be
00000340: 3179 d0be 016b 06bf 5aca 13bf 4555 223d
00000350: 8096 443f 1dfd d8bd c7b4 cfbd dda0 b53d
00000360: c760 2d3f 2455 223f be15 5dbd 43d9 a43e
00000370: 7920 cabe 9073 98bd 664d d8be 26f3 a63e
00000380: 687e 633e fbf7 f0be 7570 8cbe 249b 863f
00000390: 39b7 3fbf a8b7 56be 5cd4 033e 1502 69be
000003a0: 1d22 92be fa84 18be 9d97 b83e 25a9 63bf
000003b0: 1fc1 a7bd f2d6 fdbe 6d28 31be c1ed c6be
000003c0: 53e1 0dbf 9c6f 2bbf ff19 babe ae83 613b
000003d0: 5679 bf3c 1b8d 07be 2ac7 15bf 4bb5 98be
000003e0: f81a 5abe 2caf 9b3e ab19 673f 34c8 b83e
000003f0: cbf1 cbbe 1a84 c33d 76b3 383f d369 70bf
-0.08040261 0.85054535 -0.49114284 -0.18002215 -0.45221645 -0.39490202 -0.34687257 -0.46609053
-0.4804068 -0.28503206 -0.37464768 -0.24398905 -0.5949472 0.15399839 -0.2962694 -0.057306804
0.27405515 -0.43044245 -0.7762473 -0.23499705 -0.2419224 -0.37918127 -0.09044101 -0.6484316
-0.25529814 -0.8494065 -0.26436993 -0.4233179 -0.2604888 -0.16089326 -0.03156294 -0.11773745
-0.69841176 -0.29290938 0.522345 -0.09075031 0.45414436 0.29222804 -0.30354345 -0.34087998
-0.37480488 0.14453894 -0.40455073 -0.22070637 -0.25922024 -0.11858851 -0.29054382 0.53529805
-0.10072214 0.31886944 0.021325605 -0.43090433 -0.0087061245 -0.3524282 -0.45326436 0.084485315
0.08405667 -0.20292196 -0.24649777 -0.46824363 0.6742865 -0.28071755 -0.24126315 -0.6078514
-0.28282952 0.045235455 -0.56423986 -0.49251083 -0.17911188 0.6037089 -1.0305575 -0.13208313
0.18869913 -0.4850607 -0.16084191 -0.17411023 0.630742 0.34979656 -0.017531406 -0.16060792
0.020154469 -0.5076728 0.100759886 -0.34074202 -0.68872267 -0.5471862 -0.011040817 0.34973162
-0.517551 0.5932042 -0.45981014 0.236026 -0.2812435 -0.33583528 -0.7502432 -0.08643627
-0.06536809 -0.59855455 0.96682835 0.4287667 -0.09569166 -0.28440288 -0.7417075 -0.11827044
0.30340174 0.61472934 -0.19960374 0.12943915 -0.283218 -0.4373234 0.04486058 0.34316757
0.12408757 -0.21581459 -0.5653981 0.08871434 -0.24820408 -0.4779392 -0.46208736 -0.11065988
0.22276396 -0.59765136 -0.14853686 -0.13446884 0.22384481 0.19716418 0.02331722 0.68369585
-0.142877 -0.47898087 0.04724523 -0.21607462 -0.8967876 0.30999407 -0.3666406 -0.29543588
0.35725698 -0.40584907 -0.38316172 -0.32671744 -0.16482933 0.23561303 -0.39591855 -0.08899593
-0.36628708 -0.65272474 0.18640245 -0.2638408 -0.65274596 -0.50373274 -0.27906156 -0.5615354
-0.1692949 -0.3491479 -0.12034175 -0.83984596 0.21506499 -0.6308583 -0.6082885 0.27052897
-0.44130757 -0.7343385 0.043786578 -0.14191613 -0.1689171 0.59752434 -0.4665503 -0.613008
0.30761966 0.110818215 -0.28700513 -0.16390972 -0.106890306 -0.6848088 0.11091712 -0.19839758
-0.39700514 -0.238476 -0.40494865 -0.098038554 -0.6649147 -0.6349615 -0.09251943 -0.16733518
-0.50536734 -0.46788228 -0.3818522 0.33565545 -0.5282736 -0.51437944 -0.54273754 -0.5901878
-0.41016358 -0.11175331 -0.13675024 0.009858759 -0.26599663 -0.2546471 -0.56816286 -0.4539437
0.058519207 0.15185472 0.42575386 0.39844382 -0.20544145 -0.1744027 0.94070226 -0.28746048
-0.40717462 -0.52507025 -0.5773064 0.0396321 0.76792145 -0.105951525 -0.101419024 0.08868573
0.67725796 0.63411164 -0.053975813 0.32197008 -0.394779 -0.07443917 -0.4224655 0.32607383
0.22216189 -0.47064194 -0.27429548 1.0516095 -0.7488895 -0.20968497 0.12873977 -0.227547
-0.2854165 -0.14894477 0.36053172 -0.8892997 -0.08191132 -0.49578053 -0.17300577 -0.38853267
-0.5542194 -0.6696718 -0.36347958 0.0034410763 0.023373287 -0.13237421 -0.58507025 -0.29825816
-0.2129935 0.30407083 0.9027354 0.36090243 -0.3983291 0.09546681 0.72148836 -0.93911475

fc2.weight f4 [128, 256]
00000000: 607d 0f40 5ba8 21be 7deb b2be 145e 0dbf
00000010: 936f 95be e209 7bbe 4bdb d83d 4364 273f
00000020: 49ab 823c 6739 2b3e 7915 c7bd 92bc 95be
00000030: a271 0d3f b0f3 a9be 85ac b4be 75a0 f2bd
00000040: 2da5 3dbe e86d 80be c65b 393e 781a d6be
00000050: 1acb 3f40 bcdc b3bd 81d8 33bd c4fe ddbe
00000060: 538c 433d 037c febd 53cc e0bd 18b5 a8be
00000070: 11fa 7abe 535a 64bf 1101 efbd 1e81 01bf
00000080: 2cd2 f6bd d36b 863e debc bfbe 812e 5d3d
00000090: 1a95 4b3c 4d6a 23be 9329 43bd e945 e8be
000000a0: a1e2 d4bd a031 0fbe b95e 94be e617 67bd
000000b0: 46a4 02bf dcd7 adbe e041 95bf 5606 d7bd
000000c0: 9e4b 51be 3db4 05be 5525 26be 02c4 8c3b
000000d0: c9b4 303b 6912 e7be 93c5 38be 5493 39bf
000000e0: 0855 d43d 75d1 2cbf df20 afbc 6c66 29be
000000f0: 281e 06be 461a 2ebf 9a87 52be 67bd ffbd
00000100: 2fd5 84be 55e6 1e3e 99ab a2be e925 9fbe
00000110: 2a7d 413d 9409 3bbe c0ad ddbe d081 5abf
00000120: 51cb 97be 8b08 d5bd 61dd 69be 5718 dabe
00000130: 13c4 2fbe 4355 41be 6689 013e c791 0abf
00000140: fa2c 64be 31b5 d9bd 15aa 103d c757 443e
00000150: 29be 893d 5dea 1abe a1b4 bbbe 8142 91be
00000160: 4595 b4be fb22 2dbe 0b00 d0be 69fd 943c
00000170: b86d c9be a0a6 38bf 7653 06bf 8236 d63d
00000180: dac2 0f3e 6392 e5be 5556 303e 33ab a2be
00000190: f240 28be e49a 19be afa9 7fbe 1774 85be
000001a0: fdf6 ab3e dc38 63be fe4c 7fbd abfd b4be
000001b0: ca99 98be edf1 d6bd 4652 753d 2856 31be
000001c0: 0adf 1cbe 95dd a8bd 8306 0fbf 3205 92bd
000001d0: 2387 823e 7ac3 dbbc b4c3 2fbd 841f 99be
000001e0: e81f ddbc e375 8abe 361d b2be ff39 18bf
000001f0: 9ae1 68bd 96f0 87be 90ea 17be 6d54 a8be
00000200: 6186 e1be 823b acbd 5284 90bf 04d0 b23d
00000210: 2583 04bf e858 08bd f7ca 0dbe 1154 913d
00000220: 5f17 edbe 4d39 33be 8ebb 6e3d a6ff 81be
00000230: 5a99 90be e529 3abe c381 83be 877f fabe
00000240: d3bc 80be 9e9f bf3d df77 f83d 7680 7bbe
00000250: ceed ccbd 81f6 c1bd 74be 41bf 1894 a3be
00000260: 34c7 98be 1a19 81be c7fa c13c 55d3 03bf
00000270: 5cc1 68bc 7642 0ebf bde5 723e a921 e1bd
00000280: 2ebd a73d 17f5 58bc f849 ba3d 9348 48be
00000290: ed23 54bd c4eb 64be 6637 c5be 09bf 1ebe
000002a0: 704e c5bd 745c cfbe dcf4 76bd ad45 ea3e
000002b0: ac30 3bbf cb50 d4bc a1b8 8a3b 4412 d7bf
000002c0: 3281 34be 664f f53c 35ce c0be 7e96 ba3d
000002d0: 38e8 343e dc78 c33e 8cfa e03d 5900 333d
000002e0: e128 1b40 74cb c0be 8840 abbe 795b fcbe
000002f0: 1b78 b93f dad9 613d dbbb 93be 6e03 50be
00000300: d41e 02bd a61f 45be ba2d 883c 47bc 21bf
00000310: 6bb5 bdbd 7ddb 78bd 932c 1bbe df48 9abd
00000320: dd42 a0bd 8bd8 89be 4789 9abe 94a3 e53e
00000330: ea61 bb3e 7695 c03b c24a 39be 58b4 a2bd
00000340: 92f4 573c 1e0e 273e e36d 00bf 6f45 1dbe
00000350: 0eee 143d 08fd 55bd f7c7 153d 08cc 3cbd
00000360: 00a5 843d bbca dfbe 0237 5bbe d047 7dbe
00000370: 7c5f 7a3d e693 62be 4128 173d 10b5 a1bd
00000380: dc2c 78be b3a7 13bf 8622 fc3e 8bec 92be
00000390: 9a3b 53be 3204 d2bc 9b70 2bbe be6c e8be
000003a0: 70a9 9ebd a5bd 6dbe de4f 52be 72d2 4cbe
000003b0: 35c9 1abd bc49 463d 16a5 2e3e d981 d3bd
000003c0: 3d96 67be 4259 753d 7193 633e 2105 8d3d
000003d0: e3f6 503d 6f11 13bf 9224 a1be efe0 b03d
000003e0: 29f5 5cbc ef4c 0c3c 6c4c b0be dea3 77be
000003f0: fbeb 84bb 1e0c c3be 590a 213d 1a4c b4be
2.2420273 -0.15786879 -0.34945288 -0.55221677 -0.29186687 -0.24515489 0.10588702 0.6538736
0.015950816 0.16721116 -0.097208925 -0.2924543 0.55251515 -0.3319373 -0.35287872 -0.11847011
-0.18520041 -0.25083852 0.18101415 -0.4181707 2.9967713 -0.08782336 -0.043907646 -0.43358433
0.047741245 -0.12425997 -0.10976472 -0.32950664 -0.24509455 -0.89200324 -0.11670125 -0.5058764
-0.12051806 0.26254138 -0.37448782 0.053999428 0.012425685 -0.1595852 -0.04764707 -0.45365837
-0.103947885 -0.13983774 -0.28978518 -0.056419276 -0.5103191 -0.3395375 -1.1660728 -0.10499255
-0.20439002 -0.13057037 -0.16225179 0.004295827 0.0026963225 -0.45131233 -0.18044119 -0.7249043
0.10367781 -0.67507106 -0.021377979 -0.16542977 -0.13097441 -0.6800884 -0.2055954 -0.124872975
-0.25943896 0.15517552 -0.31771544 -0.3108361 0.047238506 -0.18265373 -0.43296623 -0.8535433
-0.29647306 -0.1040202 -0.22838356 -0.42596695 -0.1716464 -0.18880181 0.1265007 -0.5412869
-0.22282782 -0.10630263 0.035318453 0.1917411 0.06725723 -0.15128465 -0.36661246 -0.2837105
-0.35270134 -0.16907875 -0.40625033 0.018187242 -0.3934152 -0.7212925 -0.524711 0.10459615
0.14039174 -0.44838247 0.17220433 -0.3177124 -0.16431025 -0.15000492 -0.24967073 -0.26065132
0.33586875 -0.22189659 -0.062329285 -0.35349783 -0.29804832 -0.104953624 0.059892915 -0.17318022
-0.15319458 -0.082453884 -0.5586931 -0.07129897 0.25493726 -0.026826609 -0.042911246 -0.29906857
-0.026992753 -0.27043065 -0.3478791 -0.59463495 -0.056855775 -0.2655074 -0.14835572 -0.32876912
-0.44047835 -0.08409788 -1.1290381 0.08731082 -0.5176261 -0.033287913 -0.13846956 0.070961125
-0.46306893 -0.17502327 0.058284335 -0.25390357 -0.28241998 -0.18180044 -0.25684938 -0.4892542
-0.2514406 0.093566164 0.121322386 -0.24560723 -0.10006295 -0.09470845 -0.75681233 -0.31948924
-0.2983948 -0.25214463 0.02367915 -0.5149434 -0.014206257 -0.5557016 0.2372045 -0.10992748
0.0819038 -0.013242028 0.0909614 -0.19558935 -0.051792074 -0.22355562 -0.38518828 -0.15502562
-0.096341014 -0.40500224 -0.06029211 0.45756283 -0.7312114 -0.025917431 0.0042334353 -1.6802449
-0.17627409 0.029945087 -0.37657323 0.09110735 0.1766671 0.38178146 0.10985288 0.043701503
2.42437 -0.37655222 -0.3344767 -0.49288538 1.4489778 0.0551394 -0.2885426 -0.20313808
-0.03176768 -0.19250354 0.016623367 -0.63177913 -0.09263118 -0.060756195 -0.15153722 -0.0753343
-0.07825253 -0.26923022 -0.3018286 0.44851363 0.3659814 0.005877192 -0.18094924 -0.07944554
0.013180869 0.16313979 -0.50167674 -0.15358518 0.03635984 -0.052243263 0.036567654 -0.046093017
0.06476784 -0.4370936 -0.21407703 -0.24734426 0.061126217 -0.22126731 0.036903623 -0.07895863
-0.24235862 -0.57677764 0.4924509 -0.28696093 -0.20628205 -0.025636766 -0.16742174 -0.45395464
-0.077471614 -0.23216875 -0.2053828 -0.20002154 -0.037789542 0.048410162 0.17055163 -0.10327501
-0.22615905 0.059899576 0.22224213 0.06885744 0.0510167 -0.57448477 -0.31473213 0.08636653
-0.013486185 0.008563264 -0.34433305 -0.24183604 -0.0040564514 -0.38095182 0.03931651 -0.3521431

fc2.bias f4 [128]
00000000: 73ce 723e fe2b a63d b64d 2839 a4ab fa3d
00000010: ed3d d13d 5dc3 41bf bbea 19bd 5d5d 933e
00000020: 393f 863e 2572 d9be d5a5 773d 4326 7cbe
00000030: c908 1a3e 5d3d 59be 3492 553e 6576 fa3d
00000040: d9b6 8eba f5c0 afbb c226 08be 8f01 413c
00000050: 5ce5 113d c0b6 04bd ca03 483d d230 1fbf
00000060: 583d 87be 893c 0e3e 9d57 87bc 30b6 97bd
00000070: 3d39 8cbd 6491 8cbe bf37 c8be eed3 5c3c
00000080: ba06 54be 5785 6c3e bc25 1dbd 1015 793d
00000090: 5ba3 1b3e cfb1 67bf 54af c0be a1a3 7dbe
000000a0: 937c 08bd 4309 82bd 99b4 653e ef34 023e
000000b0: 27b2 a33d 56ae e2bc 5de4 9c3e b36a a93d
000000c0: a446 b7be caca d13e 5d88 a73d d2c3 29bd
000000d0: c87c 05bf e500 03bf d500 3b3e eb65 133d
000000e0: 7426 0c3c 962e 0e3e aad3 043d 5999 15bf
000000f0: 81cb 7e3e 42fd d83c 2557 a9bb 94e8 113e
00000100: de23 60be 67fb 37bc 15fc 8a3e 2526 e93d
00000110: 81d1 cdbd d9f7 4d3e 7f25 b8bc 9aa7 9b3e
00000120: 72c9 d4be fd25 7abe 89dd 47bd 1036 843d
00000130: f863 08be 1197 3f3d 14db 9abd d7ff 2f3e
00000140: b217 da3d 94ae 723e 7e68 5bbd dc4e a03e
00000150: 57dd 0dbf 8255 133e ef3c a1bd 89bf 81be
00000160: 036e 433e f25c ebbe 454d 3fbc 883c 0c3d
00000170: f803 a73c a0f3 aebd f61e 913c 34f3 54bd
00000180: e6dd 2f3e f14c 9f3d 38c0 0dbd 8883 70be
00000190: cd09 ecbe ab01 d93d 87a4 65bf 2681 123d
000001a0: 9620 f9bd 08f4 1fbf fc8e 993d a7e3 b03c
000001b0: f85e cf3d 9db6 01be 1379 c43d ac5f 05bf
000001c0: e36e 923d 4e63 fdbe a277 1fbe 1f80 033f
000001d0: 62bb 0dbf c2f2 563e 2bc9 8e3e 5d8d 32bf
000001e0: b934 c63d 48e2 47bd 18a9 c7be 635a 933d
000001f0: 2626 e9be 1640 7d3c 4147 39be 0cb4 20bc
0.23711567 0.081138596 0.00016050678 0.12239769 0.102168895 -0.75688726 -0.037577372 0.28782168
0.2622011 -0.42469898 0.060460884 -0.2462397 0.15042414 -0.21214814 0.20856553 0.12229613
-0.0010888233 -0.0053635784 -0.13296035 0.011780157 0.035619125 -0.032400846 0.04883174 -0.6218387
-0.2641399 0.1389028 -0.01652127 -0.074077964 -0.06846855 -0.27454674 -0.3910503 0.013478262
-0.20705691 0.2309774 -0.038366064 0.060811102 0.15199034 -0.9050569 -0.37633765 -0.2476945
-0.03332193 -0.06349423 0.22432174 0.12715505 0.07992964 -0.02767102 0.30642977 0.082723044
-0.35796082 0.40975028 0.08180306 -0.041446514 -0.52143526 -0.5117324 0.18262036 0.03598587
0.00855409 0.13884959 0.03242842 -0.58437115 0.24882318 0.02648795 -0.005167859 0.14248878
-0.21888682 -0.011229373 0.27145448 0.113842286 -0.10049725 0.20114078 -0.022478817 0.30401307
-0.4155994 -0.24428554 -0.048795257 0.06455624 -0.13319385 0.046774928 -0.07561317 0.17187439
0.10649051 0.23699409 -0.05356645 0.31310165 -0.5541586 0.14388087 -0.0787295 -0.25341442
0.19084935 -0.4596935 -0.011676137 0.034237415 0.020387635 -0.085425615 0.017714959 -0.05198975
0.17174491 0.07778347 -0.034607142 -0.23487675 -0.46101227 0.10596021 -0.89704174 0.035767697
-0.121644184 -0.6248174 0.07497975 0.021592928 0.10125536 -0.12667318 0.095934056 -0.5209911
0.07150056 -0.49489826 -0.1557298 0.5136737 -0.5536405 0.20991042 0.27887854 -0.69746953
0.09678025 -0.048799783 -0.38996196 0.07194974 -0.45536917 0.015457174 -0.18093587 -0.0098085515

fc3.weight f4 [64, 128]
00000000: 40f2 94be 20af 753e bd49 15bd 8a7c 2d3d
00000010: 556f 90bf e73e 523e ca7e f43e 29c9 51be
00000020: d802 e6be 15d5 cdbe 88ec d4bd 93ff 9e3e
00000030: 1b15 e9bd 8044 7e3c da93 2bbf b457 30bf
00000040: 1a98 91ba f792 173e 49ba 683d d5c1 37bf
00000050: 2bf6 7c3e de9b 773d 54a2 093f 55c0 37bd
00000060: 2ace 47be d5db 07bf 451d f4be 987d 9b3c
00000070: 9d9c f0bd 0492 773e 1ae2 bdbe 362b 42bf
00000080: 0463 81be 4fce 19bf 5943 f03c fcff acbe
00000090: 10f9 3b3b 59c0 a6be 4535 243d e790 6dbc
000000a0: 894b 873e 9577 be3d 529d 10bf 9483 5bbd
000000b0: 646f 39be b7b9 cb3d 77b0 d83d 1fc3 383f
000000c0: bb45 253e f6ac 3e3e 1ad8 72bc 15ac 8cbd
000000d0: 37fd bbbe 153b 92be 3268 563f 8b50 1f3d
000000e0: 6c33 2b3f eb04 febe 2a01 4e3e 93cb 7abe
000000f0: 9969 04bf 5246 89be c0d3 68bf 5b15 0a3e
00000100: d2ee 1bbf 944d a13e 299f 6fbf beda 4fbf
00000110: 74d1 123e cba7 923e 845c c1bc b682 aabd
00000120: c828 bf3d 9dc4 91be 3ba5 4cbe 5a03 903e
00000130: a44a 073d af98 d13e 1f0f a0be 4290 8dbd
00000140: 04c7 473d b52e 9fbe fece 98be 2b75 c53e
00000150: 4176 d33c dffe c3ba ee0e 4ebe d124 44be
00000160: f16f 68bf 0e45 6e3e 5bec 50bc e91e 543e
00000170: 0b1d 6cbe 838d 4abf f3d4 bd3e 9f93 49be
00000180: a967 0f3e 74c3 28be 26ab c23a 89ac 65be
00000190: 7bff 20bf 25bf 3a3e ccdc 873e 230f e33e
000001a0: 0517 36bf c61c 8ebe 8198 2abd 8888 61bd
000001b0: 984c 89bd faef a63e ed5c 12be c83d c9bc
000001c0: c982 4dbf 20ed 023e d0a2 d0be 7c36 e5be
000001d0: 48b1 1b3e 5acc 1cbf fbd6 4abf 4a5c 2d3e
000001e0: fa7f d2bd aece 9b3e 9e09 37bf 7eda 82bf
000001f0: 2424 06bf 5a32 723d 698a 27bd 0129 ea3d
00000200: a8da c63e fc19 99bf 7b65 283e 2be3 3fbf
00000210: 1ec0 193e 5208 6e3d 57d9 5cbe 1446 803d
00000220: 16d8 b33b cde6 bf3e 021f 993d 6f1a babd
00000230: 4a02 423e ca43 27be be57 bcbd f05f ab3c
00000240: 6038 26bf f7d4 1cbf e878 53bf 282b 43bf
00000250: b640 50bf feee 74bf f5c9 1cbf 3814 b4be
00000260: ba5c 61be a4c2 1a3e 72d1 08bf 9c42 513e
00000270: 24bd e9be d80a 9dbd 563c 7bbe e9df e03d
00000280: 432d 8fbe ca2d 37bd fd6e 2e3e 646c a03e
00000290: 36d0 97bf 1717 c5bd 7718 b539 c855 25bf
000002a0: 7402 22bf 368e 3bbf 1047 98bf 6bf2 3bbf
000002b0: c890 d33e 226e dcbd 95b8 80bf f3ff 88bf
000002c0: 7f28 2abe 104f c5be 317b 1d3e 762c b7bf
000002d0: baed 333e cb1c bebe 4efd 78bc 10dd 69be
000002e0: 24f7 fd3d bdef 54be f42a a7bf 2a84 33bd
000002f0: ab90 923e 5e83 533f 43b9 863e 542f 993e
00000300: d5d1 1f3e 607c cdbe eedb b1bd cda8 c7bc
00000310: 2bd6 31bf 22d2 87bd b2df c2be d8fc 893e
00000320: a080 42be 20bc 00be 6da9 2b3f ade0 98bf
00000330: 21cc c2bc bb6b be3e 6b32 52bd 3387 88bc
00000340: 8be9 06bf 27a1 613e cda2 88bc 1281 66bf
00000350: 4d4a b93d 3e32 143f a9ca 4abf 8d42 0abf
00000360: 95b1 033e 850c b6bd 4333 4ebf 2fe4 3abf
00000370: 663f f23e 212f f83d 85bc cebd 56ad 1a3f
00000380: d67d 8bbf f130 fc3e f88b a43e 27b3 8fbe
00000390: 7ffb febc 7f94 2d3f e1c1 333e 1b57 2cbf
000003a0: 3db6 5abe 0b38 89bc af34 dc3e 198b 47bd
000003b0: ccad 5f3e dadf 92bf 409f 963e 6b92 62be
000003c0: 00a1 83bd 7005 a6be 0b95 503e abdb 633c
000003d0: 5462 61be ece7 743d ace5 2bbe 712e 393f
000003e0: 9c42 003f ae66 a6be ffd9 60be 35e8 20be
000003f0: 1d58 4a3d aa81 7b3e f975 2f3b 6bc2 e3be
-0.29091072 0.23992586 -0.036447275 0.042355098 -1.1283976 0.20531808 0.47752982 -0.20486893
-0.44924045 -0.4020163 -0.10396677 0.31054363 -0.11380979 0.015519261 -0.6702248 -0.68883824
-0.0011107952 0.14802156 0.05681828 -0.7178014 0.2470328 0.06045138 0.5376332 -0.044861156
-0.19512239 -0.5306981 -0.4767858 0.018980786 -0.117486216 0.24176794 -0.37086564 -0.75847185
-0.25270855 -0.60080427 0.029328989 -0.3378905 0.0028682388 -0.32568625 0.040089864 -0.014499879
0.26424816 0.09300152 -0.5649005 -0.05359228 -0.18108898 0.09947532 0.10580533 0.7217273
0.16139881 0.18620667 -0.01482203 -0.068687595 -0.36716625 -0.285607 0.8375274 0.03889517
0.6687534 -0.49613127 0.20117632 -0.2449172 -0.5172363 -0.26811463 -0.90948105 0.13484709
-0.60911286 0.315045 -0.93602234 -0.8119315 0.14337713 0.2864364 -0.023603685 -0.083257124
0.0933395 -0.28470317 -0.19984905 0.28127557 0.033030167 0.409368 -0.31261536 -0.069122806
0.04877378 -0.31090322 -0.29845423 0.38565955 0.025813224 -0.0014953277 -0.20122883 -0.1915467
-0.9079581 0.2326853 -0.012751664 0.20714916 -0.23057954 -0.7912218 0.3707653 -0.19685219
0.14004387 -0.1648081 0.0014852032 -0.22429098 -0.6288983 0.18236978 0.26535642 0.44347486
-0.71128875 -0.27756327 -0.041649345 -0.055061847 -0.06704062 0.32604963 -0.14293261 -0.024565592
-0.8027769 0.12785769 -0.40749216 -0.4476813 0.15204346 -0.61249316 -0.79234284 0.16929737
-0.10278316 0.30431122 -0.7149905 -1.0222929 -0.52398896 0.05913005 -0.040903483 0.11433602
0.38838696 -1.1961055 0.16444962 -0.74956006 0.15014693 0.058113404 -0.21567284 0.06263366
0.005488406 0.37480775 0.074766174 -0.09087073 0.18946186 -0.16334453 -0.09196423 0.02091977
-0.6492977 -0.6126246 -0.82606363 -0.76237726 -0.8134874 -0.95677173 -0.6124566 -0.35171676
-0.22008029 0.15113312 -0.5344459 0.20435566 -0.45652115 -0.07668084 -0.24534735 0.109802075
-0.2796422 -0.044721402 0.17034526 0.31332695 -1.1860416 -0.09623545 0.00034541238 -0.64584017
-0.63284993 -0.7326387 -1.1896687 -0.73416775 0.41321397 -0.10763194 -1.005633 -1.070311
-0.1661701 -0.38536882 0.15379025 -1.4310443 0.17571154 -0.37131342 -0.015197111 -0.22838235
0.12400654 -0.20794578 -1.3059983 -0.043827213 0.28625998 0.82622325 0.26313218 0.2991892
0.15607388 -0.40133953 -0.086845264 -0.024372483 -0.6946742 -0.066318765 -0.3806129 0.26950717
-0.18994379 -0.12571764 0.670554 -1.1943566 -0.023778977 0.37191567 -0.051317614 -0.01666603
-0.5270011 0.22034131 -0.016679192 -0.90040696 0.09047375 0.57889163 -0.79215485 -0.540078
0.12860711 -0.08889107 -0.8054697 -0.7300443 0.47313994 0.12118364 -0.10094551 0.6042074
-1.0897777 0.4925609 0.32138038 -0.2806637 -0.031125782 0.6780471 0.17554428 -0.6732041
-0.21358581 -0.016750356 0.43008944 -0.04871664 0.21843642 -1.1474564 0.29418373 -0.22126167
-0.06427193 -0.32426023 0.20369355 0.013907353 -0.22010165 0.05979149 -0.16786832 0.7233649
0.5010164 -0.32500213 -0.21958159 -0.1571358 0.049400438 0.24561182 0.0026773198 -0.44484267

fc3.bias f4 [64]
00000000: 27fc 103e a723 e33d 5590 5d3e 0a9b adbc
00000010: ccf6 333e 155e 1c3e 672c c8bd e7c2 52be
00000020: 48be c8be 75de 3d3e 78fd 393f d572 fe3d
00000030: befe fa3d 1b3d 55bd fe78 623f 2b91 183f
00000040: 9c75 af3e 19ae 0d3f f8a0 13bf e10a 1cbd
00000050: e36b a63e fc40 5d3e 6aa4 7fbe ad90 71bc
00000060: a0b8 a4be 46b8 853e 5a6d 473e 906f a13e
00000070: de31 da3e 86be e63e 9580 a73e e975 66be
00000080: 33d1 253e fb4c e7be 062f eb3e b7c0 45bf
00000090: 472d 923e 0775 efbe f726 f23e 9051 f73e
000000a0: 782a f33d fb90 a33e d150 053f b7da 993e
000000b0: 44a4 e53e 8e8d 613e fc66 523e 3c78 0d3e
000000c0: 1819 6d3e b7b3 803b 0f8f c13e 73ce dc3e
000000d0: 7b01 413f 784b fc3d c335 aa3e 7007 b33d
000000e0: 5125 89bf e84f be3e 5839 4dbf 30e3 ad3e
000000f0: 6498 003f 6812 dd3d c72b e9be fa98 ab3e
0.14158688 0.110907845 0.2163709 -0.021192092 0.17574614 0.15270264 -0.09774094 -0.20582162
-0.39207673 0.18541892 0.7265239 0.12424246 0.122556195 -0.052060228 0.8846587 0.5959651
0.34269416 0.55343777 -0.57667494 -0.038096312 0.32504186 0.21606821 -0.24965063 -0.014743966
-0.32172108 0.26117152 0.19475308 0.31530428 0.4261617 0.45067233 0.32715288 -0.22505917
0.16193084 -0.4517592 0.45934314 -0.77247185 0.2855017 -0.46768972 0.47295353 0.48304415
0.11873335 0.3194655 0.5207644 0.3004968 0.44851887 0.22026655 0.20547098 0.13815397
0.23154104 0.0039276737 0.37804458 0.43126258 0.75392884 0.12319082 0.33244142 0.08741653
-1.0714513 0.3717034 -0.80165625 0.33962393 0.5023253 0.10794526 -0.45541212 0.3351515

fc4.weight f4 [32, 64]
00000000: e717 c03d 9395 033e 3208 1bbe 72bc 4fbf
00000010: 0026 86be c4a7 1abd b811 b93d b990 56be
00000020: dc19 7b3e 4020 953e 9f60 5cbc 690c 55bf
00000030: 8643 62bf 3bca 44bf c2e8 02be 7887 46bf
00000040: 0668 4cbe f2c9 79bf 3713 75bc 81a2 3abf
00000050: 541f 46bf 228d 5b3d 78b1 9abe 0bde 35bf
00000060: 8fb3 9f3e c4d6 c33b 390b 483e a8d0 0c3e
00000070: af39 6cbf a82b 14be 83d6 b2be 4ee7 543e
00000080: 340b e6bd 8dab 51bf 381b 1dbf 162b 043e
00000090: 9d78 65be b932 8d3e fcb5 b73d cc11 223f
000000a0: 4b22 113e 520f 40bf 20f5 8abf 57ea f03d
000000b0: 0b0d 87bd ac6e 2e3e c4ed 92bd 86dd 9c3d
000000c0: 34d8 283f 47a6 c23d 83c8 c6bf 0828 cbba
000000d0: 4414 7abf 404e 2dbe 4d75 083f 8181 2fbe
000000e0: ff6c 9d3d 997c 00be 6f12 23be caaa 553d
000000f0: 17fe 84bd 5d14 c3bc 65e3 e6bd 21f7 423d
00000100: b2de b1bc 9956 d43e 7ce9 e8bd 6054 a3be
00000110: b64d 1d3b e7d1 883c e3f8 dbbe 7019 5ebe
00000120: be64 19bd f8a5 aa3e 3a78 133c c62f 20bf
00000130: ca80 c1bf c836 4bbf e69c 593e d8b8 4bbd
00000140: dc0e 593e 7ad2 06be 25d1 423e 1d44 373e
00000150: 07e1 24be fa1e 0a3f 774d 6ebe 5ff0 1dbf
00000160: 90ea cc3d bf29 953e eb37 d83e ae7c 5c3e
00000170: c5e5 3bbe c8ef 8b3d a51b 983d c0ab 17be
00000180: c2e6 6a3c 5df7 3fbf c6e0 0cbf 5dd0 153f
00000190: c4fa 83be 02d7 c9bc 1947 df3c a97f bb3d
000001a0: f61f beba 0811 edbe 2062 96bd b439 ac3c
000001b0: ecaa 5a3d fe96 aa3e 49b1 023e 7bb4 f33e
000001c0: 12c8 0e3e 87a7 8f3d 805f 79be 025d 703e
000001d0: 530e a6bd 56e7 aebc 97ce 3a3e 48f2 14bd
000001e0: 75e8 25be 9b6b 713f 381b 2abe cb2b c63e
000001f0: 9ec2 f63d a384 e73d 5384 903e cfb0 4d3d
00000200: a26a bb3c 4705 1e3e 3acb 24bc b640 823d
00000210: 7d69 af3c ca23 34bd 79cc 4dbe 28a4 1f3e
00000220: bee3 7cbc e88b 49be 4372 24bf 9869 103d
00000230: 00b7 033e 7fe3 6d3d 164f a3bd 43d3 85bf
00000240: 2b06 1b3d dacc a2bf d30a 733e 803e 00bf
00000250: 6e83 5cbd baad 6f3d 6815 4b3e 154a a03d
00000260: 8cd6 333e abfb 073e 726e 83bc 187c 9e3e
00000270: a82f aabf 1b0a 4b3d 30a7 8ebf dde0 85be
00000280: 804a 973e d624 683e ae84 2dbd 7301 503e
00000290: c00d 58bf 5f95 a13e 032f 9cbf b0ba 95be
000002a0: 3434 bfbd cc16 7dbf c74b afbf c1ac f1bd
000002b0: 529c 55bd c994 be3d b33d 52bd 3081 c43e
000002c0: 1d3c 3d3d 5c8a 3f3e 38ac 48be 85cf 1c3d
000002d0: 51ca 84bf d938 a43d 5019 413c 84c1 8abe
000002e0: c80a c33e 1c57 85bd 30d3 26be 9294 63bf
000002f0: f802 7dbd 981a a13d c300 c53d f108 dcbe
00000300: fec2 13be ddf3 203f d829 a5bd ee6c e43e
00000310: 9e70 7cbf e8a4 063d 7b32 e6be 6adb ff3d
00000320: c5b5 43bd 1ba9 bbbd 4b57 1abf 003f 013c
00000330: 9117 1d3d ef68 723e 268d a83d c4dd 58bf
00000340: 42fb 853e 0a71 7d3d 6a9c 0bbd eb33 633e
00000350: 38b8 c33c ec6c 80ba f93e e63c ba8f 523e
00000360: 826c 1abd d243 8d3d adde 9d3f af1e 1d3e
00000370: 42b9 db3c cfec 9bbf 3309 69bd abab 753d
00000380: f718 4fbd 02b7 8c3e aa9c b33c 9cb2 debe
00000390: be2b 0cbf 5318 6e3e f3a8 ba3d c03c 72bf
000003a0: 2de7 2fbe e4fd 35be b0ac 363d 36cc 92be
000003b0: 9755 9abf 0e08 16bf 7996 acbf ca9b 3c3e
000003c0: dee7 eabe d37a 6ebd fed5 fd3e 6787 84bf
000003d0: 14ec b33d 14b0 37bf 1aeb 27bf ed15 a6bf
000003e0: 41b4 0a3e cc02 2fbd 1958 2d3e 9676 83be
000003f0: 26e8 81bf 24f6 d33d e16f 1bbf 2e96 00be
0.09379559 0.12850027 -0.15139845 -0.8114692 -0.26200867 -0.03775765 0.09036583 -0.20953645
0.24521583 0.29126167 -0.013450771 -0.8322206 -0.8838428 -0.7687108 -0.12784103 -0.7755046
-0.19961557 -0.9757377 -0.014958194 -0.7290421 -0.7739155 0.05360139 -0.30213523 -0.71041936
0.3119168 0.00597653 0.19535531 0.13751471 -0.9227552 -0.14469779 -0.34929284 0.2079136
-0.112326056 -0.8190239 -0.6136966 0.12907061 -0.22409292 0.2757776 0.08970258 0.63308406
0.14173238 -0.75023377 -1.0856056 0.11763447 -0.065942846 0.17034405 -0.071742564 0.0765944
0.659549 0.09504371 -1.5529941 -0.0015499601 -0.9768717 -0.16924381 0.53303987 -0.17139246
0.07686805 -0.1254753 -0.15925 0.05216483 -0.06493776 -0.02381342 -0.11273841 0.04759896
-0.021712635 0.4147232 -0.113726586 -0.3190031 0.0024002618 0.016701652 -0.42963323 -0.21689391
-0.03744959 0.3332975 0.009000832 -0.62572896 -1.5117428 -0.79380465 0.21251258 -0.049736828
0.21197075 -0.13166228 0.19025095 0.17897077 -0.16101466 0.53953516 -0.23271738 -0.616949
0.10005677 0.29133412 0.42230162 0.21531937 -0.18349369 0.06832844 0.07427148 -0.14811611
0.0143372435 -0.7498682 -0.5503048 0.5852106 -0.25777256 -0.024638657 0.027255582 0.091552086
-0.0014505375 -0.46302056 -0.073429346 0.021023609 0.05338566 0.33318323 0.12762941 0.47598633
0.13943508 0.07014375 -0.24352837 0.2347298 -0.08108201 -0.021350544 0.1824287 -0.03636387
-0.16201957 0.9430482 -0.16611946 0.38705286 0.12048839 0.11304595 0.28225955 0.050217446
0.022877995 0.154317 -0.010058219 0.06359999 0.021412605 -0.043979444 -0.20097531 0.15589964
-0.015435157 -0.19682276 -0.6423685 0.035256952 0.12862778 0.058078285 -0.07974069 -1.0455097
0.03784768 -1.2718766 0.23734598 -0.5009537 -0.05383628 0.058515288 0.19832385 0.0782663
0.17562312 0.13279597 -0.016043875 0.3095405 -1.3295794 0.049570184 -1.1144772 -0.2614812
0.29549026 0.22670302 -0.04236286 0.20313053 -0.8439598 0.31559274 -1.2201847 -0.29243994
-0.09336129 -0.9886291 -1.3695 -0.11800528 -0.05215103 0.09305722 -0.051328372 0.38379812
0.046199907 0.18705124 -0.19596946 0.038283844 -1.0374242 0.08018655 0.01178582 -0.27100766
0.38094163 -0.065107554 -0.16291499 -0.88898575 -0.06177041 0.078664005 0.09619286 -0.42975572
-0.14429852 0.62872106 -0.08064622 0.44614357 -0.9860934 0.03287211 -0.4496039 0.12493022
-0.04778077 -0.09163114 -0.6028945 0.0078885555 0.038352553 0.23672841 0.08230047 -0.8471339
0.26168257 0.06187538 -0.034084715 0.22187774 0.023891553 -0.0009798086 0.0281062 0.2056264
-0.037701137 0.06897701 1.233358 0.15343736 0.026821736 -1.2181643 -0.05689354 0.05997817
-0.050560918 0.27483374 0.02192529 -0.43495643 -0.54754245 0.23251466 0.09114256 -0.9462395
-0.1717803 -0.17772633 0.04459828 -0.28671426 -1.205737 -0.5860604 -1.3483421 0.18418804
-0.45880026 -0.058222603 0.49577326 -1.0353822 0.08785263 -0.7175305 -0.6559311 -1.2975441
0.13545324 -0.042727277 0.16928138 -0.2567641 -1.0148971 0.10349682 -0.6071759 -0.12557289

fc4.bias f4 [32]
00000000: e466 543e a0db f0bc 27a5 e53e db2a e63e
00000010: 0efb 0c3e 62ad 5f3e 380f ba3e cbb8 b63e
00000020: ce66 503e 1124 5a3e 7502 d23d 0c98 8b3e
00000030: 862d 0b3e f825 c1bc 1fa7 833e 2142 903e
00000040: 7086 e63d 07b8 75be 29ec 3e3f 55ce 093e
00000050: 5093 ce3e a2e7 923e 340b 2fbf ae85 f33e
00000060: 61e3 bf3e 09a2 ab3e 8c32 373d dbb4 a33e
00000070: 5f75 083f a8a1 913e a471 7e3e 6d5a d83e
0.20742375 -0.0294016 0.44852564 0.4495457 0.13767645 0.21843484 0.36339736 0.3568786
0.20351717 0.2130282 0.10254375 0.2726444 0.13591585 -0.023577675 0.2571344 0.28175452
0.11256111 -0.23995982 0.745791 0.13457616 0.40346766 0.28692347 -0.6837647 0.47562927
0.37478164 0.3352206 0.04472594 0.3197392 0.53304094 0.28443646 0.24848038 0.4225649

fc5.weight f4 [15, 32]
00000000: 7fe4 b6bf dc21 583b 22dd a7be 94c3 a6bb
00000010: 07ee 68be b6c2 43c0 dffd 0dba f3ee 923c
00000020: c39f 3abe c13c 77c0 7568 2ebc 7b83 3bbe
00000030: bc39 8f3e 969f 9dc0 a83f 92c0 0f56 96be
00000040: d275 3cbd 3cbf a5bf 36a5 f4be cc6e a3bf
00000050: 035f 24be 034e 64bf 553a 04c0 cb01 0dbe
00000060: e498 84bf 2b84 3bc0 5d2e 94bf 1b4b 0ebd
00000070: 2429 06be 3537 a2bd e085 6fbf a521 d7bf
00000080: af71 3dbf 6f32 e3bd 3f1c 87bf 5181 22c0
00000090: b8bf 53bf d182 273e da9e 19bf 382f 65bd
000000a0: 106e 10c0 23ae 853d ca38 d3be 8eb1 08bf
000000b0: 254e bbbd 834b 693e d3c6 463d c312 8dbe
000000c0: 80c6 babf 576d 5ebf 4da5 29c0 1d07 babd
000000d0: 9c08 7abe fd38 d33d 2bd7 803c 76ec 04bf
000000e0: 36bd 093e 582b bcbe f86c 183e 6b42 47c0
000000f0: 4b49 bdbe 7c53 cebe 2509 b5bd b6dc babf
00000100: 7f70 533e ee0b ba3d eff9 1dbf 8f3f 26c0
00000110: e70c 88bf 999d 18c0 baa0 283c 6598 513e
00000120: 5d09 22bf 27bf 81c0 50ba 50bf 262c d7bf
00000130: dc82 16c0 0ae0 5f3e 92a3 84c0 78d6 91c0
00000140: e1fb a63c 06c2 c13d 7e75 35c0 3451 533e
00000150: 6f82 7f3e eec0 263c 1f8d 58bf 6464 5bc0
00000160: 54d2 dbbf bd46 1bc0 37f2 f53d 6c35 06bf
00000170: 1a67 88c0 9506 98c0 f5d1 433d b246 f0bf
00000180: 1e44 f2bf b2d9 19c0 512b 0f3d e642 393d
00000190: c6fd 1ec0 70d6 d8bf afa5 6a3d b7eb 62be
000001a0: c558 f9bf 6d99 07c0 36f3 b93c f508 bebc
000001b0: ae3d 1ac0 87de 17c0 774e a4c0 e6bc 43c0
000001c0: c407 ecbf fc62 66bf 3d92 d13d 162e 38c0
000001d0: 3af0 7a3d 38da 2fbd 8134 24bf 7f48 f3bc
000001e0: ebc3 2fc0 305c 09c0 f940 9dbd 308f c43b
000001f0: b0f1 48be 8e4d 73c0 7d3f cbbd ce12 42bf
00000200: 5673 ce3d 3c14 193e 2f9d 373e 1fc1 49c0
00000210: e7db 383d c0f2 bcbf ba46 b1bf 48ad 503e
00000220: 396f ea3d c0be 5cc0 e09d 143e e1f8 32c0
00000230: 9c70 3cc0 aa83 87bf 67c4 1ec0 b017 33c0
00000240: bb0d ce3d 59a0 c1be 2929 2ac0 4449 4d3e
00000250: 9575 90bf 5b10 fcbf 13a3 253d 8cf5 84c0
00000260: d510 92bd 1754 a2bf c044 90bf 1de1 a53d
00000270: ba07 c7c0 b844 27c0 bc2c 4bbf 776d e7bf
00000280: 3ed2 283e ad7b 0f3d a108 1fbf 5212 a1be
00000290: 1d26 11bf bd71 90c0 193b b2bd b57b b23d
000002a0: a421 e3be 46cf acc0 a0d4 0bbe 526b 29bf
000002b0: ccff 06c0 69f6 163e c0aa ffc0 3de9 27c0
000002c0: 0804 afbc b56c 7c3d 877b 21bf 484d 533e
000002d0: 3b8b d43c 058a bcbe 34ae dabf 611c 0bbf
000002e0: ef7f d1bf 29a0 43c0 6218 6dbd ae58 9abe
000002f0: 25ce 6ebf 4988 23c0 a083 edbc 02b4 02c0
00000300: 6d79 aebe c304 703d 1f53 b9be 4dda b6bf
00000310: 4059 283e 0a0d 9c3d ca6d d0bf 34ce 81bf
00000320: 8f4f 16bf e71c 9ebf 3ccf b5bc 1180 743e
00000330: 0246 e8bf 45e7 b0bd 888e d7bf 0f75 0dbf
00000340: a276 cebe 6a8f 603e 50a7 21c0 c9f9 b0bf
00000350: e33e 30bf f9a0 7cc0 3059 453e a813 01bf
00000360: 4916 bbbf 1daa 7dbe f7c0 093d c6a6 0abf
00000370: c050 f9be efa3 b9bf e33c 80c0 8ed4 81bf
00000380: 3c44 2abd fff0 29bf 6291 403e 9ead 963d
00000390: 1f26 cbbe 5118 1abf 750e 15bf e520 abbf
000003a0: 8817 3bbf e4bc cf3d 4a63 6f3e 4443 cabd
000003b0: 66bd 35c0 bc45 ac3e f5c9 d1bf ce23 a1bf
000003c0: 2d0a 12bf 5154 873e f7e4 93bf 3b0e dfbe
000003d0: 73f1 933e 1868 a2bf cb14 6c3e a260 8d3e
000003e0: 1364 7abf 4830 6c3d f2c6 793e 2e5c 91bd
000003f0: 7ad8 b3bf 9586 9cbf 9a29 01c0 e775 7cbc
-1.4288481 0.0032979166 -0.32785898 -0.0050892327 -0.2274705 -3.0587592 -0.0005416553 0.017936205
-0.18225007 -3.8630831 -0.010645022 -0.18311875 0.27973735 -4.9257307 -4.5702705 -0.29362532
-0.0460108 -1.2948985 -0.47782296 -1.2768188 -0.16051869 -0.89181536 -2.0660603 -0.13770215
-1.0359159 -2.929942 -1.1576649 -0.034739595 -0.13101631 -0.07920686 -0.9356365 -1.6807142
-0.7400159 -0.11093604 -1.0555495 -2.5391428 -0.82714415 0.16358496 -0.60008013 -0.055953234
-2.2567177 0.065273546 -0.41254264 -0.53395927 -0.09145764 0.22782712 0.048529457 -0.27553377
-1.4591827 -0.8688559 -2.6507142 -0.09083388 -0.24417347 0.10313604 0.0157276 -0.5192331
0.13451084 -0.3675182 0.14885318 -3.1134288 -0.3696998 -0.4029807 -0.08839635 -1.4598606
0.20648383 0.09084307 -0.61709493 -2.5976293 -1.0628937 -2.384619 0.010292226 0.2046829
-0.6329554 -4.054584 -0.8153429 -1.6810348 -2.351737 0.21862808 -4.144967 -4.5574303
0.020383777 0.09460835 -2.8352962 0.20636445 0.249521 0.010177834 -0.84590334 -3.4280024
-1.7173562 -2.4261925 0.120090894 -0.52425265 -4.2625856 -4.7508035 0.047807653 -1.8771574
-1.8927038 -2.403912 0.03495342 0.045229815 -2.484239 -1.6940441 0.057286914 -0.2216023
-1.9480215 -2.1187394 0.02269898 -0.02319763 -2.4100146 -2.372957 -5.134578 -3.0584044
-1.843987 -0.8999479 0.10232971 -2.8778129 0.061264254 -0.04293272 -0.64142615 -0.029697655
-2.746333 -2.1462517 -0.07678408 0.0059985146 -0.19623446 -3.8016086 -0.09924219 -0.75809944
0.10080592 0.14949125 0.17931055 -3.1524122 0.04513159 -1.4761581 -1.3849709 0.20378602
0.11446995 -3.4491425 0.1451335 -2.7964404 -2.9443731 -1.0587056 -2.4807374 -2.7983208
0.10061213 -0.37817648 -2.6587622 0.2004748 -1.1285883 -1.9692491 0.040438723 -4.154974
-0.07132117 -1.2681912 -1.1270981 0.080995776 -6.219693 -2.6135693 -0.79365134 -1.8080281
0.16486451 0.035030056 -0.6212254 -0.3145929 -0.5669878 -4.513884 -0.08702678 0.087150015
-0.44361603 -5.400302 -0.13655329 -0.6617938 -2.1093626 0.14742436 -7.9895935 -2.6236107
-0.021364227 0.06162711 -0.6307911 0.20634949 0.025945297 -0.3682405 -1.7084413 -0.5434018
-1.6367167 -3.0566504 -0.05788458 -0.30145782 -0.932833 -2.5551932 -0.028993428 -2.0422368
-0.34077016 0.05859829 -0.3619623 -1.428537 0.16440296 0.076196745 -1.6283505 -1.0141053
-0.58715147 -1.235257 -0.022193544 0.23876978 -1.8146365 -0.08637861 -1.6840372 -0.5525674
-0.40324885 0.21929708 -2.525837 -1.3826228 -0.6884596 -3.947325 0.19272304 -0.5042062
-1.4616176 -0.24771924 0.03363129 -0.54160726 -0.4869442 -1.4503154 -4.0074325 -1.0142992
-0.04156898 -0.66383356 0.18805459 0.073573336 -0.39677522 -0.60193354 -0.58225185 -1.3369414
-0.7308278 0.1014345 0.2337772 -0.09876111 -2.839685 0.33646953 -1.6389757 -1.2589052
-0.57046777 0.26431516 -1.155425 -0.43565544 0.2889515 -1.2688017 0.23054807 0.27612787
-0.9780895 0.057663232 0.24392298 -0.0709766 -1.4050438 -1.2228571 -2.0181642 -0.0154089695

fc5.bias f4 [15]
00000000: 0781 18bf bc26 1bbe 2d35 cdbd e73e 993f
00000010: 2343 bebf 7078 8abf d882 8cbf 475d c9c0
00000020: 1274 c23e 87fc 413f fd24 e9be 0a4e 183f
00000030: 80d9 c53c 8bda a3bf 6a2e 51bf
-0.5957188 -0.15151495 -0.10019908 1.1972321 -1.4864239 -1.0818005 -1.097743 -6.2926364
0.3797918 0.7577595 -0.45536032 0.5949408 0.024151564 -1.2801069 -0.8171145
