DNN/models/final_model.pt (torch, 851140 bytes, 26 tensors)

fc1.weight f4 [512, 64]
00000000: e3ed 88bd 3538 4dbd 2e3e 0fbd 7088 fd3c
00000010: 870a 1fbb d242 bc3d f327 94bc 6ac6 303c
00000020: c175 483d 68ea 74bc 6d24 a03d b039 233e
00000030: a625 6ebd 23a0 803d 6310 90be 4900 b1bd
00000040: 45f4 5b3e 6dae 5f3e e377 90be 56bc 003e
00000050: 3228 e7bd 408d 223d 9e4f 583d 2de2 debc
00000060: 8253 11bd c88d e2bc 2d2a 9f3b ad3c 99bd
00000070: 73e8 233d a2dd 15be 68c7 653d 6a97 62bd
00000080: ca1e 82bc d278 a9bc 2c45 443e 649b 343d
00000090: cb4b 34bd 5868 783c 9cc6 e4bc e2c3 d0bd
000000a0: 19b6 1cbd bc52 933d e317 8b3b f188 66bb
000000b0: 6447 813c d622 403d 58eb 24bd 51e4 ca3c
000000c0: dc81 953d 7772 423e be17 42bd 5ed3 d13d
000000d0: a5e1 013e e742 34be cd4e e2bc b827 293e
000000e0: 65a9 61bd 986a 24bd 73b6 613e 01ef e13d
000000f0: b0be 22bc ce68 833d 0008 f73d ac87 583d
00000100: 7c81 12bd 24f9 09bc c91f bbbd b0fa 543d
00000110: 4fe0 c93c 5251 2ebd 2481 d7bd cb22 7b3d
00000120: 7e6d b73d 67c2 063e c062 03bc 56b5 2cbc
00000130: 9609 3fbb 2b5f 2cbc f1bf 1abe b23f 80be
00000140: ec02 0b3d 43b9 b7bd cb52 f73c af59 0dbc
00000150: b28e 063d 9576 263d 2ba2 6cbe 6884 f93b
00000160: 3c0f aa3d 4e62 d4bc 4c49 44bd b663 253d
00000170: 44ed 663d c241 823d 3ae0 8abc e163 493d
00000180: 0950 d43d f153 b03a 7a46 e0bd 5b01 85bd
00000190: a808 68bd 9cda 313d 718a 1dbd ce8f 78bd
000001a0: e760 b7bc 861b a63d fc07 89bd cbdb 463b
000001b0: 0134 3dbe a37d efbd fd29 c83d 7bb6 673d
000001c0: 7f9b 84bd 7bf1 0dbe f033 e4bd c3c8 bbbd
000001d0: 4a23 9a3c 49a6 9fbb ed15 b1bd abb2 aebd
000001e0: e920 a5bd 4218 39be 2b91 283b 2581 c73e
000001f0: eb67 00bf fd2f 793d b008 7e3c 141b 3d3d
00000200: a90c 283d 3447 433d f898 7a3d 410f d03c
00000210: 2b20 d6bd db13 9a3b a27c 5bbc 9c9e 7cbb
00000220: 6db6 24bd 15d1 b5bd bc5a 83bd 1b6c 13bc
00000230: 7661 aa3c 4fbb 803d 731b 8cbd 1804 efbc
00000240: ca99 59bd dacf cfbd 9185 92bd fc1e 3cbe
00000250: 325d 32be b225 723e 1ba2 0b3e 70dc e8bb
00000260: 123e 23bc 36ec bcbd 83ac f23c d46a a23c
00000270: aa0b 7e3d 6388 c73d 347c e6ba abb1 213d
00000280: 55ac 463e 5379 2dbb 3b86 3b3c ebe5 1ebd
00000290: 11b1 e33c cc70 4e3b 6814 523d cbcc 08bd
000002a0: c2df 82bd a6d6 08bc 2ce6 d73b fb8e 533d
000002b0: 1f4e 1b3c d3b5 62bc 280e f73d 27e0 893c
000002c0: c519 0cbe 5671 4ebe d6e0 1a3e 06be 31be
000002d0: 6a1e 1d3e ce70 953d 6710 91be a28a 613c
000002e0: d595 ef3d 9a60 133e d838 e3bd 5d94 1fbd
000002f0: a2d8 ccbc 705d 9dbc 4861 7dbd 6f0f 34bc
00000300: 95fb eb3d c761 4ebe cf68 463d 52c9 1f3e
00000310: 8acb 3c3d 167e b4bd 5a56 9dbd 9745 18bd
00000320: f776 ef3c 1515 263d d5c5 693d f3a8 333d
00000330: 5b43 9bbd cd94 1abd 81e7 893b 78ee bdbd
00000340: e508 21bd 989c eebd f1ab 7bbe b708 72be
00000350: a630 fd3d 810f b13d 51b7 2f3e d3d1 083d
00000360: cf3f 953d a271 9ebd 1b7d b4bb 46a6 b93d
00000370: aa7f c23d 3626 263c 00ba e6bc 0944 aa3d
00000380: 6131 afbd b9b5 883c 957b 3d3d c7ec bd3c
00000390: 3910 7bbd ff8d 5d3d f7ff 28bc 6df7 853d
000003a0: d2fc 43bd 9835 2cbd 056c ba3d df26 bd3c
000003b0: 2933 e13c 45b1 88bd f421 7e3d bb74 3bbd
000003c0: f3e1 86bd b626 1cbe b5ae 82bd 8e88 cfbd
000003d0: 0fb8 503e 426c 953d d6e9 f93c 4f5c 2e3d
000003e0: 2f5d 6dbd 83e4 5ebe e8a7 af3e a3ed 193e
000003f0: 4603 15bd a893 5bbd 22fb 1e3d 4b2f 0dbc
-0.06685998 -0.05010243 -0.03497141 0.030948848 -0.002426775 0.091924325 -0.018085456 0.010789493
0.048940424 -0.014948465 0.07819448 0.15939975 -0.058141373 0.06280544 -0.28137502 -0.086426325
0.214799 0.21843882 -0.28216466 0.12571844 -0.112869635 0.039685488 0.052810304 -0.027207458
-0.03548003 -0.027655497 0.0048573227 -0.07482276 0.040016603 -0.14635327 0.05609837 -0.05532018
-0.015883822 -0.020687494 0.19167012 0.044093505 -0.044017594 0.015161596 -0.027926736 -0.10193612
-0.0382596 0.07193515 0.004244791 -0.0035176838 0.015781112 0.046908222 -0.040263504 0.024767073
0.07300159 0.18988977 -0.047385924 0.10245393 0.12683733 -0.17603646 -0.027625466 0.16519058
-0.055093188 -0.04014072 0.22042255 0.110319145 -0.009933159 0.06416474 0.12062073 0.05286376
-0.035768017 -0.008421216 -0.09136922 0.051996887 0.024643091 -0.04255802 -0.105226785 0.061312478
0.08956431 0.13160096 -0.008019149 -0.010541281 -0.002915 -0.010520737 -0.15112282 -0.25048596
0.033938333 -0.08970883 0.030190846 -0.008627339 0.03285093 0.040640432 -0.23108737 0.007614661
0.08303687 -0.025925782 -0.047921464 0.040378295 0.056378618 0.063601986 -0.016952623 0.049167518
0.10366828 0.0013452751 -0.10950942 -0.06494399 -0.05664888 0.043421373 -0.038462106 -0.060684018
-0.022385074 0.081107184 -0.06690976 0.003034341 -0.18476869 -0.11693885 0.09773634 0.05657051
-0.06474971 -0.13861649 -0.11142719 -0.09169152 0.018815655 -0.0048721177 -0.0864676 -0.08530172
-0.08062918 -0.1807566 0.0025721292 0.38965717 -0.50158566 0.06083678 0.015505001 0.0461684
0.0410277 0.047675326 0.06118104 0.025397899 -0.10455354 0.004702074 -0.013396414 -0.0038546687
-0.040213037 -0.0887777 -0.064137906 -0.008997942 0.020798426 0.06285726 -0.06841173 -0.029176757
-0.05312518 -0.101470664 -0.07154382 -0.18371195 -0.17418364 0.23647192 0.13636057 -0.0071063563
-0.009963529 -0.09224741 0.029623276 0.01982633 0.062022842 0.097428106 -0.0017584623 0.039476078
0.19401677 -0.002647002 0.011445577 -0.038793486 0.027794393 0.0031500338 0.051288992 -0.03339843
-0.06390335 -0.008351957 0.006588718 0.05165003 0.009479075 -0.013837296 0.12063247 0.016830517
-0.13681705 -0.20160422 0.1512483 -0.17357644 0.15343633 0.072969064 -0.28332826 0.013765963
0.116985 0.1439232 -0.110948265 -0.03895985 -0.025005642 -0.019209594 -0.061860353 -0.010990008
0.11522595 -0.20154487 0.048439797 0.15604141 0.046092547 -0.088131115 -0.07682486 -0.03717574
0.029231532 0.04054745 0.057073433 0.043862294 -0.075812064 -0.037739564 0.0042085056 -0.09274
-0.039315123 -0.11650962 -0.24577309 -0.23636137 0.123627946 0.08645535 0.17159773 0.03340323
0.07287561 -0.077365175 -0.005508078 0.09064917 0.09497006 0.010140946 -0.028164864 0.08313758
-0.0855434 0.016688215 0.046260435 0.023184193 -0.061294768 0.054090496 -0.010314933 0.06541333
-0.04784853 -0.0420433 0.09102634 0.023089824 0.027490215 -0.066744365 0.0620441 -0.04576562
-0.06586065 -0.15249142 -0.06380979 -0.101334676 0.20382713 0.07296039 0.03050701 0.0425685
-0.057950195 -0.21766858 0.3430779 0.15032057 -0.036380075 -0.053607613 0.038813718 -0.008617233

fc1.bias f4 [512]
00000000: 4657 b635 2d03 98b7 0392 08b7 90db d4b6
00000010: aedc d3b5 e704 dab6 3d5f 1137 b4f8 56b6
00000020: 3c9b 7335 ccd3 b5b6 11b6 c936 7f5e b138
00000030: 2bac 5635 069f bc34 3693 75b5 5566 c937
00000040: e455 2c37 d08e 7237 efa7 5537 1e83 3135
00000050: 0325 96b6 c0a2 b136 c416 c6b5 9a3e 5636
00000060: 1107 12b8 0762 a9b6 bafb 7337 3eba acb7
00000070: 18ac 1637 eb4f da37 3aed ccb4 9ee9 1db6
00000080: 9dff 4c36 af0e 7d36 4822 1f36 6e0a db36
00000090: fac7 bbb6 6443 2237 4636 6eb6 f249 efb5
000000a0: 8c4f dab7 a3e8 7bb7 d009 5b37 f3b0 20b8
000000b0: ea7a 5f37 f10b a336 9407 6136 7458 c3b6
000000c0: 6ba9 6337 c603 d636 cd3a 8636 9730 6a37
000000d0: 8490 9bb6 9d60 1c35 28d1 9937 a468 8c36
000000e0: 057a 4637 45d5 5736 b0a2 8136 a0e5 8836
000000f0: 24a4 74b7 6881 7335 bbb6 7536 4000 8fb7
00000100: aeb4 52b7 c410 ad36 0f08 42b8 0488 8bb4
00000110: 68bc 2035 9062 5b36 8886 8bb6 a490 2b36
00000120: 20a4 63b4 2a36 c3b7 5047 0538 008c 49b4
00000130: 6484 1a36 2a49 14b6 ee86 8335 f1d0 a2b7
00000140: 9c0c a0b6 9f83 7db6 22c5 f3b6 b54f 9835
00000150: fe31 9736 ead1 ac36 24ff 9c38 a629 4b37
00000160: acd4 98b6 ad6d e0b7 86a8 e3b6 f32e 1fb6
00000170: 0e01 b235 a7cb 0eb8 5497 f0b6 544b c535
00000180: b77a b436 a49b 4d36 ff36 0838 8166 c5b7
00000190: f24e 5035 12e1 ac36 62bb 5fb8 0c4c 01b7
000001a0: b831 a7b5 bb0c 02b8 86ca abb4 1492 9cb6
000001b0: a7e0 06b7 ce99 8f37 54a2 8db7 e9a2 8436
000001c0: 2aa6 2537 c427 5836 86ee 4fb7 120b 51b7
000001d0: 61f5 a5b7 c144 be36 315f 4b36 4a65 18b7
000001e0: 9b47 e2b5 a392 ee36 64f7 4cb6 a27f 0bb5
000001f0: 9f71 ee36 d0f6 17b4 1650 9a37 b83d f5b6
00000200: 44c6 1cb6 ee1a a3b8 dc34 c3b4 8c5d 4a37
00000210: 907a 6eb5 7ce4 6cb8 0c2c 5a36 9e82 71b6
00000220: 2cbe e835 dce1 32b7 3bbe 0134 5cdc 8bb7
00000230: 74d0 14b8 4020 8cb6 fd63 3136 d600 cfb7
00000240: 4279 8536 9261 1fb7 3b32 09b5 37b4 00b7
00000250: f917 1937 d722 aab5 a5ca 3237 6c64 2436
00000260: d597 b035 7ed4 8237 6c0f 53b7 9439 ce34
00000270: ba55 1ab8 d4f2 3337 405a aa38 d8d3 c836
00000280: c0f6 f1b6 5442 92b5 6eab 2a38 406f 4eb6
00000290: 7aa1 c0b7 3d73 d236 e42b a335 dce7 d434
000002a0: ed1a 0038 99bb 8737 bfa6 87b6 fcb5 89b6
000002b0: f603 9336 be1c 0136 cb3d 8d36 3cc3 8836
000002c0: 51c9 deb7 6699 33b6 1e99 af35 bcca ce36
000002d0: 956c 8737 56a4 5b36 f2eb e8b4 6b2c d4b7
000002e0: 8ad5 9cb7 b9bf 1036 683a a936 a489 7c36
000002f0: 2436 8fb3 8cc5 d6b6 a9e9 10b6 ea56 4137
00000300: 573f 16b8 52c8 60b7 76ae abb5 84cf 9536
00000310: a37e 03b7 ee53 2336 48bd 3db6 70a9 b1b6
00000320: d2f7 ae36 0654 9237 8933 e437 1c78 2137
00000330: ea40 dcb7 b488 4736 53d1 4437 b28b 0a35
00000340: 3a0d 0438 a612 f1b5 9011 5f37 52cb 39b7
00000350: 2bb0 08b6 62bd 27b6 9195 1638 ecbe 51b7
00000360: 2089 11b7 d753 b337 ca25 e937 0105 afb5
00000370: 26bb 3cb6 acb1 01b6 e673 4c36 ca14 13b7
00000380: e854 8937 8b36 73b6 ce64 a4b7 a8c4 19b7
00000390: 30de bab7 2bf9 f237 423a 9037 cf1f bc38
000003a0: fed8 37b7 f78f 13b7 e549 04b7 b065 7335
000003b0: 0a4d 3db7 fbb8 8636 df4c ee37 7d58 b936
000003c0: 9664 44b6 50a2 de34 d93e 5937 9f35 fb35
000003d0: 32a7 5937 ce1c e2b8 e2d5 d535 2829 5937
000003e0: eed4 d7b6 c045 38b7 1d98 b4b7 a4f3 d836
000003f0: dd53 9f37 94a6 0fb5 d278 3fb4 37df a738
1.3585457e-06 -1.812129e-05 -8.140228e-06 -6.343653e-06 -1.5784951e-06 -6.497477e-06 8.664848e-06 -3.203325e-06
9.075045e-07 -5.4188768e-06 6.011462e-06 8.457619e-05 7.997175e-07 3.5133434e-07 -9.148383e-07 2.400872e-05
1.0271997e-05 1.4457575e-05 1.2734889e-05 6.612844e-07 -4.474657e-06 5.2939577e-06 -1.4758775e-06 3.1924924e-06
-3.4815694e-05 -5.0480044e-06 1.4542538e-05 -2.0590724e-05 8.980765e-06 2.602484e-05 -3.8170566e-07 -2.3530806e-06
3.0547155e-06 3.7708485e-06 2.37128e-06 6.527923e-06 -5.5963146e-06 9.671643e-06 -3.5496355e-06 -1.7828409e-06
-2.6024667e-05 -1.5014931e-05 1.3055702e-05 -3.831177e-05 1.3320454e-05 4.8591687e-06 3.3532024e-06 -5.82175e-06
1.35697e-05 6.3781363e-06 4.0003565e-06 1.39588e-05 -4.636184e-06 5.825512e-07 1.8336417e-05 4.184507e-06
1.183013e-05 3.2161636e-06 3.863439e-06 4.0798477e-06 -1.458175e-05 9.0712865e-07 3.6614208e-06 -1.7047045e-05
-1.2559043e-05 5.1577535e-06 -4.626071e-05 -2.5989732e-07 5.987881e-07 3.2690914e-06 -4.1581843e-06 2.5565178e-06
-2.1200731e-07 -2.3271034e-05 3.1776086e-05 -1.8770515e-07 2.302485e-06 -2.2096306e-06 9.79953e-07 -1.94092e-05
-4.7698395e-06 -3.7776551e-06 -7.2649136e-06 1.134808e-06 4.5059705e-06 5.1504367e-06 7.486183e-05 1.210944e-05
-4.5547113e-06 -2.6753953e-05 -6.784746e-06 -2.3720174e-06 1.326234e-06 -3.4045104e-05 -7.1701743e-06 1.4699567e-06
5.378704e-06 3.0637975e-06 3.2476146e-05 -2.3531962e-05 7.760092e-07 5.152201e-06 -5.3341857e-05 -7.706705e-06
-1.245694e-06 -3.100627e-05 -3.1998587e-07 -4.666168e-06 -8.039328e-06 1.711855e-05 -1.68841e-05 3.952872e-06
9.8734545e-06 3.2209655e-06 -1.2393697e-05 -1.2459948e-05 -1.9783796e-05 5.6704453e-06 3.0304766e-06 -9.083489e-06
-1.6859152e-06 7.1100235e-06 -3.054237e-06 -5.1967265e-07 7.10618e-06 -1.4152761e-07 1.8395524e-05 -7.308754e-06
-2.3361217e-06 -7.777462e-05 -3.636004e-07 1.2061919e-05 -8.884026e-07 -5.6479577e-05 3.251017e-06 -3.5987828e-06
1.7340694e-06 -1.0662214e-05 1.2083267e-07 -1.6672704e-05 -3.5480087e-05 -4.1760795e-06 2.6433256e-06 -2.4676712e-05
3.977825e-06 -9.499856e-06 -5.110957e-07 -7.671354e-06 9.125092e-06 -1.2676127e-06 1.0656809e-05 2.4496358e-06
1.3157211e-06 1.5596157e-05 -1.2580171e-05 3.8412384e-07 -3.67963e-05 1.0725769e-05 8.123042e-05 5.9851263e-06
-7.211085e-06 -1.0897152e-06 4.0690815e-05 -3.0761148e-06 -2.2963377e-05 6.271903e-06 1.215722e-06 3.9656777e-07
3.0542655e-05 1.6180611e-05 -4.0427253e-06 -4.104104e-06 4.3814025e-06 1.9239228e-06 4.209321e-06 4.075844e-06
-2.6558208e-05 -2.6762368e-06 1.3083079e-06 6.16288e-06 1.6143817e-05 3.27292e-06 -4.338504e-07 -2.5293053e-05
-1.8696086e-05 2.156927e-06 5.043392e-06 3.7631044e-06 -6.6688045e-08 -6.4006945e-06 -2.159368e-06 1.1523933e-05
-3.5821777e-05 -1.3398081e-05 -1.2791268e-06 4.464704e-06 -7.837693e-06 2.4337746e-06 -2.827337e-06 -5.294736e-06
5.214454e-06 1.7443683e-05 2.7203716e-05 9.624313e-06 -2.6256272e-05 2.9732882e-06 1.17312475e-05 5.161229e-07
3.148357e-05 -1.7961327e-06 1.3295925e-05 -1.10741985e-05 -2.0368122e-06 -2.4995174e-06 3.590208e-05 -1.2501823e-05
-8.6746e-06 2.1377504e-05 2.7793361e-05 -1.3039972e-06 -2.8123118e-06 -1.9325917e-06 3.046583e-06 -8.766723e-06
1.637121e-05 -3.624157e-06 -1.9597264e-05 -9.165298e-06 -2.2276392e-05 2.8964676e-05 1.7193266e-05 8.9704634e-05
-1.0958172e-05 -8.795402e-06 -7.885018e-06 9.067253e-07 -1.1283215e-05 4.0150458e-06 2.8407607e-05 5.523731e-06
-2.9264825e-06 4.146882e-07 1.2948841e-05 1.8716563e-06 1.2973136e-05 -0.00010781885 1.5931985e-06 1.294379e-05
-6.4322876e-06 -1.0983495e-05 -2.1528505e-05 6.465665e-06 1.8993329e-05 -5.3514054e-07 -1.7832215e-07 8.0047575e-05

bn1.weight f4 [512]
00000000: 1a3d 563f e8a5 833f 7141 423f 9c44 493f
00000010: e14e 043f 2d3a 3c3f 17e5 433f d490 673f
00000020: c0e7 423f 9209 2a3f dede 3c3f 3854 903f
00000030: eb51 403f 4253 1b3f 8b25 493f 6299 6f3f
00000040: 0972 3a3f 222e 273f c416 3d3f 4c39 703f
00000050: 4eb6 623f b796 313f e954 463f 9487 133f
00000060: 7ab6 833f 1cd0 4c3f 9928 803f 59f4 523f
00000070: 9872 673f 0cce 713f 59b0 203f e77d 133f
00000080: e351 613f 50c7 4c3f 060a 213f 1b77 683f
00000090: eed7 693f 3602 773f f1b2 3b3f eed6 403f
000000a0: 2c73 8f3f 4dae 6d3f 0844 5e3f ed3b 933f
000000b0: 168b 7c3f 6098 863f 9d17 4c3f 6a76 5a3f
000000c0: 0896 593f 77fd 983f ed2d 303f 31e9 873f
000000d0: 4633 5d3f c790 603f 9b97 673f f519 343f
000000e0: 685d 4b3f e0e3 313f bbd4 7b3f e03a 373f
000000f0: 590f 5d3f 33c6 823f a03e 443f 5fde 853f
00000100: 2367 493f ba50 763f 50e2 873f aee6 543f
00000110: 50ed 7b3f f280 283f eb65 0d3f fb4f 3a3f
00000120: fcbb 043f 3f7f 703f 19ca 713f 4d62 603f
00000130: a0f0 483f df8b 333f bff0 253f 6156 423f
00000140: ca61 4a3f fff4 533f bc91 433f 86f1 423f
00000150: d21a 253f a708 3b3f 3d13 993f f15b 813f
00000160: c8f6 683f 5aa2 5b3f 1323 173f 2854 453f
00000170: f804 423f 3165 813f 018b 903f 5df2 2a3f
00000180: ba78 563f ba1b 633f 40a8 903f b38c 3d3f
00000190: cf57 2f3f 3a11 703f 2fab 653f ed2e 603f
000001a0: 819d 513f 943a 893f 95e1 3b3f 81de 3c3f
000001b0: 73eb 423f e2e8 333f dce3 313f 4c87 393f
000001c0: a71f 2c3f 2047 373f 2246 7c3f 2dbe 1b3f
000001d0: c9ef 853f 2541 6c3f 7b97 263f 7011 6f3f
000001e0: 319e 3d3f 1269 513f 276a 283f 9c39 5f3f
000001f0: 735b 313f 509f 493f bc66 483f 1e5f 2b3f
00000200: 838f 6a3f bf24 853f 3cf1 443f ce57 343f
00000210: 2afe 303f 9aec 813f 5dcf 2f3f 8784 683f
00000220: 2390 8c3f 30eb 663f 9c88 5e3f 1cec 5a3f
00000230: 4826 873f 8886 433f 709e 5a3f adc8 593f
00000240: ad6b 493f 8dc6 3f3f 0ed8 713f b366 603f
00000250: 8476 6d3f 6ddf 303f c737 4a3f 5b22 6c3f
00000260: 225a 293f 5f75 4b3f c4e7 673f e1d5 293f
00000270: 8e9d 873f ca06 613f 0117 853f 7b6e 583f
00000280: 4f0c 543f 1336 2d3f c6a0 853f 93ac 503f
00000290: 3343 5c3f 0bbb 633f 5580 223f f61d 403f
000002a0: a11b 8d3f 7467 623f 9028 583f c939 833f
000002b0: e2df 3e3f 4622 4e3f 141c 3f3f 0607 3c3f
000002c0: 4300 743f 7c2b 433f cc97 2d3f e2ef 493f
000002d0: 5119 8e3f 8703 413f 90fc 483f 8ce8 853f
000002e0: bca0 563f 64b7 453f 7207 583f 5e88 633f
000002f0: cf2e 183f 16c2 823f 4984 443f 0e51 593f
00000300: 68b4 453f ab0f 873f de24 773f 40de 813f
00000310: 91ce 773f 8506 8a3f 706d 533f 928a 153f
00000320: 2b2c 3f3f db95 5d3f cc98 313f 19c2 9c3f
00000330: 1b60 863f 9fb9 2f3f 9980 5e3f 327e 413f
00000340: 803c 803f 463e 623f 471b 5b3f 278a 853f
00000350: cef1 273f dac7 273f ad08 833f da97 6c3f
00000360: 6ad6 4f3f 3e7e 6e3f d94b 873f 5ea0 553f
00000370: e958 3a3f 504e 373f 8b76 113f 9b63 2d3f
00000380: d8f9 903f d103 2c3f c83f 633f 5e2b 343f
00000390: f5cc 4f3f 9992 763f d3e3 743f 499f 6b3f
000003a0: adf3 5f3f 51dc 803f aa3e 803f 7647 703f
000003b0: 34a6 4a3f 4533 523f a3ec 543f 9acd 3b3f
000003c0: fadd 453f c80c 773f 383e 3d3f 2f42 743f
000003d0: a7f8 593f b661 8e3f 903c 503f 71a6 6e3f
000003e0: b1aa 413f e012 553f f480 7e3f 7943 4c3f
000003f0: 1e7b 8f3f d7d0 363f 2a60 093f 0ce4 6e3f
0.83686984 1.0285006 0.75881106 0.78620315 0.5168286 0.7352627 0.7652144 0.90455365
0.7613487 0.66420853 0.7377757 1.1275702 0.75124997 0.60673916 0.7857291 0.9359342
0.72830254 0.6530477 0.7386286 0.9383743 0.88559425 0.693706 0.7747331 0.5762875
1.0290062 0.8000505 1.001239 0.82404095 0.9040923 0.9445503 0.62769085 0.57613987
0.88015574 0.79991627 0.6290592 0.9080674 0.9134511 0.9648775 0.7331992 0.75327957
1.1207023 0.92844087 0.8682256 1.1502663 0.9864973 1.0515251 0.7972353 0.85336936
0.84994555 1.1952351 0.6882008 1.0618039 0.8640636 0.8772091 0.90465707 0.7035211
0.794394 0.69488335 0.98371476 0.7157421 0.86351544 1.0216736 0.7665806 1.0458487
0.78673 0.9621693 1.061594 0.8316449 0.98408985 0.65821755 0.5523364 0.7277829
0.5184934 0.9394416 0.94449 0.87649995 0.78492165 0.701353 0.64820474 0.75913054
0.79055464 0.8279571 0.7639425 0.76149786 0.6449405 0.7306008 1.1958996 1.0106183
0.9100156 0.85794604 0.59037894 0.7708154 0.7578883 1.0109006 1.1292421 0.66776067
0.83777964 0.8871418 1.1301346 0.74042815 0.6849336 0.93776286 0.8971433 0.87571603
0.81880957 1.0721002 0.73391086 0.73777014 0.76140517 0.70277226 0.6948831 0.7247207
0.672358 0.71592903 0.98544514 0.6083706 1.0463802 0.922869 0.6507489 0.9338598
0.74069506 0.8180095 0.65786976 0.8719728 0.69280165 0.78758717 0.7828176 0.6694201
0.9162523 1.0401839 0.76930594 0.7044648 0.69137824 1.015033 0.68675786 0.9082722
1.0981487 0.9020262 0.869272 0.85516524 1.0558558 0.76377153 0.85398006 0.8507183
0.78679925 0.7491234 0.944703 0.87656707 0.92758965 0.6909092 0.7899136 0.9223992
0.66153157 0.7947597 0.9058802 0.6634198 1.0594957 0.87900984 1.0397645 0.8454358
0.8283128 0.67660636 1.0439689 0.8151333 0.8604004 0.8895728 0.6347707 0.75045717
1.1024057 0.88439107 0.84436893 1.025201 0.7456037 0.8052105 0.7465222 0.73448217
0.953129 0.76238227 0.6780975 0.7888166 1.1101476 0.7539601 0.7851038 1.0461593
0.8383901 0.77232957 0.8438636 0.88879955 0.59446424 1.021548 0.7676435 0.84889305
0.77228403 1.0551656 0.9654063 1.014595 0.9679957 1.078324 0.82588863 0.58414567
0.7467677 0.86556786 0.69373775 1.2246734 1.0498079 0.6864261 0.86914974 0.75583184
1.0018463 0.8837627 0.85588497 1.0432786 0.6560334 0.65539324 1.0237023 0.9241921
0.81186545 0.9316138 1.0570022 0.83447826 0.72791916 0.7160387 0.5682151 0.6773011
1.1326246 0.67193323 0.887692 0.70378673 0.81172115 0.9631744 0.9566013 0.92039925
0.87481195 1.0067235 1.0019124 0.9385904 0.79159856 0.8210948 0.8317358 0.733606
0.77291834 0.9650388 0.73923063 0.9541349 0.8514504 1.1123569 0.8134241 0.9322272
0.7565108 0.83231926 0.99415517 0.79790455 1.1209447 0.71412414 0.5366236 0.9331672

bn1.bias f4 [512]
00000000: 6ed9 a5bd 15df a5bd 8ab6 10bc 46db 32bd
00000010: 81c7 1ebe 2df2 60be ec37 083d c052 9c3c
00000020: 1097 48bd 1a63 51be 2e21 e5bd aa12 b9be
00000030: 9c5a bdbd 92fb 80be 1ded dfbc d0a5 04be
00000040: 7efe 80be 2462 eebd 2482 febd 8203 18be
00000050: 2a60 26be 2325 a1bd 0d5d a8bd 6780 a73c
00000060: d831 c7be c9e8 1abe 4480 6bbe e5a6 88be
00000070: 1553 88be 8744 b3be 0141 4cbe e837 72be
00000080: 0e40 9fbd b78f 07be 7907 fbbd 8b6b 94be
00000090: 463a 74be 959f 8dbe 1af1 86be 96b5 35be
000000a0: ea59 8fbe eb92 7ebe 85d5 313d d947 a0bd
000000b0: c593 3ebd 439a e0bd bcf6 a3be 5809 c7be
000000c0: 99b5 72bd fe29 5cbd 5931 a3bb 3e57 eebd
000000d0: 8590 e9bd 6590 57be 125c 3fbe b7fd b6bd
000000e0: 9f3e 56be 79aa 81be 9193 54be f8fa edbc
000000f0: 38ca 5dbe 3c51 bcbd 81ff 82be de90 5fbe
00000100: 576a b6bd fda4 3fbe 808e a0bd 611d e6bd
00000110: 590b 91be 8aa0 333d 36cc 74be 8299 dfbd
00000120: c41e 86bd 4adc a9be f5a1 5fbe f5c9 45be
00000130: c574 e8bc 5f30 6ebe c37a 9c3c 8cae 50be
00000140: 5fad 5cbc 8543 d8bc f573 71be 6d5f edbd
00000150: 56cc c6bd 6319 8ebd 2be9 bcbe 5d7e a7be
00000160: 8ca6 99be 46e8 5dbd fa41 f8bd bbb3 60bd
00000170: 7deb 28bb 2bb4 9bbe c1a9 e03c 7cfc 00be
00000180: 85cc 0bbe a4bc b5bd 00ac babe 18ba d3bc
00000190: c6dd 82be 956a 8bbd 976a 3cbe 0eec 90be
000001a0: 8734 05bd 9688 63be 5aa6 42be ee27 61be
000001b0: b422 09be fbf3 4bbe 6cf0 9dbe ed1d 1ebe
000001c0: 981a b0be 9567 10be 9369 b1be 48d1 7cbd
000001d0: 3497 d6bd ab35 1ebd c636 30be 91c4 6bbe
000001e0: df2e fcbd 63ff 16be ec4d 543c 11d9 d9bd
000001f0: ad85 19bd 00fd e1be 6e4d a2be ea8a 19be
00000200: 254a 33be 35bb d4be 0dfe 95bd fb18 20be
00000210: a2b2 f03c 585b 8cbe 2506 37be a3f2 65be
00000220: 9b06 8abe 050b d7be ea6e f7bd 99be 95be
00000230: 1452 26be 7933 80bd fb96 a7bd 4b52 0ebe
00000240: 2417 89be 70aa c7bd 0b82 78bd be4e 6dbe
00000250: 2d59 95bd ba13 bebb e530 86bd 6d9c 3ebe
00000260: 3708 e9bd d023 43be c3f0 25be f994 9f3b
00000270: 0cec b6be 2d71 4cbe 7a8d a4be dfeb 97bd
00000280: 473c 2cbe e661 cabd 7fca 2ebe 07f4 2fbe
00000290: cfad e7bd f1e3 a2be ba20 6dbd 2587 d3bd
000002a0: e1ae 42be 2fd2 4abe 44ea 8bbd 0c73 fdbd
000002b0: b7c8 13be 651b 2ebe 644d 53bd d29e 19be
000002c0: 9d9a 9bbe d37c bdbb b4c9 30ba 7094 87bd
000002d0: 29c6 ccbe 8565 64be 92d5 d8bd fab8 b2be
000002e0: 469e 80be 786f 42be c44a 09be 1a9b 6fbe
000002f0: 1504 c5bd 9313 aebd bdb6 37bc e449 a9be
00000300: 88c5 56be 3cf3 f4bd 89b0 4cbe 9d6e bfbd
00000310: 405d 91bd dd94 50be e735 e2bd 4999 0b3d
00000320: d6ad 3abe 040e 9fbe efa9 50be cb36 10be
00000330: 11a4 a0be dd4d 6ebe 7775 04be c5fb 8ebd
00000340: d59b 84be 0796 e6bd c990 84bd 291c 4ebd
00000350: fdb1 c53b bb25 693b 88d1 8fbe 39ca d7be
00000360: cec4 8abe e58f 28be 7d0d 4ebe dfbc 21be
00000370: 8c96 eabd 4656 04be fc1f e3bd e2c8 e4bd
00000380: bfa0 9abe 3bec 58be c7e0 abbe 88f4 da3c
00000390: 09d7 14be 4099 03be a6e1 b4be db64 aebe
000003a0: 6e62 9bbe a752 28bd 51a5 3bbe 7e18 6bbe
000003b0: 941b eabd 93ce f3bc db9a 56be e8ba d2bd
000003c0: 309e 83be f029 c5bd 8e35 c7bd 3908 a5be
000003d0: 64f0 93bd b63f a4be ff32 55bd 58c9 61be
000003e0: df7b 10be bf80 94bc 8540 e1be ca5b 32be
000003f0: ea87 20be 11b1 33be 671e aebd c8d7 a2be
-0.08098112 -0.0809919 -0.008832583 -0.043666147 -0.15505792 -0.21967383 0.033256456 0.019082427
-0.04897219 -0.2044796 -0.11187969 -0.36147052 -0.09245798 -0.25191933 -0.027334744 -0.12953877
-0.25194162 -0.116398126 -0.12427166 -0.14845088 -0.16247621 -0.078684114 -0.08220873 0.02044697
-0.38905215 -0.15127863 -0.22998148 -0.2668983 -0.26625887 -0.3501322 -0.19946672 -0.23654139
-0.07775889 -0.13238417 -0.12257285 -0.289883 -0.23850355 -0.27660814 -0.2635582 -0.17745051
-0.27998286 -0.24860732 0.04341652 -0.07826204 -0.046527643 -0.10966923 -0.3202418 -0.38874316
-0.059255216 -0.053750984 -0.004980248 -0.11637734 -0.11404518 -0.21051176 -0.18687466 -0.08935111
-0.20922326 -0.25325373 -0.20759417 -0.029050335 -0.21659172 -0.09195182 -0.2558556 -0.21832606
-0.089070015 -0.18715282 -0.0783968 -0.11236072 -0.2832897 0.043854274 -0.23906025 -0.10917951
-0.06548837 -0.3317588 -0.21839125 -0.19315322 -0.028375993 -0.2326064 0.019101506 -0.20379084
-0.013469069 -0.026399383 -0.2357939 -0.11590467 -0.09706943 -0.06938436 -0.36896643 -0.32713595
-0.30009878 -0.05417659 -0.12121959 -0.054858904 -0.0025775128 -0.30410895 0.027424695 -0.12596315
-0.13652237 -0.08873871 -0.3645935 -0.025845572 -0.25559825 -0.06807438 -0.18400036 -0.28305095
-0.032520797 -0.22220072 -0.1900877 -0.21987888 -0.13392144 -0.1991729 -0.3084749 -0.15441103
-0.3439529 -0.14102013 -0.3465086 -0.061723024 -0.104780585 -0.0386254 -0.17208394 -0.23024203
-0.123136275 -0.1474586 0.012958031 -0.10637105 -0.037481 -0.44138336 -0.316997 -0.14994398
-0.17508753 -0.41549078 -0.07323847 -0.1563453 0.029382054 -0.2741344 -0.17873438 -0.2245584
-0.26958165 -0.42000595 -0.12081702 -0.29246977 -0.16242248 -0.06259818 -0.08183094 -0.1389858
-0.26775467 -0.09749305 -0.060670894 -0.23174569 -0.072923996 -0.0058006914 -0.06552295 -0.18614359
-0.1137852 -0.1905663 -0.16205125 0.004870054 -0.35726964 -0.19965048 -0.32139188 -0.07418036
-0.16819869 -0.09881954 -0.17069434 -0.17182933 -0.11312448 -0.3181453 -0.05789254 -0.10328511
-0.19012024 -0.19806741 -0.06831792 -0.12375459 -0.14432035 -0.17002638 -0.051587477 -0.15001991
-0.30391398 -0.0057827025 -0.00067439233 -0.06620109 -0.39994934 -0.22304352 -0.1058761 -0.3490675
-0.25120753 -0.18987834 -0.13407427 -0.2339901 -0.09619919 -0.08499827 -0.011213002 -0.33064187
-0.2097379 -0.11960456 -0.19989218 -0.0934727 -0.07097864 -0.20369287 -0.11045437 0.03408173
-0.18230376 -0.3106538 -0.20377325 -0.14083402 -0.31375173 -0.2327189 -0.12935434 -0.06981615
-0.2590014 -0.11259084 -0.06472928 -0.050319824 0.0060331807 0.0035575468 -0.28089547 -0.4214647
-0.27103275 -0.16461141 -0.20122333 -0.15794705 -0.11454496 -0.12923536 -0.11090085 -0.11171128
-0.30200765 -0.21183865 -0.3356993 0.02672793 -0.14535154 -0.12851429 -0.35328406 -0.34061322
-0.30348533 -0.04109445 -0.18324782 -0.22958562 -0.11431041 -0.029761588 -0.2095751 -0.10289556
-0.25706625 -0.096271396 -0.097270116 -0.32232836 -0.07223585 -0.32079858 -0.052050587 -0.22049463
-0.14109753 -0.018127797 -0.43994537 -0.17417827 -0.15676847 -0.17548014 -0.085018925 -0.31805253

bn1.running_mean f4 [512]
00000000: c512 73bd f86b 523a 2cf5 4a3c 978a 703d
00000010: 1319 b7bc 505b 923c 5aad 3ebd dec1 4abd
00000020: 56e2 87bd f25a 853d 8d0e e53c fa2d e4bb
00000030: d454 05bd 9eed 6cbb 7b1c 43bd 7d6c 063b
00000040: ef2c 9bbc 94d4 11bc a684 76bd 7128 933b
00000050: aab1 e4bc 8d34 dd3c 3788 963d 66b0 d3bd
00000060: 0ebc 1abd 01ba 27bd 3947 a6bc 368e c6bc
00000070: 362f 68bd 53ed 023c c65a d8bc 4d4f e53c
00000080: 6577 cdbc f17f 5abc d628 a9bc 02d7 1cbc
00000090: c39b babc a0c0 a7bc e8b5 993c 8f0b 95bc
000000a0: d3b8 0fbc 6827 4abb 4acb d1bc e148 e3bc
000000b0: 7cf1 6e3c a589 f9bb 59bb cd3c 6e05 ffbc
000000c0: 459d 6d3c fe86 d3bc d9d9 78bd fb47 cdbc
000000d0: 0f0b 0a3c 404e b8bb 501f d93c 945d c73c
000000e0: 96a0 b0ba 7f27 6e3c 78b9 9e3b ca52 acbd
000000f0: b3a1 c13b 9ba9 85bc 60dc 60bc 98ec e7bb
00000100: b03f 053d 1839 00bc a963 fb3b 1086 16bc
00000110: 3319 9fbc e36f e93b 193d 993d 12e1 4c3c
00000120: cece 40bd 8516 31bc a41a 30bc 6d90 02bd
00000130: 5ab6 e8bb 3407 823c d4a9 74bd 1d2a 4bbc
00000140: 67bf 74bd 6081 08bc 427e 633c 41d0 01bb
00000150: b6da b63c c19c 66bc 3660 193a 4a9e 3c3b
00000160: 4042 f7bb 4648 debc 7e74 6d3c 19f3 06bd
00000170: ee76 f7bd f619 70bc 6fda 43bc 86fe 803c
00000180: df9d 903c c08a 69ba d5b5 93bb 0ada 00bc
00000190: eb41 873c 898a 78bd 9a1e b23c b4c6 19bd
000001a0: d8b2 0f3c 8ff6 05bd 85e2 ac3b b011 8c39
000001b0: e48f 8cbb a44d fa3c 1248 12bc b11a ddbc
000001c0: 9a22 e2bb ba21 dfbc 520f 053c a56c cebc
000001d0: 34dc fbbb 6904 adbc 72f8 8bbd 8eb0 aebc
000001e0: 4231 483c c57e a93c e3fc 00be e966 87bc
000001f0: ac5d aebd 5e74 e0bc e7b1 f93b caa9 5e3c
00000200: 9095 fdbc d2b2 14bc c42d 3b3c 1dc5 3ebc
00000210: 4877 19bd 2381 7cbb 983c d13b c849 e73a
00000220: aac5 65bc 677a 1abd 8070 fab9 ec68 8a3c
00000230: d006 91bc 5190 2bbc 08af 0dbd a135 d93c
00000240: 0cf4 9b3c cd6f ce3c 67ab 20bd 435a 03bd
00000250: fdc8 e13c 1a85 b2bd 4d68 ccbd 50ad 5cba
00000260: 84e9 74bc 4e2f 77bc fc18 63bd eaa4 883c
00000270: 7d9e 7ebb b436 92bc c1d0 9fbb a774 a9bb
00000280: 85cd 053d 48ca 0f3d 6422 0abc a84d 37bd
00000290: 5c0b 823c 7ec0 10bb b831 dd3c f30b b7bc
000002a0: 2f1e 243c 9c1c 403b 0480 7e3c e92f 15bd
000002b0: 9ef2 1dba f2b8 fe3c 44d1 b03b ded6 26bd
000002c0: 9146 98bb d064 4cbb 8161 90bd 7c13 d63c
000002d0: f1eb 46bc a853 db3b 173d fbbc cd46 cabc
000002e0: fc80 ac3c 8ad1 27bd 490f 49bd 070e 953c
000002f0: de8a 99bd e5b8 c33b c50e 3ebd 689a 083d
00000300: c4c3 f63b 8512 a0bc 803a 703a a058 ab3c
00000310: 3595 aebb c23f 69bc 3e1f 0dbd f140 41bd
00000320: 014f f33c 80bf 5d3c 2a04 ef3b 366f 273c
00000330: dcd4 dabb 888b b1bd 1ddd 68bb f42e 00be
00000340: f12f 16bd bfd2 62bd 899d 803a 7958 103b
00000350: af55 153d 851c 53bd 3185 00bc d928 d4bc
00000360: b018 e03c e779 46bd e83c 15bd 62d4 043a
00000370: 5e8c 64bc 3d87 47bc 2470 d23c 7f56 b2bd
00000380: 4a75 f2bc e4a4 4abc 500c 24bd 28ab 8bbd
00000390: b919 653c cd52 49bc 52ad d4bb 9020 5abc
000003a0: 124d dbbc eaf3 963b 9d42 27bd 9586 203c
000003b0: a5b0 7e3c d7ed e3bb 6b06 423c 9230 e23a
000003c0: 3678 a73c 78bb 0dbd b322 b13d 208b c2b9
000003d0: 7c26 39bd e594 ee3b 0178 d7bd c9b0 32bd
000003e0: 79ff 04bc d26d 81bc 600f d3ba 6ec0 27bd
000003f0: a965 973b 55de 2fbc 6066 43bd 00ac acbc
-0.059344072 0.0008026953 0.012387555 0.05872592 -0.022350824 0.017865807 -0.04655204 -0.049501292
-0.06634967 0.06511487 0.02796104 -0.0069634886 -0.0325516 -0.0036152373 -0.047634583 0.0020511441
-0.018942324 -0.00890078 -0.060185097 0.004490905 -0.027916748 0.027002597 0.073502 -0.1033638
-0.037777 -0.04094887 -0.020297633 -0.024237733 -0.05668565 0.007991153 -0.026410472 0.027991915
-0.025081346 -0.013336168 -0.020649355 -0.009572746 -0.022779351 -0.020477593 0.018763497 -0.018193988
-0.008772093 -0.0030846242 -0.025609631 -0.027744712 0.014583942 -0.0076152855 0.025113748 -0.031130519
0.014502828 -0.025821205 -0.06075463 -0.025058737 0.008425488 -0.0056245625 0.026504189 0.024336614
-0.0013475593 0.014535784 0.004843887 -0.08414228 0.0059091686 -0.016316226 -0.0137244165 -0.0070777647
0.03253144 -0.007826112 0.0076717925 -0.009187236 -0.019421196 0.0071239336 0.074823566 0.012504833
-0.047072224 -0.010808592 -0.010748539 -0.031876016 -0.007101816 0.015872575 -0.059732273 -0.012400177
-0.059752848 -0.008331627 0.013885083 -0.0019807967 0.022321086 -0.014075459 0.00058508234 0.002878087
-0.0075457394 -0.027134072 0.014493106 -0.03294668 -0.12083231 -0.014654627 -0.011953934 0.015746366
0.017653404 -0.000890892 -0.00450776 -0.007864485 0.016510924 -0.060678992 0.021743108 -0.037543014
0.008770667 -0.03270584 0.0052760267 0.0002671606 -0.004289614 0.0305546 -0.008928316 -0.026990267
-0.0069010975 -0.027237762 0.008121328 -0.02519829 -0.0076861624 -0.021120267 -0.068344966 -0.021324422
0.012218775 0.020690331 -0.12596469 -0.016528564 -0.0851396 -0.027399238 0.0076200846 0.013590286
-0.030955106 -0.009075837 0.011424486 -0.011643675 -0.03746727 -0.003852912 0.006385397 0.001764589
-0.014024178 -0.03771439 -0.00047767535 0.016895734 -0.017703444 -0.010471419 -0.03459075 0.02651483
0.019037269 0.025199795 -0.039225962 -0.032068502 0.027561659 -0.08716793 -0.09980831 -0.00084181596
-0.014948253 -0.015086962 -0.05544375 0.0166802 -0.003885179 -0.01784835 -0.0048771803 -0.0051713767
0.0326667 0.03510502 -0.008431051 -0.044751793 0.015874557 -0.002208739 0.027001247 -0.022344565
0.010016962 0.0029313928 0.015533451 -0.036422644 -0.00060252275 0.031094048 0.00539604 -0.040732257
-0.004647084 -0.0031188019 -0.070498474 0.026132338 -0.012141214 0.006693322 -0.030668778 -0.024691964
0.021057598 -0.040971316 -0.049086843 0.018195165 -0.0749719 0.005972969 -0.046400804 0.03335038
0.0075306613 -0.01954008 0.00091639906 0.020916283 -0.0053278455 -0.014236392 -0.034453623 -0.047181074
0.029700758 0.013534427 0.0072941976 0.010219386 -0.006678207 -0.086691916 -0.0035532184 -0.12517911
-0.036666814 -0.055376764 0.0009812574 0.002202539 0.036458667 -0.05154087 -0.007844255 -0.025898384
0.027355522 -0.0484561 -0.036435038 0.0005067048 -0.013949482 -0.012178239 0.025688238 -0.08707904
-0.029596943 -0.012368415 -0.040050805 -0.06819755 0.013983184 -0.012287808 -0.006490388 -0.013313428
-0.026770148 0.0046067135 -0.04083501 0.009797712 0.015545045 -0.006955843 0.0118423505 0.0017256907
0.020443063 -0.034602612 0.086491965 -0.0003710622 -0.045202717 0.007280933 -0.10520936 -0.043625627
-0.00811755 -0.015799437 -0.0016102605 -0.040955 0.004620273 -0.01073416 -0.047705054 -0.02107811

bn1.running_var f4 [512]
00000000: f6e7 403f 1077 0a3f 76fa 1e3f 0ef5 743f
00000010: fc99 3f3f ee45 333f 26d0 303f a515 fd3e
00000020: 91c6 203f 2536 783f 9ba9 2b3f 22ef dc3e
00000030: d05f 6e3f 944b 0e3f 52ab 783f d492 353f
00000040: 1728 163f 6273 fb3e 79d4 233f ccc8 373f
00000050: 777f db3e 74e3 313f ecbd 493f f003 923f
00000060: 4d9c 003f e048 003f dc59 0d3f bf75 703f
00000070: 24cc 023f 986f 223f 625a 163f a941 833f
00000080: 633c dc3e 3543 473f 2a1b 253f 97ef fd3e
00000090: 76f1 333f e727 183f bb6d 273f 6809 413f
000000a0: 3c98 ce3e c734 e63e 22f4 223f 0c2f b43e
000000b0: e18b 143f b07b 2c3f 9ce0 023f 9c14 363f
000000c0: 46e5 133f ec4c 783f f331 723f cc24 003f
000000d0: 43db 043f 4cc9 dc3e e1aa 1b3f 4370 2a3f
000000e0: bb01 d93e 2056 243f 0363 143f fe41 6f3f
000000f0: 7d87 413f d242 163f ea91 073f 961a f13e
00000100: f211 3e3f 7788 183f d93e b83e c2e8 273f
00000110: acaa 0c3f 9aa9 1f3f e699 653f cf6d 663f
00000120: b3fd 7e3f 75e4 f63e af35 553f eca7 2e3f
00000130: e451 603f ac98 1f3f d49c 773f 510d ff3e
00000140: f175 8e3f e41c 3c3f 5326 143f 695b 313f
00000150: c18b f13e de7c 263f ffc0 c13e 34ba 293f
00000160: 1083 3d3f 2ff9 1d3f 7f90 243f 4065 1f3f
00000170: 588b 5b3f 0430 e93e 797b 443f ae58 213f
00000180: fba5 253f 3a26 2a3f 2004 0a3f c010 1c3f
00000190: 7551 2a3f dccb 0b3f b0f4 193f 28a3 173f
000001a0: aa7e 2d3f 10a8 db3e c0ed 183f c4c9 d73e
000001b0: 49ec 4e3f a913 343f 822e ff3e b003 5a3f
000001c0: 57e4 263f ec94 4d3f 9b32 cd3e 66d3 073f
000001d0: 7884 d83e 5697 443f acea 423f e42f 143f
000001e0: 3c99 163f 5c09 e83e 610f e33f 4e15 0c3f
000001f0: a418 8a3f 65b9 2a3f 9455 123f cd7b d63e
00000200: fde0 0b3f 9209 fd3e e464 273f 93ac 043f
00000210: 0a28 1d3f 6664 053f 341c 633f fc33 e63e
00000220: 1ff1 133f bd0b 2d3f 8c95 fb3e 24e6 1e3f
00000230: e000 be3e a0c3 533f 1bce 2b3f 7a7b e83e
00000240: 83cb 0a3f c49e 383f 0909 f93e 8697 443f
00000250: e499 053f 04c5 3e3f 4b3f 443f f77c 0f3f
00000260: a6f7 8d3f c21e 1b3f b60d 1e3f 7a65 323f
00000270: 3caa c83e c209 e93e d5bb f53e 3503 143f
00000280: 3e05 2b3f 59f6 0e3f 50da 173f 5556 0b3f
00000290: 5306 eb3e ea4f dd3e c5c8 bf3f efba 1e3f
000002a0: 141d fd3e 2e51 0a3f bc80 d53e 840f 223f
000002b0: 9517 593f 387f 373f 43bc f63e b010 173f
000002c0: 6a14 ae3e 48be 373f d0da 8d3f 4ee0 0f3f
000002d0: 20ef b23e 2a2c 4f3f da11 263f 199f eb3e
000002e0: ca58 c83e 593d 463f 4343 373f 2040 f93e
000002f0: 6265 383f 3a35 fd3e 26d0 113f 9d0e 163f
00000300: 5f89 1b3f 0cfb df3e c8c7 0c3f ea8c 363f
00000310: 285e 073f dd65 2c3f 56c4 473f 6a28 763f
00000320: 04e5 0c3f 3988 1b3f f1d8 3b3f c256 003f
00000330: 0d52 003f 6424 223f ac64 cd3e 728e 623f
00000340: 33b8 153f a7b4 0c3f 1736 d43e 1793 4b3f
00000350: 4a41 703f f6b5 593f 6a3a a83e 7f44 0b3f
00000360: 4a15 0e3f 6808 453f b80c ff3e f7f5 563f
00000370: 7119 143f 5b85 073f 10e1 193f a775 423f
00000380: 46f8 d23e 2c81 123f 8788 3c3f b93a 523f
00000390: 2ec0 663f 6dec 143f 081c 2e3f 68b9 eb3e
000003a0: 2f81 1c3f fa28 543f ab54 f23e 4c5a 153f
000003b0: a56f e53e 2dc2 533f c733 d93e 1c97 4a3f
000003c0: 8249 183f e23e 073f 9f45 483f 949a 153f
000003d0: e59d 073f 596f 003f ff29 333f d8fb 173f
000003e0: 5eb3 f33e 6675 393f 1deb d03e 384a 193f
000003f0: 31eb d13e aab5 243f b282 323f 4523 cf3e
0.75353944 0.54087925 0.62100923 0.95686424 0.74844337 0.7002858 0.6906761 0.49430576
0.6280299 0.9695762 0.6705567 0.43151194 0.9311495 0.55584073 0.97136414 0.70927167
0.5865492 0.49111468 0.6399608 0.71790767 0.42870685 0.6948769 0.7880542 1.1407452
0.50238496 0.501112 0.5521524 0.93929666 0.51092744 0.6345153 0.58731663 1.0254413
0.4301482 0.77836925 0.64494574 0.49596855 0.70290315 0.59435886 0.6540181 0.7540498
0.4035052 0.4496214 0.6365377 0.35192144 0.5802594 0.6737623 0.51123977 0.711252
0.5777172 0.96992373 0.94607466 0.5005615 0.51897067 0.43122327 0.60807616 0.6657755
0.42384133 0.64193916 0.5796358 0.9346007 0.75597364 0.5869571 0.5295702 0.47090596
0.7424613 0.5958323 0.3598545 0.65589535 0.54947925 0.62368166 0.89687955 0.90011305
0.99605864 0.48221174 0.8328504 0.6822498 0.87624955 0.62342334 0.96723676 0.49814847
1.1129743 0.73481584 0.5787098 0.69280106 0.47176936 0.6503428 0.37842557 0.6629975
0.7402811 0.6170835 0.64282984 0.6226387 0.85759497 0.45544446 0.76750904 0.6302594
0.6470639 0.6646458 0.53912544 0.6096306 0.66530544 0.5460794 0.6013899 0.5923333
0.677714 0.4290166 0.5973778 0.42146122 0.8082929 0.703425 0.4984017 0.85161877
0.6519217 0.8030536 0.4007767 0.53056943 0.42288566 0.7679342 0.7613933 0.57885575
0.5882757 0.4531964 1.7739068 0.5472001 1.078877 0.6668914 0.5716183 0.41891328
0.5464018 0.49421364 0.6538832 0.5182583 0.6138922 0.5210632 0.8871491 0.44961536
0.57789797 0.67596036 0.49137533 0.62069917 0.37110043 0.82720375 0.67111367 0.45406705
0.54216784 0.7211726 0.48639706 0.76793706 0.52187943 0.7451937 0.7665908 0.56050056
1.1091201 0.6059381 0.6173967 0.6968609 0.3919238 0.45515257 0.47994867 0.57817394
0.66804874 0.55844647 0.59317493 0.5442861 0.45903262 0.43225032 1.4983145 0.6200399
0.49436247 0.5403012 0.4169978 0.63304925 0.8480161 0.71678495 0.48190507 0.5900984
0.3399995 0.7177472 1.1082401 0.56201637 0.34948063 0.80926764 0.6487099 0.4601982
0.3913024 0.7743736 0.7158701 0.48681736 0.720297 0.4945467 0.56958234 0.5861605
0.60756487 0.4374622 0.5499234 0.7130877 0.52878046 0.6734293 0.7803396 0.96155417
0.5503695 0.60754734 0.733779 0.5013238 0.501252 0.6333678 0.4011587 0.88498604
0.5848419 0.54963154 0.41447517 0.79521316 0.93849623 0.85043275 0.32857066 0.5440139
0.55501235 0.7696595 0.4981439 0.8396906 0.5785132 0.5293786 0.60109043 0.75960773
0.41205043 0.5722835 0.73645824 0.82120854 0.9013699 0.5817326 0.6801152 0.4603989
0.6113462 0.82875025 0.47330222 0.5834091 0.4481174 0.82718164 0.42422315 0.79136825
0.59487164 0.52830327 0.78231233 0.5843899 0.529753 0.50169903 0.69985956 0.5936866
0.47597784 0.7244476 0.40804377 0.59878874 0.4099975 0.643397 0.69730675 0.40456596

fc2.weight f4 [256, 512]
00000000: 121a 1bbd 124d 013e a2ed a03d 65fa 2c3d
00000010: a580 79bc 06cd 6f3d 7e17 f33d 6dec a0bd
00000020: 1d4b 133c bbe0 223d 6652 8abd f48a 01bd
00000030: e676 94bd 2516 653c d756 0d3d a538 8ebd
00000040: d31b f43c 051c 29bd ab3d 09be 8834 a3bc
00000050: e7e3 a03d d818 25bd 6b58 423d 4ee4 54bd
00000060: 0fe4 a43d 6086 523e aa34 103d a61b 51bd
00000070: f761 b93c ed77 533d 882d a13d 7ec8 1dbc
00000080: ba1b 4cbd e4f8 aabc 3d80 85bd 530b 2c3c
00000090: aed6 bcbd 8341 92bc a1cd aabc 87ae 91bd
000000a0: b077 e13b e8da 4ebb 835f cc3d cea2 03bd
000000b0: bb90 f23d b894 8bbc d99d 28bd 45d2 0abc
000000c0: 281b 0ebd 8c7e e43b 75d5 af3d 4c31 e23d
000000d0: c82a c8bd 9e5a 88bc f952 253d bc5f 923c
000000e0: 7167 bf3d 046b 78bd 0a93 afbd 47f4 ca3c
000000f0: b022 4bbd 743c 13bd f183 c23c 29a8 24bd
00000100: e2d6 c53c 0793 2239 1ae5 8cbd 9366 773d
00000110: d22a 753d 2529 afbd 4f97 073d 7345 843d
00000120: b422 b6bc 5033 2d3d 832f 99bc 4cc1 58bc
00000130: 38b3 6a3d 2dbd 0ebd 0f13 7abd c0ca 023d
00000140: 2c34 16bc 0675 e93d 562b 0cbe c636 9e3c
00000150: e294 643c 64ea f0bd 3b0f d6bc 6ea0 0c3e
00000160: 4d90 06bd 34f4 ce3c 925b 11bd 3e5f 7b3d
00000170: 62a3 5e3d 20c0 00bc 1df7 533d 0854 2bbc
00000180: 0fe6 bebc 27a6 23bd 3b42 e03d 8cc9 b23d
00000190: 2556 5abd 2c2b ae3d da5f 2bbd eca2 aebd
000001a0: c0c8 413b a21d b53d 092d f13c 6666 5a3d
000001b0: 4f78 433d 8a33 08bd 2b2c 7bbd 2a86 b4bd
000001c0: e681 d83b 500f 103d 3043 4ebd 2986 27bd
000001d0: d05a 8d3d ec05 d2bd 8586 fd3c 9721 fe3a
000001e0: 7888 d6bd e7cc a13d a6d1 e3bd d10e b93c
000001f0: 76b9 2abd e1e5 1f3d 4f4d 543d dbbe 2dbd
00000200: fda0 32be d7be a2bc dde5 323d 1813 09bd
00000210: 8c6a 45bb c2bc f53d 68cc 44bd 7412 5b3d
00000220: dbc8 d2bd 3d64 083d 87c1 0dbd 7f03 d4bb
00000230: fe32 7a3d 55ce e43d 14f4 ae3d 2f89 003d
00000240: 130a 313d f572 0a3c f38c 9e3d 01e4 353d
00000250: 31ac b4bd 85b7 eb3b 3807 cdbd 571e 82bd
00000260: 6b3b 953d 2fae 883d ff5f ab3d c4fe a4bd
00000270: 4571 353d e934 05bc c0a5 b53c 6a35 28be
00000280: a644 3fbe 301c e0bd 3204 7cbc 27a8 3c3e
00000290: 19c7 6dbb 1c4e b23b 8459 1d3d c98f 85bc
000002a0: a6a5 773c f0ff 6f3d 4221 5dbd 6cf9 9d3d
000002b0: 3d01 b0bc ec8b 83bd beeb 3a3d 6a2d 24bd
000002c0: 91ef 4d3d 6f35 2ebb 5888 2c3d 3da3 c0bd
000002d0: 24ef a9bc f9fe cf3c 26cd 6bbd 3e16 d33b
000002e0: 4fbf 713c ad4b 1c3d 6ede 01bd 8e35 d63c
000002f0: ba88 ec3d f199 65bd 4c8a 053e 3606 e4bc
00000300: 2b97 d23c 16ad e1bc b21b 9c3c ad8f 9abc
00000310: 39af 233d 2433 80bd c11c c83d 09bc 8fbd
00000320: 2aee ab3d 9514 0f3e 0900 89bd 3b8d a73c
00000330: c1fb 503d e5a3 2b3d 0b57 7d3d de6e cbba
00000340: cfdb 7fbd 3326 5a3d a592 f9bc 43f9 d6bd
00000350: 0fcd c23c 05f8 73bd 3882 c43c 6bed a53d
00000360: 0fdf acbc 4473 bb3d f02b 38bd 6051 1dbd
00000370: 3917 383d 728d 563d 852b 413d d396 ae3d
00000380: 3b05 f83d 638c 8e3c 0ec2 dc3c 9d67 af3b
00000390: 56e3 413c a433 05bc 8137 da3c a4bd c33c
000003a0: e340 cebd 0640 cf3d 0239 323e 358b d5bd
000003b0: 28ba 27bd 1c3f 25be 1ca3 85bd fede 01be
000003c0: 23dc 9fbc 5332 633d 74c7 8d3d ce65 d43c
000003d0: 183d 333d 0925 a53d cede bc3d e8de 3bbd
000003e0: 332a c73a 0d85 673b dac2 e0bc 663a 8ebd
000003f0: 2fc7 c33c 2681 9fbd 283c 47bc 9cc8 82bc
-0.03786666 0.12627056 0.07857825 0.042230982 -0.015228425 0.058545135 0.11869715 -0.07857595
0.008990076 0.0397651 -0.067539975 -0.031626657 -0.072492406 0.01398233 0.034506645 -0.06944398
0.029798424 -0.041286487 -0.1340243 -0.01992251 0.07855969 -0.040306896 0.047447603 -0.05197554
0.08051311 0.20559072 0.035206474 -0.05105176 0.022629721 0.051628042 0.078700125 -0.009630321
-0.04983113 -0.020870633 -0.065186 0.010500747 -0.092206344 -0.017853504 -0.020850005 -0.071133666
0.006880723 -0.0031563584 0.09979155 -0.032137685 0.118440114 -0.017038688 -0.04116616 -0.008472984
-0.034693867 0.0069730934 0.085856356 0.11044559 -0.09773785 -0.016644772 0.040362332 0.017867915
0.09345902 -0.060648933 -0.08572967 0.024774684 -0.049593627 -0.035946324 0.023744555 -0.040199433
0.024150316 0.00015504296 -0.06879635 0.060400557 0.05985529 -0.085527696 0.033103283 0.06458559
-0.022233345 0.042285264 -0.018699413 -0.013229679 0.057299823 -0.03484838 -0.061053332 0.03193164
-0.009167712 0.113992736 -0.13688406 0.019313227 0.013951512 -0.117634565 -0.02613031 0.13733074
-0.03285246 0.02526293 -0.03548772 0.061370127 0.054355033 -0.007858306 0.051749337 -0.010457046
-0.02330306 -0.039953377 0.109501325 0.08729848 -0.05330481 0.08504328 -0.041839458 -0.08527169
0.002956912 0.08843543 0.02944042 0.05332031 0.047722157 -0.033252276 -0.06132142 -0.08814652
0.006607282 0.035170853 -0.050357044 -0.04089943 0.06902087 -0.10255036 0.030947933 0.0019388673
-0.10475248 0.0790041 -0.11123972 0.022590073 -0.041680776 0.03903759 0.05183154 -0.042418342
-0.17444225 -0.01986639 0.043676246 -0.033465475 -0.0030123321 0.11998893 -0.0480465 0.053484395
-0.102922164 0.03329872 -0.03460839 -0.0064701433 0.061083786 0.11172167 0.08542648 0.03138083
0.0432225 0.008450259 0.07741728 0.044406895 -0.088219054 0.007193508 -0.100111425 -0.06353443
0.07286724 0.06673848 0.08367919 -0.08056405 0.044297475 -0.008130291 0.022173762 -0.16426626
-0.18678531 -0.10942876 -0.01538186 0.1842352 -0.0036282002 0.0054414403 0.038415447 -0.016303914
0.015115177 0.05859369 -0.053986795 0.07713589 -0.021484965 -0.06423172 0.045634978 -0.040082373
0.050277296 -0.0026582142 0.042122215 -0.09406135 -0.020743914 0.025390135 -0.05756869 0.0064418605
0.014755084 0.038158108 -0.031706266 0.026148584 0.11549516 -0.056055013 0.13041037 -0.027834993
0.025706848 -0.027548354 0.019056175 -0.018867338 0.039962027 -0.06259754 0.09771109 -0.07018287
0.083950356 0.13972695 -0.0668946 0.020453086 0.05102134 0.04190435 0.06185059 -0.0015520712
-0.062465485 0.053259086 -0.030465433 -0.10496762 0.02377942 -0.0595627 0.023987874 0.081019245
-0.021102456 0.091528445 -0.044963777 -0.038407683 0.04494402 0.052380987 0.047160644 0.08524861
0.12110373 0.017400926 0.026948001 0.005352928 0.011833986 -0.008129988 0.026637794 0.023894139
-0.1007097 0.101196334 0.17404559 -0.10426942 -0.040949017 -0.16137356 -0.06525251 -0.12682721
-0.019514149 0.055467915 0.06922808 0.02592745 0.043759435 0.080637045 0.09222184 -0.045866877
0.0015195071 0.0035327107 -0.027436662 -0.06944732 0.02389869 -0.07788305 -0.012160338 -0.015964799
