DNN/models/final_modelFingerprinting.pt (torch, 847300 bytes, 26 tensors)

fc1.weight f4 [512, 62]
0	0xbd39dec4	-0.04537846
1	0xbac815cb	-0.0015265284
2	0xbd856c5b	-0.06514808
3	0xbc8f8dab	-0.017523607
4	0xbce12b82	-0.027486566
5	0x3c60491e	0.0136893075
6	0x3e1da3c9	0.1539451
7	0x3d757ddf	0.059934493
8	0x3dede389	0.116156645
9	0x3adc5af9	0.001681178
10	0xbdb9552c	-0.09049448
11	0x3c64595a	0.013937319
12	0x3d8d3ca3	0.06896331
13	0x3cebb091	0.028770717
14	0x3d169693	0.036764693
15	0x3e22de13	0.15905027
16	0x3d746542	0.05966688
17	0xbd9df2ce	-0.07712327
18	0x3c09d74e	0.008413149
19	0xbe2b3777	-0.16720377
20	0x3dbd5f4e	0.092466936
21	0xbcab666b	-0.02092286
22	0x3d20f9ef	0.039300855
23	0xbcfa9a8b	-0.03059127
24	0x3d30ae9b	0.043135267
25	0x3cc47c2a	0.023984987
26	0x3d28abd2	0.041179486
27	0x3ce97a14	0.028500594
28	0xbc8c85c4	-0.017153628
29	0x3d95fdee	0.07323824
30	0x3dc5329f	0.09628796
31	0x3c8283c4	0.015931971
32	0xbdfdde82	-0.123959556
33	0xbe037a78	-0.12839687
34	0x3df50738	0.119642675
35	0x3d21af56	0.039473854
36	0xbd575d12	-0.052578993
37	0x3de43012	0.11141981
38	0xbd82c64e	-0.0638548
39	0xbe1a58e9	-0.15072979
40	0xbd3c5135	-0.045975883
41	0xbc2e56bd	-0.010640797
42	0xbd52d2f7	-0.051470723
43	0xbccc5db5	-0.024947027
44	0x3d8ecc67	0.069725804
45	0xbe049d9c	-0.12950748
46	0x3cb7e8ca	0.02244987
47	0xbdc3f647	-0.09568458
48	0x3dd8e386	0.10590272
49	0x3c3a4cf3	0.011370885
50	0x3de73d97	0.11291044
51	0xbe1682dd	-0.14698358
52	0x3e1903bb	0.1494283
53	0x3e0e588b	0.13900964
54	0x3dc483a6	0.095954224
55	0x3d0e6836	0.034767352
56	0xbe787510	-0.24263406
57	0xbd2d4cc0	-0.042309523
58	0x3dede243	0.116154216
59	0x3ddb1009	0.10696418
60	0x3ded1f86	0.11578278
61	0xbe03920f	-0.12848686
62	0x3d10f73e	0.03539204
63	0xbd7d7ab2	-0.06188459
64	0xbca56810	-0.020191222
65	0xbb934910	-0.0044947937
66	0xbdb2c38e	-0.08728705
67	0xbd6a0fe3	-0.057144057
68	0x3d4ea493	0.05044992
69	0x3d98ec0e	0.07466899
70	0xbccd0806	-0.02502824
71	0x3c22124f	0.00989206
72	0x3d9f312d	0.077730514
73	0xbd7a76ef	-0.06114858
74	0x3d4d9d3a	0.05019877
75	0xbdd0e210	-0.10199368
76	0xbd894297	-0.06702154
77	0x3cb2d2d8	0.021829054
78	0x3d935d95	0.07195584
79	0xbda1fd99	-0.07909698
80	0x3d1364d4	0.03598483
81	0x3e035e15	0.12828858
82	0xbdf2c8da	-0.11854716
83	0x3da37d19	0.07982845
84	0x3c76a244	0.015053336
85	0x3e1c60f5	0.15271361
86	0xbcc593a5	-0.024118254
87	0x3bead046	0.0071659414
88	0x3bc26ea4	0.0059335995
89	0x3dbb46e6	0.09144382
90	0xbb07099f	-0.00206051
91	0xbd37b3ed	-0.044849325
92	0x3b8a6c15	0.00422431
93	0x3d308b8f	0.043101843
94	0xbd345696	-0.044027887
95	0xbc060839	-0.008180671
96	0x3d37791a	0.044793226
97	0xbd94b220	-0.07260537
98	0x3bbe89c6	0.0058147637
99	0xbd92a2d1	-0.07159961
100	0xbdea8cc7	-0.114526324
101	0xbe20101d	-0.15631147
102	0xbdf00607	-0.117198996
103	0xbc356fea	-0.011074046
104	0x3d619253	0.055071186
105	0xbd51d3cc	-0.051227376
106	0xbd30332e	-0.04301756
107	0xbbb909aa	-0.005646904
108	0xbd841e63	-0.06451108
109	0x3d82cbaf	0.06386506
110	0x3d3797c1	0.04482246
111	0xbc3f5c0f	-0.011679663
112	0xbc929411	-0.01789287
113	0x3e2a9803	0.1665955
114	0x3ddccf6a	0.107817486
115	0x3e06ea4c	0.13175315
116	0xbc813fcb	-0.01577749
117	0xbd00ca2c	-0.031442806
118	0xbe790f88	-0.24322331
119	0xbd6cc180	-0.057801723
120	0x3e12a6b7	0.14321409
121	0xbe159bc2	-0.14610198
122	0x3cc82c55	0.024435202
123	0xbcbff485	-0.023432026
124	0xbcfd2467	-0.030901147
125	0x3b6a00ae	0.0035705972
126	0x3d6c79e5	0.057733435
127	0x3ae19bd5	0.0017212579
128	0x3ce5c3e9	0.028047519
129	0xbd04479b	-0.03229485
130	0xbca7c98f	-0.020481853
131	0xbc0f7e2c	-0.008758109
132	0xbc47d367	-0.012196398
133	0xbbb2a34c	-0.0054515954
134	0xbd000efa	-0.031264283
135	0x3b2bdb3b	0.00262232
136	0xbac181b5	-0.0014763387
137	0xbd69eb36	-0.05710908
138	0xbc95bb3a	-0.018277753
139	0xbc5c4e6e	-0.0134464335
140	0x3e0328bb	0.12808506
141	0xbe361c86	-0.17784318
142	0xbd4ad3ca	-0.049518384
143	0xbdd7df07	-0.10540586
144	0xbc5eb14c	-0.013592076
145	0x3deab31e	0.11459945
146	0xbda0eea7	-0.07858019
147	0xbd58281c	-0.052772626
148	0x3d3e84bd	0.046513308
149	0x3bb2b483	0.0054536476
150	0x3cebc6c2	0.028781299
151	0x3db0c5eb	0.086315
152	0x3d9a7d0c	0.07543382
153	0xbc0bc082	-0.008529784
154	0xbb779b33	-0.0037781715
155	0x3d1f0428	0.038822323
156	0xbd9ffaa7	-0.0781148
157	0xbd6c2f07	-0.057662036
158	0x3df6b2fb	0.120458566
159	0xbac5be92	-0.0015086702
160	0x3d7ae8aa	0.061257042
161	0xbd1e6c9a	-0.03867779
162	0x3cfa5fdf	0.030563293
163	0x3d3cf045	0.046127576
164	0xbe0610d1	-0.13092352
165	0xbdba7b53	-0.091055535
166	0x3aa85f56	0.0012845795
167	0x3c32d35c	0.01091465
168	0xbc3e0719	-0.011598372
169	0xbdf53561	-0.11973072
170	0x3dc95561	0.09830738
171	0x3d4f3d35	0.05059548
172	0xbd3a68a3	-0.045509946
173	0x3dc761f3	0.09735479
174	0xbd1f8c7a	-0.03895233
175	0x3d91f406	0.07126622
176	0xbd702e38	-0.058637828
177	0xbe0dbdaf	-0.1384189
178	0x3c4aac74	0.012370218
179	0xbd22129f	-0.03956854
180	0x3dc732c6	0.09726481
181	0xbe12acfa	-0.14323798
182	0xbc38a785	-0.0112704085
183	0xbdb9cdd2	-0.0907246
184	0xbe556a27	-0.20841275
185	0xbdba8337	-0.091070585
186	0x3d332acb	0.043741982
187	0xbc588dc1	-0.0132173905
188	0xbd80108a	-0.062531546
189	0x3d25446e	0.040348463
190	0xbd0970df	-0.033554908
191	0xbdaaa11f	-0.08331513
192	0xbdeb6102	-0.11493112
193	0xbd5417f3	-0.051780652
194	0x3d9f8dc5	0.07790712
195	0xbd3afa48	-0.045648843
196	0x3e0f36d2	0.13985756
197	0x3da4d490	0.080483556
198	0x3cb2575b	0.02177017
199	0x3d297c50	0.04137832
200	0x3e0c13c5	0.13679416
201	0x3d3a3ed2	0.045470066
202	0x3dedaa10	0.116047025
203	0xbd28cf14	-0.04121311
204	0xbcd1739f	-0.025567828
205	0xbd50ee23	-0.051008355
206	0x3dac257c	0.08405587
207	0x3e61c1a5	0.22046526
208	0x3c991a92	0.018689428
209	0xbcc5208f	-0.024063377
210	0x3ca857cf	0.020549683
211	0x3e199430	0.14997935
212	0x3cc66857	0.024219675
213	0xbc873494	-0.016504563
214	0xbe0e715b	-0.13910429
215	0xbd51139e	-0.0510441
216	0x3d2cc348	0.042178422
217	0x3add9daa	0.001690795
218	0x3dcfa7e9	0.10139448
219	0xbcfec699	-0.031100558
220	0xba6b19f2	-0.0008968405
221	0x3d1ab791	0.03777272
222	0xbbc0b614	-0.0058810804
223	0x3d610e6e	0.0549454
224	0x3cdd52f4	0.027017094
225	0x3da4d8d0	0.08049166
226	0xbd982886	-0.07429604
227	0x3d22323a	0.03959868
228	0x3c0f80f4	0.008758772
229	0xbb7b52b7	-0.0038348862
230	0xbc6f2374	-0.014595855
231	0x3dc56878	0.096390665
232	0xbd2b0393	-0.041751456
233	0xbdfd7525	-0.12375859
234	0xbc7945d0	-0.0152143985
235	0x3ca472a5	0.020074198
236	0xbd8eff32	-0.069822684
237	0xbda93119	-0.08261318
238	0x3dda7a41	0.10667849
239	0x3d23f2df	0.04002654
240	0x3e04a0e6	0.12952003
241	0xbe0b4749	-0.13601412
242	0x3ddb3d87	0.10705095
243	0x3e0d28ba	0.13785067
244	0xbd819695	-0.06327549
245	0x3c4d4df7	0.012530795
246	0x3dac9b3e	0.084280476
247	0xbd38dbdf	-0.04513156
248	0xbd86baf6	-0.06578629
249	0xbc4569f1	-0.012049184
250	0xbd938bec	-0.07204422
251	0x3d3dcbf4	0.046337083
252	0xbcbcdc61	-0.023054304
253	0xbd38ee91	-0.04514939
254	0xbe1d01a4	-0.15332657
255	0xbd0f99e1	-0.03505886

fc1.bias f4 [512]
0	0xb7ab8461	-2.0446432e-05
1	0x36e1cffc	6.729735e-06
2	0xb7616baa	-1.3436113e-05
3	0x35cada5c	1.5113724e-06
4	0xb706903b	-8.020604e-06
5	0xb6b36f48	-5.3475705e-06
6	0xb6918cf0	-4.337744e-06
7	0xb7028f96	-7.782035e-06
8	0x369333f8	4.3869913e-06
9	0xb810539a	-3.4410135e-05
10	0xb7854b02	-1.5889764e-05
11	0x36e15537	6.715443e-06
12	0x380294ca	3.1132986e-05
13	0xb65355e4	-3.1491445e-06
14	0xb78911b9	-1.6339925e-05
15	0x37119984	8.678417e-06
16	0x32facf50	2.9198105e-08
17	0x355e4ffc	8.281784e-07
18	0x36921b25	4.354299e-06
19	0xb6c186db	-5.7675475e-06
20	0xb68eb88d	-4.2534143e-06
21	0xb83063dd	-4.2054675e-05
22	0x36592fab	3.2363266e-06
23	0x35a882d1	1.2555048e-06
24	0xb6ef6adc	-7.135195e-06
25	0xb828bb9b	-4.0229042e-05
26	0xb655763f	-3.1808302e-06
27	0xb7196479	-9.142904e-06
28	0x37849b1e	1.5807858e-05
29	0x38962747	7.159873e-05
30	0xb5cab3ff	-1.5102559e-06
31	0x38246955	3.9198745e-05
32	0xb6d4b71c	-6.339409e-06
33	0x37621819	1.347626e-05
34	0x35ead6d5	1.7496883e-06
35	0xb60022d0	-1.909375e-06
36	0xb71e923e	-9.4515835e-06
37	0xb6416d7d	-2.8822972e-06
38	0xb61c2736	-2.3268635e-06
39	0xb64c2552	-3.0420092e-06
40	0x37115cd7	8.664289e-06
41	0xb60eff5f	-2.1308294e-06
42	0xb8079b31	-3.233104e-05
43	0x365f6294	3.328697e-06
44	0xb6332ea1	-2.670022e-06
45	0x36e0de46	6.7015962e-06
46	0xb748b8cf	-1.1963958e-05
47	0x3813bb7a	3.5222132e-05
48	0xb62dbd94	-2.5889358e-06
49	0xb711fa66	-8.700974e-06
50	0xb6f32822	-7.2466364e-06
51	0xb64b890a	-3.0329124e-06
52	0x38072dcd	3.2229163e-05
53	0xb56e0d05	-8.8680855e-07
54	0xb7af75b7	-2.0916441e-05
55	0x35b70756	1.3636698e-06
56	0xb611be21	-2.1717353e-06
57	0x370f40c2	8.538542e-06
58	0xb6a31bec	-4.861029e-06
59	0xb5d0eeca	-1.5566704e-06
60	0xb5de9c6e	-1.6585816e-06
61	0x37c2e7b0	2.323449e-05
62	0x37563413	1.27675185e-05
63	0x37175300	9.019626e-06
64	0xb77fb690	-1.5241691e-05
65	0xb6897990	-4.09707e-06
66	0x379c3401	1.8620865e-05
67	0xb6ed1009	-7.065017e-06
68	0xb6f99592	-7.4381906e-06
69	0x36e0dfa8	6.7017572e-06
70	0xb736e581	-1.0901481e-05
71	0x36e7eafb	6.911692e-06
72	0xb7a11953	-1.9204488e-05
73	0x37f3a28f	2.9043555e-05
74	0x37494591	1.1996731e-05
75	0xb671cbc6	-3.603041e-06
76	0xb5c1aa46	-1.4429177e-06
77	0xb6b06172	-5.256553e-06
78	0x36fa4080	7.4580894e-06
79	0xb5ec3a40	-1.7600323e-06
80	0xb28aaa38	-1.6142721e-08
81	0xb65b30e2	-3.2661997e-06
82	0xb816d6e3	-3.5962916e-05
83	0xb5c081c9	-1.4342887e-06
84	0xb798ba6b	-1.820662e-05
85	0xb8733620	-5.7986123e-05
86	0x36ceceef	6.1633687e-06
87	0x3662d169	3.3798517e-06
88	0xb75973f4	-1.2961205e-05
89	0x34bf1770	3.5593575e-07
90	0x36ad90b8	5.1726493e-06
91	0x379bc340	1.856836e-05
92	0x36a12a1a	4.803075e-06
93	0xb7187df9	-9.089236e-06
94	0xb6e38906	-6.781079e-06
95	0x3614a504	2.214977e-06
96	0xb656ef57	-3.20278e-06
97	0xb3a19dc0	-7.525841e-08
98	0x364b7948	3.0319952e-06
99	0xb5ae87da	-1.3003548e-06
100	0xb5c731e0	-1.4841171e-06
101	0xb5b8f95f	-1.3781645e-06
102	0x378c49e6	1.6723712e-05
103	0x362c95be	2.5717159e-06
104	0x371c4dd0	9.316442e-06
105	0xb8362d7c	-4.3434542e-05
106	0xb7ceafa4	-2.4638903e-05
107	0xb6021aa0	-1.9387007e-06
108	0x3455e780	1.992139e-07
109	0xb5de7035	-1.6572945e-06
110	0x3780806e	1.5318594e-05
111	0x35074108	5.038605e-07
112	0x366d8254	3.5391613e-06
113	0xb4fdcc76	-4.7273687e-07
114	0x36e1a20d	6.7243877e-06
115	0xb684c7b2	-3.957154e-06
116	0xb8237ca6	-3.8978316e-05
117	0xb4a5889b	-3.0833039e-07
118	0xb716e810	-8.994728e-06
119	0xb794b162	-1.7725575e-05
120	0xb668032b	-3.4572538e-06
121	0xb58c98ce	-1.0475285e-06
122	0xb5d9b0ea	-1.6219249e-06
123	0xb51e0f3c	-5.8881756e-07
124	0xb64e94f9	-3.0783106e-06
125	0x36448f20	2.9289586e-06
126	0x36253e05	2.4623016e-06
127	0x37210f0d	9.599852e-06
128	0x36cacabe	6.0436714e-06
129	0xb624ed83	-2.4576154e-06
130	0xb67bb2aa	-3.750591e-06
131	0x36ec5eba	7.0443757e-06
132	0x37c63508	2.3628134e-05
133	0x345a7192	2.0344149e-07
134	0x37dc4058	2.6256006e-05
135	0xb7f45f41	-2.9131423e-05
136	0x3613e8b2	2.2040153e-06
137	0x381cc1f0	3.7373917e-05
138	0x36d6d24c	6.4021788e-06
139	0x36846d27	3.9466136e-06
140	0xb670715d	-3.5828773e-06
141	0x35a33c70	1.2162036e-06
142	0xb6a42ae2	-4.892573e-06
143	0x3750caa0	1.2444943e-05
144	0x36f9134b	7.4230243e-06
145	0x355af098	8.156144e-07
146	0x368ecac0	4.255533e-06
147	0x35d70c32	1.6022298e-06
148	0x3619fcd0	2.2945933e-06
149	0xb740381c	-1.1457156e-05
150	0xb71228d9	-8.711789e-06
151	0x3434a51b	1.6823871e-07
152	0x36bc608b	5.6140757e-06
153	0xb5796342	-9.290417e-07
154	0x368b379a	4.1489957e-06
155	0x36b3602a	5.3458107e-06
156	0x3630f950	2.6371163e-06
157	0xb681fd64	-3.873998e-06
158	0xb71a938c	-9.213469e-06
159	0xb51c77a8	-5.828865e-07
160	0x3716762c	8.968211e-06
161	0x34eba418	4.3891555e-07
162	0xb640577e	-2.8661157e-06
163	0x35562ac6	7.9783456e-07
164	0x36b8d24c	5.508109e-06
165	0xb64beb88	-3.0386454e-06
166	0xb704e718	-7.921619e-06
167	0xb4d92e70	-4.0453187e-07
168	0xb50f1d45	-5.3314244e-07
169	0x36bc777a	5.6167455e-06
170	0xb8562495	-5.1055646e-05
171	0xb5a15220	-1.2019336e-06
172	0xb7b3a568	-2.1415486e-05
173	0xb59defc9	-1.1767198e-06
174	0xb6dd5243	-6.5958898e-06
175	0x35e2a704	1.688692e-06
176	0x3842aa3c	4.6411747e-05
177	0x34bff56c	3.575509e-07
178	0x374d4b8d	1.2236543e-05
179	0x38a2928b	7.752058e-05
180	0xb5f34dbc	-1.8127535e-06
181	0xb7048afc	-7.900173e-06
182	0x36110664	2.1610404e-06
183	0xb6ce4e6c	-6.148408e-06
184	0xb8187686	-3.6350008e-05
185	0xb71aed58	-9.234376e-06
186	0x3617aa67	2.259994e-06
187	0x35e3f527	1.6984167e-06
188	0x36506ceb	3.1057814e-06
189	0x3861b32a	5.381104e-05
190	0x35f8aaec	1.8527185e-06
191	0xb3d16c28	-9.7519944e-08
192	0x362a1e2d	2.5349539e-06
193	0x3789fb86	1.6448797e-05
194	0xb63af830	-2.7860624e-06
195	0x36951ecc	4.4441313e-06
196	0x3721984c	9.631807e-06
197	0xb5d20098	-1.5646392e-06
198	0x368a1a0c	4.1157527e-06
199	0xb82e9bd4	-4.162996e-05
200	0x36396589	2.762625e-06
201	0xb763f1b6	-1.3586532e-05
202	0x375c2d84	1.3123619e-05
203	0xb5bbd43e	-1.3994356e-06
204	0x37f94a25	2.971764e-05
205	0xb776b033	-1.4703767e-05
206	0x35e08dfb	1.6730622e-06
207	0xb765f230	-1.3705852e-05
208	0xb80047f7	-3.05846e-05
209	0x3514175c	5.516829e-07
210	0xb797d168	-1.8098115e-05
211	0x364a3774	3.0132624e-06
212	0xb67d2b1c	-3.772503e-06
213	0x35feee49	1.8993825e-06
214	0x3896356c	7.162508e-05
215	0x37774793	1.4739012e-05
216	0x3694baa8	4.4324734e-06
217	0xb467df5e	-2.1594812e-07
218	0x362825d5	2.5055972e-06
219	0xb5aace2c	-1.2725991e-06
220	0xb78cc627	-1.6781572e-05
221	0x36fbdfa0	7.5064163e-06
222	0xb60ee438	-2.129249e-06
223	0x3612e9c5	2.1891767e-06
224	0xb6e2d886	-6.7605315e-06
225	0x374cdf59	1.221135e-05
226	0xb63665db	-2.71794e-06
227	0x364ba6e1	3.0346494e-06
228	0x360eb7f6	2.1266728e-06
229	0x3747b26c	1.1902866e-05
230	0x37c9a349	2.4037103e-05
231	0x35e255ff	1.686334e-06
232	0xb6891dc3	-4.086383e-06
233	0xb5c57eac	-1.471451e-06
234	0x368c12a8	4.174497e-06
235	0xb68632b7	-3.999415e-06
236	0x33d164d2	9.75066e-08
237	0xb53603c9	-6.780579e-07
238	0xb79db612	-1.8800642e-05
239	0xb7e65fb9	-2.7462711e-05
240	0x334e685e	4.8058034e-08
241	0x3701b6e2	7.73158e-06
242	0xb6979170	-4.517082e-06
243	0x36961024	4.4722274e-06
244	0xb685e67d	-3.9905412e-06
245	0xb74c4dee	-1.2177492e-05
246	0x353f4fda	7.1269244e-07
247	0xb6c8a9d7	-5.9802364e-06
248	0x3884cc10	6.33226e-05
249	0xb714fd56	-8.880472e-06
250	0xb4ea9f20	-4.3701675e-07
251	0xb6de6efb	-6.6290354e-06
252	0x368788b8	4.0392297e-06
253	0xb766b2a7	-1.3750664e-05
254	0xb522f910	-6.0712136e-07
255	0x370f3351	8.535412e-06

bn1.weight f4 [512]
0	0x3f8063b4	1.0030427
1	0x3f8d06e0	1.1017723
2	0x3f87f90f	1.0622882
3	0x3f5ec481	0.8701859
4	0x3f8e2759	1.1105758
5	0x3f64929d	0.89286214
6	0x3f531045	0.824467
7	0x3f7c7ddd	0.9862955
8	0x3f676813	0.9039318
9	0x3f89a7d7	1.0754346
10	0x3f6d753e	0.9275702
11	0x3f74a613	0.9556591
12	0x3f6336db	0.8875558
13	0x3f63c72e	0.889758
14	0x3f711785	0.9417651
15	0x3f66e58f	0.9019403
16	0x3f62c7b3	0.88585967
17	0x3f48c522	0.784258
18	0x3f545f3b	0.8295781
19	0x3f5c162c	0.8597133
20	0x3f506935	0.81410533
21	0x3f72541f	0.9465961
22	0x3f8012cf	1.000574
23	0x3f6126dc	0.8794992
24	0x3f6ae535	0.9175599
25	0x3f783f77	0.9697184
26	0x3f6d5162	0.92702305
27	0x3f6baf72	0.92064583
28	0x3f94b647	1.1618127
29	0x3f75b8fc	0.9598539
30	0x3f4f4aef	0.80973715
31	0x3f79cdcd	0.9757965
32	0x3f61513f	0.88014597
33	0x3f5d76eb	0.8650958
34	0x3f59e90d	0.8512123
35	0x3f72d454	0.94855237
36	0x3f6c0a3f	0.92203134
37	0x3f755792	0.95836747
38	0x3f65b1b2	0.89724267
39	0x3f6a8bc9	0.91619545
40	0x3f84a421	1.0362588
41	0x3f6e14f9	0.9300075
42	0x3f82f5fd	1.023132
43	0x3f6d11a7	0.9260506
44	0x3f7aa80e	0.9791268
45	0x3f551f26	0.83250654
46	0x3f69874a	0.9122206
47	0x3f84a006	1.0361335
48	0x3f76fb22	0.9647695
49	0x3f89cdf4	1.0765977
50	0x3f9189fa	1.1370232
51	0x3f73b780	0.95201874
52	0x3f70de22	0.9408895
53	0x3f5acbda	0.854673
54	0x3f724193	0.9463131
55	0x3f801a49	1.0008022
56	0x3f7499da	0.9554726
57	0x3f6451e5	0.8918746
58	0x3f50c49d	0.8155001
59	0x3f544a6f	0.82926077
60	0x3f5e56fe	0.8685149
61	0x3f7c96ee	0.986678
62	0x3f52ca49	0.8233991
63	0x3f7cfc0b	0.9882209
64	0x3f818399	1.0118285
65	0x3f806fd0	1.0034122
66	0x3f6568cb	0.89613026
67	0x3f6c124d	0.92215425
68	0x3f8c4b9f	1.0960578
69	0x3f913cd0	1.1346684
70	0x3f7a073e	0.976673
71	0x3f6c52e5	0.92313987
72	0x3f6b8233	0.91995543
73	0x3f77ed4a	0.9684645
74	0x3f705aea	0.93888724
75	0x3f7e97a1	0.9945012
76	0x3f736314	0.95073056
77	0x3f71f078	0.9450755
78	0x3f520806	0.8204349
79	0x3f722b33	0.94597167
80	0x3f64b467	0.8933777
81	0x3f57093e	0.8399848
82	0x3f8a384a	1.0798428
83	0x3f50656b	0.8140475
84	0x3f63649b	0.88825387
85	0x3f7be89c	0.9840181
86	0x3f66681f	0.90002626
87	0x3f4950f9	0.7863918
88	0x3f7fb005	0.9987796
89	0x3f643e72	0.89157784
90	0x3f65391e	0.8954028
91	0x3f868de2	1.0512049
92	0x3f68822e	0.9082364
93	0x3f6bdebe	0.9213675
94	0x3f60e7b1	0.87853533
95	0x3f7020e6	0.938002
96	0x3f85c1c9	1.0449764
97	0x3f76028c	0.96097636
98	0x3f9ffde4	1.2499356
99	0x3f44a728	0.7681756
100	0x3f727ed2	0.9472476
101	0x3f62163a	0.88315165
102	0x3f6e7ea3	0.9316198
103	0x3f74a07f	0.955574
104	0x3f72940e	0.94757164
105	0x3f7f000a	0.99609435
106	0x3f733b36	0.95012224
107	0x3f5982be	0.8496512
108	0x3f651b8a	0.89495146
109	0x3f540a2a	0.8282801
110	0x3f783b7e	0.9696578
111	0x3f46b555	0.7762044
112	0x3f59673c	0.8492315
113	0x3f88f4d0	1.0699711
114	0x3f6ee4ba	0.9331776
115	0x3f4a93d3	0.7913181
116	0x3f84fd16	1.0389736
117	0x3f671da2	0.9027959
118	0x3f7d9b0d	0.99064714
119	0x3f7949f9	0.973785
120	0x3f5b67eb	0.8570544
121	0x3f5d6ea7	0.8649697
122	0x3f5f7e97	0.87302536
123	0x3f5c8bf9	0.8615108
124	0x3f4bf2d0	0.7966738
125	0x3f655d62	0.89595616
126	0x3f692e7f	0.9108657
127	0x3f88e11c	1.0693698
128	0x3f735c31	0.9506255
129	0x3f601641	0.87533957
130	0x3f701147	0.93776363
131	0x3f7a96d8	0.9788642
132	0x3f867694	1.0504937
133	0x3f57f648	0.8436017
134	0x3f6c911d	0.92408925
135	0x3f813bf8	1.0096426
136	0x3f732b06	0.94987524
137	0x3f83c7e3	1.0295376
138	0x3f865d40	1.0497208
139	0x3f770f29	0.9650751
140	0x3f514957	0.8175253
141	0x3f5a6c86	0.85321844
142	0x3f7815ce	0.9690827
143	0x3f666f37	0.9001345
144	0x3f7601b6	0.9609636
145	0x3f59ecd0	0.8512697
146	0x3f7487e7	0.9551987
147	0x3f85b8c8	1.0447016
148	0x3f693a5e	0.91104686
149	0x3f69000e	0.9101571
150	0x3f836675	1.0265642
151	0x3f6b0a60	0.91812706
152	0x3f7d9ca1	0.9906712
153	0x3f4f02ab	0.80863446
154	0x3f5c161c	0.85971236
155	0x3f6e6b04	0.9313204
156	0x3f5e0d44	0.8673899
157	0x3f6af883	0.9178545
158	0x3f6a1815	0.91442996
159	0x3f7d8069	0.99024063
160	0x3f809988	1.0046854
161	0x3f596c78	0.84931135
162	0x3f5b095a	0.85561144
163	0x3f509b10	0.81486607
164	0x3f6e12df	0.92997545
165	0x3f6ab28a	0.9167868
166	0x3f5757ee	0.84118545
167	0x3f6e8f0c	0.9318702
168	0x3f6b00a7	0.9179787
169	0x3f806876	1.0031879
170	0x3f834408	1.0255136
171	0x3f648f9a	0.8928162
172	0x3f7b6eed	0.98216134
173	0x3f6ea495	0.9321988
174	0x3f8c5d82	1.0966036
175	0x3f6fe079	0.93701893
176	0x3f930e57	1.1488751
177	0x3f50034b	0.81255025
178	0x3f8fb247	1.1226281
179	0x3f836029	1.0263721
180	0x3f600163	0.87502116
181	0x3f791b5f	0.9730739
182	0x3f6ac4cc	0.9170654
183	0x3f78fab6	0.97257555
184	0x3f8aa2cd	1.0830933
185	0x3f671751	0.90269953
186	0x3f5fff5c	0.8749902
187	0x3f67821d	0.9043291
188	0x3f7acc41	0.97967917
189	0x3f825a43	1.0183796
190	0x3f7354c6	0.9505123
191	0x3f64e1d6	0.894071
192	0x3f5e7318	0.8689437
193	0x3f842d9c	1.0326419
194	0x3f800e6b	1.00044
195	0x3f6168c7	0.880505
196	0x3f7edcd1	0.9955569
197	0x3f53b0a4	0.8269141
198	0x3f597af3	0.8495323
199	0x3f7b329d	0.98124105
200	0x3f74fe96	0.9570097
201	0x3f6a04db	0.9141366
202	0x3f7111e5	0.9416793
203	0x3f728657	0.94736236
204	0x3f813e83	1.0097202
205	0x3f551a0c	0.8324287
206	0x3f6dd73a	0.92906535
207	0x3f64e3be	0.89410007
208	0x3f86bdd4	1.0526681
209	0x3f6c8f0c	0.9240577
210	0x3f859a27	1.0437669
211	0x3f74a3d2	0.9556247
212	0x3f78e3fd	0.9722288
213	0x3f50670a	0.81407225
214	0x3f9500cc	1.1640868
215	0x3f86c92e	1.0530145
216	0x3f86fc7b	1.0545801
217	0x3f5938ab	0.84852093
218	0x3f6d4025	0.92676
219	0x3f706690	0.939065
220	0x3f79892b	0.97474927
221	0x3f7858f5	0.9701074
222	0x3f4f4081	0.809578
223	0x3f85150a	1.0397046
224	0x3f7a2ac6	0.9772152
225	0x3f80f4de	1.0074728
226	0x3f5fdf13	0.8744976
227	0x3f504716	0.8135847
228	0x3f6af862	0.9178525
229	0x3f57b6d8	0.8426337
230	0x3f787e9b	0.97068185
231	0x3f5b801d	0.8574236
232	0x3f681d16	0.9066938
233	0x3f746d67	0.95479435
234	0x3f68b0fd	0.9089506
235	0x3f6b9329	0.92021424
236	0x3f66bddc	0.9013345
237	0x3f4fd7f8	0.8118892
238	0x3f700fe8	0.9377427
239	0x3f8dab66	1.1067932
240	0x3f45bab8	0.77238035
241	0x3f97c27b	1.1856226
242	0x3f7b1e40	0.9809303
243	0x3f8246b0	1.0177822
244	0x3f5f95d7	0.8733801
245	0x3f77a452	0.9673511
246	0x3fa53670	1.2907238
247	0x3f87fe9a	1.0624573
248	0x3f834f28	1.0258532
249	0x3f901ce3	1.1258816
250	0x3f6d4dc5	0.9269679
251	0x3f696e90	0.9118433
252	0x3fafbe47	1.3729943
253	0x3f671884	0.9027178
254	0x3f55c34e	0.83501136
255	0x3f5a43b7	0.85259575

bn1.bias f4 [512]
0	0xbd51286f	-0.05106395
1	0xbdf10fb8	-0.11770576
2	0xbe1b9e6e	-0.15197155
3	0xbd500788	-0.050788432
4	0xbe1d741f	-0.15376328
5	0xbd10d00d	-0.035354663
6	0xbdbb6e6f	-0.09151923
7	0xbdac0781	-0.08399869
8	0xbe279c9f	-0.1636834
9	0xbe08c832	-0.13357618
10	0xbcd167c9	-0.025562184
11	0xbe1b3eca	-0.15160671
12	0xbe6c8ef8	-0.23101413
13	0xbd9096bf	-0.070600025
14	0xbdd79eef	-0.10528361
15	0xbd5e49d2	-0.05426962
16	0xbdcfd683	-0.10148337
17	0xbd92c142	-0.07165767
18	0xbe058e07	-0.1304246
19	0xbdae9585	-0.08524612
20	0xbd4fb268	-0.05070725
21	0xbe2db141	-0.16962148
22	0xbe18137c	-0.14851183
23	0xbe503289	-0.20331778
24	0xbdae0bde	-0.08498357
25	0xbd9be7cd	-0.07612572
26	0xbdeb2a36	-0.114826605
27	0xbe230d16	-0.1592296
28	0xbe31bf32	-0.17358091
29	0xbe714bf4	-0.2356413
30	0xbd592263	-0.05301131
31	0xbe39ad97	-0.18132626
32	0xbd6c8ced	-0.057751585
33	0xbdce4d14	-0.10073295
34	0xbe343421	-0.1759801
35	0xbd480585	-0.04883339
36	0xbd91064e	-0.07081281
37	0xbd884291	-0.066533215
38	0xbd89ea09	-0.06734092
39	0xbe01f69c	-0.1269173
40	0xbdc5470f	-0.09632694
41	0xbd447a50	-0.04796821
42	0xbe720ca2	-0.23637632
43	0xbd911e58	-0.07085866
44	0xbe83056b	-0.2559007
45	0xbcccbfc1	-0.02499378
46	0xbe026060	-0.12732077
47	0xbe1ddbfe	-0.15415952
48	0xbe1a97df	-0.15096997
49	0xbe1b0c6f	-0.15141462
50	0xbdadcd9e	-0.08486484
51	0xbd8a8083	-0.06762793
52	0xbe65031f	-0.22364472
53	0xbe10f6f5	-0.14156707
54	0xbde07a59	-0.10960836
55	0xbe1e2521	-0.15443851
56	0xbe3f9ad4	-0.18711406
57	0xbdcc7717	-0.09983652
58	0xbdcb174d	-0.09916554
59	0xbdde5a8c	-0.10857114
60	0xbd9f6a22	-0.07783915
61	0xbe05421a	-0.13013497
62	0xbdf4507e	-0.11929415
63	0xbe4a1f95	-0.1973861
64	0xbdd05985	-0.101733245
65	0xbd529e2b	-0.051420372
66	0xbd8c9156	-0.06863658
67	0xbdbbbab7	-0.091664724
68	0xbde286e9	-0.11060888
69	0xbda325ee	-0.07966219
70	0xbdf7ba70	-0.12096107
71	0xbe00421a	-0.12525216
72	0xbe3ace15	-0.18242677
73	0xbda9e537	-0.082956724
74	0xbdccd850	-0.10002196
75	0xbe01418b	-0.12622659
76	0xbd836d3d	-0.0641732
77	0xbe096e7d	-0.13421054
78	0xbd84d4cf	-0.064859025
79	0xbd845316	-0.0646116
80	0xbd91616c	-0.0709866
81	0xbd32d7d7	-0.043662872
82	0xbe5ae395	-0.21375878
83	0xbd927e2c	-0.071529716
84	0xbe787e38	-0.24266899
85	0xbe053e21	-0.13011982
86	0xbddc2450	-0.107491136
87	0xbdccbba2	-0.099967256
88	0xbdd2c91f	-0.10292267
89	0xbdc41270	-0.09573829
90	0xbd7070df	-0.058701392
91	0xbdf9152c	-0.12162241
92	0xbdebd81c	-0.11515829
93	0xbd038aa1	-0.03211463
94	0xbd7b3858	-0.06133303
95	0xbe1ecee3	-0.15508609
96	0xbdfd3544	-0.12363675
97	0xbc483714	-0.012220163
98	0xbdc702c0	-0.097173214
99	0xbdf3728f	-0.11887085
100	0xbd9bb12c	-0.07602152
101	0xbddb067c	-0.10694596
102	0xbe271c66	-0.16319427
103	0xbd635cc0	-0.055508375
104	0xbd941464	-0.07230452
105	0xbd84fcfe	-0.06493567
106	0xbdefc4ac	-0.11707434
107	0xbe0dc75e	-0.13845584
108	0xbdf1104c	-0.117706865
109	0xbc06ec64	-0.008235071
110	0xbe144cbe	-0.144824
111	0xbdc26084	-0.09491065
112	0xbde8ec82	-0.11373235
113	0xbdc8e80c	-0.098098844
114	0xbd911ce0	-0.070855856
115	0xbe249703	-0.16073231
116	0xbe46469c	-0.19362873
117	0xbd2e6e54	-0.042585686
118	0xbdbe7857	-0.09300297
119	0xbd2daefc	-0.042403206
120	0xbdbefd46	-0.09325652
121	0xbe200b26	-0.15629253
122	0xbdd979e0	-0.10618949
123	0xbe15b0fb	-0.14618294
124	0x3c020867	0.007936574
125	0xbd70da5e	-0.058802
126	0xbd73891d	-0.059456933
127	0xbdbbd935	-0.09172288
128	0xbd8ee0bb	-0.06976458
129	0xbdf284ce	-0.11841737
130	0xbe120413	-0.14259367
131	0xbda86379	-0.08222098
132	0xbe0727b0	-0.13198733
133	0xbe184f52	-0.14874008
134	0xbd707f7e	-0.058715336
135	0xbe0293c8	-0.12751687
136	0xbd84e964	-0.06489828
137	0xbe4c39db	-0.19943945
138	0xbdb32f49	-0.08749253
139	0xbd85b3e5	-0.06528453
140	0xbde61fd2	-0.11236538
141	0xbd0e2a4e	-0.034708314
142	0xbe288ea6	-0.16460666
143	0x3c42acfc	0.011882063
144	0xbe0495c6	-0.12947759
145	0xbde2ba35	-0.110706724
146	0xbd4fd2c3	-0.050738107
147	0xbe202995	-0.15640862
148	0xbda12dad	-0.0787004
149	0xbd4794eb	-0.048726004
150	0xbe4e259d	-0.20131536
151	0xbc60134b	-0.013676475
152	0xbdbdb6dc	-0.09263393
153	0xbd8a7f97	-0.06762617
154	0xbdc75c25	-0.09734372
155	0xbd9d4151	-0.07678474
156	0xbd2103e4	-0.03931035
157	0xbe05149c	-0.12996143
158	0xbdfea4f5	-0.12433807
159	0xbe01481c	-0.12625164
160	0xbdf8bb58	-0.12145108
161	0xbe263bbf	-0.16233729
162	0xbe32a0b0	-0.1744411
163	0xbda57a72	-0.08079995
164	0xbdaf2bfc	-0.08553311
165	0xbd3e4693	-0.046454024
166	0xbe2c5f39	-0.168332
167	0xbd6b7713	-0.057486605
168	0xbd8d9084	-0.0691233
169	0xbdd6a04b	-0.10479792
170	0xbdf27ccf	-0.118402116
171	0xbe36691e	-0.17813537
172	0xbe1cd84f	-0.1531689
173	0xbda90f53	-0.08254876
174	0xbdcb8a92	-0.099385396
175	0xbd99757d	-0.07493112
176	0xbdb67a64	-0.08910063
177	0xbded1d4b	-0.11577853
178	0xbdc53232	-0.096287146
179	0xbddb3c9b	-0.10704919
180	0xbe0b98dd	-0.13632531
181	0xbdc7b1fd	-0.097507454
182	0xbdd7d6cc	-0.10539016
183	0xbd691852	-0.05690796
184	0xbe1f123d	-0.15534301
185	0xbde6a92d	-0.112627365
186	0xbd289275	-0.041155297
187	0xbe1c572e	-0.15267631
188	0xbdc0965a	-0.09403677
189	0xbe16d6fd	-0.14730449
190	0xbdc2efe6	-0.09518413
191	0xbe23b695	-0.15987618
192	0xbbd6b908	-0.006552819
193	0x3d67ddd6	0.056608044
194	0xbe37dd6f	-0.17955564
195	0xbcbd11de	-0.023079809
196	0xbe148a02	-0.14505771
197	0xbddaadce	-0.10677682
198	0xbd1b98fa	-0.037987687
199	0xbda8b10f	-0.08236896
200	0xbdc0bb14	-0.09410682
201	0xbddc36f4	-0.10752669
202	0xbd526588	-0.05136636
203	0xbe3cfec9	-0.18456568
204	0xbe0ab395	-0.13545068
205	0xbd68ae5d	-0.05680691
206	0xbd48c7a5	-0.04901852
207	0xbe062c99	-0.1310295
208	0xbdacd67e	-0.08439349
209	0xbd939abd	-0.07207248
210	0xbddd30c4	-0.10800317
211	0xbe346981	-0.17618372
212	0xbe09a110	-0.13440347
213	0xbdb0b156	-0.08627574
214	0xbde69609	-0.11259086
215	0xbe285ece	-0.16442415
216	0xbd761bc8	-0.060085088
217	0xbd7953b0	-0.060870826
218	0xbdc39b9f	-0.09551167
219	0xbe22ea70	-0.15909743
220	0xbdbec260	-0.09314418
221	0xbe1bbb05	-0.15208061
222	0xbd336857	-0.043800678
223	0xbd56dd52	-0.05245716
224	0xbdf8255e	-0.12116502
225	0xbdcc8820	-0.09986901
226	0xbd89b122	-0.067232385
227	0xbd1583b1	-0.036502544
228	0xbdfd5f08	-0.123716414
229	0xbd0f73de	-0.03502261
230	0xbddbc189	-0.10730273
231	0xbe10c0d8	-0.14136064
232	0xbcfec2c1	-0.031098725
233	0xbe09b0a7	-0.13446294
234	0xbe4c8431	-0.19972302
235	0xbdd5a308	-0.10431486
236	0xbd8d85d9	-0.06910295
237	0xbe15b4be	-0.14619729
238	0xbde049cd	-0.109515764
239	0xbe52b642	-0.20577338
240	0xbe156e42	-0.14592841
241	0xbe324aa6	-0.17411289
242	0xbde1b133	-0.11020126
243	0xbdc18b25	-0.09450368
244	0xbd36e825	-0.044654984
245	0xbdac9d56	-0.08428447
246	0xbdb3225b	-0.08746787
247	0xbdd1cf3b	-0.10244604
248	0xbe4589ac	-0.19290799
249	0xbdcbb8fc	-0.09947392
250	0xbd7d50f7	-0.061844792
251	0xbdba6d39	-0.09102864
252	0xbdc0857c	-0.0940046
253	0xbe62dc6d	-0.22154398
254	0xbdfd4cc8	-0.123681605
255	0xbe322e0e	-0.17400381

bn1.running_mean f4 [512]
0	0xbdaa6df9	-0.08321757
1	0xbb87b844	-0.004141839
2	0xbc22b8a1	-0.009931714
3	0x3d515898	0.05110988
4	0xbcf6afe4	-0.030113168
5	0x3db6926c	0.089146465
6	0x3ba3ebdd	0.0050024823
7	0xbd0baa78	-0.03409812
8	0xbb5187d4	-0.003197183
9	0xbd1cc273	-0.03827138
10	0x3d0ffb60	0.03515184
11	0xbbc00034	-0.005859399
12	0x3d26d69f	0.040732022
13	0xbd8a77da	-0.06761141
14	0xbca14b22	-0.019689146
15	0xbd787152	-0.060654946
16	0xbdb3cdcb	-0.08779486
17	0xbcd7c054	-0.026336826
18	0xbd472c0a	-0.048625983
19	0xbddaadc4	-0.106776744
20	0x3cebdd99	0.02879219
21	0xbca64f48	-0.020301476
22	0xbcec50b9	-0.028847085
23	0xbd7e8570	-0.062138975
24	0xb7739040	-1.45175145e-05
25	0x3d0a1f71	0.03372139
26	0xbdb583cc	-0.08863029
27	0xbd15aa0f	-0.036539134
28	0xbd6b6b01	-0.057475094
29	0xbc84794d	-0.016171122
30	0x3d100582	0.035161503
31	0xbb3e4ea3	-0.002903857
32	0xbc86b1a4	-0.016442128
33	0x3cf1dd93	0.0295246
34	0xbd8c619e	-0.068545565
35	0xbcd10314	-0.025514163
36	0x3cd08ed0	0.025458723
37	0xbd359878	-0.04433486
38	0xbdbdd854	-0.09269777
39	0xbd290844	-0.04126765
40	0xbd4eba3a	-0.05047057
41	0xbd971cc7	-0.07378536
42	0xbd18eed6	-0.037337147
43	0xbd6d4974	-0.05793138
44	0xbd044f6b	-0.0323023
45	0xbdd7b408	-0.10532385
46	0xbd8a7158	-0.067599
47	0xbbd42812	-0.0064745033
48	0xbdbcb78d	-0.09214697
49	0xbcf58510	-0.029970676
50	0xbdb96366	-0.09052162
51	0xbd3acdf2	-0.04560656
52	0xbc1a9823	-0.009435686
53	0x3b2d2e0e	0.0026425156
54	0x3c7a5062	0.015277954
55	0xbd03db30	-0.032191455
56	0xbc92b5cc	-0.017908953
57	0x3bb6e2f4	0.005581254
58	0x3d904487	0.070443206
59	0xbcfad4c7	-0.030619038
60	0x3d8044f6	0.06263153
61	0xbbace6fe	-0.00527656
62	0x3c8c337c	0.017114393
63	0x3c8cc81c	0.017185263
64	0xbc9c4ece	-0.019080546
65	0xbd4c47a9	-0.049873028
66	0xbca11bca	-0.019666571
67	0xbc5b5d71	-0.013388977
68	0xbd4282c4	-0.04748799
69	0xbc5478f5	-0.0129682915
70	0xbbe4b066	-0.006979036
71	0x3d5afaa7	0.053461697
72	0xbd5e0765	-0.05420627
73	0xbce19d68	-0.027540877
74	0xbcad01d2	-0.021119032
75	0xbc8eee67	-0.017447663
76	0xbd3d9c80	-0.04629183
77	0x3c8400b1	0.016113611
78	0x3cb8a3f2	0.022539113
79	0xbc9c23ca	-0.019060034
80	0xbc9f3304	-0.019433506
81	0xbcefa2cd	-0.029252434
82	0xbd2a5eff	-0.0415945
83	0x3d6d2a4d	0.05790167
84	0xbc4a9006	-0.012363439
85	0xbdb5e0c4	-0.08880761
86	0x3d1c5947	0.03817108
87	0xbd7c2d12	-0.06156642
88	0x3c2926fc	0.010324236
89	0x3b6d8930	0.00362451
90	0xbd5b7d78	-0.053586453
91	0xbd80b28e	-0.062840566
92	0xbd9e831b	-0.0773985
93	0x3c4cd340	0.012501538
94	0x3c8f9fa8	0.017532185
95	0xbd37bea2	-0.044859536
96	0x3cd7bbb7	0.026334627
97	0xbd97c504	-0.074106246
98	0xbcee14bd	-0.029062623
99	0xbd781741	-0.06056905
100	0xbd8548cf	-0.06508028
101	0xbceacc84	-0.028661974
102	0xbd6e7a50	-0.058222115
103	0x3cb069a2	0.021534745
104	0xbbe5248a	-0.006992881
105	0xbc3dcc08	-0.011584289
106	0xbd84b73e	-0.06480263
107	0xbd117d73	-0.03552003
108	0xbd218ad8	-0.039439052
109	0x3d201414	0.039081648
110	0xbd7224ca	-0.059117116
111	0x3d6e33af	0.058154758
112	0xbc8d3138	-0.017235383
113	0xbd627b06	-0.055293106
114	0xbdb3e61c	-0.08784124
115	0x3d364869	0.04450265
116	0x3c04ad46	0.008097952
117	0xbd426291	-0.04745728
118	0x3ce6ce42	0.028174523
119	0xbd348308	-0.044070274
120	0x3cab7f83	0.020934826
121	0xbddf7576	-0.10911076
122	0xbd814a77	-0.06313031
123	0x3cbe1d36	0.023207288
124	0xbd1fefec	-0.039047167
125	0xbdf8fce8	-0.12157613
126	0x3d8e739f	0.06955647
127	0xbcc93800	-0.024562836
128	0xbddcf74e	-0.10789357
129	0x3cba1d72	0.022719119
130	0xbca58dc0	-0.020209193
131	0xbc003332	-0.007824706
132	0xbc132912	-0.00898196
133	0xbd948fcb	-0.07253989
134	0x3d736fd6	0.059432827
135	0xbd1a1e81	-0.037626747
136	0x3c0c5b39	0.008566671
137	0xbc88f13a	-0.016716588
138	0xbd06eb92	-0.0329395
139	0xbc9897d4	-0.018627085
140	0x3af2ab10	0.0018514115
141	0xbce57c55	-0.028013388
142	0x3c6b76b7	0.014371566
143	0xbd22b08e	-0.039719157
144	0xbc596fce	-0.013271285
145	0x3cd1b257	0.025597734
146	0xbdb2550c	-0.08707628
147	0xbd59c6b0	-0.053168
148	0x3cd6f444	0.026239522
149	0x3d3b0688	0.045660526
150	0x3bb1a922	0.0054217735
151	0x3c15778e	0.009122742
152	0x3b74b3a0	0.003733851
153	0xbcdfbb87	-0.0273111
154	0xbc9dd532	-0.019266699
155	0xbd7c6de0	-0.061628222
156	0xbd8929de	-0.06697439
157	0xbd30f3ec	-0.043201372
158	0x3d88b794	0.0667564
159	0xbcfcb1fd	-0.03084659
160	0xbbf7db02	-0.0075639496
161	0xbbcb59b8	-0.0062057637
162	0xbcac9cea	-0.021070916
163	0xbd6217d6	-0.055198513
164	0xbd41021f	-0.047121163
165	0xbcaa6b6c	-0.020803176
166	0xbbddcdfe	-0.006768941
167	0x3bab9790	0.0052365735
168	0xbdc6367a	-0.09678359
169	0xbd6dc368	-0.058047682
170	0x3c0b92ea	0.008518914
171	0x3cf21a01	0.029553415
172	0xbb9a596e	-0.004710368
173	0xbb593ef6	-0.00331491
174	0xbc3e6d78	-0.011622779
175	0x3c216fa0	0.009853274
176	0xbd0274fc	-0.031849846
177	0xbc90fd45	-0.017698893
178	0xbdcdf2ba	-0.10056062
179	0xbda6557c	-0.081217736
180	0xbe1a4aac	-0.15067548
181	0xbcfe22a7	-0.031022383
182	0x3b2a5700	0.0025991797
183	0xbd9326f4	-0.07185164
184	0xbc9d4206	-0.019196521
185	0x3caea00c	0.02131655
186	0xbc827e3f	-0.01592934
187	0xbbc0d029	-0.0058841896
188	0xbd012c97	-0.031536665
189	0xbc76c510	-0.015061632
190	0xbbb3ffd9	-0.005493146
191	0xbc3274f2	-0.01089214
192	0xbd736744	-0.059424654
193	0xbc49b00e	-0.012310041
194	0x3cba58e0	0.022747457
195	0x3c9a9edc	0.018874578
196	0x3d1d2b48	0.038371354
197	0xbda97ab1	-0.08275355
198	0xbd7d1ed4	-0.061796978
199	0xbc5ee320	-0.0136039555
200	0xbceaa720	-0.028644145
201	0xbc260577	-0.010133139
202	0xbd18f98e	-0.03734737
203	0x3c55e2b2	0.013054537
204	0xbc311bdb	-0.010809864
205	0xbcce1e47	-0.025160922
206	0xbda46d64	-0.08028677
207	0x3d68aa0e	0.0568028
208	0xbcab37fc	-0.020900719
209	0x3d299055	0.04139741
210	0xbd096816	-0.03354653
211	0x3c79727c	0.015225049
212	0xbd13ba34	-0.03606625
213	0x3d4e4d94	0.050366953
214	0xbc754be4	-0.014971707
215	0x3bd3c9b5	0.0064632543
216	0xbd019366	-0.03163471
217	0xbd7c757b	-0.061635476
218	0x3bf5899f	0.0074932124
219	0xbc221958	-0.009893738
220	0xbd8ce7f8	-0.06880182
221	0xbc802a44	-0.015645154
222	0x3d6193e7	0.05507269
223	0xbca2067d	-0.019778484
224	0xbaec00f8	-0.001800566
225	0xbd3b7a60	-0.045771003
226	0xbc384a2c	-0.011248153
227	0x3d1727fc	0.036903366
228	0xbd4adf43	-0.049529325
229	0x3c595ec4	0.013267223
230	0x3c72aaa3	0.014811191
231	0xbca64f9c	-0.020301633
232	0xbd8bfaa5	-0.06834916
233	0x3c952f05	0.018210897
234	0xbc010ca9	-0.007876554
235	0x3c80f81e	0.015743311
236	0xbd25a7d0	-0.04044324
237	0xbd19354b	-0.03740434
238	0xbccd7d11	-0.02508405
239	0xbc9ff5c1	-0.019526364
240	0xbd22b6da	-0.039725162
241	0xbd254450	-0.04034835
242	0xbdd15a2a	-0.102222756
243	0xbc0b7281	-0.008511187
244	0xbce73fc4	-0.028228648
245	0xbcf28362	-0.029603664
246	0xbd81b51b	-0.06333371
247	0xbc8519f3	-0.016247725
248	0x3c992316	0.018693488
249	0xbd18e104	-0.037323967
250	0xbd61929e	-0.055071466
251	0x3c5b169c	0.01337209
252	0xbdb6624c	-0.089054674
253	0xbca0e15d	-0.019638712
254	0x3cd47a4f	0.025937228
255	0x3cc39928	0.023876742

bn1.running_var f4 [512]
0	0x3ec7835c	0.38967407
1	0x3f4de8d9	0.8043342
2	0x3e750152	0.23926285
3	0x3efe7830	0.4970107
4	0x3ec90bbf	0.39266774
5	0x3f5a3d22	0.8524953
6	0x3f36bab7	0.71378654
7	0x3f1c892a	0.61146796
8	0x3f12076e	0.57042587
9	0x3eb224aa	0.34793597
10	0x3f8f6e42	1.1205523
11	0x3f8daa09	1.1067516
12	0x3f62ab03	0.88542193
13	0x3f085bd4	0.5326512
14	0x3e82834b	0.25490794
15	0x3f3f8d68	0.74825144
16	0x3f0e3a25	0.5555747
17	0x3f644dda	0.8918129
18	0x3fad3125	1.3530623
19	0x3f325955	0.6966756
20	0x3f57278e	0.8404473
21	0x3eca3886	0.3949625
22	0x3ea29cab	0.31760153
23	0x3f0eab0e	0.5572976
24	0x3ee9e1c1	0.4568005
25	0x3f0ca862	0.5494443
26	0x3efa4f7e	0.48888773
27	0x3f00599f	0.5013675
28	0x3f21bc06	0.63177526
29	0x3ec241e2	0.3794089
30	0x3f1b4cd9	0.60664135
31	0x3f8ead8d	1.1146713
32	0x3f507eb7	0.8144335
33	0x3fcbecb2	1.5931609
34	0x3f2b70ea	0.6696917
35	0x3f4b8402	0.794983
36	0x3f16592e	0.5872983
37	0x3ee5ed9c	0.44907844
38	0x3f13c26e	0.5771855
39	0x3f52589d	0.82166463
40	0x3fc262c5	1.5186392
41	0x3f191627	0.59799427
42	0x3f0cca9b	0.5499665
43	0x3f2c0030	0.67187786
44	0x3e8cf51b	0.2753075
45	0x3f83c75b	1.0295213
46	0x3f180f28	0.59398127
47	0x3eb5b4ad	0.35489407
48	0x3f0dc962	0.5538541
49	0x3ea5938a	0.32339126
50	0x4023f886	2.5620437
51	0x3f10d004	0.56567407
52	0x3e95e067	0.29272768
53	0x3f2593ea	0.64678824
54	0x3e9c2194	0.30494368
55	0x3ec3bf42	0.38231856
56	0x3ed6811a	0.41895372
57	0x3f10f326	0.56621015
58	0x3f3df2dc	0.741987
59	0x3f3b12e6	0.7307571
60	0x3f1f8e2d	0.6232632
61	0x3ec20f9a	0.37902528
62	0x3ed6dd73	0.41965827
63	0x3ece5a66	0.40303344
64	0x3ead2783	0.33819208
65	0x3f79579e	0.9739932
66	0x3ea567a7	0.32305643
67	0x3ea62ea2	0.32457453
68	0x3fcee681	1.6164094
69	0x3f393879	0.72351795
70	0x3ea7d444	0.32779133
71	0x3f2136ee	0.6297444
72	0x3f535ffa	0.82568324
73	0x3ee736dc	0.45159042
74	0x3eca3d9c	0.3950013
75	0x3f7b4282	0.9814836
76	0x3f1abf8c	0.6044853
77	0x3ee0c2d7	0.4389865
78	0x3f673004	0.9030764
79	0x3f1dfdfe	0.61715686
80	0x3f1af65a	0.6053215
81	0x3f6db95a	0.9286095
82	0x3efe57ad	0.49676266
83	0x3f5726c2	0.84043515
84	0x3f1e59bd	0.6185568
85	0x3f165cb5	0.5873521
86	0x3f10cb1e	0.5655993
87	0x3eff5a42	0.4987355
88	0x3f1f545a	0.62238085
89	0x3f1f0c83	0.62128466
90	0x3f62edae	0.8864392
91	0x3ed8a140	0.42310524
92	0x3f19f545	0.60139877
93	0x3f001a16	0.50039804
94	0x3fc732c4	1.5562367
95	0x3f2897d0	0.6585665
96	0x3f0f4a1a	0.55972445
97	0x3f2d5dff	0.6772155
98	0x401cfd32	2.4529538
99	0x3f6ca88e	0.92444694
100	0x3f1bd4ea	0.60871756
101	0x3f037d9e	0.5136355
102	0x3ee6ddb8	0.45091033
103	0x3ff47be9	1.9100314
104	0x3eb9f94c	0.3632301
105	0x3ed4f78a	0.41595107
106	0x3f497a9b	0.78702706
107	0x3edd97bd	0.4327983
108	0x3f01bce3	0.50678843
109	0x3f2bc569	0.670981
110	0x3ed3fed4	0.41405356
111	0x3f4c76a1	0.79868513
112	0x3f17e35b	0.5933129
113	0x3fa40a59	1.2815658
114	0x3ec3162f	0.38102862
115	0x3f500bb5	0.81267864
116	0x3eeffa38	0.4687059
117	0x3f731478	0.9495311
118	0x3edccce3	0.43125066
119	0x3ea3c170	0.3198352
120	0x3f36ff54	0.7148335
121	0x3f1bbf14	0.6083844
122	0x3f1786b4	0.59189916
123	0x3f127492	0.5720912
124	0x3f284195	0.6572507
125	0x3ef74430	0.4829421
126	0x3ef00f08	0.46886468
127	0x3e9de56d	0.308391
128	0x3fc90d5e	1.5707204
129	0x3ef63f2c	0.4809507
130	0x3ed048d7	0.40680572
131	0x3ebfcd2d	0.37461224
132	0x3ecd4279	0.40089777
133	0x3f32f692	0.69907486
134	0x3eef4607	0.46733114
135	0x3f060475	0.5235055
136	0x3ec653dc	0.38735855
137	0x3eff4e21	0.49864295
138	0x3e89b2f8	0.26894355
139	0x3f037ce1	0.51362425
140	0x3f1d4ec9	0.6144834
141	0x3f1c61b9	0.6108661
142	0x3f04be30	0.51852703
143	0x3f191c27	0.5980858
144	0x3faf88e9	1.3713657
145	0x3f31bb43	0.69426364
146	0x3ef5f0cc	0.48035276
147	0x3ed0f075	0.40808454
148	0x3f284f76	0.6574625
149	0x3ee944ce	0.45560306
150	0x3ed8c66f	0.42338893
151	0x3f6bf8c2	0.9217645
152	0x3e9beb66	0.30453032
153	0x3f435d0f	0.7631387
154	0x3f3a6422	0.7280904
155	0x3f6c7c62	0.92377293
156	0x3f085c68	0.53266
157	0x3f1624f9	0.58650166
158	0x3ee93a85	0.4555246
159	0x3eec9d21	0.4621363
160	0x3ee445f7	0.4458463
161	0x3ed0bb7a	0.40768033
162	0x3f189c2a	0.5961329
163	0x3f6a749c	0.9158418
164	0x3eb76638	0.35820174
165	0x3f06222e	0.52395904
166	0x3ef862df	0.48512933
167	0x3f05d203	0.5227358
168	0x3f2d20a2	0.6762792
169	0x3f2cc46f	0.67487234
170	0x3f0928b9	0.5357776
171	0x3f1884f1	0.5957785
172	0x3f0c8cae	0.5490216
173	0x3f34b50a	0.70588744
174	0x3ec7d35a	0.39028436
175	0x3f0391b0	0.51394176
176	0x3fedd4f3	1.8580612
177	0x3f14cdc9	0.58126503
178	0x401f3a32	2.487927
179	0x3fad7ed9	1.3554336
180	0x3f73382c	0.95007586
181	0x3ee82a0a	0.45344573
182	0x3eed534c	0.46352613
183	0x3ee9dbbc	0.45675457
184	0x3eacfc87	0.33786413
185	0x3f18473e	0.59483707
186	0x3f33b06e	0.70191085
187	0x3ef64304	0.48098004
188	0x3f0761dc	0.52883697
189	0x3f11994f	0.56874555
190	0x3ebd5fd6	0.3698718
191	0x3f287d0d	0.6581581
192	0x3f5466dc	0.8296945
193	0x3e22c6c0	0.1589613
194	0x3ef871aa	0.4852422
195	0x3f88d6e0	1.0690575
196	0x3e980807	0.29693624
197	0x3f416f2c	0.7556026
198	0x3f66517e	0.899681
199	0x3f04bb29	0.51848084
200	0x3f51ae85	0.8190692
201	0x3ed3f40a	0.41397125
202	0x3f1d4c5a	0.6144463
203	0x3f287af4	0.6581261
204	0x3ec5f520	0.38663578
205	0x3f007f36	0.5019411
206	0x3f39897c	0.7247541
207	0x3f2dc14e	0.67873085
208	0x3eef3dc6	0.46726817
209	0x3ef966c0	0.48711205
210	0x3effb9a1	0.4994631
211	0x3eb7c344	0.35891163
212	0x3f0b1931	0.54335314
213	0x3f294079	0.66114
214	0x3f79d7fd	0.97595197
215	0x3eb0bf36	0.34520882
216	0x3eb1878c	0.34673727
217	0x3f168503	0.5879671
218	0x3f44c597	0.76864
219	0x3ee38df4	0.4444424
220	0x3f1816a8	0.5940957
221	0x3ee56a95	0.44807878
222	0x3f0319be	0.51211154
223	0x3e90ef85	0.2830774
224	0x3f7ecd90	0.99532413
225	0x3e9d2642	0.3069325
226	0x3ea0a9aa	0.31379443
227	0x3f005e7c	0.5014417
228	0x3f04dcb9	0.51899296
229	0x3f1bbc40	0.6083412
230	0x3f0b35c8	0.5437894
231	0x3f22e885	0.63636047
232	0x3f2b7e4a	0.66989577
233	0x3f06f9c7	0.5272488
234	0x3e8f7458	0.2801845
235	0x3f9edf1d	1.2411839
236	0x3ef2fdd1	0.47459272
237	0x3eb9a3b2	0.36257702
238	0x3ed11590	0.40836763
239	0x3e8b12cd	0.2716278
240	0x3f1f464a	0.6221663
241	0x3eb35dd2	0.35032517
242	0x3fb6bd67	1.4276551
243	0x3ed3f58f	0.41398284
244	0x3f2409ee	0.6407765
245	0x3e825202	0.25453192
246	0x404bd32d	3.1847641
247	0x3e7491d8	0.2388376
248	0x3e9bb47d	0.3041114
249	0x3f3a15b6	0.7268938
250	0x3f073a4a	0.5282332
251	0x3ee4dd4e	0.44700092
252	0x406a5eaa	3.6620278
253	0x3ee9ff32	0.4570251
254	0x3ed641ea	0.41847163
255	0x3eafb803	0.34320077

fc2.weight f4 [256, 512]
0	0xbda8621a	-0.082218364
1	0xbdab2a97	-0.08357733
2	0xbd0cd7c9	-0.034385476
3	0xbd1d64eb	-0.03842632
4	0x3bbf6519	0.005840909
5	0xbd898b0e	-0.06715976
6	0xbcf8358c	-0.03029897
7	0x3cf14aa3	0.029454535
8	0x3c98221b	0.01857095
9	0x3dad200b	0.08453377
10	0x3d1f39de	0.038873546
11	0xbd450d2d	-0.04810827
12	0xbcdba461	-0.02681178
13	0x3d159ef4	0.036528543
14	0x3c8e3dab	0.01736339
15	0x3d17a89d	0.037026037
16	0xbd8c5dd7	-0.06853836
17	0x3d3b5a78	0.045740575
18	0xbc74af11	-0.014934317
19	0x3d36e5c3	0.04465271
20	0xbda4d114	-0.08047691
21	0xbc865633	-0.016398525
22	0xbd14c4f6	-0.03632065
23	0x3d3c03f9	0.045902226
24	0x3bb969cb	0.0056583635
25	0xbd2b10b9	-0.041763995
26	0x3d140b98	0.03614387
27	0xbc8f1c8f	-0.017469672
28	0x3d779fed	0.06045525
29	0x3c058465	0.008149241
30	0xbd06afac	-0.032882378
31	0x3be6cd33	0.0070435046
32	0x3cfb0473	0.03064177
33	0x3cf4532e	0.02982482
34	0x3d087ed8	0.033324093
35	0x3ad99f9f	0.0016603357
36	0xbb2af328	-0.0026084874
37	0x3dd589c8	0.1042667
38	0x3d872927	0.06599646
39	0x3cf9ca3d	0.030491943
40	0xbc24b40e	-0.010052694
41	0xbca77e49	-0.02044596
42	0xbd363b65	-0.044490237
43	0xbaa6e0a5	-0.0012731744
44	0x3d6be448	0.057590753
45	0xbcb8a7f2	-0.02254102
46	0x3abd0c63	0.0014423247
47	0xbd09f930	-0.03368491
48	0x3d24ef04	0.040267006
49	0x3e048aa6	0.12943515
50	0x3be427d8	0.0069627576
51	0x3db11ecc	0.08648452
52	0xbd89c339	-0.06726689
53	0xbd30e5dd	-0.043187965
54	0x3d67af02	0.056563385
55	0x3dc7b1a9	0.09750683
56	0x3cac2ff5	0.021018961
57	0x3c13fa2e	0.009031815
58	0xbd99e79b	-0.07514878
59	0x3cf8c35a	0.030366588
60	0xbccbdb25	-0.02488477
61	0x3ce17fc8	0.027526751
62	0xbd0c4fb4	-0.0342557
63	0x3ced57f9	0.028972613
64	0xbcfe173a	-0.031016935
65	0x3bd9e369	0.006649424
66	0xbd2a9112	-0.041642256
67	0xbaa61df9	-0.0012673727
68	0x3dd1326d	0.10214696
69	0xbcec2791	-0.02882746
70	0x3d95fe58	0.07323903
71	0xbd9e4ba0	-0.07729268
72	0x3ca44cf8	0.020056233
73	0x3d305e6e	0.043058805
74	0x3df4b449	0.11948449
75	0xbb3c195a	-0.0028701634
76	0x3ce9b0fa	0.028526772
77	0x3c531caf	0.012885257
78	0x3d7e56e5	0.062094588
79	0x3da777f2	0.08177175
80	0xbd97078c	-0.07374486
81	0x3d007c13	0.031368326
82	0x3c125593	0.008931535
83	0xbc992d0b	-0.018698236
84	0xbc22c572	-0.00993477
85	0x3d5b2298	0.053499788
86	0xbdba877a	-0.09107871
87	0xbc851559	-0.01624553
88	0xbc96aa09	-0.018391626
89	0x3c22adff	0.009929179
90	0x3d5546dc	0.05206953
91	0x3cac9517	0.021067185
92	0x3e032dd6	0.12810454
93	0x3d9863ad	0.07440887
94	0x3d504ba9	0.050853405
95	0xbb8f4e3e	-0.004373341
96	0xbd091bb1	-0.033473674
97	0xbc0d9ef4	-0.008643854
98	0xbd21285e	-0.039345138
99	0x3cc4ca45	0.02402223
100	0x3d2f8547	0.042851713
101	0xbd36211e	-0.044465177
102	0x3c36e6fa	0.011163468
103	0x3d847710	0.06468022
104	0x3bca2efb	0.0061701513
105	0xbbb05734	-0.005381489
106	0x3d809fc8	0.06280476
107	0xbd8118e6	-0.06303577
108	0x3d5fc62c	0.05463235
109	0xbdddfc3e	-0.10839127
110	0x3d14ad87	0.0362983
111	0x3ba7e2e0	0.005123481
112	0x3cbc13d6	0.022958677
113	0x3d365a8a	0.04451994
114	0x3c753d4e	0.014968229
115	0x3b87d21b	0.0041449196
116	0x3c4cd5d4	0.0125021525
117	0x3c909a6c	0.01765176
118	0xbcc07c05	-0.023496637
119	0xb8d0c511	-9.9549194e-05
120	0x3bb83c7e	0.0056224456
121	0xbdbe2afe	-0.09285544
122	0x3d805119	0.06265468
123	0xba15c318	-0.000571297
124	0xbca49ba2	-0.020093743
125	0x3d277865	0.0408863
126	0xbd270f91	-0.04078633
127	0xbdef72f2	-0.11691846
128	0x3cc8d288	0.024514452
129	0xbd7159ff	-0.058923718
130	0x3d2d5eb8	0.04232666
131	0x3c94a04e	0.018142845
132	0x3b0cdc00	0.0021493435
133	0x3b24aa1d	0.002512581
134	0xbd585292	-0.05281312
135	0x3cbeab0c	0.02327492
136	0x3c2125c7	0.009835667
137	0x3c2f031d	0.010681895
138	0xbd620fe7	-0.055190947
139	0x3d256d75	0.04038759
140	0xbc8b4ef1	-0.017005416
141	0xbd354cbe	-0.04426264
142	0xbbefa871	-0.007313781
143	0xbc301024	-0.010746036
144	0xbd20f834	-0.039299205
145	0x3d59bd7d	0.053159226
146	0xbca16b3e	-0.019704457
147	0x3d0484f9	0.032353375
148	0xbda998b2	-0.082810774
149	0xbd5cd711	-0.05391604
150	0x3cc6ed11	0.024282964
151	0x3d9df92c	0.077135414
152	0x3ca7f5b0	0.020502895
153	0xbb1fd5b5	-0.0024388854
154	0x3dae80e1	0.085206755
155	0x3c75bb59	0.01499828
156	0x3d44a48c	0.048008487
157	0xbc09468e	-0.008378638
158	0xbcd993f5	-0.02655981
159	0xbd88b4c9	-0.06675107
160	0x3b20e47f	0.0024550257
161	0x3c9c1f6f	0.019057957
162	0x3c40d288	0.011768945
163	0xbd40528f	-0.046953734
164	0x3ca04fb2	0.019569252
165	0xbd2d564f	-0.04231864
166	0x3c8966f0	0.016772717
167	0xbd39e2cf	-0.045382317
168	0xbdb13d1b	-0.08654233
169	0x3d963bb3	0.073356055
170	0xbd9ef55c	-0.07761642
171	0xbd19a9ab	-0.037515324
172	0x3dbfbb54	0.09361902
173	0xbd70af3d	-0.05876087
174	0xbc3614d2	-0.011113362
175	0xbd060e2c	-0.03272836
176	0xbd3d20f8	-0.04617402
177	0x3dbe0393	0.092780255
178	0x3cb9af56	0.022666615
179	0x3df58278	0.119877756
180	0x3c2e005a	0.010620201
181	0xbcff7d49	-0.03118767
182	0x3d38e9fc	0.04514502
183	0xbcc88dce	-0.02448168
184	0x3df5b97d	0.1199827
185	0xbd06a737	-0.032874312
186	0x3d7d7455	0.06187852
187	0x3d4533e6	0.048145197
188	0x3d1e5ce4	0.038662806
189	0x3d924bcd	0.07143364
190	0x3c10498c	0.008806597
191	0xbd7936b3	-0.06084318
192	0x3d30992f	0.043114837
193	0x3d2b9bed	0.04189675
194	0xbd00ae4e	-0.03141623
195	0xbc0e65f3	-0.008691299
196	0x3c351149	0.011051484
197	0x3b8b2f6c	0.0042475965
198	0x3c1d664b	0.009606908
199	0xbcde8836	-0.02716456
200	0x3c2e8bde	0.010653464
201	0x3dc0cb0b	0.094137274
202	0x3c28af17	0.010295651
203	0xbd79300d	-0.06083684
204	0xbd133866	-0.035942458
205	0x3d822673	0.0635499
206	0x3cac1656	0.021006744
207	0xbd91055c	-0.070811
208	0x3c9d76ae	0.01922163
209	0xbdfafcd4	-0.122552544
210	0x3d56fa4c	0.052484795
211	0xbd18fff9	-0.03735349
212	0x3d8a9cc7	0.06768184
213	0xba7cce78	-0.00096438034
214	0x3d62f9e1	0.055414084
215	0xbd2dd14e	-0.042435937
216	0xbc18239a	-0.009285832
217	0x3c86aa09	0.016438501
218	0xbd99d379	-0.07511038
219	0xbc0b36d8	-0.0084969625
220	0xbb0f8e64	-0.002190494
221	0xbc164b6c	-0.009173255
222	0xbd4e0b88	-0.050303966
223	0x3c2e2a98	0.010630272
224	0x3d77ffa9	0.06054655
225	0x3d3ad518	0.04561338
226	0xbd110d1d	-0.035412896
227	0xbd91e4b0	-0.07123697
228	0x3db3270e	0.087476835
229	0x3d1dfcad	0.03857105
230	0x3caf84df	0.021425663
231	0x3b56f4a5	0.0032799628
232	0x3c4deb88	0.012568362
233	0x3bf27b8e	0.007399983
234	0xbd12ad4f	-0.03580981
235	0x3d49ae57	0.04923853
236	0x3d30a49b	0.04312573
237	0x3c491130	0.012272164
238	0x3d0012ca	0.03126792
239	0xbd050fff	-0.03248596
240	0xbd878702	-0.066175476
241	0x3ddf9db6	0.10918753
242	0x3dc6152c	0.09672007
243	0x3ceade5c	0.028670482
244	0x3cae1d5a	0.02125423
245	0x3c98aafa	0.018636215
246	0x3c3be354	0.0114677735
247	0x3ddff034	0.10934487
248	0x3b9f3f47	0.004859838
249	0xbd50e161	-0.050996188
250	0xbd2ad9aa	-0.041711487
251	0xbc7b1e8d	-0.015327108
252	0xbb9dac1f	-0.004811778
253	0xba79689d	-0.0009514185
254	0xbb3bf53d	-0.002868011
255	0x3ba48a3a	0.0050213607
