DNN/models/first_iteration.pth (torch, 229928 bytes, 10 tensors)

fc1.weight f4 [256, 49]
000000 b8 b6 62 be c3 00 6c be cd 0c 49 be c3 d4 89 3d
       -0.22140014 -0.23047166 -0.1963379 0.06730034
000010 3b c9 68 be fa 62 ab 3e f4 b0 3d bd 2e cf 73 3e
       -0.22733013 0.3347395 -0.046311334 0.23809502
000020 8e 3d 0e 3e 97 34 4e 3d 44 53 da 3d cc f8 8b 3e
       0.13890669 0.050343122 0.10660413 0.27338254
000030 9b 56 93 be e3 ec bd 3d 19 5a 0c be e3 a0 e0 3d
       -0.28777012 0.09273698 -0.13706245 0.10968187
000040 8a 05 13 be 4a 62 98 3e bd 47 d1 be 66 06 01 3e
       -0.14357582 0.2976249 -0.40875044 0.12600097
000050 95 06 83 bd b1 66 2b be 8e 51 f9 3d 61 4b c1 bc
       -0.0639774 -0.16738392 0.121737584 -0.023595514
000060 1b 74 89 3d 90 99 3b 3e 6b 09 0d bf cf ac 03 3e
       0.067115985 0.18320298 -0.55092496 0.1285889
000070 37 2e e9 be 1c 32 b5 bd 77 a0 30 be f6 74 39 be
       -0.45543072 -0.08847448 -0.17248712 -0.18111023
000080 de c2 ee bd 35 c3 ff 3d 3c a2 df 3d 69 2a cf 3d
       -0.11658262 0.12488405 0.109196156 0.10115511
000090 c9 36 9e 3e f2 81 89 3e 36 a2 70 be 2e 1f 6b 3e
       0.30901173 0.26856953 -0.23499379 0.22961113
0000a0 d5 5d c4 3d d9 ca 5c 3e 7c c4 22 3e fa b4 a8 bb
       0.095882095 0.21561755 0.15895265 -0.005148527
0000b0 09 3d 35 3e 56 d0 cb 3d 4f c7 df be e3 d4 c6 3e
       0.17699064 0.09951846 -0.43706748 0.38834295
0000c0 33 f3 b7 bd fe 7d d0 be 00 ad 65 3e d9 a6 81 bc
       -0.089819334 -0.40721124 0.22429276 -0.01582663
0000d0 7d cf c1 3e d3 b8 b0 bd 39 fc 9a 3e 72 a3 50 3d
       0.37853613 -0.086290024 0.30270556 0.050937124
0000e0 e7 09 86 bd c5 5a 91 3e 71 a8 26 3c 0d 85 ea bc
       -0.065448575 0.28389564 0.0101719955 -0.028627897
0000f0 b5 bd 0d 3f 88 2f cf 3d aa 03 2e 3e 7c e2 48 3e
       0.55367595 0.10116488 0.16993585 0.19617647
000100 fd 4e 0f be b8 4e 33 bd c8 f5 5c 3e 76 24 b8 bd
       -0.13994975 -0.043776244 0.21578133 -0.08991329
000110 77 46 98 be d3 93 3d bf 1e c0 5c bd 26 c9 ab bd
       -0.2974126 -0.74053687 -0.053894155 -0.083879754
000120 f6 a8 e9 3d 4c b9 9a 3d 55 d4 d6 bd 6d c9 d6 3c
       0.1140918 0.07554874 -0.10489718 0.026219094
000130 be 56 93 3e 0f ca 2a 3e af d3 b8 bd 56 e0 94 be
       0.28777117 0.16678642 -0.090247504 -0.29077405
000140 04 8e 98 3d 28 91 18 3e 6a bf 46 bd 1c 6a 3d 3e
       0.07448962 0.14899123 -0.04852239 0.18497509
000150 6d 08 03 3e c6 02 b8 3e 77 cc a2 3d 56 fd 1d be
       0.12796183 0.35939616 0.07949155 -0.15428671
000160 3a f9 63 be 42 d7 84 3e 59 48 56 bd 20 de f3 3d
       -0.22263041 0.2594548 -0.05231509 0.11907601
000170 ad a2 d2 3d c6 2e 8b bd f6 1a 21 3e 31 4d 47 3e
       0.10284934 -0.06796031 0.15732941 0.1946304
000180 2f 7a eb be 53 e1 d3 3e 3d e3 f8 be 31 b9 b8 bd
       -0.45991656 0.41382846 -0.4861087 -0.090196975
000190 ac 73 47 be 72 26 75 3e 79 f8 9e be d0 75 02 3d
       -0.19477719 0.23940447 -0.31048945 0.031850636
0001a0 f7 9c 41 be 3d 70 5b 3d 0c 26 58 3e 3c 72 aa be
       -0.18907534 0.053573836 0.21108264 -0.3329028
0001b0 b1 32 c8 be 42 21 b3 3e 74 35 c6 3e 96 e6 c1 3e
       -0.39101174 0.3498631 0.38712656 0.37871236
0001c0 36 d6 e5 be fb 0a 72 3f 40 20 0f bf 54 73 80 3e
       -0.44889992 0.94548005 -0.55908585 0.25087988
0001d0 d1 92 43 be 03 57 95 be ee d4 4d 3f 22 b9 14 3e
       -0.19098975 -0.29167947 0.8040303 0.14523748
0001e0 5a 28 cf bc 81 ec 68 3d 2d 45 2a be 47 23 1c bd
       -0.025287796 0.056866173 -0.16627951 -0.03811958
0001f0 fa 70 00 3c 36 88 e3 bd 82 3b 84 3e a2 9b 8b 3e
       0.007839436 -0.111099645 0.2582665 0.27267176
000200 54 48 62 3d 1c 7f 86 bd da bc b1 bd 4d f8 85 bc
       0.05524476 -0.06567213 -0.08678599 -0.01635375
000210 b1 36 bb bd 04 b3 81 bd e8 35 41 3d 2f 77 80 be
       -0.09141291 -0.06332973 0.04717055 -0.2509093
000220 7e 68 0c 3e 30 1d cb bd e4 4a 6b be 2a b6 b6 3d
       0.13711736 -0.099176764 -0.22977787 0.08921464
000230 21 da 97 bc 45 28 29 3e 08 93 6d be 11 2f a3 3e
       -0.01853663 0.16519268 -0.23200619 0.31871846
000240 79 28 62 be 47 3c b9 3d cf 31 1d 3d af 89 48 bf
       -0.22085752 0.090447 0.03837758 -0.7833509
000250 f0 08 6b be 63 b2 4f bd fa be 5f be b2 0c a1 bd
       -0.22952628 -0.050707232 -0.21850196 -0.078637496
000260 e8 ee 8d 3b 0a 2c 1c be 8d 5a 17 3d 5f d6 6b 3d
       0.0043314584 -0.15251175 0.03695159 0.057577487
000270 9b 3b d3 3d d0 65 05 be d4 39 17 3e 19 f0 ad be
       0.10314103 -0.1302712 0.14768153 -0.33972242
000280 57 02 3f 3b 6e 3f 73 3e 67 be ee bd 02 54 42 be
       0.0029145682 0.23754665 -0.1165741 -0.18977359
000290 7e 67 b1 bd 13 0f d3 bd 4d 95 af 3d ea 61 e8 be
       -0.08662318 -0.103056096 0.08573399 -0.45387203
0002a0 f5 aa 14 bf a4 64 98 3d 5e 1b ca 3d 04 27 93 3e
       -0.5807336 0.07441071 0.09868501 0.28740704
0002b0 15 48 eb 3d 84 b8 60 3e 1a 25 a7 3e 83 5b 83 be
       0.11488358 0.21945387 0.32645494 -0.25655755
0002c0 37 79 2c 3c 08 fe c8 bd 0f d0 8b 3e e6 8a d2 3e
       0.010526947 -0.098140776 0.27307174 0.41121596
0002d0 99 6c 85 3e 9c c9 df bd 68 c3 b7 3e 6d 64 a5 be
       0.26059416 -0.10927126 0.3589127 -0.3230318
0002e0 d9 08 34 be f9 9d 06 3e 9a 18 4d be 17 1d 90 3e
       -0.175815 0.131462 -0.20028916 0.28147194
0002f0 ea d1 9c 3d ad 70 85 be cd 14 ed be 7b e7 31 3e
       0.076572254 -0.26062527 -0.46304932 0.17373459
000300 09 03 c7 be a6 22 0e be 2f 9d 67 be 32 ca 81 3e
       -0.38869503 -0.13880405 -0.22618555 0.25349575
000310 59 fd 19 be 4d fc 82 bd 90 de bb bd 14 12 35 3b
       -0.1503805 -0.06395779 -0.0917331 0.0027629184
000320 7e 59 9c be 3b c6 01 3e ba 48 bf 3e 94 23 da be
       -0.30537027 0.12673275 0.37360173 -0.4260527
000330 11 8c b5 bd 32 27 65 be b1 d2 40 be 3f b1 e0 bd
       -0.08864606 -0.22378233 -0.18830372 -0.10971307
000340 09 e1 3b be b1 b7 b0 bd e1 01 41 be 47 6f 81 3d
       -0.18347563 -0.08628786 -0.18848373 0.063200526
000350 69 40 82 bf 71 1e 12 3f 91 5f 53 bd 30 73 27 be
       -1.0175906 0.570777 -0.05160481 -0.16352534
000360 74 2b 89 3f 87 f4 8d be 5a 38 d4 3e 19 c8 f6 be
       1.0716386 -0.27725622 0.41449243 -0.48199537
000370 c9 bf fb 3e 8e 93 f9 3e 36 35 55 3e 0c 00 f6 bc
       0.49169758 0.48745388 0.2082108 -0.03002932
000380 f7 54 96 3d b3 9c a7 bd 49 73 28 be 32 3d 12 be
       0.073404245 -0.08184185 -0.16450228 -0.14281157
000390 eb ba 72 3d a0 60 cf bc 2b 95 69 bd 1c 94 a4 be
       0.05926029 -0.02531463 -0.057027023 -0.32144248
0003a0 e5 ac 92 3d 8d 86 1a be 09 da cd 3d 65 4b 14 3e
       0.07161883 -0.1509039 0.100513525 0.14481886
0003b0 b5 b7 5a be 37 0b 1d be ed ea b6 be bd 0e dd bb
       -0.21359141 -0.1533631 -0.3572611 -0.0067461417
0003c0 f7 4c 11 3f 19 42 8f 3e bc cb 07 3f 45 c8 d4 be
       0.56758064 0.27980116 0.5304525 -0.41559044
0003d0 94 3d aa 3e 71 d4 e7 be aa e6 ee 3e 1d 57 17 3e
       0.33250105 -0.45279267 0.46660358 0.14779325
0003e0 e1 00 bb 3e 2b c3 8e 3d b3 e2 fa bd cd 4a 96 be
       0.36524108 0.06970819 -0.12250271 -0.29353943
0003f0 60 21 46 3d cf a0 cb 3e 41 5f e2 be ad 6f 98 be
       0.048371673 0.39771125 -0.44213298 -0.29772702

fc1.bias f4 [256]
000000 34 c9 d1 be 44 93 1f bf 4f fa dd bd 6a 0b 82 be
       -0.40973818 -0.62334085 -0.10838758 -0.25399333
000010 57 d7 96 be 23 08 c9 be da 88 15 bf f3 20 9c be
       -0.29461166 -0.3926402 -0.58411944 -0.30493888
000020 8f fa 8d be 9a 94 92 be 3c 8f d6 be 2c 05 e7 be
       -0.27730224 -0.28629 -0.41906154 -0.45121133
000030 c5 18 10 3f 07 30 00 bf fc fe ab 3d da ad 91 bf
       0.56287795 -0.50073284 0.08398244 -1.138118
000040 cb 43 b8 be c8 4a a9 be b4 ac 26 bf 0d 71 54 3d
       -0.35989222 -0.33064866 -0.65107274 0.051865626
000050 6b 1a f5 3e b2 98 4a bd 61 d6 4f be 43 b8 1b bf
       0.47871718 -0.049462028 -0.20296623 -0.60828036
000060 90 ce 04 3f 64 cd b7 3e 5c bc fd bd e5 fc 72 bf
       0.5187769 0.35898888 -0.12389442 -0.94917136
000070 28 e2 03 bf a4 3c 43 bf c8 70 5d be e8 9c 47 be
       -0.5151696 -0.76264405 -0.21625054 -0.19493449
000080 b6 75 4c 3d 4d f4 03 be bb 1a a4 3e b3 59 6a 3e
       0.049916945 -0.12886162 0.32051644 0.2288578
000090 7e 49 8f bd 5d 78 3b bf 6e 48 0e bf 9c a9 24 bf
       -0.069964394 -0.73230535 -0.5557927 -0.64321303
0000a0 8c 38 2c bc a7 b6 13 bf ae 8e 11 bf 30 39 60 bf
       -0.010511529 -0.5770058 -0.56858337 -0.8758726
0000b0 63 c2 7e be 39 69 32 bf 81 40 e7 bd 56 17 63 be
       -0.2487884 -0.6969181 -0.112916 -0.2217687
0000c0 47 cb 2a be 4e 1f 43 bf c0 21 6c be 17 64 1c bf
       -0.16679107 -0.7621964 -0.2305975 -0.61090225
0000d0 52 8a 32 be fb 41 9c 3e 0f ef a5 be 8f ed 26 bf
       -0.17435578 0.3051909 -0.3240895 -0.65206236
0000e0 0b 45 6a bf 0a fe 1d be f4 03 c5 bd 3a 4b 39 bf
       -0.915116 -0.1542894 -0.096198946 -0.7238041
0000f0 1a 39 87 be 26 55 3f be 68 b7 98 be ed 17 80 bd
       -0.26410753 -0.18684825 -0.29827428 -0.062545635
000100 5f 10 e9 be 8f 32 77 be c4 3a da be 23 66 20 be
       -0.45520303 -0.2414038 -0.4262296 -0.15663962
000110 0d f8 20 3e 1e f0 77 be b7 73 4d be c4 0d 4a 3e
       0.15719624 -0.24212691 -0.20063673 0.19731814
000120 0f f0 7a bf 0f 69 07 bf 31 38 25 bf c7 b7 1d bd
       -0.9802255 -0.5289468 -0.64538866 -0.03850534
000130 f3 5b fd be 3f 28 01 3d 06 7e ea be 2d d9 e0 be
       -0.49484214 0.031532522 -0.45799273 -0.43915692
000140 d0 b3 23 bc 7f 32 96 3e 3b 4b 1f be 0e 3a 2a bf
       -0.009991601 0.293354 -0.15556042 -0.66494834
000150 17 4b 47 3d a4 f0 26 bf c3 2e b9 be 61 51 08 bf
       0.048655596 -0.6521094 -0.3616849 -0.53249174
000160 f1 1b 52 bf 9a 1d 3c bf 8a ea 8f 3d 5f 5e d9 be
       -0.82073885 -0.7348267 0.07027157 -0.42454812
000170 dd 0b 0a bf 6d d4 9a be d0 6b 25 bf 19 19 df be
       -0.5392435 -0.30240193 -0.64617634 -0.43573835
000180 0f aa e4 bd fc 53 5f 3d f5 58 31 3d f0 55 0f bf
       -0.111652486 0.054523453 0.043297727 -0.55990505
000190 81 1c 4d bf fc 35 9f bd 2e 38 52 3e 85 92 d8 bd
       -0.8012162 -0.077739686 0.20529243 -0.105748214
0001a0 6e 8f 3b 3d 8a eb 40 bf 76 e3 1b be fb e0 7e bd
       0.045791082 -0.75359404 -0.15223488 -0.062226277
0001b0 26 23 25 be 31 da 11 bf b4 ec 85 be e7 5d 2e be
       -0.1612669 -0.5697356 -0.26157153 -0.17028008
0001c0 4a 41 9b bf d0 54 6c be d9 a3 14 3e 9d e7 29 3f
       -1.21293 -0.23079228 0.14515628 0.6636904
0001d0 c3 ab 02 bf f3 fc b7 be 5e fe 28 3e 6b 51 b1 bc
       -0.5104334 -0.35935172 0.16503283 -0.021645268
0001e0 dc e4 06 bf fb 7f 6b be ad e5 67 3e c7 15 78 bf
       -0.5269296 -0.2299804 0.22646208 -0.9690823
0001f0 c3 2f 9a 3e 39 dc 92 bf 09 2b b6 be a6 73 db be
       0.30114564 -1.1473457 -0.35579708 -0.4286167
000200 13 7d 10 bf 63 33 a1 be 6c 4a 0a 3e 2b de 48 bf
       -0.5644085 -0.31484517 0.13504952 -0.78464
000210 35 ed 90 be d9 62 46 be 19 99 cf be 10 b2 3e bf
       -0.28305975 -0.19373645 -0.40546492 -0.7449045
000220 15 96 ea be a4 1c 06 bf 38 23 30 bf 53 30 12 be
       -0.45817629 -0.5238745 -0.6880374 -0.14276247
000230 07 27 c5 be 60 2d 9e be f3 c0 28 bf c1 cb 00 3f
       -0.38506338 -0.30893993 -0.6591942 0.50310904
000240 60 78 de bd 1c fe 81 be a0 e7 56 bf 6d 67 b9 be
       -0.108628035 -0.25389183 -0.8394718 -0.3621172
000250 5a 4c 76 bf 1d ba ee be 06 d0 4b bf 06 4f 3d bd
       -0.96210253 -0.46626368 -0.79614294 -0.04621794
000260 4d dd 69 be f4 72 11 bf 59 d4 cb be 2b 2d 86 bf
       -0.22838326 -0.5681603 -0.39810446 -1.0482534
000270 b7 3f 4b be 9d c8 1a bf e1 20 83 be 36 f8 15 be
       -0.19848524 -0.6046236 -0.25611022 -0.14645466
000280 8f b5 d6 be c4 25 96 be a4 f7 43 bf 12 c9 ae be
       -0.41935393 -0.29325688 -0.76549745 -0.3413778
000290 d4 b2 98 be b4 f2 52 be e9 da 01 bf 86 db 46 bf
       -0.29823935 -0.20600396 -0.50724655 -0.77678716
0002a0 ad e0 38 be 61 97 0f bf 2b e6 7e be 69 47 48 bf
       -0.18054457 -0.5609036 -0.2489249 -0.78233963
0002b0 53 29 2c 3e 69 bb c5 3e 93 6a 60 bf 40 48 54 be
       0.16812639 0.38619545 -0.8766262 -0.20730686
0002c0 52 71 fd be 77 84 57 be fe 4e 59 3f fe 39 ba be
       -0.4950052 -0.21046625 0.8488616 -0.3637237
0002d0 b9 1c eb bb 8f 50 dd 3d 3e b2 2d bf 82 eb d9 be
       -0.007175055 0.10806381 -0.678501 -0.4256249
0002e0 79 f4 10 3e f3 9f 8c 3e 30 fd 91 3e 96 6b 50 be
       0.14155759 0.27465782 0.2851348 -0.20353541
0002f0 e8 02 3d 3f 51 fb d6 be c7 50 15 bf 08 d5 5a bf
       0.7383256 -0.41988614 -0.5832638 -0.8548131
000300 f1 63 70 bf b6 17 2d bf ce 7e dc bb a9 da 78 be
       -0.939025 -0.67614305 -0.0067289835 -0.24302162
000310 2a ee 89 3e 4a d8 15 bf 92 c0 91 3e 0d 22 85 3d
       0.26939517 -0.58533156 0.28467232 0.06500635
000320 dc 8f 11 3f 62 63 43 bf 68 ed 5a 3f a3 cc b6 be
       0.56860137 -0.7632352 0.85518503 -0.35703
000330 0c 27 bd 3e 0c ef b2 be 79 96 bf be 9e a6 b2 be
       0.36943853 -0.34948003 -0.3741949 -0.34892744
000340 ee e1 2c 3d b1 99 40 bf ee b8 5d be ac eb 1f bf
       0.04220765 -0.75234514 -0.21652576 -0.6246898
000350 5a ec 8c bf 0e b9 96 be c9 6a 61 be 4e 53 bd be
       -1.1009629 -0.2943806 -0.22013392 -0.3697762
000360 0f f4 19 bf 0a 85 fc bd 3f 6b a1 bd c3 ef ed 3c
       -0.6013803 -0.12330063 -0.07881784 0.029044991
000370 67 91 f9 be f0 01 01 bf d5 13 7d bf 1f 3b 27 bf
       -0.48743746 -0.5039358 -0.98858386 -0.65324587
000380 28 c2 fd 3e 60 36 22 3f 1b 1b 53 bc 10 92 c2 be
       0.49562192 0.6336422 -0.01288488 -0.38002062
000390 b9 4b cf be 2d f8 00 bf 5d 00 cb be 5f 29 17 bf
       -0.4048746 -0.50378686 -0.39648715 -0.590475
0003a0 37 4f d6 3d 1c d3 cb be 94 1d 26 bf 6a 79 3c bf
       0.10464328 -0.398095 -0.6488888 -0.73622763
0003b0 58 49 32 be 6a 94 b0 bb b3 69 f6 be 6b 26 c0 be
       -0.17410791 -0.005388786 -0.48127517 -0.3752931
0003c0 ae 03 63 3e 0a 89 bf 3d 05 d8 8b bf 4c a8 c1 be
       0.22169372 0.0935231 -1.0925299 -0.37823713
0003d0 ad c9 85 bd d8 8d 7f 3e d7 4f 35 bf 10 f7 7f 3e
       -0.06532607 0.24956453 -0.7082495 0.2499659
0003e0 50 f6 3f be 04 b7 05 3f df 47 78 bf 5b e3 0d be
       -0.18746305 0.52232385 -0.96984667 -0.1385626
0003f0 27 af 8e be 9d b6 c9 be 7a a9 a6 be ec 37 fc be
       -0.27868006 -0.39397135 -0.32551175 -0.49261415

fc2.weight f4 [128, 256]
000000 9d 9f da 3e e9 e8 82 3d f5 a0 17 3e 2b 25 be bd
       0.426999 0.0639208 0.14807494 -0.09284433
000010 b4 0d d1 3e 2c 5d 44 bc 93 0b 0a 3e 3d b9 50 be
       0.40830767 -0.0119851045 0.13480978 -0.20383163
000020 3c 99 33 3e a4 46 47 3a 0e cd 03 3e 38 7a 76 3e
       0.17538923 0.0007601774 0.12871191 0.2407006
000030 fc 79 66 3e 22 f9 54 3d 65 65 07 3e cc a7 b0 3e
       0.22507471 0.051995404 0.13222273 0.3450302
000040 d4 50 a9 bd d3 ad 03 3e d3 3d d1 be d6 cf 67 3d
       -0.0826737 0.12859277 -0.4086748 0.056594692
000050 31 ab 64 bd d9 8f ca bd 46 e7 0a 3c d1 22 d9 3e
       -0.055827323 -0.09890718 0.008477991 0.42409375
000060 fc 84 86 3d e3 c7 fe 3d 87 aa c4 3e 41 29 80 3e
       0.065683335 0.12440469 0.38411352 0.25031474
000070 d4 f6 5c 3e 7a 6d 06 3e c8 11 14 3d 68 25 eb 3c
       0.21578532 0.131277 0.03614977 0.02870436
000080 6e 0d 5b be c6 47 ef 3d 41 35 ee bd 0c b7 6b 3e
       -0.21391842 0.116836116 -0.11631251 0.23019046
000090 ec dd b0 be 8a b3 96 3e f9 fd 84 bd 51 b6 b6 3e
       -0.34544313 0.29433852 -0.06493754 0.3568597
0000a0 20 df ca 3e ec 54 14 3d e8 3f 64 3e b1 84 8e 3e
       0.39623356 0.0362138 0.22290003 0.2783561
0000b0 a0 1c a3 3d 03 ec f2 3e 75 15 03 3e 16 96 7c be
       0.07964444 0.47445688 0.12801154 -0.24666628
0000c0 98 57 d1 3d 86 26 f3 3e eb d8 f6 3d ed 77 28 3e
       0.10221785 0.4749033 0.120530926 0.16451998
0000d0 30 a3 34 3e 30 c0 80 3e cf 64 22 3f 2c 83 ab 3d
       0.17640376 0.25146627 0.6343507 0.083746284
0000e0 73 f6 9c 3e df 30 d5 3e c0 bb 16 3e ea be 18 3f
       0.30656776 0.41638848 0.14720058 0.5966631
0000f0 9b ff 64 bd b3 c9 19 3e 06 42 8d 3e 46 7d f9 3c
       -0.055907827 0.15018348 0.27589434 0.030455243
000100 be 32 5f be d4 6a 04 3f 58 8b 27 bd 58 5f 0e be
       -0.217967 0.51725507 -0.040904373 -0.13903558
000110 ef 5d 0e 3e 3b 69 ab 3e 45 18 36 be 83 a5 18 be
       0.1390302 0.33478722 -0.17782696 -0.14906888
000120 d9 27 11 3f 7b ca 5a be 41 00 11 3e ab b9 79 be
       0.5670143 -0.21366303 0.14160253 -0.24387233
000130 ef c8 6f b9 20 6a b7 bd 9f 30 00 3f 69 d2 90 3e
       -0.0002286767 -0.089557886 0.5007419 0.2828553
000140 55 ab 0f be 00 4c 9d be 6e 55 b8 3e 94 14 9b be
       -0.14030202 -0.30722046 0.36002678 -0.30289137
000150 51 fe 37 be bb c0 b2 3e 00 ce 11 3f fd 1a 15 3f
       -0.17968108 0.34912667 0.56954956 0.58244306
000160 b2 c1 e3 3e 55 b5 3c 3e 44 ee c7 be 7b c8 e3 3e
       0.44483715 0.18428548 -0.3904897 0.44488892
000170 56 97 1b 3f 56 4a b8 be b3 35 8c 3e 56 c5 27 be
       0.60777795 -0.35994214 0.2738472 -0.16383871
000180 8b d2 d8 be 45 df cd 3d d9 f7 ad bd 6e cd c2 be
       -0.42348132 0.10052351 -0.08494539 -0.38047355
000190 ff e9 ba 3e ac 5a 3c 3e 31 37 fc 3e 65 4f 01 3f
       0.3650665 0.18393964 0.49260858 0.5051177
0001a0 c1 64 01 bf 4a 9b ba 3d 1e 28 64 be 39 2c cb be
       -0.50544363 0.0911165 -0.22280928 -0.39682177
0001b0 1d ba 3e 3e 94 d5 6f be 69 02 80 3e 1b 32 7d be
       0.18625684 -0.23421317 0.2500184 -0.24726145
0001c0 c1 7e b8 3d e4 b6 de 3e ae 2e d5 bd b8 f6 0f be
       0.090085514 0.4349891 -0.10409294 -0.1405896
0001d0 de 6d 12 be 3b dd c3 3d ad c6 89 be 77 9e 91 3d
       -0.14299724 0.09563681 -0.2690939 0.07110303
0001e0 a9 19 a4 be 32 82 0d 3f f1 39 62 3d 51 60 2f 3e
       -0.32050827 0.5527679 0.05523104 0.17126586
0001f0 91 78 0c be 19 5a 03 3f d6 df 37 3e 83 39 16 3f
       -0.13717867 0.51309353 0.1795648 0.58681506
000200 6c 3c 3a be d2 08 8e 3e 77 21 47 be 56 9f b9 3e
       -0.18187112 0.27741104 -0.1944636 0.36254376
000210 ef b6 c3 be c2 37 24 be a7 0c 24 be 7e 1d 89 3e
       -0.38225505 -0.16036895 -0.16020451 0.26780313
000220 56 10 b6 3e 78 52 31 bc 74 bf c5 bd 69 59 c3 be
       0.35559338 -0.010822885 -0.096556574 -0.38154152
000230 f0 40 e5 3d c6 79 e8 bd 5d 1c ba 3e e5 19 46 3d
       0.111940265 -0.113513514 0.36349764 0.04836454
000240 ea 8e 64 3e cd 00 92 be 06 0a 6f 3e 3f 59 f9 3e
       0.22320142 -0.28516236 0.23343667 0.48700902
000250 e4 02 b4 bd 3e 94 81 3e 5f 3f 17 be b8 58 cd be
       -0.08789614 0.25308412 -0.14770268 -0.4010675
000260 ff 6c cb be d0 e6 84 bd ea ae 30 bd cc 97 6a be
       -0.39731595 -0.064893365 -0.04313556 -0.22909468
000270 95 47 b1 3e 7b 75 93 3e 12 b0 9a 3e 24 53 28 3e
       0.34624925 0.28800568 0.30212456 0.16437966
000280 10 26 ad 3e 9e 14 b8 3e 96 33 3e 3e 91 9d f3 3e
       0.33818102 0.3595323 0.18574366 0.4758115
000290 d0 00 08 be ea 85 26 3d 00 7c 8d bd b7 d2 97 be
       -0.1328156 0.040655054 -0.06908417 -0.2965295
0002a0 af 76 b9 3e 33 05 fa 3e 04 d9 35 3c a2 ae b4 3e
       0.3622336 0.48832092 0.011099104 0.35289484
0002b0 1c 24 da bc c5 0b 3e be d1 29 c8 3d 25 7e 03 3f
       -0.026628546 -0.18559177 0.09773601 0.51364356
0002c0 e3 b9 38 3e df 17 80 bd f2 b1 e0 bd e2 c9 10 3a
       0.1803966 -0.06254553 -0.109714404 0.0005523247
0002d0 f3 f5 10 3e bc f9 bf be 62 12 82 3e 39 68 49 3d
       0.14156322 -0.3749522 0.2540465 0.04917166
0002e0 6e 6a 9c 3d 95 d3 09 bf 11 d4 0d 3e 65 27 20 3f
       0.07637487 -0.53838474 0.13850428 0.6256011
0002f0 44 bd c7 bd 20 2a 92 be f8 d1 4e 3e 7a 5d 09 bd
       -0.097528964 -0.28547764 0.20197284 -0.03353641
000300 52 db 81 bd 08 34 53 bc a4 a9 a0 bd 2f be 99 bc
       -0.0634066 -0.012890823 -0.078448564 -0.018767444
000310 78 16 36 be c1 50 8f 3e d0 ee e7 3e 57 e5 0f be
       -0.17782009 0.27991298 0.45299387 -0.1405233
000320 cf b0 dc be 13 be 92 3d f9 ce 01 3e d3 44 86 3e
       -0.43103644 0.0716516 0.1267661 0.26224384
000330 68 ce 53 3e b8 f7 ad bd a5 d6 38 be e4 85 88 3d
       0.20684206 -0.08494514 -0.1805063 0.066661626
000340 4f c7 1c be ae 49 fa 3d 37 76 60 be f7 24 4c 3d
       -0.15310405 0.122210845 -0.21920095 0.04983994
000350 70 d9 aa 3e ae 3f 1f 3d a8 e8 c5 be 5a b8 13 be
       0.33369017 0.03887909 -0.38654065 -0.14425793
000360 ff a7 44 3e a5 79 51 3e b4 19 26 be 27 65 64 be
       0.1920471 0.2045656 -0.16220742 -0.22304212
000370 ac 5e 06 bf 49 d4 96 3e 9a c0 34 3e 48 72 1f 3f
       -0.5248821 0.29458836 0.17651597 0.62283754
000380 4b 4b 12 be 7c 13 16 be 1a ec 06 be 79 bd a9 3e
       -0.14286534 -0.1465587 -0.13176003 0.3315237
000390 77 46 8c bc 9a 4a 05 bd 38 96 0f 3e 55 2a 5a be
       -0.017123444 -0.03254185 0.14022148 -0.21305211
0003a0 7a 45 33 be 0e 92 52 be 89 a4 ef bc 86 43 5f 3e
       -0.17506972 -0.20563528 -0.029253261 0.21803102
0003b0 8d ca b4 3d 31 85 b9 3e 91 4b 7f be b9 e7 b0 be
       0.08827696 0.3623443 -0.2493117 -0.3455179
0003c0 d9 be 16 bd b7 76 a5 be 4a bf e0 3e 03 00 47 be
       -0.0368031 -0.32317135 0.43895942 -0.19433598
0003d0 8d d5 9b be a9 6e d8 bd 82 bc eb bc 33 68 cf be
       -0.30436364 -0.10567982 -0.028776411 -0.40509185
0003e0 4a 8e 90 bc be 92 66 be e8 aa 53 3e 0e df 94 3d
       -0.017645974 -0.22516915 0.20670664 0.07269107
0003f0 fe 98 29 3e aa bc af 3c 44 e4 42 3d fb 45 f7 3d
       0.16562268 0.021452267 0.047580972 0.120738946

fc2.bias f4 [128]
000000 47 0f 81 bf 3d d5 83 be 93 47 8c be 1f 9f 87 be
       -1.0082787 -0.25748625 -0.27398357 -0.26488587
000010 54 f8 dd be 96 14 eb bb a4 32 33 bf 1b ef 45 be
       -0.43353522 -0.007174085 -0.69999146 -0.19329493
000020 b0 57 d5 be 8a 94 7d be 46 4d d8 be bd 12 a1 be
       -0.41668463 -0.24763694 -0.42246455 -0.3145961
000030 de 4a 83 be d7 97 37 bf a5 31 33 be 82 05 d1 be
       -0.25643057 -0.71716064 -0.17499407 -0.40824515
000040 98 97 4a 3e 38 b6 d8 be 8b 00 cf be 79 7f d2 be
       0.19784391 -0.42326522 -0.40430102 -0.4111288
000050 10 83 55 be 17 73 4e bf d0 10 92 be 18 82 0b 3e
       -0.20850778 -0.80644363 -0.28528452 0.13623846
000060 fc 39 c3 bd 46 f9 82 be 23 9e 82 be 51 b3 b1 be
       -0.09532544 -0.25580806 -0.25511274 -0.3470712
000070 4e b7 42 3e 5f a6 bf be d5 7a e3 be 89 d5 1c bb
       0.19015238 -0.3743162 -0.4442965 -0.0023930988
000080 02 86 b3 be ea df 54 bd 6c 66 75 3e 64 60 8f 3d
       -0.35063177 -0.051971354 0.23964852 0.07000807
000090 40 fc 6b bc d3 7e 8e be 5e 33 0f be 1e 39 c7 be
       -0.014403403 -0.27831134 -0.13984439 -0.38910764
0000a0 f4 e8 f9 be 73 ce a5 be a2 ce 36 be cd 0b 29 3e
       -0.48810542 -0.3238407 -0.17852262 0.16508408
0000b0 76 b0 ad be be 14 64 be 54 48 03 bf af 7a 1f be
       -0.33923692 -0.22273538 -0.5128224 -0.15574144
0000c0 03 a1 cb bd 87 9f 1a bd c5 c4 45 3e 3c 53 3d bd
       -0.0994282 -0.037749793 0.19313343 -0.046221957
0000d0 b8 37 bd be 59 3a 09 3e cb 86 83 be 2c ba 00 3e
       -0.36956573 0.13401164 -0.25688776 0.12571019
0000e0 70 ad e4 be 94 87 ce be 4d 83 7d bc 1e 35 0d bf
       -0.44663572 -0.40337813 -0.015473199 -0.55159175
0000f0 6f 80 d3 bd 32 3a c6 be d9 34 31 be 4e 0d 25 bf
       -0.10327231 -0.38716274 -0.17305316 -0.64473426
000100 8e 62 34 3e ad 60 3c 3e a0 8f 94 3d 18 48 97 bd
       0.1761572 0.18396254 0.07253957 -0.07386798
000110 b7 f0 98 bc 1c 92 12 bf 14 c0 88 be e7 b2 f9 be
       -0.01866947 -0.57254195 -0.26709044 -0.48769304
000120 18 3d a5 be ae 45 0e 3e bd ff 00 bf 91 f3 83 be
       -0.32273173 0.13893768 -0.50390226 -0.25771764
000130 aa 36 47 bd ee d4 1d be 00 72 16 bf b9 b5 4d bf
       -0.048636116 -0.15413257 -0.587677 -0.8035541
000140 d9 a8 69 be 26 47 ae bd e1 f4 05 be 8d fb 32 3e
       -0.22818317 -0.08509664 -0.13081695 0.17478772
000150 13 e2 70 be 43 1e 49 be a5 eb c4 bb 96 fe 11 3e
       -0.2352374 -0.1964045 -0.0060095363 0.14257273
000160 65 58 f5 3d 2f 20 13 be d1 3d b1 be 2c a7 55 3e
       0.119797505 -0.14367746 -0.34617475 0.20864552
000170 ee 2a 01 bd b9 ee 6e be b4 c5 e5 3d fb 1d 84 be
       -0.03153508 -0.23333253 0.112193495 -0.25804123
000180 ca 7d 06 bf 2e 33 0f 3e d5 80 1e bf 8f 57 b6 be
       -0.5253569 0.13984367 -0.6191533 -0.35613677
000190 c9 ee f1 be 6d d5 31 bf b8 c4 ba 3d 79 0d 68 be
       -0.4725249 -0.69466287 0.091195524 -0.2266139
0001a0 da 8d 13 be d8 ec 64 39 9f 5b c0 bc 5d a0 b5 be
       -0.14409581 0.00021832006 -0.023481188 -0.3547391
0001b0 24 c0 12 3d c7 09 53 be 6a 80 3d be 5d da 8a 3e
       0.03582777 -0.20609199 -0.18506017 0.27119723
0001c0 28 10 4f be 8f 1f d4 3d db 3f 37 3e 29 2f e3 be
       -0.20221007 0.10357582 0.17895453 -0.44371918
0001d0 a6 07 20 bd 2a 61 20 be ef 6e ec be 9a f3 95 3e
       -0.039069794 -0.15662065 -0.46178386 0.29287416
0001e0 2e b2 8b bc e3 3a 1d bd 04 79 05 bd a2 55 dd be
       -0.017052736 -0.038386237 -0.032586113 -0.43229395
0001f0 70 31 d5 be 25 6e dd be bd 58 05 be 3e 0f c5 3d
       -0.4163928 -0.43248096 -0.13022132 0.09622048

fc3.weight f4 [64, 128]
000000 74 a5 c3 bd fb 84 cd be c5 e2 46 bd 13 38 12 bb
       -0.09553042 -0.4014052 -0.048556108 -0.0022311255
000010 65 c6 d6 be c7 3c 92 bc 51 7b a4 be 9a 6d df be
       -0.41948238 -0.017851247 -0.32125333 -0.43638307
000020 9b 43 35 3e ba 34 de be 71 ab 15 bf 86 83 52 bc
       0.1770157 -0.43399602 -0.58464724 -0.01284874
000030 b4 01 c6 3e 4a 50 52 bd b8 20 12 3e 4d 97 d0 be
       0.38673174 -0.0513461 0.14270294 -0.40740433
000040 9d 7b cf be 99 d7 1e be 26 96 d7 bc a8 7f 89 3e
       -0.40523997 -0.15511931 -0.026316714 0.26855206
000050 bc 15 31 bf d0 46 02 be 82 72 c8 be 77 da 07 bf
       -0.6917379 -0.12722325 -0.39149863 -0.53067726
000060 39 5b 68 3e 79 1a 05 3c 24 84 69 bf ad be 13 be
       0.22691049 0.008123987 -0.91217256 -0.14428206
000070 66 5d f2 bd cd 7e 59 be 2b 06 e6 3d d8 99 cd 3c
       -0.118342206 -0.21239777 0.11231645 0.025097772
000080 52 de 33 3c 4d 45 3f bd 90 33 c3 bc 93 d2 dc bd
       0.010978298 -0.04669695 -0.023828298 -0.10782351
000090 60 bd 3d 3e 09 01 42 3e 0b bb 2c bb 83 4d e9 be
       0.18529272 0.18945707 -0.0026356603 -0.4556695
0000a0 42 07 50 be 67 9e 29 be 53 5d 9b be 4e 11 9f be
       -0.20315269 -0.16564332 -0.30344638 -0.3106789
0000b0 44 4a cd be 53 f1 21 be 9c c3 bd be 95 b1 b5 3e
       -0.40095723 -0.15814714 -0.370633 0.35487047
0000c0 dc 7f 58 3e f2 c6 53 3e c4 e7 71 be b5 45 0f bf
       0.21142524 0.2068136 -0.23623568 -0.5596574
0000d0 65 e6 b1 be 5b 2e 2f bf 2f e1 06 be 6c ea 09 bf
       -0.3474609 -0.6843011 -0.13171838 -0.53873324
0000e0 e2 42 0a 3e 4e bb db 3d ca 27 6c be e8 19 8c 3d
       0.13502076 0.10729085 -0.23062053 0.06840879
0000f0 a3 cb 2f 3e 44 81 35 bd 52 49 11 bf 28 f4 05 bf
       0.17167525 -0.04431273 -0.567525 -0.5232568
000100 59 96 0b bf 0a 68 4b 3e 59 71 8b 3e 5c 89 43 3d
       -0.5452629 0.19863907 0.27234915 0.047738418
000110 aa 1c 65 be 02 a9 ed 3c 03 b5 6a 3e a1 8f 0b bd
       -0.22374216 0.029011253 0.22920613 -0.034072522
000120 19 9a 86 3e c8 f1 37 bf c2 e7 bd bd 92 23 dd be
       0.26289442 -0.71853304 -0.0927272 -0.431912
000130 72 06 4b bd be 58 06 3d 4c bc 06 bf a7 93 bc bd
       -0.049566694 0.032799475 -0.5263107 -0.0920785
000140 e6 02 f0 be 89 13 01 bf 2d 79 f5 3d e1 2b 03 bf
       -0.4687721 -0.50420433 0.11986003 -0.5123883
000150 b7 90 bc be 28 ee 9e 3d 2a db a6 bc f4 e9 0d 3e
       -0.3682916 0.077602684 -0.020368177 0.13858777
000160 b2 3d 17 3e 6b cd 31 bc ab c8 b8 3e 54 d7 83 bd
       0.14769629 -0.010852198 0.36090598 -0.06437555
000170 e9 00 db be 7d b3 3a be 70 25 3d bf 5c 89 f2 bd
       -0.42774132 -0.18232532 -0.7388525 -0.118426055
000180 56 d8 bd 3d 2e 24 ad be a1 1f 54 be 38 7d 3a be
       0.092697784 -0.33816665 -0.2071519 -0.1821183
000190 b3 85 80 be 48 18 94 be 6f 84 89 3d c2 f3 4f be
       -0.25102004 -0.28924775 0.06714713 -0.2030783
0001a0 8c 88 90 3d f8 a7 81 3e 6c 90 1a 3e 44 63 cb be
       0.07057294 0.25323462 0.15094155 -0.3972417
0001b0 21 4b c1 be ae 9a 87 be 6c 8b 31 3e d1 07 e8 be
       -0.3775263 -0.264852 0.17338341 -0.45318463
0001c0 1e 30 a9 be 4d 39 ec be e5 cd 91 be 03 51 1c 3e
       -0.33044523 -0.46137467 -0.28477398 0.15265279
0001d0 d8 f8 90 be 64 78 5b be 05 36 88 be 32 11 9c be
       -0.28314853 -0.21432644 -0.26603714 -0.3048187
0001e0 23 af 2b bf 50 06 08 be 5b f9 81 be d7 2d c8 3e
       -0.6706411 -0.13283658 -0.25385556 0.39097473
0001f0 60 19 b8 3e f4 c3 23 be 6d d8 e1 3c 02 64 a7 be
       0.3595686 -0.15992719 0.02756902 -0.32693487
000200 45 ee 59 3d 02 17 41 be ed 9c ef 3e c4 9a 7d 3e
       0.053205747 -0.18856433 0.46799412 0.2476607
000210 95 9a 12 3e 45 5f 87 3e 68 90 99 3e 15 d6 34 bf
       0.14316781 0.26439872 0.29992986 -0.70639163
000220 df 8d 60 be 77 6d f6 3d a8 e2 dd 3d b5 59 8e 3c
       -0.2192912 0.120325975 0.10834247 0.01737676
000230 3d 1b 73 bd 27 5d 88 be 3e d6 9f 3d ee 8a ae bd
       -0.05935215 -0.2663357 0.07804535 -0.085225925
000240 8b d7 db be af 7d 05 bd 5e ca 76 3c 53 6f 5b 3d
       -0.42937884 -0.032590564 0.015062897 0.053572964
000250 83 cd 57 bd 8c 19 2f 3e 61 6d 06 bf 18 86 f5 be
       -0.052686226 0.17099589 -0.5251065 -0.47953868
000260 bf ed 9d bc ea d9 12 bc 84 87 8e 3c 5e b0 23 3e
       -0.019278405 -0.008963088 0.017398603 0.15985247
000270 3a d0 01 3d fb be 30 3c c6 e9 44 bf 3c 06 fd bc
       0.03169272 0.010787721 -0.7691921 -0.030886762
000280 6a 8b d2 be 97 4e 19 3e a7 4e b7 be dd 53 db 3e
       -0.4112199 0.14971386 -0.35802194 0.4283742
000290 00 2e fe 3c 00 2d 15 bf 9c 69 8e bd 3a 67 31 3e
       0.031027794 -0.5827179 -0.06953737 0.17324534
0002a0 83 1f da 3d d6 a7 23 be 7c 9d 5b bb b3 c3 27 bf
       0.10650542 -0.15981993 -0.0033510616 -0.6553299
0002b0 c8 f0 ff be e5 94 3e 3f 6f 8a 13 bd 07 47 de 3c
       -0.4998839 0.74445945 -0.036020692 0.027133478
0002c0 4c 32 a3 3c 58 4c 6e 3d a1 69 c1 be ed 85 5b be
       0.019921444 0.058178276 -0.377759 -0.21437807
0002d0 f2 c1 91 be 21 66 3b bf e4 30 34 3e 31 e4 05 bf
       -0.2846828 -0.7320271 0.17596775 -0.5230132
0002e0 13 98 40 3e 82 7e ad 3e 9b 3b 8b be 7b b0 7a 3b
       0.18808012 0.3388558 -0.27193913 0.0038252163
0002f0 7a 59 ea 3d ba d8 96 be 51 30 fc be 92 2f 0d bf
       0.114428475 -0.29462224 -0.49255612 -0.5515071
000300 ab 03 88 bf 9e 95 cf be 2f 5d 8c bc 48 97 ac 3d
       -1.0626119 -0.40543836 -0.017134277 0.08427292
000310 b5 82 fc be 0c 9e 3b bd 4a 31 db 3d 65 1f 95 bd
       -0.49318472 -0.045805022 0.107027605 -0.07281379
000320 57 6d 93 bf 8a a6 1f bf 91 e3 e5 bd 1d f1 c8 be
       -1.1517743 -0.62363493 -0.112250455 -0.39246455
000330 e5 5a db bd 75 ca 94 3d f9 7a 9c 3e a2 20 c2 be
       -0.10710696 0.07265178 0.3056257 -0.37915522
000340 34 ac 35 3e 65 93 bf 3d 85 37 32 3f 7a ec 20 bf
       0.17741472 0.09354285 0.69615966 -0.62860835
000350 a7 19 c6 3e 82 ea 11 bf 20 95 58 3d 06 48 6c be
       0.38691446 -0.56998456 0.05287659 -0.2307435
000360 8a 45 23 bd a0 d8 69 bd b1 bd 33 bf 44 f8 18 3d
       -0.03986124 -0.057091355 -0.7021132 0.03734614
000370 c4 21 0f bf f2 50 7b 3e 01 b0 10 bf 08 a9 b0 be
       -0.559109 0.24542597 -0.5651856 -0.3450396
000380 a3 01 31 bf c2 53 3d 3e b7 b9 28 3c fb b0 f3 bd
       -0.6914312 0.18488982 0.010298184 -0.11898991
000390 3d 70 17 be f4 94 4f bd 10 fe dd 3d 1f e5 5d 3e
       -0.1478891 -0.050679162 0.10839474 0.21669434
0003a0 8c 77 46 3e 72 10 e4 bb 7e 28 e5 bd ef 4c 86 3e
       0.19381541 -0.0069599682 -0.11189364 0.2623057
0003b0 3c 3c 83 be 8a 0d 45 be 31 e7 fd be 7d 44 6c bf
       -0.25631893 -0.19243446 -0.49590448 -0.92292005
0003c0 e9 d8 73 bc 1c bd f3 be 5b 59 57 bd fb 3d 35 be
       -0.014883258 -0.47605217 -0.05257545 -0.17699425
0003d0 04 bd 98 be 2b 17 29 be 25 74 aa bd b1 e9 5e 3e
       -0.29831707 -0.16512744 -0.08322934 0.21768834
0003e0 45 e5 38 bf f1 c0 db be 2a cd d5 bd 54 42 b2 3e
       -0.7222484 -0.4292064 -0.104395226 0.3481623
0003f0 72 45 9b bf 17 2a 4b 3e 39 7e 0b 3e 52 c6 b0 3a
       -1.2130568 0.19840275 0.13622369 0.0013486838

fc3.bias f4 [64]
000000 14 55 a5 3e 2d 18 9e 3e ef 47 85 3e 8a 84 47 3e
       0.32291472 0.3087782 0.26031443 0.19484153
000010 03 69 8f 3e 1a 75 f7 3e ac a3 8e 3e f2 3b 9b bb
       0.28009805 0.4833153 0.27859247 -0.0047373706
000020 aa 6f c5 be 3f 40 8d 3e 17 1b 81 bf 94 67 5c 3f
       -0.38561755 0.27588078 -1.0086392 0.8609555
000030 f5 a2 23 3f 00 ed 5b 3e d0 84 1b 3f a0 6d 2c 3d
       0.6392053 0.21477127 0.6074953 0.042096734
000040 43 4c 1f 3f fe 37 33 bf 23 27 5f bf 33 00 0c 3f
       0.6222574 -0.7000731 -0.8716909 0.54687804
000050 6f e7 b6 bf 74 cb d4 3e cb 27 c0 3e 87 d1 12 3f
       -1.4289378 0.41561472 0.3753036 0.57350963
000060 30 a7 13 3f fa b8 06 be cb 0a 9f 3c 78 94 da bd
       0.5767698 -0.131565 0.019414326 -0.106728494
000070 5b fc c4 be 59 1f f7 3e 65 36 39 bf db ab b7 be
       -0.38473782 0.48266104 -0.72348624 -0.35873303
000080 2b 31 61 3e 20 09 c1 3d a6 9d 06 3f 6d ae c7 3e
       0.21991412 0.094255686 0.525843 0.39000264
000090 97 9b ec 3e 72 26 41 bf 0b 80 14 3f 8b 59 24 3f
       0.46212456 -0.7544929 0.5800788 0.6419913
0000a0 4a 35 15 3f e7 8a 70 3e 3d b9 fe 3e 7c be 68 bf
       0.5828444 0.23490487 0.497507 -0.90915656
0000b0 4e 9d 74 be 1f eb 13 bf 3e 58 0b be af 52 11 3e
       -0.23888132 -0.5778064 -0.1360788 0.14191698
0000c0 52 f9 ca bd 81 aa 68 3e 81 09 c1 3d 9a 3c 43 bf
       -0.09910835 0.22721292 0.09425641 -0.76264346
0000d0 cf c3 88 3e c8 d1 ed be 05 86 03 3f dd e1 b6 3e
       0.2671189 -0.46449113 0.5137637 0.35719195
0000e0 12 80 7b bd d4 e5 f8 bd f1 a3 0b bf 5a fe 9e 3e
       -0.061401434 -0.12153211 -0.5454703 0.3105343
0000f0 68 4c 58 3d 28 48 eb 3d 5e a2 e0 3d f9 5d b0 be
       0.05280724 0.11488372 0.10968469 -0.34446695

fc4.weight f4 [32, 64]
000000 1b ab 8d bd 18 57 b8 3b e8 79 8e bd 16 05 b7 be
       -0.069174014 0.0056256168 -0.069568455 -0.35746068
000010 6a 49 8b 3e 19 40 14 3e 6d fa 0a 3e e8 06 be 3e
       0.27204448 0.14477576 0.13572092 0.37114644
000020 9c 48 11 3d 64 d7 29 bd c4 09 5d 3e 26 ab a2 bd
       0.035469636 -0.041465178 0.21585757 -0.079428
000030 38 74 a7 3e 75 14 9d 3d 2f 79 f7 bc 49 b8 9b be
       0.32705855 0.076699175 -0.030209152 -0.30414036
000040 ea 15 1f bd 51 0a e3 3d d8 4b 12 3e b7 15 e0 bd
       -0.03883926 0.11085952 0.14286745 -0.10941642
000050 6b 33 93 3d cc 60 35 3d 1b 85 87 bd a8 90 c8 bd
       0.071875416 0.044281766 -0.06617185 -0.09793216
000060 7b f5 b5 3e 5a 51 0e 3e 58 a7 84 bc ca be 18 be
       0.3553885 0.1389822 -0.016193077 -0.1491653
000070 d6 36 79 be b3 76 ae be cd ce b9 3c 0c 2b 9d bb
       -0.24337325 -0.34074935 0.022681618 -0.0047963914
000080 dd 79 86 be 12 dc 12 3c 21 2e a8 3d b9 d6 c6 3e
       -0.2626485 0.008963602 0.082119234 0.38835695
000090 2a a0 5a 3d fb c9 04 bf d6 28 a6 3e 9d 0c ce bd
       0.0533754 -0.518707 0.3245303 -0.100609995
0000a0 b5 2e ea 3d c9 06 33 bb 15 cd 2e bd 82 cb b0 bd
       0.1143469 -0.0027317277 -0.04267605 -0.08632566
0000b0 a4 b7 a1 3d 8e 2d ec 3d 65 e0 e9 be 56 45 e9 3d
       0.07896355 0.11532126 -0.45679012 0.11390178
0000c0 9c 26 43 be 93 dd e2 bb 2d 25 32 bc c7 ce 7d 3e
       -0.19057697 -0.0069233864 -0.010873121 0.2478591
0000d0 dd 24 ea 3c ac 3a 1c bd 11 9d 83 bb 95 4e 3b 3e
       0.02858203 -0.03814189 -0.0040165265 0.18291695
0000e0 26 bd 03 be 1f 69 a4 bd 95 71 27 3c aa b1 10 3e
       -0.12865123 -0.08027863 0.010219951 0.14130273
0000f0 c4 c3 9d be 12 6a 47 be 62 00 29 bf af 0c 84 be
       -0.3081342 -0.19474056 -0.6601621 -0.25790927
000100 82 bf 17 3e 57 59 e3 bc f3 24 6b 3e f5 28 86 be
       0.14819148 -0.027752561 0.22963314 -0.26203123
000110 0c fd 0f bf 4b be 4d 3e 56 09 4e be 93 cb d0 be
       -0.56245494 0.20092122 -0.20120749 -0.40780315
000120 44 43 27 be 90 69 eb 3d 34 7b 42 be c3 53 14 bf
       -0.16334254 0.11494744 -0.18992311 -0.5794031
000130 5b 21 52 be e7 9b b8 be 9e 27 1f bf 08 26 6d 3e
       -0.20520537 -0.36056444 -0.62169826 0.23159039
000140 ae 3d 06 bf da d0 3a 3e c6 d5 74 be 30 f8 ad 3e
       -0.52437866 0.18243733 -0.23909673 0.33978415
000150 d1 2b d6 bc 22 6e b9 bd 3a 37 7a 3d 07 c4 80 be
       -0.02614394 -0.09054209 0.061087824 -0.25149557
000160 cd 52 12 bf 19 f0 25 bd 48 29 54 bb 26 75 68 bc
       -0.57157594 -0.040512178 -0.0032373238 -0.014188087
000170 31 f6 a4 be 88 99 4f 3e 67 17 40 be 5d 7c fb 3d
       -0.3221908 0.20273411 -0.18758927 0.1227958
000180 bc 57 d9 be 63 72 3d bd cd dc 4c be e7 c9 af bd
       -0.4244975 -0.046251666 -0.20006104 -0.08583432
000190 69 ec 12 bf 73 d5 0b 3d ab 65 04 bd 58 d7 22 bf
       -0.57391983 0.034139108 -0.03232352 -0.6360984
0001a0 b4 cb 21 bf 6e 68 14 be 09 d1 be 3d d3 d5 06 be
       -0.6320145 -0.14492962 0.09317214 -0.13167505
0001b0 da 7c db 3c db 10 82 be 62 58 c0 be 44 7f a7 3d
       0.026792932 -0.25403485 -0.3756743 0.08178571
0001c0 53 a8 99 bc dd 73 01 3c 22 f9 bf be bf c3 e9 bd
       -0.018757021 0.007901159 -0.3749476 -0.11414289
0001d0 97 81 14 3e 36 cc 31 3d 59 ac 36 3d d0 61 01 3e
       0.1450256 0.04340764 0.044597957 0.12634969
0001e0 fa 96 a5 be fd 10 39 3c 8e 6f 4e 3e 29 8b df 3c
       -0.32341748 0.011295554 0.20159742 0.027288036
0001f0 4a 27 ca bd 90 ee f4 be 9e 67 70 be 2c 83 49 bd
       -0.09870775 -0.4783826 -0.23477027 -0.04919736
000200 0e 2e 94 3e 05 eb 20 3d 07 a6 dc 3e e7 72 a9 3a
       0.28941387 0.039286632 0.4309542 0.001292792
000210 36 ac 37 bf cb 12 af be 84 9b 06 bf be f1 08 bf
       -0.7174715 -0.34194025 -0.5258105 -0.5349387
000220 91 2e 29 3d 41 21 06 3d 55 95 e7 bd d0 ab c2 3d
       0.041304175 0.032746557 -0.1130778 0.09505427
000230 8d f2 c6 3e 83 50 1f bf 20 a0 20 bb 60 cb 95 3e
       0.38856927 -0.62232226 -0.0024509504 0.29256725
000240 ad 82 a5 3d 6d 79 2a be 8b f1 27 3e 9f 58 35 3e
       0.08081565 -0.16647883 0.16400735 0.17709588
000250 04 f2 e9 be 9e f5 a6 be 30 9f f0 bb dd b4 95 bd
       -0.45692456 -0.32609266 -0.0073431954 -0.073098876
000260 37 be 0c bf e8 f6 1a 3c 7f c0 8d bd 37 0b 62 3d
       -0.54977745 0.009458281 -0.06921481 0.055186477
000270 29 4a aa bd 25 90 1f 3d bc 1d 8e bb 31 37 38 3e
       -0.08314926 0.038955826 -0.0043370407 0.17989804
000280 69 81 d8 3d f0 42 69 3e b0 a1 0a 3e 59 f3 f1 bd
       0.10571558 0.22779441 0.13538241 -0.11813993
000290 d4 11 9e be 9c 4b b0 3e 79 3d d4 be e2 c6 ff 3c
       -0.30872977 0.34432685 -0.4145315 0.031222764
0002a0 6a fd 36 3d 7c c3 e1 bd ae 85 ad bc 76 7c 9c bd
       0.04467527 -0.11023614 -0.021181908 -0.076409265
0002b0 ff a5 80 3e 28 79 29 3e 2e 9b d5 be 01 bc e3 3d
       0.25126645 0.16550124 -0.41719955 0.11119843
0002c0 15 b9 cc 3d db 16 d6 be 74 b9 a1 be 9a 36 6c 3d
       0.09996239 -0.41814312 -0.31586802 0.05766926
0002d0 52 48 82 3e 03 3d f3 3d 9f 43 06 3d f4 e7 24 bf
       0.254458 0.118768714 0.032779332 -0.6441643
0002e0 42 f3 c3 be de d1 ec 3c 41 fd a0 3e 60 11 47 be
       -0.38271528 0.028908666 0.31443217 -0.19440222
0002f0 71 85 d2 bd 4c f6 1b 3e 0f 91 a0 be e4 85 28 3e
       -0.10279358 0.15230674 -0.3136067 0.16457325
000300 d6 fa b3 be 1e 56 c0 ba 3a 21 a0 be 35 3f 5c bf
       -0.3515231 -0.0014674102 -0.3127535 -0.86033946
000310 9a f5 be be 9b 5a 99 3d 4e 2c 9b 3c 7e e4 3f 3c
       -0.37296754 0.07487985 0.018942025 0.011712192
000320 00 8e 39 3e 53 a5 8d 3c d3 2e 7b 3e 63 51 17 3e
       0.18120575 0.017290747 0.24529581 0.1477714
000330 ea 75 1e bd 87 38 ab be 74 a4 20 3e 1d 94 31 be
       -0.03868667 -0.33441564 0.15687734 -0.17341657
000340 01 3a 1f bd 1d 9f c2 3d dc 2b db 3c fd d8 85 ba
       -0.038873676 0.09503005 0.026754312 -0.0010211762
000350 68 ce a5 bc 34 49 ff 3e b4 29 e2 bd d2 6e 5b bf
       -0.020240024 0.49860537 -0.110431105 -0.85715973
000360 53 fb 6a 3e 68 d3 6c be 7b 67 74 be 84 05 c4 3e
       0.22947435 -0.2312752 -0.238676 0.38285458
000370 7d 42 57 bf 9f da 20 be a4 d3 6d be 5a 49 93 be
       -0.8408583 -0.15708397 -0.23225266 -0.287669
000380 26 ee aa 3d 2e 62 da be f3 53 5d 3e 06 d2 76 bd
       0.083462045 -0.4265303 0.21614055 -0.060258888
000390 2f a1 a4 3e 9a af 0a bf 0e 52 e0 3e 3d bd ff 3d
       0.32154223 -0.54174197 0.43812603 0.12487266
0003a0 55 5d 73 bf f6 6d 02 3d 7c af d3 bc a0 35 04 3e
       -0.9506429 0.03184315 -0.025840513 0.12911081
0003b0 a3 3e 3d 3d 45 c6 19 bf f0 1a b0 be 6b b0 82 3c
       0.046202313 -0.6006816 -0.34395552 0.015953263
0003c0 53 32 ee 3d 31 07 91 bc 03 25 2c be 31 04 77 bd
       0.11630692 -0.017703624 -0.16810994 -0.06030673
0003d0 7a f0 67 be 5c ed ca be f0 38 e9 bc 5e 3b 07 3f
       -0.22650328 -0.39634216 -0.028469533 0.5282496
0003e0 e0 9f 35 bf 03 3b 8e 3c d8 c6 aa 3d 90 23 37 3e
       -0.70947075 0.017362123 0.08338708 0.1788466
0003f0 41 b5 88 bf 0a d1 13 3e b8 1a c8 be 96 76 f2 3d
       -1.0680314 0.14435211 -0.39082885 0.11839025

fc4.bias f4 [32]
000000 f7 c5 50 3e c6 a1 2f 3e c4 d0 24 3d e9 91 df 3e
       0.20388018 0.17151555 0.040238157 0.43666008
000010 b4 0b fc 3e 3c b5 44 3e 4e 10 aa 3e c5 ad 77 3e
       0.4922768 0.1920976 0.33215564 0.24187382
000020 51 02 41 3e 2d 36 54 3e db 30 d5 3d d1 f1 b1 3e
       0.1884854 0.20723791 0.10409709 0.34754804
000030 8a ee 25 3e 9f 15 cd be 5f a0 32 3d 31 58 9b 3d
       0.16204277 -0.40055558 0.043609973 0.075851806
000040 85 49 e9 3e 17 62 84 bd 91 2a 3a 3e c7 2e 14 bf
       0.45563903 -0.06464022 0.181803 -0.57883877
000050 74 e6 5f 3e 15 4e f8 3e 35 b6 06 bf 64 5e e2 3e
       0.21865255 0.48497072 -0.52621776 0.4421264
000060 e0 17 45 3e ac 29 c2 3e de 0b 81 3e 27 1e 41 3e
       0.19247389 0.37922418 0.25204366 0.18859158
000070 52 9f 96 bd c6 71 91 3e c6 ff cc bd 6f f5 29 3f
       -0.07354607 0.28407115 -0.100097224 0.66390127

fc5.weight f4 [15, 32]
000000 97 c6 95 bf c2 52 05 c0 61 e4 f4 be 8f 3a 05 c0
       -1.170123 -2.0831761 -0.4783049 -2.0816991
000010 ed 6b 3a bd 20 ca 4b c0 64 4b 5a be 23 31 a2 c0
       -0.045513082 -3.1842117 -0.21317822 -5.068498
000020 7c e2 a6 bc 5a 58 b9 bd d5 e0 b7 bd 9a dd 81 c0
       -0.020371668 -0.09050055 -0.0897843 -4.058301
000030 9f 4b 64 bd b2 cb a4 bf 90 46 a9 bf 9d 0f 4a c0
       -0.05573618 -1.2874663 -1.3224659 -3.157203
000040 cc c7 28 3c ed 49 12 bd 89 a5 51 c0 3a ac 0c be
       0.010301542 -0.035715032 -3.2757285 -0.13737574
000050 9d bd 01 c0 0b f8 94 bd fe 8b 8a bf 3e 3a 6d c0
       -2.027198 -0.07273873 -1.0823972 -3.7066798
000060 3d a4 f1 bf 29 e3 57 bf d0 a9 c2 c0 5d d1 09 bd
       -1.8878247 -0.84330994 -6.083229 -0.03364693
000070 4a c5 fd be 90 c7 a7 bf fb 95 dd bf 7f 99 1d bd
       -0.49564582 -1.3107777 -1.7311395 -0.038476463
000080 42 fe 74 bf 50 e2 07 3d a5 0e bd ba 52 cb 74 bf
       -0.95700467 0.033174813 -0.001442392 -0.9562274
000090 d8 be 41 c0 06 6c 0a be 1d 6d f4 bf c5 69 31 be
       -3.0272732 -0.1351777 -1.9095799 -0.17325504
0000a0 90 71 8b be d3 59 03 bf 12 66 83 bf c2 20 a7 3d
       -0.2723508 -0.51308936 -1.0265524 0.08160545
0000b0 79 94 82 be 88 79 1c bf 4c 71 9f bf 3e 3e 07 be
       -0.255039 -0.6112294 -1.245645 -0.13207337
0000c0 1d 89 ee be 5d 74 34 be e9 d5 4e bd 4b 72 dd be
       -0.46588984 -0.17622514 -0.05049697 -0.4325126
0000d0 ee c4 a0 bd 59 b4 52 bf d5 47 c5 bc 49 5b c0 bf
       -0.07850061 -0.8230644 -0.024082104 -1.5027858
0000e0 e3 92 d8 bf e2 f6 88 be 1d ac 1d be 59 71 cf bf
       -1.6919826 -0.26750857 -0.15397687 -1.6206466
0000f0 ce 34 0e c0 38 98 ad be f7 91 98 be 6c 53 0a bf
       -2.221973 -0.33905196 -0.29798862 -0.5403354
000100 7b 49 cf 3d 55 d0 5c be 75 95 49 c0 ce 59 28 bd
       0.10121437 -0.21563847 -3.1497471 -0.04110127
000110 4e d9 5f c0 9c 73 75 c0 61 0a 17 c0 ea b6 8a c0
       -3.4976382 -3.8351812 -2.3600085 -4.3348284
000120 2c 72 bd bb 97 69 5c c0 95 4f 15 be d5 82 91 c0
       -0.0057814326 -3.4439447 -0.1458114 -4.5472207
000130 67 16 5e bf df b2 09 3c 75 8a d8 bf ad 90 bf bf
       -0.86752933 0.008404463 -1.6917254 -1.4966027
000140 2d b1 4f 3e 88 16 c4 3c f8 75 c1 bd a2 37 50 bd
       0.20282431 0.023936525 -0.09446329 -0.050834306
000150 f9 ad 09 c0 65 78 7a c0 40 45 9b bf 1a 0b 0a c0
       -2.1512434 -3.9135983 -1.2130508 -2.1569276
000160 f1 95 be bf 01 be 26 bf 64 99 a5 c0 cb 0f dc bb
       -1.4889508 -0.6513367 -5.1749744 -0.00671575
000170 65 58 52 c0 11 11 ac bf 68 0a 34 3d 29 7c 42 c0
       -3.2866452 -1.3442708 0.043955237 -3.0388281
000180 79 d1 0f c0 d1 6d a2 c0 28 32 6e c0 84 cc 2b c0
       -2.2471602 -5.0759053 -3.7218113 -2.6843576
000190 dd 80 22 bd 84 bf 80 bf 47 e2 61 be 77 d2 9d c0
       -0.039673675 -1.0058446 -0.22058974 -4.9319415
0001a0 3b 43 59 c0 03 30 f9 3b eb be de bf ff 07 95 c0
       -3.3947284 0.0076046004 -1.7402014 -4.657226
0001b0 9b 30 f3 3c b7 ba 27 be 76 9b 62 bf 04 9b 29 c0
       0.029686263 -0.1637982 -0.88518465 -2.6500864
0001c0 eb e2 dc bf 10 b1 02 c0 ca ec 89 c0 73 f4 e8 bf
       -1.725675 -2.042057 -4.310155 -1.81996
0001d0 94 8b 0e bf 29 63 23 bd 70 4a c8 be ea 1b 7c c0
       -0.5568173 -0.03988949 -0.3911929 -3.9392037
0001e0 b8 f1 61 bf 89 f1 c6 3d 4d ff 88 c0 c0 90 e5 bf
       -0.8825946 0.09714038 -4.2811646 -1.7934799
0001f0 61 3d 03 bd 5f 88 9a be c3 9b 92 bf c6 5a 04 3e
       -0.032040957 -0.30182168 -1.1453785 0.12925252
000200 b2 5a 53 3e 2d 9e a2 bf 60 24 fa bf c5 69 d4 bd
       0.20640066 -1.2704521 -1.9542351 -0.103717364
000210 03 93 e6 bf d5 cb 2e c0 27 a4 df bf 60 9a 6e c0
       -1.8013614 -2.731191 -1.747197 -3.7281723
000220 f8 32 65 bf 88 b3 27 c0 44 d9 23 be a8 ec ab c0
       -0.895309 -2.6203327 -0.16000849 -5.3726387
000230 80 7d d4 3d 16 b2 ca 3d d9 a2 c5 be c9 76 a3 bc
       0.103755 0.098972484 -0.38600805 -0.019954102
000240 71 56 1a bf 46 ee ca bf a9 7a 54 3e 1c 0c 3a bf
       -0.6028815 -1.5853965 0.20749916 -0.7267473
000250 55 31 47 bd 48 65 21 c0 aa a5 bd bf 52 c3 a8 bf
       -0.04863103 -2.5218067 -1.4816182 -1.3184607
000260 22 c9 bd 3d d1 f4 3b 3e 3c 87 8e c0 9b 31 87 bf
       0.09266879 0.18355109 -4.454008 -1.0562013
000270 65 f5 f2 bf 62 a1 03 be 66 e0 15 3d 44 94 4c c0
       -1.8981138 -0.12854531 0.036590956 -3.1965494
000280 a6 cf 80 bd 64 33 9f be 03 bf 07 c1 ea 5d 60 bd
       -0.06289606 -0.31093895 -8.484134 -0.054777063
000290 3a ef fc be 4d 2b 9c c0 28 e1 c0 be 51 63 1f c1
       -0.49401265 -4.8802857 -0.3767178 -9.961747
0002a0 dd 43 2f be e4 7a 13 bf a7 de 92 be 31 e5 f6 c0
       -0.17115732 -0.5760939 -0.28685495 -7.7154775
0002b0 d7 11 f1 3d d6 9a 30 bd 67 00 43 c0 3e 38 23 c0
       0.11770981 -0.043116413 -3.0468996 -2.5503078
0002c0 a9 49 8a 3d 94 9d 97 be a6 c6 93 be 7e 6d f9 bd
       0.06752331 -0.2961241 -0.28862494 -0.12179087
0002d0 2c 1d a5 bf 5f f3 8d be e5 a0 7c c0 4c 8c 92 c0
       -1.2899528 -0.2772474 -3.9473202 -4.579626
0002e0 fa bd fa bf 1d 43 8b be 8d 25 e5 c0 a7 f7 71 be
       -1.9589226 -0.2719964 -7.160834 -0.23629628
0002f0 d1 d4 24 be bc c8 38 bf 04 49 c8 bd 87 84 86 bf
       -0.16096808 -0.72181296 -0.097795516 -1.0509194
000300 5d 3c 4d 3e 9d 55 27 bf 55 4b c8 bf 20 48 0c bf
       0.20042558 -0.6536501 -1.564799 -0.54797554
000310 85 6c 6d bf 60 df 00 bf 01 79 e8 be 5f 93 29 bf
       -0.9274371 -0.50340843 -0.4540482 -0.66240495
000320 51 98 ec be 61 26 20 bf f0 df a0 bf d7 1f 13 bf
       -0.46209958 -0.6255856 -1.256834 -0.5747046
000330 df b5 3b bf 81 b4 67 be 60 1b 20 bf df 2f 84 bf
       -0.7332439 -0.2262745 -0.6254177 -1.0327109
000340 ef c7 ee 3b 7a c7 34 bf ec 1a 42 bf d7 99 02 bf
       0.0072870175 -0.7061688 -0.7582233 -0.5101599
000350 d4 42 9f bf f3 f3 be be 2a fa 84 3d 58 fb 04 be
       -1.2442269 -0.37295493 0.064930275 -0.12986505
000360 e5 a5 51 bf 50 66 8b 3c c6 8d 25 bf dd d8 9b be
       -0.8189376 0.01701656 -0.64669454 -0.3043889
000370 c0 c9 87 bd ad 5b 1c bf 52 f0 f2 be 2c dd 15 bf
       -0.06630278 -0.61077386 -0.47448975 -0.58540606
000380 25 4b 1c 3e 17 b4 96 bf 22 fb d8 bf 3c 3c 5f bf
       0.1526304 -1.1773709 -1.695164 -0.87201285
000390 ea d6 55 bf 54 2b 0a bd bc 28 d3 bd 0d ce e3 bf
       -0.8353106 -0.033732727 -0.10310504 -1.7797257
0003a0 93 9d 5b bb 07 10 c2 bf 8a f7 30 bf 42 cc 03 be
       -0.003351067 -1.5161141 -0.69127715 -0.12870887
0003b0 f6 43 5b 3e ba 6d e8 be 62 51 64 bd 26 78 02 c0
       0.21412644 -0.45396215 -0.055741675 -2.0385833
0003c0 75 7d 3d 3e cf f0 84 bf 01 e2 d9 bf 39 39 d7 3d
       0.1850489 -1.0385989 -1.7022096 0.10508961
0003d0 2e 4a dc bf 80 5c ec 3d 88 1b 77 3e 27 5b 5e be
       -1.7210138 0.115410805 0.24131596 -0.2171446
0003e0 64 61 08 bf 57 ed a2 3e 7b b9 c9 bf 5e 46 01 3e
       -0.53273606 0.318217 -1.5759729 0.12624499
0003f0 c5 85 2c bf 37 1d 0b 3d db 58 1b bf 43 34 29 c0
       -0.67391616 0.03396341 -0.6068246 -2.6438148

fc5.bias f4 [15]
000000 94 e4 af be 18 a0 c2 be 9e 17 a8 3e f2 08 bd 3f
       -0.3435408 -0.38012767 0.32830518 1.4768355
000010 22 73 ed bf b1 22 be bf c5 8d 25 c0 b2 db 9f c0
       -1.8550761 -1.4854337 -2.586778 -4.9955683
000020 12 30 4e 3e 37 fb 86 3f 9b b0 e2 3e 40 09 b4 3e
       0.20135525 1.0545415 0.44275364 0.35163307
000030 89 c8 46 3d d7 17 6c bf 3f 31 9d bf
       0.04853109 -0.92223877 -1.2280654
