DNN/models/fourth_iteration.pth (torch, 229942 bytes, 10 tensors)

fc1.weight f4 [256, 49]
-0.21312794 0.072919875 -0.19463685 0.5442994 -0.47701114 0.49070838 0.13553885 -0.025958689
0.88896066 -1.0815983 -0.3606644 0.32240167 0.0028615524 0.06404687 -2.772669 0.26043943
0.28915882 -0.16343378 -0.08341593 -0.5586234 1.9456389 0.7735642 0.23363067 -0.17923884
-0.3399856 0.019319253 -0.039122727 0.13160232 -0.08421894 0.16265506 0.023938823 -0.20808126
-0.33088872 0.01242123 0.12700306 -0.2637853 -0.16493833 -0.055598255 -0.007161311 -0.54443526
0.013166268 -0.039097443 -0.22351992 0.24385108 -0.39710242 0.4114141 -0.86971354 0.054838803
0.23250349 -0.14449146 0.16263427 0.27610165 -0.15440573 0.16276884 0.15632875 -0.2516978
0.046102416 -0.3028466 0.111831926 0.29886356 -0.08756066 0.31430086 0.0036240388 -1.4012026
0.15803187 -0.15537673 0.15021846 -0.802932 0.18722275 -0.9771211 -0.26414767 0.37766215
-0.25749195 0.34384403 0.701615 0.3411225 -0.39126456 0.33411503 0.031526115 0.3478182
-0.30373776 -0.3397415 0.5116125 -0.14887977 -0.54032815 -0.32088664 -0.22186449 -0.17809735
-0.008345804 -0.16039523 0.079415895 -0.22262831 -0.3342683 0.98021144 0.44180706 -0.9816926
0.6166642 0.037712384 -0.26832885 -0.23577306 -0.17875527 0.3855801 0.015229527 -0.007615282
-0.023612013 0.044471316 0.7614222 -1.2007772 -0.2706211 0.80239844 0.95352775 0.2288404
-3.0485666 0.60447323 -1.1304257 -0.44761956 -1.1679059 -0.4746245 1.2017702 0.2617071
-0.054302026 0.0440872 -0.37170044 -0.016521385 -0.5272388 0.17423272 0.0024099844 -0.011515156
0.27191478 0.12872489 -0.18087167 0.29142448 -0.5778174 -0.05382091 -0.42366245 0.088526435
0.28691918 -0.104680575 -0.03936435 -0.09648817 -0.05132227 -0.29800072 -0.4948157 0.37312052
-1.1354622 -0.40897304 0.29417393 -0.20745209 0.22746606 0.0028169951 0.23725304 0.28408468
-0.099627316 0.09907555 -0.2606994 -0.34478664 0.16567786 0.18613093 -0.08778689 -0.14918305
-0.25428483 0.51724565 0.383204 0.40195465 0.2357241 0.27510786 -0.38222295 -0.61401916
-0.54646885 0.110224746 -0.19120848 0.034733232 0.37140393 -0.016880365 -0.12416659 -0.08589086
0.07396542 0.19045539 -0.18671763 -0.36301002 -0.3001423 0.13002217 0.12266182 0.23288563
-0.085616365 -0.2510179 -0.09906271 0.3836704 0.12040365 0.22197592 0.1693507 0.42371497
0.2948751 0.7777557 0.36538714 -0.02995417 -0.7020422 -0.32675305 -0.26132712 -0.44328853
0.117895134 0.2752498 -0.4155182 0.25534233 0.0075517027 0.0026120308 -0.08097233 -0.2615873
-0.2622126 0.22884631 0.480359 0.24501984 -0.16524176 0.034099624 0.39444578 -0.66816014
-0.7184036 0.5066384 0.13435072 -0.07033013 -0.095575266 -0.40420714 -0.07157094 0.116722964
0.44377688 0.22842543 -0.1478428 -0.10903891 -0.45109278 -0.17527346 0.06423737 -0.32036266
0.19787258 0.40861723 -0.11537153 0.3427089 -0.6041149 -0.051310986 0.39387122 0.18774906
-0.6001311 0.25328648 0.12791307 0.29748616 -0.6739978 -0.28123975 -0.26789775 0.06775707
-0.50485396 0.49854192 -0.99780494 0.21269093 -0.351175 -0.5510895 0.7552572 1.0155022
00000000: 363e 5abe 0457 953d e24e 47be 3557 0b3f
00000010: ce3a f4be 213e fb3e b2ca 0a3e 51a7 d4bc
00000020: ed92 633f d071 8abf 01a9 b8be d511 a53e
00000030: e288 3b3b 012b 833d 6973 31c0 5158 853e
00000040: a00c 943e 2f5b 27be f9d5 aabd f101 0fbf
00000050: b20a f93f 4e08 463f e13c 6f3e 638a 37be
00000060: 9812 aebe 6943 9e3c 273f 20bd c2c2 063e
00000070: fb7a acbd 0c8f 263e 5a1b c43c 4113 55be
00000080: 3f6a a9be 6a82 4b3c 170d 023e de0e 87be
00000090: 98e5 28be ffba 63bd 6ea9 eabb 1c60 0bbf
000000a0: 55b7 573c a424 20bd 68e2 64be 19b4 793e
000000b0: 0251 cbbe dea4 d23e 8ca5 5ebf a79e 603d
000000c0: 6515 6e3e 92f5 13be 9989 263e 325d 8d3e
000000d0: 891c 1ebe e0ac 263e a514 203e 89de 80be
000000e0: e3d5 3c3d b60e 9bbe 2308 e53d a504 993e
000000f0: 0153 b3bd 0bec a03e 4881 6d3b 9b5a b3bf
00000100: 1bd3 213e 141b 1fbe ded2 193e f48c 4dbf
00000110: 52b7 3f3e 9c24 7abf 5d3e 87be ef5c c13e
00000120: fcd5 83be 530c b03e 0a9d 333f 9ca7 ae3e
00000130: d453 c8be 2011 ab3e 8721 013d 3a15 b23e
00000140: 8483 9bbe 99f2 adbe 09f9 023f f073 18be
00000150: f252 0abf 414b a4be 7230 63be 275f 36be
00000160: d7bc 08bc a63e 24be cda4 a23d adf8 63be
00000170: 3725 abbe 23ef 7a3f 8934 e23e 3550 7bbf
00000180: b4dd 1d3f 4d78 1a3d 6662 89be 7e6e 71be
00000190: 9f0b 37be c16a c53e 4485 793c 9e89 f9bb
000001a0: fb6d c1bc 8e27 363d 91ec 423f 11b3 99bf
000001b0: d98e 8abe fc69 4d3f 651a 743f 2355 6a3e
000001c0: b71b 43c0 c2be 1a3f cab1 90bf 642e e5be
000001d0: f17d 95bf fc01 f3be 9bd3 993f 79fe 853e
000001e0: cd6b 5ebd c894 343d 854f bebe db57 87bc
000001f0: 1ff9 06bf 106a 323e d4f0 1d3b 11aa 3cbc
00000200: 6a38 8b3e 75d0 033e 6c36 39be 9735 953e
00000210: d7eb 13bf 5173 5cbd 49ea d8be 594d b53d
00000220: 12e7 923e c562 d6bd 833c 21bd 979b c5bd
00000230: 4d37 52bd 8d93 98be 7c58 fdbe a709 bf3e
00000240: d356 91bf ea64 d1be f79d 963e 526e 54be
00000250: ddec 683e 569d 383b 76f2 723e 8c73 913e
00000260: 6809 ccbd 1fe8 ca3d 647a 85be e087 b0be
00000270: 75a7 293e 1b99 3e3e 9dc9 b3bd 71c3 18be
00000280: 9f31 82be 366a 043f 5133 c43e 00cd cd3e
00000290: a961 713e f0da 8c3e bab2 c3be 5c30 1dbf
000002a0: 62e5 0bbf 83bd e13d 28cc 43be 6f44 0e3d
000002b0: a828 be3e b148 8abc 0e4b febd 8ce7 afbd
000002c0: 2f7b 973d bd06 433e e832 3fbe 73dc b9be
000002d0: 40ac 99be 8824 053e 1f36 fb3d 9279 6e3e
000002e0: a257 afbd 6b85 80be 64e1 cabd 7270 c43e
000002f0: 3096 f63d a84d 633e 456a 2d3e 2bf1 d83e
00000300: def9 963e ff1a 473f 0614 bb3e 7362 f5bc
00000310: 0ab9 33bf 2d4c a7be abcc 85be b7f6 e2be
00000320: 0173 f13d 8bed 8c3e cdbe d4be 3bbc 823e
00000330: 4674 f73b 9b2e 2b3b d2d4 a5bd c5ee 85be
00000340: bb40 86be b056 6a3e 9df1 f53e 7be6 7a3e
00000350: 2335 29be 0cac 0b3d ccf4 c93e 8b0c 2bbf
00000360: 4ce9 37bf 0eb3 013f 3c93 093e 3e09 90bd
00000370: f7bc c3bd 3df4 cebe c993 92bd 730c ef3d
00000380: b936 e33e 5be8 693e 1a64 17be cb4f dfbd
00000390: a2f5 e6be e37a 33be e28e 833d 9306 a4be
000003a0: 1c9f 4a3e 4736 d13e e947 ecbd 8a77 af3e
000003b0: 46a7 1abf 782b 52bd 7da9 c93e 4a41 403e
000003c0: 31a2 19bf c4ae 813e a5fb 023e 1b50 983e
000003d0: 1f8b 2cbf a8fe 8fbe e529 89be 38c4 8a3d
000003e0: 1c3e 01bf e340 ff3e 2570 7fbf a7cb 593e
000003f0: 36cd b3be 3414 0dbf 8958 413f fafb 813f

fc1.bias f4 [256]
0.035609048 -0.13989341 -0.41509068 -0.8692027 -0.17266315 -0.7883595 0.07918902 -1.0063406
-1.2049928 -0.83382446 -1.1941569 -0.14739959 -0.6956332 0.5639357 -0.07921762 -0.7891779
-0.08833901 -0.24340686 -0.3343948 0.50321853 -0.3183208 -0.4343026 -1.0643264 -0.78971905
-0.7966641 0.48934805 -0.3628993 -1.1299983 -0.3711514 0.24469073 -0.7755067 -0.075029574
-0.2092987 -0.72418827 -0.5170847 -0.25105247 -1.4815937 -0.89377403 -0.067349635 -1.2754121
0.8186775 -0.21472114 -0.26645225 -0.34911212 -0.64043415 -0.58083844 -0.37560508 -0.46674088
-0.80002743 0.68495834 -1.2548474 -0.31597784 -0.8894175 -1.1840827 -0.75380486 -0.41845757
0.3699471 -0.1165798 -0.12905888 -1.2345763 -0.5915773 0.2576766 0.36652532 -0.78072757
-1.061736 -0.84876114 0.50701 -0.3078677 -0.8403722 -0.9510666 0.41298568 -0.4551782
-0.2634898 -0.053648483 0.5018841 -0.4598469 -1.2022183 -0.23803279 -0.33621842 0.20398471
-1.1597952 0.0039917007 -0.42597902 -0.44047022 -0.40836787 0.68207395 0.14784868 -0.4945697
-0.35818118 0.5093937 -0.43250808 -0.70248336 -0.07106621 -0.042199418 -0.7477568 -1.0490649
-0.2647444 0.9432847 -0.4645208 -0.052318085 0.24778552 0.15605924 0.319459 -1.1554998
-0.73625124 -0.57822335 -0.5185906 -0.65790814 -0.7057455 -0.6068366 -0.88309574 -0.066146664
-0.66594887 0.06384612 -0.5566245 -0.5265541 -0.45763543 -0.8470977 0.38646454 0.47112367
-0.9020495 -0.7425244 -1.3346989 -1.1034515 -0.8492799 -0.681266 0.028334823 0.49541494
0.054999087 -0.8881075 -0.2830775 0.35729477 -0.17412952 -0.037196547 -0.6657033 -0.2788894
-0.695719 -0.27832168 0.7112793 -0.3928894 -0.95352256 0.5562333 -0.030235698 -0.27155253
-0.45838776 -0.45494622 -1.2752265 -0.17279238 -0.50901484 -0.74452716 -0.56695473 0.6058922
-0.110397846 -0.17664786 -0.0869603 -1.3189521 -0.7207324 -0.2200124 0.7107629 -0.27783495
-0.799456 0.19877882 0.008080415 -0.49461994 -0.26877895 -1.1538892 0.13765866 -0.82019955
0.8003028 -0.75597143 -0.5434485 0.017859329 -0.44694003 -0.2595559 -1.0505257 -1.3584957
-0.13214166 -1.234768 -0.24695186 -0.4910821 0.84389484 -0.73711777 0.868684 -0.7193332
-0.6209268 0.84458447 -0.22018538 -0.6785699 -0.45669422 -0.83642113 -1.0103095 -0.10854549
-0.20077619 -0.72503656 -0.35702974 -0.02044943 0.8508019 -0.2874017 -0.6070271 -0.86982363
-0.88498944 -0.349602 -0.3039382 -0.1724193 -0.58578324 -0.9391221 -0.89081347 -0.34371665
-0.0463256 -0.2769717 -0.88222396 -0.26223812 -0.17175084 0.6695632 -0.47748822 -0.47895205
-0.46355265 -0.6083759 0.4913055 -0.44837287 0.18222506 -1.483438 -0.13222845 -0.30997103
-0.059107423 -0.6818332 0.41488966 -1.1097515 -0.6882462 -0.5752926 -0.13443078 -0.74925107
-0.4373646 -0.54368013 -0.7637245 -1.3385406 -0.3155248 0.19257161 -0.8068655 -0.5751045
-1.3630459 -0.12773924 0.008850501 -0.21373828 0.56663644 -0.23282413 -1.039124 -1.354932
-0.22654308 -0.5149189 -0.99793893 -0.5705756 -0.55289406 -0.32479632 -0.5592118 -0.98895144
00000000: cbda 113d 3840 0fbe c486 d4be 1184 5ebf
00000010: 9cce 30be eed1 49bf da2d a23d c5cf 80bf
00000020: 343d 9abf 8575 55bf 22da 98bf ebef 16be
00000030: 0415 32bf 175e 103f d93c a2bd 9007 4abf
00000040: 15eb b4bd a63f 79be cc35 abbe eed2 003f
00000050: f2fa a2be e95c debe d93b 88bf 072b 4abf
00000060: 2ef2 4bbf d48b fa3e f0cd b9be c9a3 90bf
00000070: 8e07 bebe 3590 7a3e 9b87 46bf 1ba9 99bd
00000080: 6652 56be 6764 39bf aa5f 04bf f389 80be
00000090: dda4 bdbf 60ce 64bf 9bee 89bd b440 a3bf
000000a0: d994 513f dcdf 5bbe 6e6c 88be d3be b2be
000000b0: 7ef3 23bf d4b1 14bf 4f4f c0be a9f8 eebe
000000c0: 99ce 4cbf 6e59 2f3f d79e a0bf d9c7 a1be
000000d0: deb0 63bf 0690 97bf 5bf9 40bf 1240 d6be
000000e0: b569 bd3e 64c1 eebd 0328 04be 9906 9ebf
000000f0: 9c71 17bf 30ee 833e 35a9 bb3e c3dd 47bf
00000100: f7e6 87bf 6948 59bf 68cb 013f d6a0 9dbe
00000110: a222 57bf 1a79 73bf dc72 d33e 1e0d e9be
00000120: 23e8 86be 83be 5bbd 7a7b 003f 0e71 ebbe
00000130: 4ae2 99bf debe 73be d224 acbe 5ee1 503e
00000140: 2b74 94bf d0cc 823b ec19 dabe 5085 e1be
00000150: 9815 d1be 669c 2e3f a565 173e 3d38 fdbe
00000160: 8663 b7be a067 023f b371 ddbe f3d5 33bf
00000170: 298b 91bd 4cd9 2cbd fd6c 3fbf c247 86bf
00000180: 948c 87be 1b7b 713f acd5 edbe 7d4b 56bd
00000190: 7dbb 7d3e fecd 1f3e 2190 a33e 6be7 93bf
000001a0: f67a 3cbf 7206 14bf 5bc2 04bf ab6c 28bf
000001b0: bdab 34bf a559 1bbf 9012 62bf e777 87bd
000001c0: a07b 2abf c1c1 823d f17e 0ebf 40cc 06bf
000001d0: 314f eabe 65db 58bf aede c53e 1f37 f13e
000001e0: b7ec 66bf 1416 3ebf 6ad7 aabf e63d 8dbf
000001f0: 686a 59bf 7367 2ebf 6e1e e83c 07a7 fd3e
00000200: b946 613d 035b 63bf 89ef 90be 57ef b63e
00000210: 024f 32be 685b 18bd 886b 2abf 97ca 8ebe
00000220: a41a 32bf 2e80 8ebe 6616 363f cd28 c9be
00000230: 0e1a 74bf 4e65 0e3f dbb0 f7bc ef08 8bbe
00000240: cdb1 eabe b6ee e8be 9f3a a3bf 7cf0 30be
00000250: cc4e 02bf 5599 3ebf f223 11bf c01b 1b3f
00000260: 4418 e2bd 2de3 34be 3e18 b2bd 6cd3 a8bf
00000270: eb81 38bf ee4a 61be 8ff4 353f 6240 8ebe
00000280: 26a9 4cbf ad8c 4b3e b863 043c d33e fdbe
00000290: 659d 89be a4b2 93bf 64f6 0c3e 99f8 51bf
000002a0: a5e0 4c3f 5887 41bf 711f 0bbf ba4d 923c
000002b0: 53d5 e4be 83e4 84be a077 86bf 30e3 adbf
000002c0: 2550 07be e10c 9ebf f3e0 7cbe 1d6f fbbe
000002d0: 7e09 583f c0b3 3cbf 1362 5e3f 3826 38bf
000002e0: 0ff5 1ebf b036 583f 4778 61be c2b6 2dbf
000002f0: d3d3 e9be b21f 56bf d251 81bf 194d debd
00000300: 4698 4dbe ff9b 39bf 9acc b6be 9085 a7bc
00000310: 27ce 593f 5126 93be 2166 1bbf c3ac 5ebf
00000320: ab8e 62bf 09ff b2be ca9d 9bbe af8e 30be
00000330: e4f5 15bf 4e6a 70bf 5a0c 64bf a1fb afbe
00000340: eabf 3dbd 3ccf 8dbe 6ed9 61bf 1344 86be
00000350: 74df 2fbe 7e68 2b3f 5679 f4be 3439 f5be
00000360: c656 edbe 86be 1bbf 658c fb3e 2191 e5be
00000370: 3599 3a3e 4ce1 bdbf e566 07be 86b4 9ebe
00000380: a01a 72bd 9f8c 2ebf 6b6c d43e 560c 8ebf
00000390: e730 30bf 6046 13bf 39a8 09be ebce 3fbf
000003a0: 41ee dfbe 9f2e 0bbf 7383 43bf 4c55 abbf
000003b0: 778c a1be 7e31 453e bd8e 4ebf 0c3a 13bf
000003c0: 4a78 aebf 13ce 02be b101 113c 35de 5abe
000003d0: 160f 113f 7369 6ebe 0402 85bf 696e adbf
000003e0: e9fa 67be bad1 03bf ed78 7fbf 3e11 12bf
000003f0: 778a 0dbf b44b a6be 8128 0fbf ec2b 7dbf

fc2.weight f4 [128, 256]
0.1684646 -0.07263343 -0.14074571 -1.0912378 0.21231857 -0.15415615 -0.17124718 -0.11924564
0.423306 0.021103537 -1.8758618 0.10828727 0.41031337 -0.042598695 0.01976231 0.43085858
0.11609103 0.05146778 0.11446557 -0.0019295542 -0.69641525 -1.1034722 -0.4419517 -0.03666615
-0.64630497 0.022570042 0.36010098 0.16945054 -0.11816784 0.026621861 -0.2748923 -0.039893914
-0.52519476 -0.6058452 -1.6238282 -0.3392425 -0.47208944 0.10575602 0.22092427 0.41175514
0.09964658 0.17066789 -0.11663476 0.671772 0.09259698 -0.61558264 -0.14327289 0.1974222
-0.6148905 -0.17834178 0.30503204 -1.4945431 -0.6028862 0.046707716 -0.4594662 -0.29138494
0.031211475 0.080221176 0.19750883 -0.58993816 0.02589713 -0.09478302 -0.20703512 0.24479766
-0.65769136 -0.0643417 0.106997214 -0.13774927 -0.27239585 0.052485634 0.025021557 -0.12023381
0.6221407 0.0069683054 -0.025480483 0.45962998 -0.3323784 0.24947017 0.3523473 0.13913436
-0.63589686 0.46278876 -0.8738964 -0.28157696 -0.7831297 -0.20423311 -0.050075796 0.03485259
0.7780213 -0.19366625 0.12241492 0.1316374 -0.018174382 -0.09497468 0.66934586 -0.35905045
-0.055009037 -0.23972762 -0.53340375 0.3604727 0.007755934 0.39951247 0.08984704 0.32642835
-0.35953057 0.4640028 0.016867954 -0.7736047 0.04984859 -0.5038696 -0.23707159 -0.064787984
0.10861285 -0.80986476 0.14370537 -1.0921422 -0.107950844 -0.18594082 0.09906804 0.07146509
-0.39758584 -0.97782403 0.13391164 0.24277875 -0.04308512 -0.5750963 0.10008555 -0.17384438
0.76218194 -0.49271592 0.031877227 0.13418037 0.4155939 -0.28468898 -0.15629412 -1.4839053
0.5024059 -0.32006502 0.108174406 0.35995382 0.26940024 -0.046212677 0.4414147 0.20440242
-0.4956036 -0.030747231 -0.6551566 1.0044065 -0.099685654 -0.16522993 0.8912226 -0.03225355
0.15964556 0.14621514 -0.05832494 -0.4721678 -0.25505126 -0.8827647 -0.05404129 -0.06644667
-0.34210166 0.13412234 0.11752146 -0.5500678 0.3794997 0.21101932 0.5218587 -0.4338159
0.019174438 -0.19534974 0.04601574 -0.07339981 0.033209614 -0.064213395 -0.5305562 0.09672314
0.4711198 -1.5271071 -0.20998162 -0.37348667 -0.35798717 -0.24562581 0.1865597 -0.12707517
-0.39395988 -0.3180205 -0.055966508 -0.39442018 0.12665308 0.33622488 0.10351904 -0.63008595
0.4005878 0.07917518 0.47212642 -0.6842257 -0.28750882 -0.5538508 0.447361 0.2571714
-0.0064412327 0.116801955 0.7301416 -0.32429925 -0.043967675 -0.57730544 -0.24504457 0.36087674
-0.09062683 0.0018660028 0.14210217 -0.58927464 -0.008390923 0.11187993 -0.012262077 0.08809759
-0.21374202 -0.069817185 -0.29330447 -0.19439003 0.22041461 -0.30514553 0.4721796 -0.27558067
0.30055532 0.250808 -0.250043 -0.27650595 -0.3247693 -1.0765976 -0.036530517 0.11003999
-0.80313104 -0.3967046 0.03973028 -0.24620077 -0.34341252 -0.90199655 -1.0690771 -0.86037654
0.10689428 0.014038555 -0.03231759 -0.072257854 -0.19733536 -0.03319935 -0.18258786 -0.23398207
-0.8331725 0.18090451 0.08437327 -0.22035071 0.22304413 -0.63318354 0.5231692 0.1270349
00000000: fc81 2c3e d6c0 94bd a51f 10be aead 8bbf
00000010: 0a6a 593e 1cdb 1dbe 6c5b 2fbe 0f37 f4bd
00000020: 90bb d83e 53e1 ac3c 3d1c f0bf b7c5 dd3d
00000030: 9814 d23e f87b 2ebd 91e4 a13c 7f99 dc3e
00000040: 22c1 ed3d e1cf 523d ed6c ea3d 18e9 fcba
00000050: 4548 32bf 943e 8dbf 7e47 e2be 3f2f 16bd
00000060: 3e74 25bf cfe4 b83c 285f b83e 7184 2d3e
00000070: fb01 f2bd 1716 da3c afbe 8cbe cd67 23bd
00000080: 2a73 06bf ac18 1bbf 9ad9 cfbf 31b1 adbe
00000090: b5b5 f1be 9d96 d83d f939 623e 92d1 d23e
000000a0: 8213 cc3d 90c3 2e3e 34de eebd 40f9 2b3f
000000b0: 7ca3 bd3d d396 1dbf 21b6 12be 0c29 4a3e
000000c0: 7769 1dbf 3a9f 36be 292d 9c3e 304d bfbf
000000d0: c056 1abf 9750 3f3d 273f ebbe 6830 95be
000000e0: 35af ff3c 004b a43d c13f 4a3e 3006 17bf
000000f0: 3826 d43c 9a1d c2bd 0401 54be 3dac 7a3e
00000100: 765e 28bf 95c5 83bd 5b21 db3d 250e 0dbe
00000110: 7877 8bbe 2dfb 563d 02fa cc3c 253d f6bd
00000120: 9d44 1f3f 6256 e43b 72bc d0bc 9f54 eb3e
00000130: 802d aabe 1c75 7f3e de66 b43e 3d79 0e3e
00000140: 23ca 22bf a6f2 ec3e adb7 5fbf db2a 90be
00000150: 307b 48bf 7c22 51be 471c 4dbd 97c1 0e3d
00000160: 672c 473f 7250 46be acb4 fa3d f4cb 063e
00000170: 71e2 94bc 1682 c2bd 405a 2b3f 76d5 b7be
00000180: 2851 61bd 287b 75be 268d 08bf e18f b83e
00000190: 7d25 fe3b e68c cc3e ba01 b83d 9e21 a73e
000001a0: 6414 b8be c691 ed3e aa2e 8a3c f50a 46bf
000001b0: 092e 4c3d 99fd 00bf e5c2 72be 90af 84bd
000001c0: 6a70 de3d 4c53 4fbf 8027 133e 51cb 8bbf
000001d0: 5515 ddbd 4567 3ebe 2fe4 ca3d 4a5c 923d
000001e0: 5f90 cbbe ad52 7abf 2220 093e fe9a 783e
000001f0: 067a 30bd 8339 13bf a7f9 cc3d 4304 32be
00000200: 5b1e 433f 4345 fcbe b291 023d 9466 093e
00000210: b9c8 d43e c1c2 91be 910b 20be 9cf0 bdbf
00000220: ac9d 003f 90df a3be 8b8a dd3d de4b b83e
00000230: d4ee 893e 8149 3dbd 1c01 e23e de4e 513e
00000240: c1bf fdbe 9ee1 fbbc 58b8 27bf 6490 803f
00000250: fe27 ccbd 0932 29be 2a27 643f 4c1c 04bd
00000260: 207a 233e 6cb9 153e 22e6 6ebd fabf f1be
00000270: 1496 82be defc 61bf 665a 5dbd 3115 88bd
00000280: f327 afbe 5e57 093e 17af f03d 3ed1 0cbf
00000290: c94d c23e 7315 583e 8898 053f 1e1d debe
000002a0: b613 9d3c c309 48be 007b 3c3d a452 96bd
000002b0: ce06 083d 5082 83bd 88d2 07bf c816 c63d
000002c0: 9d36 f13e 3f78 c3bf 6c05 57be a539 bfbe
000002d0: 184a b7be 5585 7bbe 8209 3f3e fe1f 02be
000002e0: 1cb5 c9be 95d3 a2be 233d 65bd 71f1 c9be
000002f0: 58b1 013e ab25 ac3e ca01 d43d 504d 21bf
00000300: d819 cd3e 9926 a23d 8eba f13e 6a29 2fbf
00000310: 5b34 93be 2bc9 0dbf 800c e53e f8ab 833e
00000320: fa10 d3bb dd35 ef3d 8fea 3a3f 8d0a a6be
00000330: 7317 34bd 4aca 13bf f7ec 7abe d6c4 b83e
00000340: 8f9a b9bd aa94 f43a 3b83 113e b4da 16bf
00000350: 157a 09bc 4e21 e53d e1e6 48bc 826c b43d
00000360: 30df 5abe 50fc 8ebd 012c 96be 2e0e 47be
00000370: 5eb4 613e 093c 9cbe 86c1 f13e e918 8dbe
00000380: 63e2 993e e869 803e a305 80be 3092 8dbe
00000390: 2948 a6be f3cd 89bf 06a1 15bd a55c e13d
000003a0: ff99 4dbf de1c cbbe 38bc 223d 0e1c 7cbe
000003b0: c4d3 afbe 3fe9 66bf 85d7 88bf a341 5cbf
000003c0: 63eb da3d f801 663c 735f 04bd edfb 93bd
000003d0: 4812 4abe 0bfc 07bd 50f8 3abe ff98 6fbe
000003e0: cb4a 55bf 083f 393e e5cb ac3d 9ea3 61be
000003f0: ae65 643e 5118 22bf 6bee 053f 7015 023e

fc2.bias f4 [128]
-0.28819567 -0.8515597 0.01949534 0.0463219 -0.4636365 -0.10037259 0.01548988 -0.027515693
-0.20652443 -0.07409551 -0.9121485 0.17023127 -0.42564037 -0.7838706 -1.0877539 -0.4281167
-0.095691174 -0.042094737 0.18343961 -0.0078387875 0.23460701 -0.2046437 -0.013862089 0.27741477
0.17748626 -0.04213964 0.24387924 -0.8739761 0.06936036 -0.43614742 -0.034254562 -0.6084475
-0.91053057 -0.941747 0.06780214 0.12865822 -0.774118 -0.03316922 -0.062434375 -0.06805835
-0.053235866 -0.28943476 -0.18500197 -0.15716001 0.34481153 -1.2094309 0.12483559 -0.093233824
0.10684152 -0.46923256 -0.48355305 -0.027374927 -0.6427971 -0.059079163 -0.3652524 -0.033429027
-0.62721956 -0.11417994 -0.44023454 -0.17875859 0.10370803 -0.11380101 -0.37668866 -0.45456696
-0.026519433 0.18349358 -0.32333905 -0.19069113 -0.14768346 -0.14793634 -0.042516172 -0.5672599
-0.2959251 -0.42699972 0.0014794455 0.09011871 0.107738204 -1.4851056 -0.48854336 -0.21038021
-0.9113729 -1.1302651 -0.052309375 -0.26224715 -0.032848567 -0.12208649 -0.88986546 -0.29422998
-0.18120271 -0.208523 0.07880072 -0.3542104 0.020386757 -0.26378497 0.1531265 0.012102207
-0.16681644 0.10840642 0.18184708 0.11530561 -0.462386 -0.60436153 -0.3234726 0.099875644
-0.5889348 -0.028454559 0.43602833 -1.3586599 -0.18984179 -1.2222574 -0.4678759 -0.017752964
0.013563298 0.0024524285 -0.044790026 -0.588344 -0.06714727 0.07816715 -0.09602546 -0.8116526
0.027784733 -0.5989333 0.017325208 -0.55178744 -0.028890232 -1.5567515 -0.73441994 -0.34688342
00000000: 628e 93be d1ff 59bf b1b4 9f3c 08bc 3d3d
00000010: c361 edbe 2590 cdbd 44c9 7d3c 9768 e1bc
00000020: 247b 53be 63bf 97bd 9082 69bf 1b51 2e3e
00000030: 89ed d9be beab 48bf 853b 8bbf 1d32 dbbe
00000040: bcf9 c3bd 886b 2cbd 98d7 3b3e 426e 00bc
00000050: d23c 703e 1e8e 51be d11d 63bc 4f09 8e3e
00000060: f5be 353e 9d9a 2cbd 7bbb 793e e6bc 5fbf
00000070: ce0c 8e3d b74e dfbe 834e 0cbd 37c3 1bbf
00000080: 8818 69bf 5516 71bf d9db 8a3d fbbe 033e
00000090: 992c 46bf 73dc 07bd 30bb 7fbd 2d62 8bbd
000000a0: da0d 5abd cb30 94be 2871 3dbe 8eee 20be
000000b0: 238b b03e a2ce 9abf cda9 ff3d 60f1 bebd
000000c0: bacf da3d 403f f0be 4494 f7be 6241 e0bc
000000d0: 5a8e 24bf fefc 71bd 5d02 bbbe e0ec 08bd
000000e0: 7691 20bf 2cd7 e9bd 6c66 e1be 7e0c 37be
000000f0: e064 d43d 8110 e9bd 56dd c0be 00bd e8be
00000100: 483f d9bc bee5 3b3e b28c a5be 8944 43be
00000110: 553a 17be a07c 17be 7025 2ebd f237 11bf
00000120: 7f83 97be b59f dabe f4e9 c13a 2990 b83d
00000130: d9a5 dc3d f117 bebf 5b22 fabe e96d 57be
00000140: bc4f 69bf 87ac 90bf 5b42 56bd 4245 86be
00000150: 388c 06bd 7b08 fabd 39ce 63bf 50a5 96be
00000160: 348d 39be 0e87 55be 4662 a13d 115b b5be
00000170: 2102 a73c d30e 87be 31cd 1c3e 5648 463c
00000180: eed1 2abe 2f04 de3d 1f36 3a3e 5925 ec3d
00000190: dcbd ecbe 70b7 1abf 339e a5be 9a8b cc3d
000001a0: 6ec4 16bf 8919 e9bc 1b3f df3e 91e8 adbf
000001b0: e365 42be ee72 9cbf 6e8d efbe aa6e 91bc
000001c0: 9838 5e3c ecb8 203b bf75 37bd b69d 16bf
000001d0: 8284 89bd 1916 a03d ffa8 c4bd 77c8 4fbf
000001e0: cf9c e33c b153 19bf 98ed 8d3c f141 0dbf
000001f0: 35ab ecbc a243 c7bf f202 3cbf b49a b1be

fc3.weight f4 [64, 128]
-0.39850962 0.28266203 -0.42054796 0.24938013 0.2790843 0.30361912 -1.5056708 -0.14913474
-0.46940684 -0.6912959 -0.42579827 -0.9298041 0.55151033 0.49390256 0.83529794 -0.7569915
0.1606979 -0.36073527 -0.72176677 -0.23915423 -1.3979214 -0.5251374 -0.092467 0.15046483
-0.93081164 0.21713056 -0.8205974 -0.2849919 -1.0509044 0.723976 -0.55256766 -0.098887876
0.16386509 -0.2958962 -0.92735463 -1.127622 0.30738047 0.09733785 0.09517575 -1.4358189
-1.1057723 -0.32182658 0.45309278 -0.64399654 0.28698257 0.47955486 -0.95441985 -0.1581608
0.14851011 -0.6754041 -0.023830002 -0.1985465 -0.39787477 -0.075942785 -0.41267586 -0.14141913
-0.19980991 -0.06651308 0.6961216 -0.036006156 -0.16779102 -0.14388047 0.088517904 -0.26625767
-0.029803261 0.28185323 0.27801037 -0.75286555 -0.1681043 -0.48337 -0.35013363 -0.043332387
0.052615702 0.114776626 -0.03967159 -0.1448044 0.4421555 0.2789888 0.24527687 -1.2156502
0.50017905 -0.5233402 0.05747841 0.11734045 -0.7317861 -0.36321077 0.22384259 -0.65858924
0.13801077 0.0050041946 -0.4270971 0.02014122 0.14101338 0.042832665 0.24267912 0.2429627
-0.021332936 -0.12749617 -0.8512743 -1.0650074 0.00054161024 -0.6413103 0.1528447 -1.3734481
-0.6402412 -0.31638253 -0.067735165 0.11184921 0.07241673 0.021188566 0.13702649 -1.4242753
-0.37408116 0.2670694 -0.09980568 0.5062953 -0.05319837 -0.74298286 -0.6250293 0.026251521
0.37708145 -0.32444113 0.17081717 -0.25148106 -0.1449403 0.51358587 -0.28180516 0.118318245
-0.06164262 0.29109097 -0.38779536 0.36583436 -0.41950157 -1.1569222 -0.9082202 0.023201225
-0.051414944 -0.26018313 -0.095727384 -0.67794484 -0.3914852 0.83819795 -0.30228698 -0.32758796
-0.5265411 0.16220726 0.022258475 -1.0076896 -0.76429415 -0.53547907 -0.6334515 -0.4497218
-0.70701903 -1.2075377 -0.67287654 0.46552366 -1.0160648 -0.11016715 -0.031293154 0.9044863
0.567689 -0.9021468 -0.88189346 -1.0290073 0.099207 -0.54454046 -0.53835684 -0.9583687
-0.9046496 0.20258395 0.6193516 -1.0932058 -0.53933346 0.026941188 -0.1968367 -0.21476841
-0.3418581 -0.80431277 -0.32289407 -0.035692275 -0.12531094 -0.5750698 0.6335665 -0.9198816
-0.027037008 -0.9103231 -0.15803003 -0.046962246 0.48021057 0.23799954 -0.30863428 -0.4417466
-0.572171 -1.0550537 -0.22605109 -0.22308944 -0.071443394 -0.085332155 -0.38669842 0.014980722
-0.92911685 -0.38346985 -0.51606506 0.33033568 -0.28088745 -0.25349194 -0.54517835 -0.5744242
-0.7593054 -0.6054898 -0.5129969 0.013202929 -0.055075243 0.05608924 -0.2847658 0.13684091
-0.56700563 0.080870025 -0.750988 0.13218519 0.36158285 -0.95661473 -0.47467127 -0.5931189
-0.24085037 -0.6393019 -0.07121824 -0.5782443 -0.3215092 -0.42060277 -0.21926098 -0.6126057
-1.0051918 -0.6013825 -0.6575701 -0.47166082 -0.55263406 -0.46079764 -0.14211981 -0.7966976
-0.3407586 -0.7773035 -0.8919342 -0.17304182 -0.10663556 -0.8258976 -0.0409798 0.013275848
-0.3503553 0.5332886 -1.2163324 -0.16794907 -0.4208094 -0.5599124 0.4332702 -0.32898018
00000000: 7409 ccbe 14b9 903e 1052 d7be 815d 7f3e
00000010: 23e4 8e3e f773 9b3e d2b9 c0bf c7b6 18be
00000020: 1856 f0be c5f8 30bf 3b02 dabe a407 6ebf
00000030: c82f 0d3f cce0 fc3e 16d6 553f 32ca 41bf
00000040: fe8d 243e 4bb2 b8be b5c5 38bf d9e4 74be
00000050: 17ef b2bf 686f 06bf 575f bdbd 7413 1a3e
00000060: ac49 6ebf 7957 5e3e ac12 52bf 75ea 91be
00000070: 0984 86bf 7e56 393f 1375 0dbf ba85 cabd
00000080: 40cc 273e b57f 97be 1d67 6dbf eb55 90bf
00000090: f960 9d3e 1159 c73d 81eb c23d eac8 b7bf
000000a0: f289 8dbf 74c6 a4be c7fb e73e f5dc 24bf
000000b0: 61ef 923e 3788 f53e dc54 74bf e8f4 21be
000000c0: 0913 183e 48e7 2cbf 2337 c3bc c64f 4bbe
000000d0: 3eb6 cbbe e487 9bbd 404a d3be 2dd0 10be
000000e0: f89a 4cbe 0238 88bd 0635 323f 317b 13bd
000000f0: 69d1 2bbe 6755 13be e048 b53d ed52 88be
00000100: f825 f4bc 114f 903e 6057 8e3e ccbb 40bf
00000110: 8923 2cbe 467c f7be b744 b3be 4d7d 31bd
00000120: 9083 573d 0210 eb3d ad7e 22bd 9b47 14be
00000130: 3562 e23e 9fd7 8e3e dc29 7b3e 6d9a 9bbf
00000140: bc0b 003f a0f9 05bf 7b6e 6b3d 3150 f03d
00000150: 5556 3bbf c3f6 b9be fe36 653e 4e99 28bf
00000160: b252 0d3e 3afa a33b 79ac dabe 33ff a43c
00000170: d065 103e 4e71 2f3d e080 783e 37cb 783e
00000180: 69c2 aebc 5b8e 02be 1ded 59bf 2a52 88bf
00000190: d9fa 0d3a e92c 24bf 5283 1c3e 26cd afbf
000001a0: d9e6 23bf e4fc a1be bcb8 8abd 3311 e53d
000001b0: 394f 943d a593 ad3c ac50 0c3e a74e b6bf
000001c0: 9187 bfbe 52bd 883e ec66 ccbd 929c 013f
000001d0: 89e6 59bd 2034 3ebf ec01 20bf 6e0d d73c
000001e0: d210 c13e 261d a6be b2ea 2e3e 20c2 80be
000001f0: 3b6b 14be 5d7a 033f c448 90be d650 f23d
00000200: f97c 7cbd e009 953e 1d8d c6be a44e bb3e
00000210: e9c8 d6be 0716 94bf 1e81 68bf 7f10 be3c
00000220: 7a98 52bd b936 85be b80c c4bd cb8d 2dbf
00000230: c070 c8be 2494 563f 5cc5 9abe 9cb9 a7be
00000240: 66cb 06bf a919 263e 6857 b63c f9fb 80bf
00000250: c8a8 43bf 2815 09bf e129 22bf f041 e6be
00000260: 33ff 34bf 9890 9abf a341 2cbf 1e59 ee3e
00000270: 690e 82bf 519f e1bd 402d 00bd 6a8c 673f
00000280: 1154 113f 18f3 66bf c5c3 61bf 83b6 83bf
00000290: 0a2d cb3d 0167 0bbf c1d1 09bf a757 75bf
000002a0: 1e97 67bf 2b72 4f3e d48d 1e3f 2bee 8bbf
000002b0: c211 0abf c4b3 dc3c 8f8f 49be 40ec 5bbe
000002c0: 0608 afbe 71e7 4dbf 5f52 a5be 1032 12bd
000002d0: 8351 00be c637 13bf 6a31 223f 5c7d 6bbf
000002e0: b77c ddbc ef0a 69bf a0d2 21be 7c5b 40bd
000002f0: 29de f53e 27b6 733e 5005 9ebe 9c2c e2be
00000300: cc79 12bf 000c 87bf f079 67be 8f71 64be
00000310: ea50 92bd a0c2 aebd 56fd c5be b471 753c
00000320: 9ada 6dbf 2956 c4be d71c 04bf c221 a93e
00000330: 7bd0 8fbe b2c9 81be cf90 0bbf 770d 13bf
00000340: d761 42bf 6101 1bbf c453 03bf 1951 583c
00000350: 9496 61bd d5bd 653d d3cc 91be 0620 0c3e
00000360: 4827 11bf 2f9f a53d c040 40bf 8e5b 073e
00000370: 6321 b93e b4e4 74bf 1d08 f3be a4d6 17bf
00000380: 7ba1 76be 4aa9 23bf deda 91bd d207 14bf
00000390: db9c a4be 3f59 d7be f385 60be bad3 1cbf
000003a0: 20aa 80bf 34f4 19bf 8456 28bf 877d f1be
000003b0: 6d79 0dbf abed ebbe db87 11be 60f4 4bbf
000003c0: e977 aebe 5dfd 46bf cd55 64bf e031 31be
000003d0: bf63 dabd 066e 53bf 6fda 27bd f182 593c
000003e0: c561 b3be 9a85 083f c8b0 9bbf d7fa 2bbe
000003f0: 5474 d7be 6b56 0fbf 97d5 dd3e 1770 a8be

fc3.bias f4 [64]
0.36180806 0.25738016 0.6532198 0.13017617 0.6481159 0.077348344 0.5980375 0.5099894
0.056066215 0.06263639 0.24753387 0.6028657 -0.123909235 0.5016174 0.20111063 -0.3847558
0.19669579 0.72021526 0.21840273 0.025392264 -0.19570558 0.64251876 -0.692414 0.8626539
-0.89349884 -0.14559127 -0.3584075 0.4645321 -0.39795014 0.24916747 0.13261409 -1.5655528
-0.016048407 -0.38509867 0.5478803 0.33650124 -0.010953211 0.016968215 0.19931287 0.12483159
0.7533118 0.5232615 0.5447944 -0.085977435 0.028378952 -2.82643 0.430472 0.0808081
-0.49493244 0.07121254 0.25982517 -0.20561875 0.8508583 0.26150367 0.22238216 -2.082432
0.15741657 0.6469117 0.53269064 0.5559903 0.45384946 0.3238021 0.23930398 0.55300295
00000000: e83e b93e 55c7 833e 6a39 273f e74c 053e
00000010: ecea 253f cf68 9e3d fc18 193f aa8e 023f
00000020: b0a5 653d 8247 803d 8579 7d3e 6855 1a3f
00000030: 20c4 fdbd ff69 003f f2ef 4d3e b6fe c4be
00000040: 9f6a 493e 0760 383f f7a4 5f3e 7003 d03c
00000050: 0b67 48be 1c7c 243f 0b42 31bf e3d6 5c3f
00000060: 57bc 64bf e115 15be 3081 b7be 27d7 ed3e
00000070: 1fc0 cbbe c225 7f3e fdcb 073e 0964 c8bf
00000080: f377 83bc a72b c5be e241 0c3f e449 ac3e
00000090: 1975 33bc ed00 8b3c ac18 4c3e b4a7 ff3d
000000a0: 0bd9 403f 77f4 053f a577 0b3f f014 b0bd
000000b0: fa7a e83c 3be4 34c0 d366 dc3e b87e a53d
000000c0: c967 fdbe e1d7 913d ce07 853e b98d 52be
000000d0: d9d1 593f cfe3 853e 26b8 633e 9146 05c0
000000e0: cf31 213e 019c 253f 6a5e 083f 6155 0e3f
000000f0: f55e e83e 64c9 a53e 1a0c 753e 9a91 0d3f

fc4.weight f4 [32, 64]
-0.11912773 -0.35321245 -0.5127656 -0.16780989 0.11595077 -0.30825552 -0.090735376 0.19684023
-0.19825627 0.2792679 0.27051705 -0.001123404 0.028945018 -0.13540652 -1.0867347 -0.6346509
0.044157773 -0.44456384 0.0152921025 0.14980833 0.18569352 -0.4973903 0.22889255 -0.30112156
0.0865106 -0.016732218 0.5498104 -0.68176645 0.17380379 0.027903669 0.40130582 -0.29895675
0.11827874 0.010391574 0.06026758 -0.07805411 0.26000908 0.08522983 -0.35686657 -0.08317526
-0.21171841 -1.0222417 -0.36796603 0.008494083 -0.70578676 -0.014482389 0.0048042764 -0.0030493631
-0.1285527 0.032631807 0.09580463 -0.44483855 -0.116323255 -0.64015186 -0.37766925 0.29927894
0.09691192 -0.8504004 -0.26961315 0.07002262 0.053220104 0.06866736 -0.31129462 0.0018029943
0.12530352 0.15301207 -0.23279178 -1.01125 0.039021444 0.41294798 -0.32574016 -0.39442748
-0.13104127 -0.18316713 0.3666278 -0.0061628376 0.08644643 0.00896151 -0.039141826 -0.046047494
-0.055804912 -0.322356 0.11068775 -0.031086197 -1.1437947 0.18994911 0.30519015 0.019335004
0.095135055 -0.38477492 -0.4756564 0.14181638 -0.55099446 0.12227408 0.31251466 -1.4314522
-0.17237708 -0.6335019 -0.28108102 -0.19682708 -0.27666253 0.27164584 0.092656195 0.48157862
0.099532105 -0.15542048 0.08156807 0.018948618 0.07552297 -0.37910238 -0.7492317 0.031620935
0.06805213 -0.025212813 0.03829786 0.19570133 0.115563825 -0.094690084 0.13757096 0.20823412
0.08697734 0.12447912 -0.34521943 -0.6106373 -0.06526105 -0.4573048 0.13948877 -0.14496718
0.009848905 -0.23035029 0.18987381 -0.74490875 0.013115376 -0.21030004 0.078485504 -0.1464126
0.09071326 -0.56494975 -0.11791269 0.2039083 -0.094624594 0.11466576 -0.124425374 0.006316534
0.0908991 0.23712252 0.0150204515 -0.6797757 -0.31137714 -0.04437168 0.028466342 -0.03335922
0.055855043 -1.5872124 -0.08030847 0.06346135 -0.22899789 -0.08335318 0.025233788 0.17466266
-0.03597345 -1.0656655 0.22997163 -0.07945203 0.005376831 0.060350373 -0.22956105 -0.10943544
-0.24748948 0.09410473 0.3230331 0.013380601 0.008106792 0.09681383 0.27073982 -0.08947461
-0.048699006 0.054613702 -0.17281424 -0.02361022 -0.10126366 0.28947058 -0.12519498 0.0074363034
-0.053570997 0.027893808 0.5133916 0.22159934 -0.7245539 0.25082982 -0.022794403 -0.050534587
0.124401286 0.05719035 0.2010468 -0.4916788 0.32271498 -0.078324676 0.04673994 0.38910842
0.37111753 -0.00664648 0.16825268 0.029859997 -0.039945647 0.0021899913 -0.13462985 0.22407794
0.01112833 0.03741349 0.26368874 -0.009210194 -0.573268 0.08679713 0.33128187 0.031601787
0.22358544 -0.08388818 -0.22977766 0.05250197 -0.25678965 0.1070029 0.22528988 -0.024660297
0.032395195 -0.25223026 0.23264425 -0.48560637 0.18064244 0.04429538 -0.25236282 -0.09409728
-0.11481025 0.028431537 -0.62562686 -0.28217846 0.0017553234 0.23588541 0.13963397 -0.15763102
0.067254245 0.088268735 0.31314316 0.0143257715 -0.17313878 0.11757068 0.039900817 0.16831554
0.044374987 0.022870617 0.17847744 -0.59654695 -0.17119229 -0.3653408 0.06131757 -0.035831943
00000000: 3df9 f3bd 43d8 b4be 9b44 03bf 5bd6 2bbe
00000010: 9977 ed3d abd3 9dbe 78d3 b9bd 7c90 493e
00000020: b103 4bbe 34fc 8e3e 3681 8a3e 2f3f 93ba
00000030: 1a1e ed3c 02a8 0abe 1f1a 8bbf 7b78 22bf
00000040: c8de 343d df9d e3be ba8b 7a3c 5b67 193e
00000050: 7126 3e3e f1a9 febe cf62 6a3e 9b2c 9abe
00000060: 782c b13d 0112 89bc 60c0 0c3f 3f88 2ebf
00000070: 9ff9 313e 3c96 e43c f577 cd3e dc10 99be
00000080: 203c f23d 6c41 2a3c 23db 763d d5da 9fbd
00000090: e91f 853e fa8c ae3d 37b7 b6be ca57 aabd
000000a0: b6cc 58be d1d8 82bf 0b66 bcbe c42a 0b3c
000000b0: 71ae 34bf 8b47 6dbc 316d 9d3b d3d7 47bb
000000c0: 52a3 03be eea8 053d 3835 c43d e1c1 e3be
000000d0: e33a eebd fee0 23bf dd5d c1be 173b 993e
000000e0: c279 c63d d7b3 59bf bc0a 8abe 0568 8f3d
000000f0: 53fd 593d 79a1 8c3d 0262 9fbe 7352 ec3a
00000100: 914f 003e 32af 1c3e f860 6ebe a470 81bf
00000110: f3d4 1f3d eb6d d33e 6ac7 a6be 66f2 c9be
00000120: af2f 06be 2a90 3bbe a4b6 bb3e a1f1 c9bb
00000130: d30a b13d 4cd3 123c 2e53 20bd 4c9c 3cbd
00000140: b193 64bd d80b a5be 42b0 e23d 7ba8 febc
00000150: dd67 92bf 0582 423e e241 9c3e 7164 9e3c
00000160: 2bd6 c23d 3801 c5be 3c89 f3be 5038 113e
00000170: f90d 0dbf d56a fa3d ec01 a03e d339 b7bf
00000180: 9e83 30be 2e2d 22bf dae9 8fbe 0a8d 49be
00000190: b6a6 8dbe 2a15 8b3e 88c2 bd3d 7991 f63e
000001a0: 7dd7 cb3d 8c26 1fbe 290d a73d 223a 9b3c
000001b0: c9ab 9a3d b519 c2be a6cd 3fbf f484 013d
000001c0: ea5e 8b3d 1a8b cebc 38de 1c3d ee65 483e
000001d0: baac ec3d e0ec c1bd 67df 0c3e 533b 553e
000001e0: 2d21 b23d e9ee fe3d 9ac0 b0be ba52 1cbf
000001f0: 96a7 85bd db23 eabe 25d6 0e3e 4772 14be
00000200: 4d5d 213c f2e0 6bbe 486e 423e 57b2 3ebf
00000210: e0e1 563c e558 57be 02bd a03d 2fed 15be
00000220: e0c7 b93d 8ca0 10bf 357c f1bd 56cd 503e
00000230: 8aca c1bd e2d5 ea3d bbd2 febd edfa ce3b
00000240: 4f29 ba3d 3fd0 723e 5718 763c c805 2ebf
00000250: d36c 9fbe 14bf 35bd 3f32 e93c ada3 08bd
00000260: 42c8 643d c729 cbbf c478 a4bd 06f8 813d
00000270: 6c7e 6abe 12b5 aabd 17b7 ce3c c5da 323e
00000280: e558 13bd ba67 88bf af7d 6b3e bfb7 a2bd
00000290: 2130 b03b f431 773d 0d12 6bbe b01f e0bd
000002a0: e26d 7dbe fbb9 c03d 9864 a53e 4f3a 5b3c
000002b0: 5ad2 043c 5446 c63d 699e 8a3e 773e b7bd
000002c0: 9c78 47bd 9eb2 5f3d 37f6 30be 386a c1bc
000002d0: 5263 cfbd 7d35 943e 1d33 00be 3cac f33b
000002e0: 436d 5bbd 8e81 e43c a26d 033f f0ea 623e
000002f0: 5d7c 39bf c46c 803e 54bb babc 5bfd 4ebd
00000300: 1ac6 fe3d 6e40 6a3d 36df 4d3e 53bd fbbe
00000310: e63a a53e b068 a0bd 6172 3f3d 3839 c73e
00000320: 1e03 be3e b7ca d9bb 6e4a 2c3e f49c f43c
00000330: 0c9e 23bd f585 0f3b 68dc 09be b074 653e
00000340: 9953 363c e33e 193d 3602 873e 5be6 16bc
00000350: b1c1 12bf b2c2 b13d c79d a93e e070 013d
00000360: 95f3 643e 91cd abbd d64a 6bbe 4e0c 573d
00000370: ef79 83be 5624 db3d 64b2 663e 6404 cabc
00000380: d3b0 043d 5324 81be 4b3a 6e3e 66a1 f8be
00000390: 55fa 383e 136f 353d b335 81be 13b6 c0bd
000003a0: a321 ebbd 41e9 e83c 1529 20bf b279 90be
000003b0: e112 e63a f28b 713e 35fc 0e3e 076a 21be
000003c0: 98bc 893d 3dc6 b43d 4d54 a03e a4b6 6a3c
000003d0: 4b4b 31be e6c8 f03d 0a6f 233d e95a 2c3e
000003e0: 8cc2 353d 295b bb3c cac2 363e 4db7 18bf
000003f0: 084d 2fbe f30d bbbe 2228 7b3d 84c4 12bd

fc4.bias f4 [32]
0.42263693 0.30830088 -0.15959 -0.12804592 0.03506644 0.26249987 0.08134951 -0.15709949
0.34565246 0.061618164 0.0824565 0.31427848 0.14881854 0.4260351 -0.068144605 0.117805034
-0.03074032 0.32185823 -0.40540227 0.2253751 0.71819365 0.07825964 0.0762288 0.261095
0.5253122 0.23649341 0.35062012 0.06045812 0.41031525 0.5409133 0.46613005 0.25323352
00000000: de63 d83e 9dd9 9d3e 906b 23be 781e 03be
00000010: d4a1 0f3d 6266 863e 929a a63d b0de 20be
00000020: 5cf9 b03e 5463 7c3d f4de a83d 1ce9 a03e
00000030: e363 183e 4621 da3e 668f 8bbd c443 f13d
00000040: 20d3 fbbc 9aca a43e e390 cfbe bbc8 663e
00000050: 8adb 373f 9746 a03d d81d 9c3d 3eae 853e
00000060: dc7a 063f 542b 723e 7b84 b33e efa2 773d
00000070: d714 d23e 4b79 0a3f 99a8 ee3e d3a7 813e

fc5.weight f4 [15, 32]
-0.6560092 -1.3069166 -0.197805 -0.44351107 -0.20798394 -0.17080487 -3.9085534 -7.164365
-0.30447704 -0.5842827 -0.1967579 -1.9585166 -0.5686506 -0.011611525 -0.06218547 -3.4240735
-1.1460712 -0.99153477 -0.061802045 -1.1960212 -0.35025495 -3.691907 -0.44802687 -3.6532888
-0.2735731 -0.450049 -0.29862037 -4.8192406 -3.290909 -0.2184392 -0.15255392 -0.40897503
-0.78826755 -1.8825231 -0.030631687 -0.68059593 -0.20938022 -0.29842523 -0.17164497 -0.12782882
-2.8231804 -0.1298537 0.0028554942 -0.05396699 -0.00056755135 -0.42475522 -0.058776367 -0.057329535
-0.10611937 -0.3827062 -0.16591226 -0.33701515 -2.1005332 -0.36556464 -4.998507 -0.35986376
-1.5321972 -4.2569795 -2.1456099 -4.6719833e-07 -0.5749856 -0.81359154 -0.659626 -4.388267
-0.09918057 -0.13497637 -2.9654562 -0.12154411 -1.8544402 0.10635157 -0.11089306 -0.10720626
-4.830524 -1.1643296 -1.3103515 -1.1729494 -0.62253964 -4.7168336 -1.0811207 -2.7034523
-5.8382554 0.124987975 -1.7620866 -0.06456053 -4.334325 0.06948964 -1.4698318 -6.3754597
-4.7332506 -2.2899375 -0.05851482 -3.276225 -2.9076867 -0.03990164 -0.18817735 -1.2678252
-0.31092262 -3.412049 -2.6959116 -1.9912472 -3.968069 -1.597776 -4.836163 -2.9095054
-0.1203259 0.017822796 -2.318746 -4.7551103 -2.8830903 0.113797404 -3.885441 -1.6861445
-0.30216774 -0.8450468 -3.6457012 -3.647099 -0.30140555 -1.5192934 -3.056881 -5.293393
-2.526919 -0.1407866 -0.16595353 -2.2892354 -4.399139 -0.12007023 -0.07780428 -3.2576635
-0.11129832 -0.04185558 -1.2449559 -0.08784897 -2.3253434 -0.017795334 -1.7186825 -1.6267682
-2.317076 -0.05481415 0.15014859 -3.4153304 0.080000505 -3.6853926 0.22308306 -1.0465897
-8.849818 0.10484355 -1.4674441 -0.1999259 -4.486866 -1.153401 -0.17405537 -6.2648134
-3.2435458 0.087812446 0.01936295 -4.3742933 -2.3991518 -1.7811406 -1.9179531 -0.04425792
-0.22260635 -0.17510517 -6.6701574 -0.20995826 -4.003726 0.04479308 -0.32732514 -0.28632817
-0.4532365 -0.99225754 -0.97027963 -1.8545642 -0.82674164 -0.23473947 -0.8487541 -5.5445366
-2.648788 0.11424022 -4.3605847 -0.12793936 -0.7705418 -0.09032678 -1.2596247 -10.263001
-1.6793653 -0.62707293 -0.23571122 -6.625117 -7.2869554 -0.21299002 -0.3121223 -0.9942072
-0.36565775 -0.37851313 -0.6887384 -0.04357217 -1.3053087 -0.22024144 -0.6905933 -0.78660816
-2.0509377 -1.117144 -0.58941954 0.08798848 -0.7024007 -0.9060875 0.15754113 -0.22672251
-0.53116345 0.06296527 0.25361905 -0.6570851 -0.758308 -0.22487976 -0.5029218 -0.5688605
-0.86969185 -0.91460997 -1.1741818 -0.35405365 -0.3154585 -0.41557816 -1.8078005 -0.37006953
-1.0775812 -0.71461445 0.25410813 0.12122104 -1.1696377 0.18533818 -1.6021862 -0.54485184
-2.3004224 -2.2924814 0.17007507 -0.43750435 0.09353316 -2.783008 -0.4209857 0.16663656
0.35584998 -0.55591923 0.2582753 -0.8260562 -0.08283151 0.2505959 -1.1505067 -1.8719556
-1.857124 -1.0806481 -1.2652228 -0.5485094 -0.055177145 0.06339622 -1.8224974 -1.2244525
00000000: 38f0 27bf 0b49 a7bf 658d 4abe e213 e3be
00000010: bef9 54be 79e7 2ebe bd25 7ac0 7a42 e5c0
00000020: 6ae4 9bbe 8d93 15bf e77a 49be acb0 fabf
00000030: 1693 11bf 443e 3ebc 31b6 7ebd 0524 5bc0
00000040: 76b2 92bf 39d5 7dbf 2424 7dbd 3917 99bf
00000050: 9e54 b3be 3448 6cc0 c763 e5be 7ccf 69c0
00000060: c611 8cbe d36c e6be c5e4 98be 3837 9ac0
00000070: 419e 52c0 87ae 5fbe 1837 1cbe 2d65 d1be
00000080: e7cb 49bf 84f6 f0bf 4eef fabc 893b 2ebf
00000090: c567 56be 31cb 98be b3c3 2fbe 8fe5 02be
000000a0: fdae 34c0 5ef8 04be 3e23 3b3b 7e0c 5dbd
000000b0: bac7 14ba 8479 d9be 7dbf 70bd 60d2 6abd
000000c0: 1d55 d9bd 11f2 c3be e7e4 29be 408d acbe
000000d0: 236f 06c0 4a2b bbbe c5f3 9fc0 1040 b8be
000000e0: 0a1f c4bf 2d39 88c0 ac51 09c0 40d3 fab4
000000f0: 4232 13bf 8947 50bf 40dd 28bf af6c 8cc0
00000100: 2f1f cbbd 3f37 0abe 09ca 3dc0 1eec f8bd
00000110: 4c5e edbf dace d93d e71b e3bd f58e dbbd
00000120: a793 9ac0 c108 95bf 99b9 a7bf 3523 96bf
00000130: c25e 1fbf 4df0 96c0 2a62 8abf 5d05 2dc0
00000140: fdd2 bac0 b2f9 ff3d 0e8c e1bf 5038 84bd
00000150: cab2 8ac0 9650 8e3d 7323 bcbf c403 ccc0
00000160: ca76 97c0 568e 12c0 3cad 6fbd acad 51c0
00000170: 8a17 3ac0 e76f 23bd 90b1 40be 1948 a2bf
00000180: 4031 9fbe 035f 5ac0 d189 2cc0 30e1 febf
00000190: d8f4 7dc0 ed83 ccbf d9c1 9ac0 5635 3ac0
000001a0: 6d6d f6bd 1d01 923c 5666 14c0 dd29 98c0
000001b0: 8d84 38c0 9d0e e93d 11ab 78c0 95d3 d7bf
000001c0: bbb5 9abe fd54 58bf 2b53 69c0 126a 69c0
000001d0: d451 9abe 3578 c2bf f0a3 43c0 7a63 a9c0
000001e0: 0ab9 21c0 5d2a 10be b9ef 29be d582 12c0
000001f0: bfc5 8cc0 61e7 f5bd da57 9fbd 8f7d 50c0
00000200: 60f0 e3bd c270 2bbd b75a 9fbf 29ea b3bd
00000210: 6dd2 14c0 85c7 91bc cafd dbbf f139 d0bf
00000220: f94a 14c0 cd84 60bd 8dc0 193e c694 5ac0
00000230: 4ed7 a33d 79dd 6bc0 e36f 643e a7f6 85bf
00000240: db98 0dc1 37b8 d63d 35d5 bbbf 60b9 4cbe
00000250: 6894 8fc0 a5a2 93bf 923b 32be 5a79 c8c0
00000260: 4196 4fc0 03d7 b33d 0d9f 9e3c 36fa 8bc0
00000270: b48b 19c0 6afc e3bf 7d7f f5bf cb47 35bd
00000280: ebf2 63be c54e 33be ee71 d5c0 4cff 56be
00000290: 861e 80c0 f378 373d 2997 a7be 9b99 92be
000002a0: 9d0e e8be 9704 7ebf 3f64 78bf 5c62 edbf
000002b0: 57a5 53bf 8b5f 70be f347 59bf d86c b1c0
000002c0: be85 29c0 c7f6 e93d e989 8bc0 8902 03be
000002d0: 3a42 45bf 3ffd b8bd 623b a1bf 4135 24c1
000002e0: 71f5 d6bf da87 20bf 485e 71be f500 d4c0
000002f0: bd2e e9c0 0e1a 5abe 7ece 9fbe 5d84 7ebf
00000300: 7e37 bbbe 79cc c1be 2951 30bf bb78 32bd
00000310: 5b14 a7bf f986 61be b9ca 30bf 275f 49bf
00000320: 9042 03c0 93fe 8ebf 33e4 16bf 4e33 b43d
00000330: 88d0 33bf 5af5 67bf 7652 213e f229 68be
00000340: 54fa 07bf eff3 803d 5bda 813e bb36 28bf
00000350: 7920 42bf e146 66be 7cbf 00bf d7a0 11bf
00000360: 20a4 5ebf e123 6abf 974b 96bf 8546 b5be
00000370: c783 a1be a9c6 d4be 0266 e7bf c179 bdbe
00000380: 2eee 89bf f9f0 36bf 761a 823e bd42 f83d
00000390: b0b6 95bf 4bc9 3d3e 7014 cdbf 697b 0bbf
000003a0: 1f3a 13c0 04b8 12c0 2928 2e3e 9200 e0be
000003b0: 508e bf3d ce1c 32c0 708b d7be c6a2 2a3e
000003c0: f831 b63e b950 0ebf a93c 843e 6b78 53bf
000003d0: 91a3 a9bd 1b4e 803e ce43 93bf 3e9c efbf
000003e0: 3db6 edbf ad52 8abf d2f2 a1bf 1d6b 0cbf
000003f0: 6e01 62bd e1d5 813d 9847 e9bf dcba 9cbf

fc5.bias f4 [15]
-0.985794 -0.0040778685 -0.5261811 1.9841301 -2.8148491 -1.7581004 -4.3682265 -5.4786105
0.34506464 0.9977968 -0.94103676 0.46271017 -0.1703692 -0.8247179 -0.7631229
00000000: ff5c 7cbf a49f 85bb ceb3 06bf faf7 fd3f
00000010: 7d26 34c0 6f09 e1bf 83c8 8bc0 c750 afc0
00000020: 50ac b03e 9c6f 7f3f c9e7 70bf 59e8 ec3e
00000030: 4375 2ebe b620 53bf 065c 43bf
