DNN/models/second_iteration.pth (torch, 229942 bytes, 10 tensors)

fc1.weight f4 [256, 49]
0	0xbebb4dc1	-0.3658276
1	0xbe7043c5	-0.23463352
2	0xbd488141	-0.04895139
3	0xbefe176d	-0.49627247
4	0x3ed87c20	0.422822
5	0x3e9a640e	0.3015446
6	0xbe97555b	-0.2955731
7	0x3e16e8d7	0.14737259
8	0xbdd3e66b	-0.10346683
9	0x3d928d8a	0.07155903
10	0xba7552d3	-0.000935835
11	0xbecea18b	-0.40357623
12	0xbda73a22	-0.08165385
13	0xbe9b5734	-0.30339968
14	0xbe95d058	-0.29260516
15	0xbe137f28	-0.14403975
16	0xbf2f80d4	-0.6855595
17	0x3e05bd67	0.13060533
18	0xbe6cec81	-0.23137094
19	0x3ed22b4e	0.41048664
20	0x3ee165fa	0.44023114
21	0x3d823d1a	0.063593104
22	0x3e27a98e	0.16373274
23	0x3cd49d2d	0.025953854
24	0xbe5af775	-0.2138346
25	0xbd7a9c28	-0.06118408
26	0x3cb12192	0.021622453
27	0x3d8482a9	0.06470234
28	0xbdb9e433	-0.09076729
29	0xbe92faac	-0.28706872
30	0x3df2f948	0.11863953
31	0xbdbd61ca	-0.092471674
32	0x3d6eeeb2	0.058333106
33	0x3de63266	0.112400815
34	0xbe139f37	-0.14416204
35	0x3e9ed435	0.31021276
36	0xbe6d03d3	-0.2314599
37	0x3e2cf6f5	0.16891082
38	0x3e22fa8a	0.15915886
39	0xbe06cef5	-0.13164885
40	0xbd898680	-0.06715107
41	0xbe356aa6	-0.17716464
42	0xbe5b5158	-0.21417749
43	0xbe11dfb1	-0.14245488
44	0xbe044149	-0.1291553
45	0x3cc1a497	0.023638053
46	0xbe26f125	-0.16302927
47	0x3e8ce229	0.27516297
48	0xbc5dcc21	-0.013537438
49	0xbf844591	-1.033373
50	0xbed79737	-0.42107555
51	0xbed5a44e	-0.41726917
52	0x3d9fbfbc	0.07800242
53	0xbe9ae16d	-0.3025011
54	0x3edd081b	0.43170246
55	0xbf1db1c2	-0.6159936
56	0x3eaa3a9d	0.33247843
57	0x3db7272f	0.089430206
58	0x3d8bb462	0.06821515
59	0x3e907f6c	0.28222215
60	0xbe3a6a0d	-0.18204518
61	0xbeb61c47	-0.3556845
62	0x3e978551	0.295939
63	0xbc968243	-0.01837266
64	0x3de41f99	0.11138839
65	0x3da78a36	0.081806585
66	0xbcd6cd41	-0.02622092
67	0x3e34ad57	0.17644249
68	0xbcc13dd3	-0.02358905
69	0xbda4fea2	-0.0805638
70	0xbe40648b	-0.18788354
71	0x3e468b2e	0.1938903
72	0x3d42d102	0.047562607
73	0xbed44a19	-0.41462782
74	0x3da2d899	0.07951469
75	0x3e2ff391	0.17182757
76	0x3dd402de	0.103521094
77	0x3de4146a	0.11136706
78	0x3e127245	0.14301403
79	0xbb5edac5	-0.0034004909
80	0xbdb3a32b	-0.08771356
81	0xbc4f6c29	-0.012660065
82	0x3dc0fb98	0.09422988
83	0x3ddfeba7	0.10933619
84	0xbd3df303	-0.046374332
85	0xbe084028	-0.13305724
86	0xbeb1fafb	-0.34761795
87	0xbd53a064	-0.051666632
88	0xbe3a74a9	-0.18208565
89	0x3ecac955	0.3960673
90	0x3e54372e	0.20724174
91	0x3e39b08d	0.18133755
92	0x3e0e06af	0.13869737
93	0xbe863a06	-0.26216143
94	0x3c915279	0.017739521
95	0x3e7f6df3	0.24944286
96	0x3e38b6d0	0.18038487
97	0x3dff28fe	0.124589905
98	0xbeb5d35d	-0.3551282
99	0x3de12ca1	0.109948404
100	0xbdf73f6d	-0.120726444
101	0xbd7f947f	-0.062397476
102	0x3e8c5679	0.27409723
103	0xbe93885c	-0.2881497
104	0x3d16270b	0.036658328
105	0xbd03012c	-0.03198354
106	0xbcfefb5a	-0.031125713
107	0x3e1d760a	0.1537706
108	0xbdf9a64b	-0.12189921
109	0xbcf9dc6f	-0.030500619
110	0x3d850885	0.064957656
111	0xbd1cf447	-0.0383189
112	0x3e5e22d9	0.21692981
113	0x3e322bb1	0.1739948
114	0x3e87eb7c	0.26546848
115	0x3d3b403e	0.045715563
116	0xbd63bb21	-0.055598382
117	0xbeb1dc7b	-0.34738526
118	0xbed09716	-0.4074027
119	0xbe8c95c4	-0.27458012
120	0xbed70168	-0.4199326
121	0x3db0fe8d	0.08642302
122	0xbe441f57	-0.1915258
123	0xbf05e78b	-0.5230643
124	0xbe262c93	-0.16227941
125	0xbf0ecc92	-0.557809
126	0xbc8d7524	-0.017267771
127	0x3c31ef0a	0.010860214
128	0x3eb47b81	0.35250476
129	0xbe863c27	-0.26217768
130	0xbec0d8c6	-0.37665385
131	0xbd182d51	-0.037152592
132	0xbeab0591	-0.33402684
133	0xbe63a11f	-0.22229432
134	0x3e22f208	0.1591264
135	0x3e395329	0.1809813
136	0x3dde9edb	0.10870143
137	0x3dcddcbe	0.10051869
138	0xbe921e1c	-0.28538597
139	0xbea9a449	-0.33133152
140	0xbd6faea4	-0.05851616
141	0x3e3ab676	0.18233666
142	0x3e527fab	0.20556514
143	0x3ed35355	0.41274515
144	0x3db60929	0.08888466
145	0xbd8175f2	-0.063213244
146	0x3bea4121	0.0071488773
147	0xbf102c86	-0.5631794
148	0xbde4b2ef	-0.111669414
149	0x3d914488	0.070931494
150	0xbbf63459	-0.0075135645
151	0xbe98d78b	-0.29851946
152	0x3e700ee1	0.23443176
153	0xbdaa35b0	-0.08311021
154	0x3e05fe55	0.13085301
155	0x3eb5e847	0.35528776
156	0xbf1123b4	-0.56695104
157	0xbd97cdf1	-0.07412327
158	0x3dcb0fdc	0.09915134
159	0x3cdb6e55	0.026786009
160	0xbdb376f5	-0.08762924
161	0xbf5fbfb8	-0.87401915
162	0x3eb028f5	0.34406248
163	0xbe840ecb	-0.25792536
164	0xbbd308c2	-0.006440253
165	0xbdbc9d89	-0.09209735
166	0xbf178daa	-0.5920054
167	0x3f24c163	0.64357585
168	0xbdf08e59	-0.11745901
169	0x3cb37d1d	0.021910245
170	0xbe163eef	-0.14672445
171	0xbc1c56fc	-0.009542223
172	0xbcde5af1	-0.027142974
173	0x3e4669a5	0.19376238
174	0x3d76042c	0.060062572
175	0x3dadfec1	0.08495856
176	0x3dc72486	0.09723763
177	0xbe2af0cd	-0.1669342
178	0x3f04e350	0.5190935
179	0x3ef3cfd1	0.4761949
180	0x3e9945e4	0.29936135
181	0xbd48ab4f	-0.048991498
182	0x3daa9aab	0.08330282
183	0xbe9e493c	-0.30915248
184	0x3e818586	0.25297183
185	0xbc9d4e06	-0.019202244
186	0xba985866	-0.0011623024
187	0xbdec5749	-0.11540086
188	0x3de4432c	0.111456245
189	0xbdbed8fa	-0.09318729
190	0xbe1f3bea	-0.15550199
191	0x3b5e82ef	0.0033952554
192	0x3cd3d65c	0.02585905
193	0xbe18e5c6	-0.14931402
194	0x3e94f808	0.29095483
195	0x3d7875b4	0.060659125
196	0xbe59bdab	-0.21263759
197	0xbe0d1def	-0.1378095
198	0xbe685779	-0.22689618
199	0x3e31103b	0.17291348
200	0x3de20291	0.11035646
201	0x3ed40bb8	0.4141519
202	0x3dadd52d	0.08487926
203	0xbcb0f6fb	-0.021602144
204	0x3daa7bc8	0.08324391
205	0xbe7fc2a4	-0.24976593
206	0xbe74e6c0	-0.23916149
207	0x3e2c23c8	0.16810524
208	0x3d8af1ef	0.067844264
209	0xbca8ed69	-0.020621018
210	0xbd7df7c6	-0.062003873
211	0xbbfc6663	-0.007702635
212	0xbe3211b1	-0.17389561
213	0x3e971ba7	0.29513285
214	0xbdd818be	-0.10551594
215	0xbdfa3129	-0.12216408
216	0xbcf0451b	-0.029329827
217	0xbe0fdc76	-0.14048943
218	0xbe3a0644	-0.18166453
219	0x3df4f74d	0.119612314
220	0xbd0fea90	-0.035135806
221	0x3c04f16b	0.008114199
222	0xbe148bee	-0.14506504
223	0x3efe84b7	0.49710628
224	0x3d7ba2e4	0.06143464
225	0xbe2a7490	-0.16646028
226	0xbe28ed93	-0.16496877
227	0x3e2d01a8	0.16895163
228	0x3ec61c49	0.38693455
229	0x3e57110d	0.21002598
230	0x3d8a8edb	0.06765529
231	0x3da21feb	0.07916244
232	0xbe27fab3	-0.16404228
233	0x3ddabda5	0.10680703
234	0x3d3bb60b	0.045827907
235	0xbe30d421	-0.17268421
236	0x3de1a51b	0.110178195
237	0xbddda2be	-0.10822056
238	0xbd57dda5	-0.05270161
239	0xbe105579	-0.14095105
240	0xbe114654	-0.14186984
241	0xbdf21cba	-0.118218854
242	0xbd6b26a2	-0.05740989
243	0x3e1d1750	0.15340924
244	0x3d39814e	0.04528933
245	0xbec5f858	-0.38666034
246	0x3e1fc4de	0.15602443
247	0xbe0f46a8	-0.13991797
248	0x3dbf6317	0.09345072
249	0xbefdfdd7	-0.49607727
250	0xbe5df824	-0.2167669
251	0xbee9ae63	-0.4564086
252	0x3e71418a	0.23560157
253	0x3e895e7c	0.26829898
254	0xbe7a4bdc	-0.24443
255	0xbea726d0	-0.326468

fc1.bias f4 [256]
0	0xbe2a0076	-0.16601738
1	0xbeb1bbd5	-0.34713617
2	0xbf0605ac	-0.52352405
3	0xbe967231	-0.29383996
4	0xbf80cd96	-1.006274
5	0xbed5fa2e	-0.41792434
6	0xbe27865b	-0.16359846
7	0x3eb94485	0.3618509
8	0xbed0f2f0	-0.40810347
9	0xbe8788f4	-0.26471674
10	0x3d77a9d6	0.060464703
11	0xbed8fd0a	-0.42380553
12	0x3d22be69	0.03973237
13	0x3dbf14c8	0.093301356
14	0x3ed0ede0	0.40806484
15	0xbec4b2f3	-0.38417777
16	0xbe87f955	-0.26557413
17	0xbf3e0a03	-0.74234027
18	0xbeb796bf	-0.35857198
19	0xbf358805	-0.70910674
20	0x3edd06b8	0.43169188
21	0xbf4b0750	-0.79308033
22	0xbe425765	-0.18978651
23	0x3e90bdff	0.28269956
24	0xbe09a6d7	-0.1344255
25	0xbe98d6c6	-0.2985136
26	0xbda45c5e	-0.0802543
27	0xbe010968	-0.12601244
28	0xbfb92fe3	-1.4467739
29	0xbf17b0e0	-0.59254265
30	0xbf67aacd	-0.90494996
31	0xbf8752ec	-1.0572181
32	0xbeb0d6c4	-0.34538853
33	0xbea2fcfc	-0.31833637
34	0xbf462f82	-0.7741624
35	0x3e90a170	0.28248167
36	0xbf872f96	-1.0561397
37	0x3dabc4a4	0.083871156
38	0xbdcfe220	-0.10150552
39	0xbef4d996	-0.47822255
40	0x3e14ff5e	0.1455054
41	0xbf54b233	-0.8308441
42	0xbf55e859	-0.8355766
43	0xbf08c967	-0.53432316
44	0xbe40047a	-0.18751708
45	0x3f7b6be6	0.98211515
46	0x3dd787cc	0.10523948
47	0xbee7bccd	-0.4526123
48	0xbe985622	-0.29753214
49	0xbf26ae80	-0.65110016
50	0xbe8062a5	-0.2507526
51	0xbeeaa9b8	-0.4583261
52	0xbebd6e46	-0.36998194
53	0xbf2c7e7d	-0.67380506
54	0xbe131938	-0.14365089
55	0xbf5ae07c	-0.85498786
56	0x3ee1e97e	0.44123453
57	0x3eac34ce	0.33634037
58	0xbf66c756	-0.9014791
59	0xbeea6c94	-0.45785964
60	0xbdf6c220	-0.12048745
61	0xbf85768b	-1.0426801
62	0x3d091d3a	0.03347514
63	0xbf02cfb2	-0.5109817
64	0xbe0268a7	-0.12735234
65	0xbf69b05a	-0.91284716
66	0xbf7809bd	-0.9688986
67	0xbf4ecdff	-0.80783075
68	0x3e6db8e6	0.23215064
69	0x3d9c449e	0.07630275
70	0x3f470e08	0.77755785
71	0x3e8adf70	0.27123594
72	0x3e832635	0.25615087
73	0xbed27588	-0.41105294
74	0x3eb0970a	0.34490234
75	0x3dea72cf	0.11447679
76	0x3dfb7002	0.12277223
77	0xbef8ac96	-0.48569173
78	0xbe1d693f	-0.1537218
79	0x3ec16543	0.3777257
80	0xbf780da1	-0.96895796
81	0xbe5bcb5b	-0.21464293
82	0xbf2c992b	-0.67421216
83	0xbed4ba72	-0.41548496
84	0xbd5da628	-0.054113537
85	0xbe6e8f10	-0.23296762
86	0xbd8d409d	-0.0689709
87	0xbc0b5f7a	-0.00850665
88	0xbf7a2a0c	-0.9772041
89	0xbf07eedf	-0.53098863
90	0xbeb234ad	-0.34805813
91	0xbeb7ba90	-0.35884523
92	0xbe31046f	-0.17286848
93	0xbeb46de2	-0.35240084
94	0xbf3ad266	-0.7297729
95	0xbe03a633	-0.12856369
96	0xbf3c3c3b	-0.73529404
97	0xbcb78292	-0.022401128
98	0x3ee7b37b	0.4525412
99	0xbe98c141	-0.2983494
100	0xbf3f2c9f	-0.7467746
101	0xbe950522	-0.2910548
102	0xbf06c14a	-0.52638686
103	0xbf2aedb9	-0.66768986
104	0xbe3baf8d	-0.18328686
105	0xbf417727	-0.7557244
106	0xbf6027a5	-0.8756049
107	0xbe8dddb8	-0.2770822
108	0xbea254fc	-0.31705463
109	0xbead6b7e	-0.33871073
110	0xbebc0ba1	-0.36727622
111	0xbea1e435	-0.3161942
112	0xbed38763	-0.4131423
113	0xbe56a80a	-0.2096254
114	0xbeab5b4c	-0.3346809
115	0x3d74d46d	0.059772898
116	0xbf369f15	-0.7133649
117	0xbf1aad2f	-0.6042051
118	0xbe074e43	-0.13213448
119	0xbf4aff58	-0.79295874
120	0xbea76db6	-0.3270089
121	0xbefca05a	-0.4934109
122	0xbe179171	-0.14801575
123	0xbf62bb95	-0.8856748
124	0xbf2f2614	-0.6841748
125	0x3f399454	0.72491956
126	0xbe0c577f	-0.13705252
127	0xbf5446df	-0.8292064
128	0xbe584f83	-0.21124081
129	0xbd9b1aaa	-0.07573445
130	0xbe56d60e	-0.20980093
131	0x3e3dcd89	0.18535437
132	0xbefcfa6c	-0.49409807
133	0xbec6e4dc	-0.3884648
134	0xbf10130c	-0.56279063
135	0xbdf586e9	-0.11988623
136	0xbeadcd3c	-0.33945644
137	0xbe40ec4e	-0.18840143
138	0xbf4b061c	-0.793062
139	0xbf986dd7	-1.190852
140	0xbe99b140	-0.30018044
141	0xbf3418c4	-0.7035029
142	0xbec1990e	-0.37812084
143	0xbee3b3a2	-0.44472986
144	0xbf50859d	-0.8145388
145	0xbf1e0b87	-0.6173634
146	0xbe87f3be	-0.26553148
147	0xbe4b29f6	-0.19840226
148	0xbe1253fa	-0.14289847
149	0xbf0fa9e8	-0.5611863
150	0x3df9a6b4	0.12189999
151	0xbd90cfee	-0.070709094
152	0xbd94ccab	-0.072656
153	0x3ec9c035	0.39404455
154	0xbe1980fa	-0.14990607
155	0xbe858e5a	-0.26085168
156	0xbec397d1	-0.38201764
157	0xbdbb4ea4	-0.09145859
158	0xbdcb50de	-0.099275336
159	0xbf396eca	-0.72434676
160	0xbf14e760	-0.5816555
161	0xbee4a82a	-0.4465955
162	0xbefaa84f	-0.48956534
163	0xbf0c71d0	-0.54861164
164	0xbf5e4afb	-0.8683316
165	0x3a30eeb7	0.00067494385
166	0xbf1db276	-0.61600435
167	0xbe22b2b5	-0.15888484
168	0xbf723b27	-0.9462151
169	0xbee559e9	-0.44795159
170	0xbeb3e2dd	-0.3513402
171	0x3eed1895	0.46307817
172	0xbe7336b1	-0.23751332
173	0xbf86fe73	-1.0546402
174	0xbf0e4631	-0.55575854
175	0xbf11a472	-0.5689155
176	0x3f33186f	0.6995916
177	0x3dab6e47	0.08370643
178	0x3d595944	0.053063646
179	0xbeea5a3c	-0.45771968
180	0xbf21efe4	-0.6325667
181	0x3e63d21e	0.22248122
182	0xbe93b875	-0.28851667
183	0xbebdc98d	-0.37067834
184	0xbf08e81f	-0.5347919
185	0x3f2bbc73	0.67084426
186	0xbf06273b	-0.5240361
187	0xbf89d40c	-1.0767837
188	0xbf42a63b	-0.760349
189	0x3f2bde4c	0.67136073
190	0xbf6b5723	-0.91929835
191	0xbe755ca1	-0.23961116
192	0xbef95787	-0.4869959
193	0xbe0c2272	-0.13685015
194	0xbdce5be4	-0.100761205
195	0xbe6e6a38	-0.23282707
196	0xbea31e74	-0.3185917
197	0x3d2cff92	0.04223592
198	0xbee293ae	-0.44253296
199	0xbd71988a	-0.058983363
200	0xbf7ef2b5	-0.9958909
201	0xbf2fdf06	-0.6869968
202	0xbefbd7d0	-0.4918809
203	0xbf2326ed	-0.6373127
204	0xbf097c16	-0.53704965
205	0xbe701e55	-0.23449071
206	0x3e075311	0.13215281
207	0xbf042343	-0.51616305
208	0xbea16a9e	-0.31526655
209	0xbe8a5f37	-0.27025768
210	0xbd3625b9	-0.04446957
211	0xbf5dd30d	-0.8665016
212	0xbe979120	-0.2960291
213	0x3ef7cd3c	0.4839877
214	0xbee9d948	-0.45673585
215	0xbf995e00	-1.1981812
216	0xbf7c16d7	-0.9847235
217	0x3dc04bab	0.093894325
218	0xbd4d9c50	-0.0501979
219	0x3eaeb5c9	0.34123066
220	0x3f01ccdc	0.50703216
221	0xbe876049	-0.26440647
222	0xbe78a927	-0.24283276
223	0xbe5de6eb	-0.2167012
224	0xbf2af726	-0.6678337
225	0xbf08aad9	-0.5338569
226	0xbda3d508	-0.07999617
227	0xbe9eadad	-0.3099188
228	0xbd28e79f	-0.041236516
229	0xbf58ec63	-0.847357
230	0xbe16a0ff	-0.14709853
231	0x3e9b4ccd	0.30332032
232	0x3e8dd4aa	0.27701312
233	0xbf73e5da	-0.952726
234	0xbdee0c84	-0.11623481
235	0xbe9d9ba0	-0.30782795
236	0xbf1bb878	-0.6082835
237	0xbf796339	-0.97417027
238	0xbdc0a030	-0.09405553
239	0xbec8eb40	-0.39241982
240	0x3f1ef4cc	0.6209228
241	0x3eb1cfe7	0.3472893
242	0xbf1c5364	-0.61064744
243	0xbf8bc5b4	-1.0919709
244	0x3f1300a6	0.57422864
245	0xbeba6e63	-0.36412343
246	0xbe14da0e	-0.14536306
247	0xbdd47f89	-0.10375888
248	0xbf340119	-0.70314175
249	0xbf2ac631	-0.66708666
250	0xbeab8b7b	-0.33504853
251	0xbf45bd27	-0.7724175
252	0xbe886fc8	-0.26647782
253	0xbf33e0d9	-0.70264965
254	0xbf44de8d	-0.76902086
255	0xbe29a366	-0.16566238

fc2.weight f4 [128, 256]
0	0xbdb276c3	-0.08714058
1	0xbdb80c93	-0.08986773
2	0xbe97fa0e	-0.29682964
3	0xbde9bfcd	-0.11413536
4	0x3d81c29b	0.06335946
5	0x3beecf01	0.0072878604
6	0x3d824ce4	0.06362322
7	0xbdbe0a08	-0.09279257
8	0x3d8f7c24	0.070061
9	0x3e7da599	0.24770202
10	0x3dae3a9a	0.08507271
11	0x3e85ce81	0.26134112
12	0xbdcdaf73	-0.1004323
13	0x3e45ef20	0.193295
14	0x3cd9d4ec	0.026590787
15	0x3ce42109	0.027847784
16	0x3d83acf9	0.06429476
17	0xbdfd5ce4	-0.12371233
18	0x3df96a2f	0.12178456
19	0x3ea2ac10	0.31771898
20	0x3e307710	0.17232919
21	0x3db1c9cf	0.0868107
22	0x3d809283	0.06277945
23	0xbd49abf6	-0.04923626
24	0xbee5e7ab	-0.4490331
25	0xbe6d5793	-0.23177938
26	0x3eb4388b	0.3519939
27	0x3c3268d5	0.010889252
28	0x3e381a24	0.17978722
29	0xbe8818fc	-0.26581562
30	0x3e851c33	0.25998077
31	0x3c90f669	0.017695623
32	0xbe00e8bf	-0.12588786
33	0xbe80c4cb	-0.2515014
34	0xbd2a106e	-0.041519575
35	0xbdf0be5b	-0.117550574
36	0x3dfeb62f	0.124370925
37	0x3de11768	0.109907925
38	0xbdee14ea	-0.11625083
39	0x3da4d225	0.080478944
40	0xbee5964f	-0.4484124
41	0x3da106ea	0.07862647
42	0x3b6d2b80	0.0036189258
43	0xbe55b237	-0.20868765
44	0x3e438071	0.19091965
45	0xbd615e04	-0.0550213
46	0xbe30afce	-0.17254564
47	0x3e113b23	0.14182715
48	0xbd116d38	-0.03550455
49	0xbe3125ea	-0.1729962
50	0xbb86c455	-0.00411276
51	0x3d777c5b	0.06042133
52	0x3dae7bb5	0.08519689
53	0x3e1cf837	0.15329061
54	0xbec5749f	-0.38565537
55	0xbcb6d047	-0.022316111
56	0xbd8720f2	-0.06598081
57	0x3e6fbc4a	0.2341167
58	0xbe295751	-0.16537215
59	0xbb4db0c8	-0.0031385887
60	0x3dc20aca	0.09474714
61	0x3daf8cad	0.08571754
62	0xbe941609	-0.2892306
63	0xbe2ee2ab	-0.17078654
64	0xbed9862e	-0.42485183
65	0xbecd899f	-0.4014406
66	0x3d3fc5d5	0.046819527
67	0x3ec567d6	0.38555783
68	0xbe526649	-0.20546831
69	0x3e74131d	0.23835416
70	0x3d3cbd46	0.046078943
71	0xbd9273da	-0.07151003
72	0xbdbf2946	-0.09334044
73	0x3e38f7a2	0.18063214
74	0xbd62c2d8	-0.0553616
75	0x3dec7323	0.11545398
76	0xbda2c385	-0.07947449
77	0xbe5f219f	-0.21790169
78	0xbd3caf98	-0.046065897
79	0x3e8de86c	0.27716386
80	0xbd9ffe0c	-0.078121275
81	0xbf0a15fe	-0.5393981
82	0xbe2b238c	-0.16712779
83	0xbd0bfa79	-0.034174416
84	0x3d1b3750	0.037894547
85	0xbd327a10	-0.04357344
86	0x3e554b02	0.20829394
87	0x3e7ae42a	0.245011
88	0xbdb928c7	-0.09040981
89	0xbf244194	-0.64162564
90	0xbf57376b	-0.84068936
91	0xbe6f162a	-0.23348299
92	0x3dfce8da	0.123491004
93	0xbdffbf16	-0.124876186
94	0x3dce0475	0.10059444
95	0xbe3372d1	-0.17524268
96	0xbd594932	-0.05304832
97	0xbd8895a5	-0.066691674
98	0xbe8d7e40	-0.27635384
99	0x3ec006fc	0.3750533
100	0xbc471d8d	-0.012153042
101	0xbe8e3c92	-0.27780586
102	0x3d8dd2f0	0.06924999
103	0x3e1530fd	0.14569469
104	0xbd7a3b1d	-0.06109153
105	0x3d70e7e8	0.058814913
106	0x3ed1466d	0.40874043
107	0xbe5976f9	-0.2123679
108	0xbc67abf6	-0.01414012
109	0xbe15c943	-0.14627557
110	0xbd2fa227	-0.04287925
111	0x3d0c3b82	0.03423644
112	0xbd17aabc	-0.03702806
113	0x3de5ee9a	0.1122715
114	0xbdb0a0fc	-0.08624455
115	0xbd9e852a	-0.07740243
116	0xbe1cd7ca	-0.15316692
117	0x3d522c62	0.051311858
118	0xbf8f1603	-1.1178592
119	0xbd26c810	-0.04071814
120	0x3e096170	0.13416076
121	0xbd959aa4	-0.07304886
122	0xbe80f8d1	-0.25189832
123	0x3e5f59dc	0.21811622
124	0x3e0997bc	0.13436788
125	0x3eb41353	0.35170993
126	0xbdce67fe	-0.10078429
127	0x3dcc2db8	0.09969658
128	0x3e8086e0	0.251029
129	0xbd64c4db	-0.0558518
130	0x3d46979b	0.048484426
131	0xbe136e70	-0.14397597
132	0xbeaaf54a	-0.33390266
133	0x3d8b6285	0.068059005
134	0xbf3634db	-0.711744
135	0xbdd5f5fc	-0.104473084
136	0x3cbae3ca	0.022813696
137	0xbe907ed1	-0.28221753
138	0x3cfe0323	0.031007355
139	0xbe835009	-0.25647
140	0x3d5aab75	0.05338617
141	0xbe2b352b	-0.167195
142	0xbe0a626d	-0.13514109
143	0xbe2cd01a	-0.1687626
144	0x3e3aff32	0.18261412
145	0xbe9c6c67	-0.30551454
146	0x3f1078f2	0.5643455
147	0xbdc612c5	-0.09671549
148	0x3b8c2ac0	0.004277557
149	0xbe853e2b	-0.26023993
150	0x3e566fad	0.20941038
151	0xbdb047b3	-0.086074255
152	0xbd133023	-0.03593458
153	0x3dc6e102	0.097108856
154	0xbf1abfdb	-0.60449
155	0xbf169f47	-0.5883679
156	0x3e972ea7	0.2952778
157	0x3e86dd80	0.26340866
158	0xbeef3628	-0.46721005
159	0x3e5c9f9d	0.21545263
160	0x3db19f9b	0.086730205
161	0x3e628f3b	0.2212495
162	0x3ecc3c6f	0.39889857
163	0x3df9c7a9	0.12196285
164	0x3de474df	0.11155104
165	0xbd8fd3b1	-0.07022799
166	0x3f2cd8ac	0.67518115
167	0xbf1323e4	-0.5747664
168	0xbdd4396f	-0.10362517
169	0xbe8becfb	-0.2732924
170	0xbe47106a	-0.19439855
171	0x3e2f7df8	0.17137897
172	0xbead8356	-0.33889264
173	0x3e7f8cd2	0.24956062
174	0x3e6177da	0.22018376
175	0xbdbd72f6	-0.09250443
176	0x3e8ea9b1	0.2786384
177	0xbecdef5e	-0.40221685
178	0x3e70a9da	0.23502293
179	0x3e0b82fe	0.13624188
180	0x3ddb4337	0.107061796
181	0x3c6dfac0	0.0145251155
182	0xbde031df	-0.10947012
183	0xbf45eac1	-0.7731133
184	0x3e1f2a55	0.15543492
185	0xbcdcd7ce	-0.026958372
186	0xbe5a4f28	-0.21319258
187	0x3c98c73a	0.018649686
188	0x3e8f16f1	0.2794719
189	0xbd343e75	-0.044004876
190	0x3deab0d8	0.114595115
191	0xbefe0265	-0.49611202
192	0x3e9f0ab4	0.31062853
193	0x3d11ae60	0.035566688
194	0xbe8b4245	-0.27198997
195	0x3e216a22	0.15763143
196	0xbe223f90	-0.1584456
197	0xbd94cad4	-0.07265249
198	0x3ee40d0a	0.44541198
199	0xbf45a017	-0.771974
200	0x3c709589	0.014684089
201	0x3d367eda	0.04455457
202	0xbc350bc5	-0.011050169
203	0x3e863059	0.2620876
204	0xbdd677c7	-0.104720645
205	0xbe6a870f	-0.22903083
206	0x3d3a2939	0.04544947
207	0x3de6f7ed	0.11277757
208	0xbf38453e	-0.71980655
209	0xbe2f94a3	-0.17146544
210	0xbe7d5c00	-0.24742126
211	0x3e368efe	0.17827985
212	0xbf82ce40	-1.0219193
213	0x3de47394	0.11154857
214	0x3e54b2fe	0.20771405
215	0xbe042f0a	-0.12908569
216	0xbd36d73e	-0.044638865
217	0x3d97cd8f	0.07412254
218	0xbeace546	-0.33768672
219	0x3ce6fdbc	0.028197162
220	0x3e23e4e3	0.16005282
221	0x3eb0e1f6	0.34547395
222	0x3e23f7c7	0.16012488
223	0xbea4ae3d	-0.32164183
224	0xbd08b8a2	-0.033379205
225	0xbc17745b	-0.00924405
226	0xbde07f70	-0.10961807
227	0xbd9cd067	-0.07656937
228	0x3e9b7c50	0.3036828
229	0xbe3d36dc	-0.18477958
230	0xbea7ca7f	-0.3277168
231	0xbeab511b	-0.33460316
232	0xbe821925	-0.2540981
233	0xbdc4a7df	-0.09602331
234	0x3cb8014b	0.022461554
235	0x3e758805	0.23977669
236	0x3e93a490	0.2883649
237	0x3e821f86	0.25414675
238	0x3d9b1bf8	0.07573694
239	0xbe01ccf9	-0.12675847
240	0xbdb9736a	-0.090552166
241	0x3d91289b	0.07087823
242	0x3e8533dd	0.2601613
243	0xbd3c3a7d	-0.045954216
244	0x3e3922f0	0.18079734
245	0x3e535616	0.20638308
246	0x3d8fde55	0.07024828
247	0x3e8347eb	0.25640807
248	0x3e5b5cfe	0.21422192
249	0x3bf46d15	0.0074592927
250	0x3e0e7cc8	0.13914788
251	0x3d724d08	0.059155494
252	0xbf036752	-0.5132953
253	0xbccef424	-0.0252629
254	0xbe7040ec	-0.23462266
255	0xbdd820f3	-0.105531596

fc2.bias f4 [128]
0	0xbe0ac680	-0.13552284
1	0xbf20c9f0	-0.6280813
2	0x3dc1d082	0.09463598
3	0xbf86980b	-1.051515
4	0xbeaad54d	-0.3336586
5	0xbc07da1d	-0.008291748
6	0xbeacd69c	-0.33757484
7	0xbe90ea20	-0.28303623
8	0x3e3672ba	0.17817202
9	0xbefdbf19	-0.49559858
10	0xbe40d741	-0.18832113
11	0xbf5c71a3	-0.86110896
12	0xbe781d4b	-0.24229924
13	0xbe616473	-0.22010975
14	0xbe434252	-0.19068268
15	0xbf3c9298	-0.73661184
16	0xbeac6ada	-0.3367527
17	0x3d3d13a0	0.046161294
18	0x3e836cc0	0.25668907
19	0xbd817413	-0.063209675
20	0xbed1eb42	-0.409998
21	0xbdd2b2dc	-0.10288021
22	0xbe875949	-0.26435307
23	0xbd248d43	-0.04017378
24	0xbe86309b	-0.26208958
25	0x3e74ae56	0.23894629
26	0x3e4243a4	0.18971115
27	0xbe4e7464	-0.20161587
28	0xbef20255	-0.47267404
29	0x3d01e036	0.031707965
30	0x3deee392	0.11664499
31	0xbdd62af7	-0.10457414
32	0xbe0c0787	-0.13674746
33	0xbeb729d5	-0.35774103
34	0x3e27c707	0.16384517
35	0xba17884b	-0.0005780502
36	0xbe8367e3	-0.25665197
37	0xbf8f6dd3	-1.1205391
38	0xbf30c28f	-0.6904687
39	0x3aba63db	0.0014220433
40	0xbe141ff5	-0.14465316
41	0xbf8701b4	-1.0547395
42	0x3e7e5a20	0.24839067
43	0xbd98fbb8	-0.074698865
44	0xbf468776	-0.77550447
45	0x3d28b80c	0.041191146
46	0xbd1fc3a3	-0.039004933
47	0xbf28f8a1	-0.6600438
48	0xbeea53c9	-0.45767048
49	0x3e678a0f	0.22611259
50	0xbf0c429d	-0.54789144
51	0xbedfdb80	-0.43722153
52	0xbd3b0a41	-0.045664076
53	0x3df6dec1	0.12054206
54	0xbf1f6f1b	-0.6227891
55	0xbdeaba5f	-0.11461329
56	0x3d804ed1	0.06265033
57	0xbd095a4f	-0.03353339
58	0xbeac5714	-0.33660185
59	0xbed25b1e	-0.41085142
60	0x3e62296c	0.22086114
61	0xbcd36051	-0.025802763
62	0x3e01e491	0.12684847
63	0xbf013779	-0.5047527
64	0x3dc96061	0.09832836
65	0x3e3950ce	0.18097231
66	0xbe12191e	-0.14267394
67	0xbeb9c77b	-0.36285004
68	0x3d4ed50b	0.050496142
69	0xbcd0b675	-0.025477627
70	0xbf12b513	-0.5730755
71	0xbf4bb3da	-0.79571307
72	0x3d0dd959	0.034631107
73	0x3dfb6348	0.12274796
74	0x3c934d3d	0.017981166
75	0xbda7201d	-0.08160422
76	0x3d0dd520	0.03462708
77	0xbf1c7f2b	-0.6113154
78	0xbe916d2c	-0.28403604
79	0x3dc64418	0.096809566
80	0xbc82737b	-0.015924206
81	0x3e96fceb	0.29489836
82	0xbd94d263	-0.072666906
83	0xbf41dd6b	-0.7572848
84	0x3dc84454	0.097786576
85	0x3da51e8e	0.080624685
86	0x3d52757d	0.051381577
87	0xbf20eb4d	-0.6285904
88	0xbeab645a	-0.33475
89	0x3d976699	0.07392616
90	0x3e8b17cf	0.27166602
91	0x3d8d503d	0.0690007
92	0xbc811f6a	-0.01576205
93	0x3d986a68	0.074421704
94	0x3c1d2220	0.009590656
95	0xbecc51bf	-0.39906117
96	0xbf243d63	-0.6415617
97	0xbedf5658	-0.43620563
98	0xbedbc18c	-0.42921102
99	0xbef70d19	-0.4825218
100	0x3d9a9c47	0.07549339
101	0xbf0f23fa	-0.5591427
102	0xbe76586b	-0.24057166
103	0xbe95dab3	-0.29268417
104	0xbe42bab5	-0.19016536
105	0xbeb00854	-0.34381354
106	0xbd8feaa4	-0.07027176
107	0xbebb06e1	-0.36528686
108	0xbf1244ad	-0.5713604
109	0xbeb489f0	-0.35261488
110	0xbc5950a4	-0.013263855
111	0xbf1c791e	-0.6112231
112	0xbd809a83	-0.06279471
113	0xbf1e9730	-0.61949444
114	0xbf0fe880	-0.5621414
115	0xbf4303f8	-0.7617793
116	0x3e731271	0.23737504
117	0x3e15ee67	0.14641725
118	0xbe88ebea	-0.26742488
119	0xbf9bab54	-1.216166
120	0x3eed4374	0.46340525
121	0xbf0ed72c	-0.55797076
122	0x3d961295	0.07327763
123	0xbea35380	-0.31899643
124	0x3ec17733	0.37786254
125	0xbec71459	-0.38882712
126	0xbbe8b5d2	-0.007101753
127	0x3d2ff723	0.042960297

fc3.weight f4 [64, 128]
0	0x3e8e1f9a	0.27758485
1	0x3e3df30c	0.18549746
2	0xbe9c3532	-0.30509335
3	0xbe880402	-0.26565558
4	0x3e1b7756	0.15182242
5	0x3ec61d96	0.38694447
6	0xbe78db19	-0.24302329
7	0x3e3a4d92	0.18193653
8	0x3d84273a	0.064527944
9	0x3dc3fa69	0.09569246
10	0xbd5ea3ea	-0.05435554
11	0x3e96c693	0.29448375
12	0x3d8cea33	0.068806075
13	0xbde27d8a	-0.11059101
14	0x3dfb5b66	0.12273292
15	0xbee28a2d	-0.44246045
16	0xbe5c2fe9	-0.21502651
17	0xbc89f502	-0.016840462
18	0x3f04abb9	0.5182453
19	0xbcdc420e	-0.026886966
20	0xbdb5c346	-0.08875136
21	0xbd0797b0	-0.033103645
22	0xbeb67c28	-0.356416
23	0xbd1f87e2	-0.038947947
24	0xbcb3e87e	-0.021961447
25	0x3d9f1363	0.077673696
26	0x3e40867d	0.18801303
27	0x3ccfe78d	0.025378967
28	0x3ea9a69c	0.33134925
29	0x3e018241	0.12647344
30	0xbe8c2808	-0.2737429
31	0xbd0651db	-0.032792907
32	0x3d7b5e98	0.06136951
33	0xbe96ccd9	-0.2945316
34	0xbf222187	-0.6333241
35	0xbdb93083	-0.09042456
36	0x3e0f971b	0.14022486
37	0xbe696da2	-0.22795728
38	0x3e9f88e2	0.3115912
39	0x3e7b0d06	0.24516687
40	0xbd9e00f9	-0.07715029
41	0xbe6bc8a3	-0.23025756
42	0x3e8fff3a	0.2812441
43	0xbc9f3084	-0.019432314
44	0xbd6a29cf	-0.057168778
45	0xbeda860a	-0.4268039
46	0xbe95dc3b	-0.29269585
47	0xbe46ea1f	-0.19425248
48	0x3e83a60b	0.25712618
49	0x3f048993	0.5177242
50	0x3e15365d	0.14571519
51	0x3e50ddfb	0.20397179
52	0x3dcaf74d	0.0991045
53	0xbf184ad0	-0.59489155
54	0x3dff5f6a	0.12469371
55	0xbf002723	-0.5005972
56	0xbd51dc84	-0.05123569
57	0x3e1b3112	0.15155438
58	0xbe2a3434	-0.16621476
59	0x3eab179d	0.33416453
60	0x3eca4e24	0.39512742
61	0xbf10d813	-0.56579703
62	0x3ebe1dc0	0.37132072
63	0xbcc5c8f1	-0.024143668
64	0x3affb66f	0.0019509326
65	0x3e9e0ade	0.30867666
66	0x3c6f5f5b	0.014610137
67	0x3e431586	0.1905118
68	0xbe6fb4d7	-0.23408829
69	0x3dc6912c	0.09695658
70	0xbe05f08b	-0.13080041
71	0xbeabe392	-0.3357206
72	0xbe86fed0	-0.26366282
73	0x3c7be51a	0.015374446
74	0xbe58f3bb	-0.21186726
75	0xbe859f5a	-0.26098138
76	0x3e37194b	0.17880742
77	0xbe3a1896	-0.18173441
78	0x3eb3514f	0.3502297
79	0x3f380494	0.71881986
80	0x3e8e4b90	0.27792025
81	0xbd3d3673	-0.046194505
82	0x3e2c71c3	0.16840272
83	0x3e347079	0.1762103
84	0xbe11651a	-0.14198723
85	0x3e68bc79	0.22728147
86	0xbcb32d7c	-0.021872275
87	0x3dc0726e	0.09396826
88	0xbef18917	-0.47174904
89	0x3d925224	0.07144573
90	0xbe3b5b3e	-0.18296525
91	0xbf197260	-0.5994015
92	0xbd8b99f6	-0.06816475
93	0xbe3b8b44	-0.18314844
94	0x3e902877	0.28155872
95	0xbe8d1237	-0.2755296
96	0x3e9daba6	0.3079502
97	0xbe43ca0a	-0.1912004
98	0xbd920ceb	-0.0713137
99	0xbe456e8d	-0.19280453
100	0xbd99862f	-0.074962966
101	0x3e421466	0.18953094
102	0xbe97bc21	-0.29635718
103	0xbf24a9e5	-0.6432174
104	0xbe2df192	-0.16986683
105	0x3e196e54	0.14983493
106	0x3e38bea8	0.1804148
107	0xbda674d8	-0.08127755
108	0x3ea54e23	0.32286176
109	0x3cb86d54	0.02251307
110	0xbe0293a9	-0.1275164
111	0xbce6bf6c	-0.028167449
112	0x3d09870c	0.033576056
113	0x3d6d6829	0.057960663
114	0x3caa16cc	0.020762824
115	0x3df3f518	0.11911982
116	0x3e89a36a	0.26882488
117	0xbea97089	-0.3309367
118	0xbef1eaf4	-0.47249568
119	0xbd5cce1d	-0.053907502
120	0x3c839c08	0.016065612
121	0x3e0aab2a	0.13541856
122	0xbdccb40a	-0.09995277
123	0xbe143e69	-0.14476933
124	0xbeb54c7a	-0.3540991
125	0x3ea53588	0.32267404
126	0xbef7cc78	-0.48398185
127	0x3e683dcf	0.22679828
128	0xbd149490	-0.036274493
129	0xbd8f699b	-0.070025645
130	0xbcebe37e	-0.028795
131	0xbf2e6876	-0.68128145
132	0xbeac9b67	-0.33712313
133	0xbdd25f82	-0.10272123
134	0xbec80d24	-0.39072526
135	0xbe69a751	-0.22817732
136	0x3e2705ef	0.16310857
137	0x3e6af412	0.22944668
138	0xbd86d10f	-0.065828435
139	0xbd84f4b7	-0.06491988
140	0xbece306e	-0.40271324
141	0x3e40e691	0.18837954
142	0xbe938bb4	-0.28817523
143	0x3d6ec2d9	0.05829129
144	0xbf5da476	-0.8657907
145	0x3da18d8c	0.07888326
146	0xbe3dc13c	-0.18530744
147	0xbf011603	-0.5042421
148	0x3e7ff6a8	0.24996436
149	0xbe22650b	-0.15858857
150	0x3e327a5d	0.1742949
151	0xbe135a5e	-0.14389941
152	0xbeadfd7a	-0.3398245
153	0x3e0723fa	0.13197318
154	0xbf2e110e	-0.67994773
155	0xbed63b6b	-0.41842207
156	0xbead6058	-0.33862567
157	0x3e905500	0.2818985
158	0xbe9c8955	-0.30573526
159	0xbe30179f	-0.1719651
160	0xbda3de66	-0.080014035
161	0xbf327f60	-0.6972561
162	0xbec0bc4e	-0.37643665
163	0x3e8a2e31	0.26988366
164	0x3e45b623	0.19307761
165	0xbe2b7d2a	-0.16746965
166	0x3e313bed	0.17308016
167	0xbdf70270	-0.12061012
168	0xbee5ad78	-0.4485891
169	0xbb94a311	-0.0045360406
170	0xbd6f83f3	-0.058475446
171	0xbe34c645	-0.17653759
172	0x3d5a4617	0.0532895
173	0xbdef6ab1	-0.11690272
174	0xbebb6375	-0.36599317
175	0xbeac49b2	-0.33649975
176	0xbdbcd479	-0.092202134
177	0xbf0b764d	-0.5447739
178	0xbddf454c	-0.10901889
179	0xbeb5a531	-0.35477594
180	0xbf213128	-0.6296563
181	0xbece5193	-0.4029661
182	0x3ddaed0f	0.106897466
183	0x3eddf75c	0.43352783
184	0xbf562e38	-0.83664274
185	0x3cb56629	0.02214344
186	0xbe4a45c4	-0.19753176
187	0x3ec5bac5	0.38619056
188	0x3dd31a74	0.1030778
189	0xbe972ba7	-0.29525492
190	0xbe9df819	-0.30853346
191	0xbd886b76	-0.066611215
192	0xbf0907f2	-0.5352775
193	0xbde8bc4f	-0.11364042
194	0xbc8717d2	-0.01649085
195	0xbdde721a	-0.10861607
196	0xbf2ef0ef	-0.68336385
197	0xbee9f57f	-0.4569511
198	0x3e7861de	0.24256083
199	0xbee2ac51	-0.44272092
200	0x3e111c63	0.14170985
201	0xbf380f52	-0.71898377
202	0xbc8c07c7	-0.017093552
203	0xbf75e40a	-0.96051085
204	0xbf0fe3d1	-0.56206995
205	0x3d6f607c	0.058441624
206	0xbcc1a2cf	-0.023637203
207	0xbea4ad91	-0.3216367
208	0x3d84c5c8	0.06483036
209	0xbea44afb	-0.32088456
210	0xbeb09470	-0.3448825
211	0xbe58651f	-0.21132325
212	0x3cb5d83c	0.022197835
213	0xbeb0a51c	-0.34500968
214	0x3de5f9e0	0.112293005
215	0x3e4b0d82	0.19829372
216	0x3e523747	0.20528899
217	0xbe6787f0	-0.2261045
218	0xbf0ec106	-0.5576328
219	0xbd820cf2	-0.06350125
220	0xbe92b6f2	-0.286552
221	0xbeadd2fe	-0.33950037
222	0xbe943c43	-0.28952226
223	0xbdb07e20	-0.086178064
224	0x3e6c7693	0.23092107
225	0x3e9d5690	0.30730104
226	0xbdec0232	-0.11523856
227	0x3e8fba4e	0.28071827
228	0xbeae9539	-0.34098223
229	0xbdefd773	-0.117110156
230	0xbeecd076	-0.46252793
231	0xbe893440	-0.26797676
232	0x3eca0b74	0.39461863
233	0xbed1d9c3	-0.40986452
234	0x3e271b15	0.16318925
235	0x3daac353	0.083380364
236	0xbe4083d6	-0.18800291
237	0xbe0fecd8	-0.14055192
238	0x3bacb704	0.0052708406
239	0xbd6aa440	-0.057285547
240	0x3d958dc1	0.07302428
241	0xbe208ff1	-0.1567991
242	0xbefb0d7d	-0.49033728
243	0x3e20a9e0	0.15689802
244	0x3db52f56	0.08846919
245	0xbf14605e	-0.57959545
246	0xbe867478	-0.26260734
247	0xbe132ba0	-0.1437211
248	0xbf2f23a4	-0.6841376
249	0xbe741454	-0.2383588
250	0x3e4b6847	0.19863997
251	0xbe3085cb	-0.17238538
252	0xbf174068	-0.5908265
253	0xbd8d8f13	-0.06912055
254	0x3dc92edb	0.0982339
255	0xbed3834d	-0.41311112

fc3.bias f4 [64]
0	0xbf7bdd55	-0.983846
1	0x3e564a05	0.20926674
2	0x3e20a061	0.1568618
3	0xbdad70e8	-0.08468801
4	0x3e87e203	0.2653962
5	0x3da79899	0.081834026
6	0x3ed02145	0.40650383
7	0x3dfbaa33	0.12288322
8	0x3d96dc09	0.07366187
9	0x3eca9657	0.39567825
10	0x3e283f8f	0.16430496
11	0x3dae019f	0.08496403
12	0x3f0ff7b1	0.5623732
13	0x3ec61d0b	0.38694033
14	0x3f1e6003	0.6186525
15	0x3ee0cad9	0.4390476
16	0x3ebfc9ad	0.37458554
17	0x3da8ff18	0.0825178
18	0x3e061d56	0.13097128
19	0xbe6792b3	-0.22614555
20	0x3f033f81	0.51268774
21	0xbdef8483	-0.116951965
22	0x3ce4181d	0.02784353
23	0x3eb50924	0.35358536
24	0x3f25612d	0.64601403
25	0xbe0f0210	-0.1396563
26	0x3e7f8127	0.24951611
27	0xbb93e500	-0.004513383
28	0x3e020fa1	0.12701274
29	0xbf9844e6	-1.1896026
30	0x3f1abe7a	0.60446894
31	0x3e121811	0.14266993
32	0x3efc948c	0.49332082
33	0xbe5709f1	-0.20999886
34	0x3ebe1417	0.37124702
35	0x3db2e7a1	0.08735586
36	0x3ea79ec4	0.32738316
37	0xbef77e92	-0.48338753
38	0xbe5604d9	-0.20900287
39	0x3e43af67	0.1910988
40	0x3e797071	0.24359299
41	0x3f08ad37	0.53389305
42	0x3e8db35d	0.27675906
43	0x3e8df43b	0.27725396
44	0x3d0f5460	0.034992576
45	0x3f08a6fc	0.533798
46	0x3ec85a92	0.391316
47	0x3eefebed	0.46859685
48	0xbe9d66e4	-0.30742562
49	0x3f4706a3	0.777445
50	0x3dd0abc4	0.10189012
51	0x3f5a6b1d	0.8531969
52	0x3ea0bcf7	0.3139417
53	0x3e618b18	0.22025716
54	0x3eefa281	0.46803668
55	0x3da5df1f	0.080991976
56	0x3e61b326	0.22040996
57	0x3f1645c2	0.5870019
58	0x3e04c7b8	0.12966812
59	0xbe1de81f	-0.15420578
60	0x3e028808	0.12747204
61	0x3ef5c82c	0.48004282
62	0x3e9d7720	0.30754948
63	0x3defdf0b	0.11712464

fc4.weight f4 [32, 64]
0	0x3eb1a04e	0.34692615
1	0xbdd371ee	-0.10324465
2	0xbdb990b3	-0.09060802
3	0xbe0960cb	-0.1341583
4	0x3f04b5b7	0.51839775
5	0xbf873553	-1.0563148
6	0x3dc7fb18	0.09764689
7	0xbf1f2939	-0.62172276
8	0xbe89a819	-0.2688606
9	0xbe2100ca	-0.15722957
10	0xbe121b07	-0.14268123
11	0x3d9be35f	0.07611727
12	0xbf1137fc	-0.5672605
13	0x3d2ff47d	0.04295777
14	0x3dd82488	0.10553843
15	0x3cf96e65	0.030448148
16	0x3dfdb2b7	0.12387603
17	0x3ab12ec4	0.0013517966
18	0x3f2dcf6d	0.6789463
19	0x3e0786e1	0.13235046
20	0xbf847c96	-1.0350521
21	0x3e2aac37	0.16667257
22	0xbda30bd1	-0.07961238
23	0x3e26c167	0.16284715
24	0x3e7712da	0.24128285
25	0x3e86ec95	0.26352373
26	0x3e60e363	0.21961741
27	0xbb8b9281	-0.004259408
28	0xbdabd920	-0.08391023
29	0x3d5375b8	0.051625937
30	0xbd987d90	-0.07445824
31	0x3d269f44	0.04067923
32	0x3cba9fc7	0.022781266
33	0xbf0ed068	-0.5578675
34	0xbf814965	-1.0100523
35	0x3d846f2a	0.06466515
36	0x3d47cfe6	0.04878225
37	0x3e1a981d	0.15097089
38	0x3e252c3d	0.16130157
39	0xbf3e6a8f	-0.74381346
40	0xbfa0d298	-1.2564268
41	0xbf49302d	-0.78589135
42	0xbf162153	-0.586446
43	0xbed114b6	-0.40836114
44	0xbee12ec3	-0.4398099
45	0xbc0d7eef	-0.00863622
46	0xbfb3b9c7	-1.404107
47	0x3db807f8	0.08985895
48	0xbefdd37d	-0.49575415
49	0xbf2497ff	-0.6429443
50	0xbf699941	-0.9124947
51	0x3d3aab8a	0.04557375
52	0x3ebbbfde	0.3666982
53	0xbea83f26	-0.32860678
54	0xbef9953d	-0.48746672
55	0xbf681d66	-0.9066986
56	0x3e9e8973	0.3096424
57	0xbf9e054a	-1.2345364
58	0xbfb1690b	-1.3860182
59	0xbf8a2049	-1.0791103
60	0xbd7ff5b7	-0.06249019
61	0x3d593f5b	0.053038936
62	0x3ea69da2	0.3254214
63	0xbd7b8531	-0.061406318
64	0x3dd114d0	0.10209048
65	0xbe5dbebc	-0.2165479
66	0x3e6015b2	0.21883276
67	0x3c14b3f6	0.009076109
68	0x3ed01d5f	0.40647408
69	0xbf35cdb9	-0.7101703
70	0xbdad443c	-0.0846028
71	0x3e780645	0.24221142
72	0xbd05f8fe	-0.03270816
73	0xbf718058	-0.9433646
74	0x3e122186	0.142706
75	0xbe87266c	-0.263965
76	0xbec92ec2	-0.39293486
77	0x3d7f9357	0.062396374
78	0xbcc9f504	-0.024652965
79	0xbe942875	-0.28937116
80	0x3e35cfbc	0.17755026
81	0xbdb41845	-0.087936915
82	0x3e22b266	0.15888366
83	0x3cd6328b	0.026147148
84	0xbf9a1ddd	-1.2040364
85	0xbe332acc	-0.17496794
86	0xbd4a823d	-0.04944061
87	0x3d209bcf	0.03921109
88	0x3d3a4d0a	0.045483626
89	0xbdd04304	-0.10169032
90	0x3ddd5efa	0.10809131
91	0xbe52f362	-0.20600656
92	0x3e2ac2a8	0.16675818
93	0xbd336d17	-0.043805208
94	0xbf36074f	-0.711049
95	0x3daa5f07	0.08318906
96	0xbd812c1d	-0.06307242
97	0xbf7aae51	-0.97922236
98	0x3e09bb8f	0.13450454
99	0xbe2bb56a	-0.16768423
100	0x3e6a6b72	0.2289255
101	0xbcd6276d	-0.026141847
102	0x3ea58519	0.32328108
103	0x3ddc2c72	0.10750665
104	0xbf13bc84	-0.57709527
105	0xba91d0cf	-0.0011124852
106	0xbf0aa46e	-0.5415715
107	0xbebb0ce1	-0.36533263
108	0xbe67e149	-0.22644533
109	0x3d005600	0.031332016
110	0xbc8f7179	-0.017510163
111	0x3dc9b309	0.09848601
112	0x3d1cb768	0.038260847
113	0xbd5f2bb6	-0.054485045
114	0xbf5c3fcb	-0.8603484
115	0xbf300177	-0.68752235
116	0xbc4acbec	-0.01237772
117	0xbf00c0a9	-0.50293976
118	0xbf1cf877	-0.6131663
119	0xbf7000e4	-0.9375136
120	0xbcfe89dc	-0.031071596
121	0xbf64122b	-0.8909022
122	0x3d390218	0.045168012
123	0xbf01c74d	-0.50694734
124	0x3d8a483a	0.067520574
125	0x3d30ec2b	0.043193977
126	0xbcbc0ae5	-0.022954414
127	0xbf22a0a6	-0.6352638
128	0xbd7cce9c	-0.061720476
129	0x3d45f8a4	0.048332825
130	0xbfb0bdf5	-1.380797
131	0x3ec3a4a0	0.38211536
132	0xbf09927f	-0.5373916
133	0x3d8c5cb9	0.06853623
134	0xbfd7b4ca	-1.6852047
135	0x3e64d424	0.2234655
136	0xbdda54d7	-0.10660713
137	0x3cd54a5c	0.026036434
138	0x3e9a7a79	0.30171564
139	0xbdbf67dc	-0.093459815
140	0x3eb680b3	0.35645065
141	0xbfde9279	-1.738845
142	0xbd895b36	-0.0670685
143	0xbfb4d6dd	-1.4128071
144	0x3e683119	0.2267498
145	0xbda24486	-0.07923226
146	0xbf26e9ed	-0.6520069
147	0xbfaf633a	-1.3702157
148	0x3d56378a	0.05229906
149	0x3d78a875	0.06070753
150	0xbe938c35	-0.28817907
151	0xbfa11246	-1.2583702
152	0xbf52827c	-0.82230353
153	0x3e48e13a	0.19617167
154	0x3c3879f9	0.011259549
155	0xbcac2265	-0.021012494
156	0x3e8ac8a5	0.27106205
157	0x3e0ba95c	0.13638824
158	0xbe73858a	-0.2378141
159	0xbf0be38e	-0.54644096
160	0xc003d30d	-2.0597565
161	0xbcf976b8	-0.030452117
162	0x3e48b0d7	0.19598709
163	0xbdeba495	-0.11506001
164	0x3dedf190	0.1161834
165	0xbec6c0c0	-0.38818932
166	0xbeaa09ff	-0.3321075
167	0x3e09c4e6	0.13454017
168	0x3d8c5398	0.06851882
169	0xbd36a1ee	-0.044588022
170	0x3e4e6acb	0.20157926
171	0x3bd2879b	0.006424857
172	0x3f9039f4	1.1267686
173	0xbfd29835	-1.64527
174	0xbe15f100	-0.14642715
175	0xbf63aba9	-0.8893381
176	0xbf4f4ee8	-0.80979776
177	0xbe701887	-0.23446856
178	0xbd5cbd6c	-0.053891584
179	0x3dbcfd80	0.09228039
180	0xbd5eac1a	-0.054363348
181	0x3ccaddb0	0.024763912
182	0x3dd737aa	0.10508664
183	0x3eb00efe	0.34386438
184	0xbf537f43	-0.8261606
185	0xbdaf815a	-0.08569594
186	0xbf2828a6	-0.65687025
187	0x3e628878	0.22122371
188	0xbcf03451	-0.029321821
189	0xbeada785	-0.3391687
190	0xbdbce2db	-0.09222957
191	0x3dd063ca	0.10175283
192	0x3e9f20f1	0.3107982
193	0x3e232e41	0.15935613
194	0x3e28bb2b	0.16477649
195	0x3eb2445c	0.3481778
196	0x3d66491f	0.056222077
197	0xbd8803c6	-0.06641345
198	0xbf993578	-1.1969442
199	0xbdd11e52	-0.10210861
200	0x3e8e0dae	0.27744812
201	0xbf63ca05	-0.8898013
202	0x3e610ba0	0.21977091
203	0xbc37fdc4	-0.011229936
204	0xbe6c2e73	-0.23064594
205	0xbf9ec70a	-1.2404492
206	0xbee93ce0	-0.45554256
207	0xbd946ee0	-0.0724771
208	0xbe3802c0	-0.17969799
209	0x3e04ce21	0.12969257
210	0xbd9db6fd	-0.07700918
211	0x3d35e277	0.044405427
212	0x3d56bce9	0.052426253
213	0x3e2a09ac	0.16605252
214	0xbd8a20d6	-0.06744544
215	0x3db64a45	0.089008845
216	0x3d5b50dc	0.05354391
217	0xbf2260cd	-0.63428956
218	0xbdf0174d	-0.11723194
219	0xbf1290ff	-0.57252496
220	0xbe8f5722	-0.27996165
221	0xbe94ba2e	-0.29048294
222	0xbcdbada4	-0.026816197
223	0x3dc1c610	0.094616055
224	0x3e4cf312	0.20014599
225	0x3e8be80b	0.27325472
226	0xbf40c61a	-0.7530228
227	0x3dca6fd9	0.098846145
228	0x3daa39ff	0.08311843
229	0xbe0ae0dd	-0.13562341
230	0x3e9811db	0.29701123
231	0xbf9fe6e9	-1.2492343
232	0x3e22f4df	0.15913723
233	0x3dd2b3aa	0.102881745
234	0xbf221e43	-0.63327426
235	0xbe535b13	-0.20640211
236	0x3f1e31ff	0.6179504
237	0xbefe6422	-0.4968577
238	0xbd58d3ce	-0.052936368
239	0xbdf5c034	-0.119995505
240	0x3e212777	0.15737711
241	0xbf879fa6	-1.0595596
242	0xbdb4518b	-0.088046156
243	0xbf4825ed	-0.7818287
244	0xbe31a55c	-0.17348236
245	0x3c44edba	0.012019569
246	0x3e560785	0.20901306
247	0x3c812121	0.015762867
248	0x3d70e02a	0.05880753
249	0x3df023db	0.11725589
250	0xbed3f969	-0.41401222
251	0x3c8c0555	0.017092386
252	0xbde4edd9	-0.11178178
253	0x3d8f9f6e	0.07012831
254	0x3e2d12db	0.16901724
255	0x3dabcdb0	0.08388841

fc4.bias f4 [32]
0	0x3ec00485	0.37503448
1	0x3efadf5a	0.4899853
2	0x3f82cf98	1.0219603
3	0x3f39b4d5	0.7254155
4	0xbe25e413	-0.16200285
5	0x3dc41849	0.095749445
6	0xbd7160c1	-0.058930162
7	0x3e9571a0	0.29188251
8	0x3de567b4	0.112014204
9	0x3ea1218e	0.31470913
10	0x3e84d466	0.25943297
11	0x3cdb27d9	0.0267524
12	0xbd1b65fe	-0.037939064
13	0x3eb89f19	0.36058882
14	0x3e0155a4	0.12630326
15	0x3e7061a3	0.23474745
16	0x3eec6b04	0.46175396
17	0x3f8b41bc	1.0879436
18	0x3ea879f5	0.32905546
19	0x3e8bb80e	0.2728886
20	0x3db6bf1c	0.0892317
21	0xbd8c0dc5	-0.06838564
22	0x3eb35d42	0.35032088
23	0x3d31677a	0.043311574
24	0x3f4f61b4	0.8100846
25	0x3e116d07	0.14201747
26	0x3e369718	0.17831075
27	0x3eb14c12	0.3462835
28	0x3f2bc527	0.67097706
29	0xbee5fb96	-0.44918507
30	0x3dedcf4e	0.11611806
31	0x3dd61ead	0.1045507

fc5.weight f4 [15, 32]
0	0xc050d6d0	-3.263111
1	0xc029dcbb	-2.6540973
2	0xbd0b55a1	-0.03401721
3	0xbeafe7af	-0.34356448
4	0xbe07f439	-0.13276757
5	0xbe54a342	-0.20765403
6	0xc01985f4	-2.3988008
7	0xc084692f	-4.13784
8	0xbfe38812	-1.77759
9	0xc06d5449	-3.7082694
10	0xbd049316	-0.032366835
11	0xbe70f72f	-0.23531793
12	0xbf3cd283	-0.73758715
13	0xbefde1b2	-0.49586254
14	0xbfc16558	-1.5109053
15	0xbcc12bfc	-0.023580544
16	0xc015223c	-2.3302145
17	0xbd89bdf9	-0.067256875
18	0xbeeefee0	-0.4667883
19	0xc02ca369	-2.6974738
20	0xbd3a2406	-0.04544451
21	0xc08d5de6	-4.417712
22	0xbc87441f	-0.016511975
23	0xc0006554	-2.0061846
24	0xbdb8c549	-0.09022004
25	0xbe106567	-0.14101182
26	0xbfb40a2b	-1.4065603
27	0xbe1cc26a	-0.15308538
28	0xbf0a356f	-0.53987783
29	0xbf73d971	-0.95253664
30	0xbe6a6831	-0.22891308
31	0xbff59e8d	-1.9189011
32	0xbf87418f	-1.0566882
33	0xbf3a00d2	-0.726575
34	0xbfbeaa43	-1.489571
35	0xbfdc9bf4	-1.7235093
36	0xbe1604c9	-0.14650263
37	0x3d3a94a3	0.045551907
38	0xbc8c3644	-0.01711572
39	0xbf0ed47c	-0.55792975
40	0xbeb5b4eb	-0.35489592
41	0xbdd7d637	-0.10538905
42	0xbff85cfa	-1.9403374
43	0xc025ca9c	-2.5904913
44	0xbda12f9f	-0.07870411
45	0x3c14aa37	0.0090737855
46	0xbea00bbd	-0.31258956
47	0xbed28d23	-0.41123304
48	0xbf388059	-0.72070843
49	0xbfb1f162	-1.3901789
50	0xbe34d309	-0.17658629
51	0xbe9d5bf4	-0.30734217
52	0xbeae30ae	-0.34021515
53	0xbda706cb	-0.081555925
54	0xbe9995da	-0.2999714
55	0xbdbe318f	-0.09286796
56	0xbf873f18	-1.056613
57	0xbfcf6959	-1.6204025
58	0xbdcb4bf0	-0.09926593
59	0xbd8ec501	-0.06971169
60	0xbfc3ea41	-1.5305864
61	0xbd0cfad1	-0.034418885
62	0xbe46356f	-0.19356321
63	0xbe9fc667	-0.31206056
64	0xbfe7d6d1	-1.8112432
65	0xc0a31f7b	-5.097593
66	0xbc585793	-0.013204473
67	0xbef0a530	-0.47001028
68	0xbfc377cb	-1.5270933
69	0xbd903ec1	-0.07043219
70	0xc00a41f2	-2.160275
71	0xc0bed510	-5.9635086
72	0x3c6ee116	0.014580032
73	0xc08f632b	-4.4808555
74	0x3d160f4b	0.03663568
75	0xc0416d8e	-3.0223117
76	0xbf35543c	-0.70831656
77	0x3e374887	0.1789876
78	0x3c9e49e6	0.019322347
79	0x3d4bcd7d	0.049756516
80	0x3d58bde5	0.052915473
81	0xc048eb3b	-3.1393573
82	0xbf9a8a99	-1.2073547
83	0xc0a816b1	-5.25277
84	0xbdb954a1	-0.09049345
85	0xc05bacaa	-3.4324136
86	0xbfc909d9	-1.570613
87	0x3c502842	0.012704911
88	0x3c4953b9	0.012288027
89	0xc0135d43	-2.3025672
90	0xbeb066bb	-0.34453377
91	0xc0a2eb5d	-5.091231
92	0xc09b695a	-4.8566103
93	0xc09a5f8b	-4.824163
94	0xbff52d46	-1.9154441
95	0xbf932bb6	-1.1497715
96	0xc06b9bee	-3.6813922
97	0xc0429bb4	-3.0407534
98	0x3d5d98ac	0.054100677
99	0xbe2a466c	-0.16628426
100	0xc016ba85	-2.3551342
101	0xc03e2d14	-2.9715014
102	0xc06fa201	-3.744263
103	0xc06d7f4d	-3.7108948
104	0xbf9d219b	-1.227588
105	0xc078bad5	-3.8864033
106	0x3d381938	0.044945925
107	0xc05f099a	-3.484961
108	0xbea7470b	-0.3267139
109	0xc0338eb0	-2.805584
110	0xc082a6af	-4.082847
111	0xbfa6218e	-1.297899
112	0xc06a3635	-3.6595585
113	0x3b94dee5	0.0045431727
114	0x3b338d38	0.0027397405
115	0xbfc373b1	-1.5269681
116	0xbfe1a4e3	-1.7628444
117	0xc0020754	-2.0316973
118	0xbd2aa88c	-0.041664645
119	0xc0a54e89	-5.165837
120	0xbf553374	-0.83281636
121	0xc0229a04	-2.5406504
122	0xc071012c	-3.7656965
123	0x3d833d6a	0.06408198
124	0x3d0c4897	0.034248915
125	0xbeb2ae52	-0.3489862
126	0xbfdfe566	-1.7491882
127	0xbeaa71ce	-0.3328995
128	0xbfffb1f6	-1.9976184
129	0xc07837fe	-3.8784175
130	0xbf91f011	-1.1401387
131	0x3e63f2da	0.2226061
132	0xbcd23f8b	-0.025665065
133	0xc016997d	-2.3531182
134	0xc02e4e62	-2.723534
135	0xc0641278	-3.5636272
136	0x3dcbce63	0.099514745
137	0xc05a3c82	-3.409943
138	0xc01ad344	-2.4191446
139	0xc02b3354	-2.6750078
140	0x3e3414ac	0.1758601
141	0xbf04b9ef	-0.5184621
142	0x3dc18c98	0.09450644
143	0x3e095f9a	0.13415375
144	0xbf8a8dd0	-1.0824528
145	0xc00f2c04	-2.2370615
146	0x3eadfc15	0.33981386
147	0xbfdc3f42	-1.7206805
148	0xbf7a64c0	-0.9780998
149	0xc05a3b74	-3.4098787
150	0x3d7ceaf2	0.0617475
151	0xbfa34a92	-1.2757132
152	0x3d6488d4	0.055794552
153	0xbfe09d52	-1.754801
154	0xbfcba466	-1.5909545
155	0xc089d733	-4.3075194
156	0xc0a48dd8	-5.142315
157	0xbfedaf2f	-1.8569087
158	0xbede175e	-0.43377203
159	0x3e3d2a32	0.18473127
160	0xc0961770	-4.690361
161	0xc0e28e1b	-7.079847
162	0xbd11bccb	-0.035580438
163	0xbe6e2e82	-0.23259929
164	0xc01e7919	-2.4761412
165	0xbf2f59f1	-0.68496615
166	0xc0a598be	-5.1748953
167	0xc0e8c7d8	-7.274395
168	0x3c96549c	0.018350892
169	0xc105407f	-8.328246
170	0x3d2d0700	0.042243004
171	0xc0482a54	-3.1275835
172	0xbf4a4bf7	-0.79022163
173	0x3e050c81	0.12993051
174	0xbd542fcc	-0.051803395
175	0xbcd77091	-0.026298793
176	0x3cde62bd	0.027146691
177	0xbdf2ab9a	-0.11849137
178	0xbea7bf67	-0.32763216
179	0xc07ef530	-3.983715
180	0xbe3bbf4f	-0.18334697
181	0xc0db1606	-6.8464384
182	0xbeb5bbf3	-0.35494956
183	0xbe12c270	-0.14331985
184	0xbda5151b	-0.08060666
185	0xbfcdb48a	-1.6070721
186	0xbf0ca58c	-0.54940104
187	0xbf113c88	-0.5673299
188	0xbf1afda4	-0.60543275
189	0xc0635aa3	-3.552407
190	0xc045f1af	-3.0928762
191	0xc003eaa4	-2.0611963
192	0xbe1b73fc	-0.15180963
193	0xbf42dd1b	-0.7611863
194	0xbebcf40f	-0.36904952
195	0x3d9820c3	0.07428124
196	0xbe1a90a1	-0.15094234
197	0xbfd9f9d1	-1.7029363
198	0xbf802062	-1.0009882
199	0xbf187b52	-0.5956317
200	0xbf26de5a	-0.6518303
201	0xbf9cb86d	-1.2243782
202	0x3ddc3a83	0.10753348
203	0xbf80c50a	-1.0060132
204	0x3e815383	0.25259027
205	0x3ebae391	0.36501744
206	0xbe890420	-0.2676096
207	0xbed4ca07	-0.41560385
208	0xbb12802e	-0.0022354233
209	0xbf88b5df	-1.0680503
210	0xbfcdedf6	-1.6088245
211	0xbd6991b9	-0.057023738
212	0xbeab3431	-0.33438256
213	0xc04756ce	-3.1146731
214	0xbfc5e4f3	-1.5460495
215	0xbf0f53e1	-0.55987364
216	0xbf1bba32	-0.60830986
217	0xbd23d6d7	-0.03999981
218	0xbf68e095	-0.90967685
219	0xbfd8c7b0	-1.693594
220	0xbf86e4d2	-1.053858
221	0xbc9c269f	-0.019061385
222	0xbebe6fcc	-0.3719467
223	0xbfb7ff00	-1.4374695
224	0x39f3ce51	0.0004650229
225	0xbfabdf4c	-1.342752
226	0xbf5c61e6	-0.8608688
227	0xbf226854	-0.6344044
228	0x3dfd17eb	0.123580776
229	0xbfddb67d	-1.7321316
230	0x3e0e8f02	0.1392174
231	0xbf304413	-0.68853873
232	0xbf23c33f	-0.63969797
233	0xbfb11422	-1.3834269
234	0x3e2e8491	0.17042758
235	0xbeed4413	-0.46341
236	0xbf2ef05c	-0.6833551
237	0x3ee17ab1	0.4403892
238	0x3e5dbb3a	0.21653453
239	0xbeabe5db	-0.33573803
240	0x3db83380	0.08994198
241	0xbe676564	-0.22597271
242	0xbfc5f6e0	-1.5465965
243	0xbf7195f8	-0.9436946
244	0xbe8127ef	-0.2522578
245	0xc0649d01	-3.5720828
246	0xbfa649ee	-1.2991312
247	0xbef7dfb4	-0.4841286
248	0xbf2ce24e	-0.67532814
249	0xbd8a4c8a	-0.0675288
250	0xbff60f35	-1.9223391
251	0xc02e5828	-2.7241306
252	0xbffe3765	-1.9860655
253	0x3e68706b	0.22699134
254	0x3dae2bbc	0.085044354
255	0x3e918b87	0.28426763

fc5.bias f4 [15]
0	0xbf41e208	-0.7573552
1	0xbf1fd839	-0.62439305
2	0xbeae4f7b	-0.34045014
3	0x3feb4a55	1.8382059
4	0xbf8edad9	-1.1160537
5	0xbfcfe58d	-1.6241928
6	0xc0534250	-3.3009224
7	0xc0a162d3	-5.0433135
8	0x3eddb98e	0.4330563
9	0x3f6f3927	0.9344658
10	0x3dbb244d	0.09137783
11	0x3f0d16cb	0.55112904
12	0x3d94fe67	0.07275086
13	0xbfcf5220	-1.6196938
14	0xbfba9683	-1.4577183
