DNN/models/seventh_iteration.pth (torch, 229956 bytes, 10 tensors)

fc1.weight f4 [256, 49]
-0.36982352 -0.02322998 0.06864988 0.7363867 -0.666591 0.9550366 -0.04372761 0.16047446
-0.40460965 0.6481086 0.40445292 -0.43078607 -0.26672304 0.30592155 0.04508021 0.16359459
-0.30840045 -0.21118243 -0.46901536 -0.18939425 0.23162755 0.061741743 -0.07172626 -0.094452724
-0.17919467 0.19787629 0.021139283 0.34614983 0.104127035 0.22741982 -0.21698962 0.08280844
-0.028800946 0.14170045 0.19392219 0.056633588 0.021392385 -0.015501489 -0.049796585 -8.1604485e-05
0.13542905 0.036078885 0.022961915 0.2990802 -0.27481568 0.043732002 -0.12146517 0.46293738
0.23549195 -0.45240015 0.039909862 0.14190717 0.32728887 -0.47315326 -0.79507303 0.17171763
-0.36699775 0.31191415 -0.47131497 -0.24628414 0.3706519 0.40507004 0.012839802 0.07423316
0.06268965 -0.5576712 0.61624515 -0.34283048 -0.43543065 -1.0170804 -0.22488578 0.6885538
-0.7414851 0.5075797 0.63083494 0.36168593 -0.52508336 0.27951163 -0.0118428385 0.66290396
-0.006167649 -0.0038691652 0.120329 -0.18670401 -0.072489806 -0.4599525 -0.12226924 0.011402307
-0.34465992 -0.1426872 0.02260278 -0.14227562 -0.2835379 1.0131208 0.33879805 -0.102725565
0.0007335697 -0.14944834 -0.76533353 -0.22602864 -0.29442725 -0.27202284 -0.09110085 0.04108116
-0.4645518 0.27375326 0.20322189 -0.091245525 -0.2554308 0.2506973 0.08947523 0.22123846
-0.08503814 -0.11156824 -0.23685199 0.23215039 0.4143709 -0.14805345 -0.6010791 0.022454122
-0.2817427 -0.0023768088 -0.22567838 -0.35342866 -0.36178482 -0.303767 -0.05103578 -0.044970598
0.28976303 0.015830716 0.090630084 -0.1206927 -0.35179234 0.044270538 0.007588017 -0.17368707
-0.062026665 0.050302185 -0.14464238 0.014209678 -0.44105482 0.020915676 -0.38376987 0.16991344
0.032183513 0.054703124 -0.30703166 -0.14016475 -0.2457789 -0.3149553 0.035281584 -0.24343191
0.032161992 0.15679976 -0.1642719 -0.052008722 -0.05726774 -0.19203632 -0.05779629 -0.25567728
-0.18862829 -0.0041676727 0.14610215 -0.07016031 -0.28490597 0.15264283 -0.010296862 -0.46609902
0.01713933 -0.13487294 0.2639779 -0.2626622 -0.08173363 0.00347304 -0.15270077 -0.15479478
-0.18617415 -0.074301444 0.13850655 0.065606244 0.03356199 -0.17126171 0.0070315856 -0.073591106
-0.3989865 -0.28976598 -0.17566584 0.08572056 -0.079248644 -0.20751624 -0.3104035 -0.14155316
0.50429845 0.32482064 -0.0030182425 0.09088676 -1.1326052 -0.23779161 -0.50227535 -0.72151875
-0.09880751 -0.056278728 -0.33690622 0.546143 0.14786461 0.23608811 0.1858468 0.08595629
-0.1896323 0.30170405 0.21521197 0.2590772 0.27626258 -0.22787851 0.44465324 0.10604093
0.29408222 0.24801669 0.14226544 -0.21353398 -0.8214462 -0.23349762 -0.1259112 0.123529345
0.09902995 0.29220182 -0.21894124 0.0067834263 -0.08238599 -0.11883807 -0.06962543 -0.065187834
-0.052043077 0.08384681 0.25097334 -0.08347926 0.022119746 -0.039799478 0.2179585 0.21408859
-0.50156265 -0.04571897 0.25586703 0.0719105 0.11641975 -1.3623804 0.0770781 -0.28759956
-0.23697567 -0.0073409486 -0.17959037 -0.5918105 0.35502142 0.20621756 0.19653921 0.35659513
00000000: 8259 bdbe cd4c bebc 4f98 8c3d d783 3c3f
00000010: b5a5 2abf 477d 743f b91b 33bd 6b53 243e
00000020: ff28 cfbe 72ea 253f 7414 cf3e fe8f dcbe
00000030: ec8f 88be c0a1 9c3e 07a6 383d 5785 273e
00000040: aae6 9dbe 3540 58be c822 f0be 91f0 41be
00000050: c62f 6d3e e9e4 7c3d 38e5 92bd 6e70 c1bd
00000060: cf7e 37be 15a0 4a3e 4a2c ad3c 8d3a b13e
00000070: 8e40 d53d bee0 683e 8732 5ebe 7997 a93d
00000080: f6ef ebbc ec19 113e 8a93 463e 9ff8 673d
00000090: 153f af3c f5f9 7dbc 81f7 4bbd 1323 abb8
000000a0: eaad 0a3e 74c7 133d a01a bc3c 0a21 993e
000000b0: a4b4 8cbe 5420 333d bbc2 f8bd 2106 ed3e
000000c0: cd24 713e fea0 e7be 8678 233d 1d50 113e
000000d0: 6892 a73e 2541 f2be e889 4bbf bfd6 2f3e
000000e0: 21e7 bbbe 36b3 9f3e 3250 f1be e931 7cbe
000000f0: 16c6 bd3e 5765 cf3e 085e 523c 8e07 983d
00000100: 6e63 803d 8ac3 0ebf 3ec2 1d3f 7a87 afbe
00000110: c4f0 debe b12f 82bf 7548 66be 1045 303f
00000120: f8d1 3dbf bef0 013f 667e 213f e62e b93e
00000130: dd6b 06bf 261c 8f3e 7708 42bc 13b4 293f
00000140: fd19 cabb d291 7dbb 0d6f f63d 562f 3fbe
00000150: 8975 94bd e57e ebbe 4c68 fabd bed0 3a3c
00000160: 4477 b0be 981c 12be 7729 b93c b3b0 11be
00000170: e12b 91be f1ad 813f f076 ad3e c861 d2bd
00000180: 074d 403a fc08 19be e6ec 43bf 0d74 67be
00000190: 2bbf 96be 9446 8bbe 1593 babd b844 283d
000001a0: bcd9 edbe 6329 8c3e 6619 503e efde babd
000001b0: d3c7 82be 665b 803e ca3e b73d 568c 623e
000001c0: 7a28 aebd e47d e4bd 5489 72be d5b8 6d3e
000001d0: 6c28 d43e 539b 17be 52e0 19bf b5f1 b73c
000001e0: 9440 90be 3cc4 1bbb 3c18 67be 9af4 b4be
000001f0: dc3b b9be 5987 9bbe e50a 51bd 1733 38bd
00000200: d25b 943e 6baf 813c 449c b93d bc2d f7bd
00000210: 201e b4be 0655 353d e6a4 f83b 06db 31be
00000220: ac0f 7ebd aa09 4e3d 221d 14be b6cf 683c
00000230: f0d1 e1be 5a57 ab3c 7c7d c4be cafd 2d3e
00000240: dcd2 033d 6210 603d 4133 9dbe 5987 0fbe
00000250: 77ad 7bbe d241 a1be 6c83 103d 3746 79be
00000260: 4bbc 033d 1e90 203e e536 28be 1907 55bd
00000270: 9491 6abd 2ba5 44be cdbb 6cbd 22e8 82be
00000280: c627 41be f990 88bb cd9b 153e 35b0 8fbd
00000290: 32df 91be 674e 1c3e 2bb4 28bc 88a4 eebe
000002a0: c867 8c3c 221c 0abe 1c28 873e a97b 86be
000002b0: f663 a7bd f19b 633b 975d 1cbe 8682 1ebe
000002c0: 70a4 3ebe 5b2b 98bd a9d4 0d3e 915c 863d
000002d0: 4c78 093d 3b5f 2fbe 3769 e63b efb6 96bd
000002e0: f547 ccbe 355c 94be bfe1 33be 438e af3d
000002f0: 1d4d a2bd 237f 54be 35ed 9ebe 50f3 10be
00000300: b419 013f e44e a63e b5cd 45bb d622 ba3d
00000310: 35f9 90bf a57f 73be 1e95 00bf 74b5 38bf
00000320: 985b cabd 8684 66bd f97e acbe 07d0 0b3f
00000330: d269 173e 15c1 713e a04e 3e3e da09 b03d
00000340: f82e 42be f478 9a3e 8760 5c3e c4a5 843e
00000350: 4a72 8d3e fc58 69be 97a9 e33e fd2b d93d
00000360: f291 963e 16f8 7d3e 08ae 113e a7a8 5abe
00000370: 4c4a 52bf 001a 6fbe deee 00be f4fc fc3d
00000380: 37d0 ca3d 7a9b 953e 2232 60be 8147 de3b
00000390: fcb9 a8bd 6061 f3bd c797 8ebd 3381 85bd
000003a0: 1f2b 55bd e0b7 ab3d 947f 803e 2df7 aabd
000003b0: 7834 b53c c704 23bd 8330 5f3e 0a3a 5b3e
000003c0: 6966 00bf d143 3bbd 0101 833e d045 933d
000003d0: 7a6d ee3d 7b62 aebf 1fdb 9d3d 4040 93be
000003e0: c0a9 72be 578c f0bb 8ae6 37be e580 17bf
000003f0: 5ec5 b53e b22a 533e 9341 493e a393 b63e

fc1.bias f4 [256]
-0.27385983 -0.9417974 -0.21998228 -0.18185118 -0.011888409 0.67461 0.20560952 -0.9377444
0.5572869 -0.34831107 0.03583384 -0.085063376 -0.047176167 0.5107706 -0.27576247 -0.7029785
0.48863724 -0.25308597 -0.87427646 -0.41141593 0.610699 0.58730406 -0.2940593 -0.63058776
-0.73686916 -0.046272006 -0.65598196 -0.33877015 -0.45359552 -0.35995424 -0.8327773 -0.4067259
-0.34167796 -0.28883415 -0.43432668 -0.07251052 -0.24806277 -0.2204992 -0.22646318 -0.33501467
0.93107235 -0.8018238 -0.90523666 -0.084659666 0.22866865 -0.0610069 -0.5614448 0.028031494
-0.24276894 0.034890972 -0.1152132 -0.77270305 -0.064296745 -0.39292675 -0.6562086 -0.70817155
-0.66453874 -0.07989906 0.2551009 -0.23418336 -0.5974969 -0.10164762 -0.014106209 1.0206289
-0.07049056 -0.6866743 0.20877281 -0.2632328 -0.39821893 -0.53510904 0.4714897 -0.60603046
0.39381048 -0.5842503 0.069305204 -0.3735139 -0.5766655 -0.7582773 0.7656749 -0.19408591
-0.36169425 0.12939157 -0.29955626 -0.5645019 -0.84758264 -0.23570098 0.5178035 0.42559657
-0.3409491 -0.725371 0.58987105 -0.59726113 0.110487655 0.677403 -0.7925914 -1.5023241
-0.34268215 -0.6079245 -0.1470014 -0.67794526 -0.41526198 -0.056529228 0.58785063 -0.73635054
-0.12667045 0.1932306 0.16382569 -0.46710476 -0.29321578 -0.24300547 -0.18045291 -0.1581621
-0.0698961 -0.6706813 0.5100237 0.43380228 0.24554105 -0.10496566 -0.008248003 -0.035402555
-0.010143788 0.47532943 0.66010463 0.48111367 0.81541914 0.055502467 -0.85856634 -0.26507416
-0.27448082 -0.25524732 -0.19683439 0.04729045 -0.11142086 0.34689605 -0.30884162 -0.718244
-0.26923355 -0.4192636 0.03794384 -0.40658042 -0.76837003 -0.13089317 -0.3122128 -0.1888072
-0.2769518 -0.07676208 -0.51133037 0.051931337 0.74243116 -0.62723625 -0.38712463 -0.4801141
-0.5182374 -0.36343548 -0.15235455 0.5991138 -0.73074955 0.3191401 -0.07329515 0.06683352
-0.9431285 0.087832816 -0.33610258 -0.5446932 -0.32359293 0.22746891 0.043010935 -0.089941144
-0.50826603 -0.50169045 -0.24476738 -0.11590402 -0.30314168 -0.286908 -0.26888135 -0.012882505
-1.0849553 -0.14562704 1.0015014 -0.15578754 0.09715362 -0.3583665 -0.79912233 -0.34686294
-0.5175606 0.08585369 -0.15940578 -0.15535672 -0.4397192 -0.34747905 -0.013545093 -0.579028
-0.5052231 -0.54747283 0.13648702 -0.19770852 0.58852905 -0.8060145 -0.8367882 0.7057783
-0.6049727 -0.1622333 -0.538564 -0.20205596 -0.32307538 -0.07848473 -0.085447975 -0.023108777
-0.42568216 -0.038501013 -0.9762536 0.4654274 -0.07009531 -0.09260582 -0.40451965 -0.95706296
-0.4392724 -0.12308565 -0.36691055 -0.45536235 -0.73635 -0.14017093 0.27847147 -0.67588717
-1.4108624 -0.42191058 -0.50118643 -0.07016453 0.18633534 -0.81254655 -0.17714314 -0.89111745
0.8138998 -0.5302616 0.22937351 -1.0218651 0.063643634 -0.9485273 -0.479214 -0.017979436
-0.20847034 -0.4424615 0.0062804567 -0.34897912 0.38021404 -0.27137512 0.014036563 0.2720338
-0.31516573 -0.4470348 -0.45324808 -0.89497566 0.28415832 0.14414008 0.9373444 -0.58663243
00000000: 5b37 8cbe a219 71bf 0943 61be 3237 3abe
00000010: 9ac7 42bc 3eb3 2c3f 4d8b 523e 0410 70bf
00000020: 5baa 0e3f d455 b2be 81c6 123d b535 aebd
00000030: cc3b 41bd ddc1 023f bd30 8dbe 66f6 33bf
00000040: a92e fa3e 7c94 81be 95d0 5fbf 1ca5 d2be
00000050: c556 1c3f 8f59 163f f18e 96be 336e 21bf
00000060: 75a3 3cbf b787 3dbd 6fee 27bf 4873 adbe
00000070: ac3d e8be ec4b b8be e530 55bf 613e d0be
00000080: 6af0 aebe 12e2 93be 1160 debe 6580 94bd
00000090: 2b04 7ebe 8bca 61be f7e5 67be 0b87 abbe
000000a0: c25a 6e3f 5344 4dbf 97bd 67bf 0c62 adbd
000000b0: 1d28 6a3e 5fe2 79bd d9ba 0fbf 4ea2 e53c
000000c0: 6c98 78be d6e9 0e3d e6f4 ebbd decf 45bf
000000d0: 03ae 83bd b22d c9be 49fd 27bf bb4a 35bf
000000e0: 361f 2abf 1ea2 a3bd 969c 823e c3cd 6fbe
000000f0: 8ff5 18bf a12c d0bd bb1d 67bc f8a3 823f
00000100: 5b5d 90bd e3c9 2fbf 8ac8 553e 73c6 86be
00000110: 5ae3 cbbe e8fc 08bf 1967 f13e d024 1bbf
00000120: 87a1 c93e 6d91 15bf e3ef 8d3d 373d bfbe
00000130: 5aa0 13bf 761e 42bf 4503 443f 75be 46be
00000140: fd2f b9be 397f 043e 705f 99be 3283 10bf
00000150: 2dfb 58bf 995b 71be c58e 043f cbe7 d93e
00000160: e190 aebe eab1 39bf ca01 173f 1be6 18bf
00000170: 5a47 e23d 486a 2d3f 45e7 4abf 284c c0bf
00000180: 0974 afbe f1a0 1bbf 8987 16be d28d 2dbf
00000190: 389d d4be 318b 67bd 617d 163f 7881 3cbf
000001a0: e6b5 01be 3ede 453e ecc1 273e 5b28 efbe
000001b0: 6120 96be 6dd6 78be a6c8 38be 3ff5 21be
000001c0: b025 8fbd c5b1 2bbf ea90 023f 551b de3e
000001d0: 1d6f 7b3e 3cf8 d6bd a222 07bc 4502 11bd
000001e0: 2132 26bc 615e f33e 9efc 283f 8854 f63e
000001f0: 4fbf 503f 8e56 633d 01cb 5bbf cdb7 87be
00000200: c088 8cbe c7af 82be f48e 49be a2b3 413d
00000210: 9f30 e4bd 5c9c b13e 7d20 9ebe d7de 37bf
00000220: fbd8 89be b8a9 d6be 006b 1b3d 4f2b d0be
00000230: e6b3 44bf dc08 06be 5bda 9fbe ad56 41be
00000240: a0cc 8dbe 7035 9dbd 8ce6 02bf f4b5 543d
00000250: f80f 3e3f 8e92 20bf 3335 c6be 84d1 f5be
00000260: 35ab 04bf 3714 babe d502 1cbe 865f 193f
00000270: 6712 3bbf 5566 a33e c51b 96bd 03e0 883d
00000280: df70 71bf b1e1 b33d a315 acbe 0371 0bbf
00000290: f9ad a5be 9ced 683e 3c2c 303d 1033 b8bd
000002a0: b91d 02bf c96e 00bf 4da4 7abe 165f edbd
000002b0: 6335 9bbe 9be5 92be d1aa 89be 2411 53bc
000002c0: d1df 8abf 411f 15be 3331 803f c586 1fbe
000002d0: 7af8 c63d d07b b7be 4893 4cbf 0598 b1be
000002e0: da7e 04bf 0fd4 af3d 453b 23be d515 1fbe
000002f0: e022 e1be c6e8 b1be 3dec 5dbc 2e3b 14bf
00000300: 4d56 01bf 2e27 0cbf 41c3 0b3e 1a74 4abe
00000310: d7a9 163f f756 4ebf c037 56bf e3ad 343f
00000320: 7edf 1abf 7c20 26be 55df 09bf c2e7 4ebe
00000330: 236a a5be 9abc a0bd 59ff aebd 9e4e bdbc
00000340: 03f3 d9be 3db3 1dbd c2eb 79bf 804c ee3e
00000350: 218e 8fbd 1fa8 bdbd 331d cfbe 1402 75bf
00000360: 50e8 e0be 5414 fcbd b3db bbbe 4125 e9be
00000370: 6f81 3cbf f888 0fbe d093 8e3e f106 2dbf
00000380: 2497 b4bf aa04 d8be c14d 00bf 6cb2 8fbd
00000390: b1ce 3e3e 0d03 50bf 0365 35be 4620 64bf
000003a0: bd5b 503f 39bf 07bf e4e0 6a3e 7acc 82bf
000003b0: 9857 823d afd2 72bf 8a5b f5be 9c49 93bc
000003c0: 4079 55be 508a e2be 4acc cd3b 64ad b2be
000003d0: 6aab c23e aef1 8abe 9df9 653c 0448 8b3e
000003e0: 675d a1be bfe1 e4be 2210 e8be 201d 65bf
000003f0: 337d 913e 7599 133e cdf5 6f3f 8b2d 16bf

fc2.weight f4 [128, 256]
-0.39580637 -0.55254453 -0.4976163 -0.13028613 -0.28986278 -0.22660163 -0.07561528 -0.15765789
-0.119162716 -0.2131895 -0.2457096 -0.40527752 0.08434283 -0.18929812 -0.61526394 0.23185857
-0.22715133 -0.13865656 -0.62425095 0.7704866 -0.35267225 -0.330088 0.15376773 -0.17325161
0.0019552482 -0.47583774 -0.028705282 -0.7206331 0.062079567 0.019111944 0.49571067 -0.31555232
-0.5557312 0.12856211 -0.7914616 -0.041275933 0.060158644 0.08650063 0.018630866 -1.0489459
-0.1978045 -0.19558692 -0.5721668 -0.1324435 -0.14853954 -0.45984018 -0.4428515 0.15968598
-1.0614288 0.43874538 -0.25637057 0.42810676 0.07897324 -0.3179615 -0.03828308 1.0100863
0.10361454 -0.3605749 -0.172435 0.23797038 -0.1793517 -0.44707572 -0.2658167 -0.20595984
-0.614748 0.07423477 0.05705496 -1.0513208 -0.49379975 -0.40044588 -0.24554275 -0.7102892
-0.3739708 0.07635627 0.06473217 0.1564388 -0.44429585 -0.038964354 -0.21602139 -0.40753925
0.17451051 -0.17415111 -0.19501801 -0.0004890408 -0.5353195 0.45124084 -0.28794894 -0.2479478
-0.644254 -0.74377316 -0.26711828 -0.33817104 -0.64477503 -0.23805356 -0.18112974 -0.25153288
1.1045164 -0.6246521 -0.58242494 -0.13143097 -0.14622629 -0.24376819 -0.24383141 -0.16153148
0.29877725 -0.03216301 -0.2917129 0.1054575 0.166932 -0.13884172 -0.3365166 0.39362684
0.23898873 -0.28987926 -0.4118287 -0.40649608 -0.24648239 -0.115207665 -0.18386093 -0.45751593
-0.7198986 -0.31570962 -0.31099275 -0.36535978 -0.35259297 -0.1423991 0.09567763 -0.65085167
-0.8494108 -0.05619043 0.038218867 -0.11126835 0.015809149 -0.38930437 -0.0250313 -0.50058484
0.022577485 -0.30628434 -0.15088719 -0.6068571 -0.48986548 -0.87934864 -0.14977628 0.034272544
-0.024754208 0.16234927 -0.5156245 -0.058096293 -0.29280603 0.33376667 -0.08514019 0.44368455
0.061723318 -0.25129402 -0.28782675 -0.29407394 -0.14894725 -0.4180136 -0.22633193 -0.13650113
0.5573456 -0.056301914 -0.26957184 -0.25742602 -0.5384867 -0.5826149 -0.23759146 -0.12843691
-0.10241427 -0.21505116 -0.12778766 -0.36197093 0.2019644 -0.21942765 -0.7452162 0.15190409
-0.4693371 -0.17547035 -0.31694177 0.5541677 0.23098819 0.08830514 -0.54886615 -0.29233325
-1.106664 0.011444511 -0.08308379 -0.12969941 -0.026418053 -0.011890727 -0.3324723 0.09582519
0.019390533 0.2783124 -0.46048793 -0.037127186 -0.2157059 0.024348473 1.2502241 -0.36556768
0.10089528 -0.24423248 0.4973297 -0.49489924 0.29078287 -0.052096475 -0.07842738 -0.06829071
-0.06593313 -0.23337659 0.57697564 -0.34197342 -0.122184135 -0.11749191 -0.9589866 0.2512173
-0.1670264 -0.05333078 -0.3350318 0.17165324 -0.6500632 -0.218085 -0.28863946 -0.49747503
-0.5536458 -0.40725884 0.05597473 -0.46919963 -0.22463517 0.16316822 -0.15737812 0.13747694
-0.27046815 0.48203355 -0.6803615 0.07956757 0.14962769 0.10681713 -0.33451828 -0.2896148
0.3665457 0.14173152 0.09534512 0.24612491 -0.35013968 0.09638143 -0.6488241 -0.74098474
0.02131417 0.27847457 -0.12694427 0.6742706 0.039232653 -0.2882247 -0.33701336 -0.23015893
00000000: 22a7 cabe 8f73 0dbf 90c7 febe ba69 05be
00000010: e568 94be 420a 68be 2fdc 9abd 1271 21be
00000020: 950b f4bd 594e 5abe 4c9b 7bbe 8980 cfbe
00000030: efbb ac3d 5ed7 41be f081 1dbf 556c 6d3e
00000040: 5c9a 68be fcfb 0dbe e9ce 1fbf 9c3e 453f
00000050: 7591 b4be 4b01 a9be 4a75 1d3e df68 31be
00000060: 9f23 003b 01a1 f3be 5727 ebbc 697b 38bf
00000070: 2547 7e3d a790 9c3c cacd fd3e 1390 a1be
00000080: 6644 0ebf c9a5 033e 3a9d 4abf f410 29bd
00000090: e968 763d 3e27 b13d c29f 983c dc43 86bf
000000a0: 438d 4abe f047 48be 8679 12bf 459f 07be
000000b0: c01a 18be 2c70 ebbe 6fbd e2be b984 233e
000000c0: e6dc 87bf 3ca3 e03e 0143 83be cf30 db3e
000000d0: b9bc a13d dacb a2be b8ce 1cbd 824a 813f
000000e0: dc33 d43d 469d b8be cd92 30be 82ae 733e
000000f0: f9a7 37be 1ce7 e4be 2019 88be 23e7 52be
00000100: 2060 1dbf 6608 983d 76b2 693d ae91 86bf
00000110: 52d3 fcbe 3e07 cdbe 8f6f 7bbe 83d5 35bf
00000120: 1a79 bfbe ad60 9c3d 4d92 843d 7e31 203e
00000130: bf7a e3be 1699 1fbd b634 5dbe fca8 d0be
00000140: e2b2 323e ab54 32be cdb2 47be f932 00ba
00000150: b30a 09bf 0a09 e73e 0b6e 93be 07e6 7dbe
00000160: d5ed 24bf eb67 3ebf bac3 88be c124 adbe
00000170: fa0f 25bf 50c4 73be 137a 39be ebc8 80be
00000180: cb60 8d3f 33e9 1fbf cd19 15bf d795 06be
00000190: 58bc 15be 5e9e 79be f1ae 79be 8268 25be
000001a0: 55f9 983e 5cbd 03bd 655b 95be 1afa d73d
000001b0: 39f0 2a3e 862c 0ebe e74b acbe 7589 c93e
000001c0: 76b9 743e 0e6b 94be 36db d2be 4120 d0be
000001d0: e165 7cbe fff1 ebbd 0a46 3cbe 873f eabe
000001e0: 464b 38bf b1a4 a1be 713a 9fbe 7010 bbbe
000001f0: 1187 b4be 12d1 11be a2f2 c33d 379e 26bf
00000200: fc72 59bf f027 66bd 638b 1c3d a9e0 e3bd
00000210: 3082 813c e752 c7be 710e cdbc 5426 00bf
00000220: 6bf4 b83c 4dd1 9cbe 2c82 1abe fd5a 1bbf
00000230: a6cf fabe fe1c 61bf f45e 19be 5e61 0c3d
00000240: 56c9 cabc e33e 263e f8ff 03bf 61f6 6dbd
00000250: acea 95be 77e3 aa3e fb5d aebd 9f2a e33e
00000260: 97d1 7c3d 9ca9 80be 075e 93be dc90 96be
00000270: a185 18be e105 d6be 8fc3 67be f4c6 0bbe
00000280: 34ae 0e3f d69c 66bd 5205 8abe 58cd 83be
00000290: 44da 09bf 4026 15bf 2d4b 73be f784 03be
000002a0: 93be d1bd 5f36 5cbe c5da 02be 4154 b9be
000002b0: c1cf 4e3e a4b1 60be 7dc6 3ebf bf8c 1b3e
000002c0: f44c f0be 80ae 33be 3146 a2be efdd 0d3f
000002d0: 2b88 6c3e 53d9 b43d 7e82 0cbf b4ac 95be
000002e0: 2aa7 8dbf c281 3b3c d627 aabd eccf 04be
000002f0: ac6a d8bc 53d1 42bc cf39 aabe ff3f c43d
00000300: e5d8 9e3c f77e 8e3e 13c5 ebbe ad12 18bd
00000310: 02e2 5cbe 7376 c73c 5807 a03f b02b bbbe
00000320: 2fa2 ce3d 1418 7abe 00a2 fe3e 6f63 fdbe
00000330: 7ee1 943e 1d63 55bd 899e a0bd 00dc 8bbd
00000340: f307 87bd 46fa 6ebe adb4 133f 2417 afbe
00000350: ad3b fabd 999f f0bd 2580 75bf 8e9f 803e
00000360: f808 2bbe 6071 5abd 4a89 abbe dec5 2f3e
00000370: 8b6a 26bf ad51 5fbe 8dc8 93be 0cb5 febe
00000380: bbbb 0dbf 3b84 d0be c245 653d ef3a f0be
00000390: c306 66be 9215 273e bb27 21be c1c6 0c3e
000003a0: cd7a 8abe 1acd f63e 2c2c 2ebf 52f4 a23d
000003b0: 0038 193e f1c2 da3d fb45 abbe 6448 94be
000003c0: e1ab bb3e 1122 113e 4d44 c33d 2b08 7c3e
000003d0: 8245 b3be a163 c53d 5619 26bf 2db1 3dbf
000003e0: 0e9b ae3c 3894 8e3e aefd 01be ff9c 2c3f
000003f0: 6bb2 203d 3092 93be 048d acbe c8ae 6bbe

fc2.bias f4 [128]
-1.2290127 0.02572732 0.012608919 -0.46809712 -0.09757978 0.0040409775 -0.2012662 0.1671029
0.05915569 -0.10391076 -0.0039056456 -0.83033794 -0.03128285 -0.0335724 -0.43655163 0.006223904
-0.057194162 -0.027901996 -0.148689 0.15158911 -0.047014605 -0.42952096 0.11675722 0.13545397
-0.09874188 -0.350887 -0.22751744 -0.28104442 -1.1134567 0.017812451 0.18185464 0.25865683
0.22899814 0.09469249 0.1405838 -0.11420575 0.13792993 -0.19337751 0.12009852 -0.2658321
-0.11719545 0.022366641 0.3010413 -0.09424714 0.22540003 -0.049619604 0.24461633 -0.14510089
-0.29634875 -0.1867911 0.24099797 -0.0155832255 0.055177342 -0.13742071 -0.1657022 -0.13124025
-0.10303597 -0.485551 0.21428487 0.14916523 -0.49401277 -0.49511546 -0.012958991 0.0038489122
-0.072819024 -0.8840399 0.18882851 0.19792858 0.030188972 -0.6060222 -0.6429683 0.25661087
-0.40850657 -0.73156387 0.13205093 -0.014633116 -0.56748414 0.09202246 0.10829126 -0.067652166
-0.98310685 0.34798923 -0.2493702 0.05178846 -0.10460031 0.23517948 -0.28350386 0.13269545
-0.20809421 -0.11926953 -0.04246457 -0.24513134 -0.33534235 0.08353907 -0.35731724 0.044736594
-0.86602193 0.062042084 -0.13605587 0.08393924 0.30704543 0.19995968 -0.3101564 0.19859907
-0.14373197 0.2681876 -0.6216821 -0.042043395 0.051188536 -0.1444458 0.22893156 0.09597116
0.30397984 0.03876318 -0.7148738 -0.42279512 0.44043663 0.13295169 0.20099801 0.13598324
-1.4038858 -0.2504873 -0.7351078 0.18453902 0.049003713 -0.52803195 0.120237395 0.2885941
00000000: 4a50 9dbf 1ac2 d23c a495 4e3c 6daa efbe
00000010: e8d7 c7bd 2d6a 843b ba18 4ebe 061d 2b3e
00000020: 3d4d 723d 2acf d4bd dcf5 7fbb 0791 54bf
00000030: 7222 00bd 3783 09bd b283 dfbe e4f1 cb3b
00000040: 6d44 6abd ba92 e4bc ee41 18be 2d3a 1b3e
00000050: 6392 40bd 2cea dbbe 691e ef3d 72b4 0a3e
00000060: 2f39 cabd 76a7 b3be 55fa 68be 0ee5 8fbe
00000070: c085 8ebf 6beb 913c 1a38 3a3e ab6e 843e
00000080: 7d7e 6a3e 23ee c13d 33f5 0f3e b4e4 e9bd
00000090: 813d 0d3e c104 46be 36f6 f53d 251b 88be
000000a0: 2b04 f0bd 3f3a b73c 1622 9a3e a504 c1bd
000000b0: 44cf 663e ed3d 4bbd b47c 7a3e 5495 14be
000000c0: 06bb 97be 2b46 3fbe 2cc8 763e c950 7fbc
000000d0: a301 623d 04b8 0cbe d6ad 29be d863 06be
000000e0: 8604 d3bd 249a f8be 7e6d 5b3e c5be 183e
000000f0: 3eef fcbe c67f fdbe f351 54bc 083e 7c3b
00000100: 2422 95bd 7050 62bf 435c 413e caad 4a3e
00000110: dd4e f73c 4524 1bbf 9299 24bf 8062 833e
00000120: c627 d1be c547 3bbf 5c38 073e bdbf 6fbc
00000130: a446 11bf 4676 bc3d cfc7 dd3d 388d 8abd
00000140: e4ac 7bbf a52b b23e e75a 7fbe 2320 543d
00000150: b038 d6bd e4d2 703e 6b27 91be 51e1 073e
00000160: a616 55be 9543 f4bd 54ef 2dbd b603 7bbe
00000170: feb1 abbe 8816 ab3d 49f2 b6be b83d 373d
00000180: 9db3 5dbf d71f 7e3d 3b52 0bbe 56e8 ab3d
00000190: 0f35 9d3e 3bc2 4c3e d2cc 9ebe 8e5d 4b3e
000001a0: 792e 13be e34f 893e 8f26 1fbf b235 2cbd
000001b0: 12ab 513d 9ae9 13be 096d 6a3e 878c c43d
000001c0: 3fa3 9b3e 24c6 1e3d f801 37bf 9a78 d8be
000001d0: e980 e13e 7d24 083e 6cd2 4d3e 313f 0b3e
000001e0: 88b2 b3bf df3f 80be 0630 3cbf ccf7 3c3e
000001f0: 1eb8 483d 1a2d 07bf 063f f63d 9bc2 933e

fc3.weight f4 [64, 128]
-0.29576477 0.35798663 -0.13850449 -0.47399864 -0.46019587 -0.055805564 -0.02311034 -0.25844002
-0.03172182 -0.43244466 -0.17671253 0.4505406 -0.32558814 0.09704637 -0.25120008 -0.3814454
-0.54330146 -0.45139802 -0.9209285 -0.8049737 -0.7011639 -0.40543026 0.089872904 -1.3796225
-0.1673971 0.32371327 -1.1070035 -0.09735373 -0.3007943 -0.012349002 -1.0737306 -0.0221407
-0.26485682 -0.40868658 -0.6018306 -0.15542494 0.12137582 0.069635995 -0.40703282 -0.29438543
-0.1636932 -0.3756277 0.18095948 -0.9032672 -1.481367 -0.005003632 -0.1197253 -0.002883057
-0.086148016 0.020610815 0.033680927 -0.19306548 -0.64027494 0.023237392 -0.246738 0.069768615
0.04071653 0.08501352 0.27449098 0.009980845 -0.90195584 -0.9016282 -0.005587262 0.09800876
-0.26183978 -0.06123101 -0.53974336 -1.2573729 0.14279385 0.6368865 -0.19203016 -0.2604
-0.7763535 -0.29648942 -0.13566054 0.03911789 0.06277626 0.12426899 -0.34067523 -0.12684366
-0.03856432 0.01566276 -0.16057411 -0.32618847 0.22706202 0.3814017 -0.123851754 -0.06822843
-0.18469559 0.16084233 -0.67235994 0.60751116 -0.0121133085 0.04902949 -1.0212781 -0.61382973
-0.029904965 0.12097208 -0.86620945 -0.45703393 -0.029996173 0.24067955 -0.8030535 -0.31556115
0.08572806 0.0372119 0.2859082 0.018862419 -0.88457197 -0.098943256 -0.15848473 -0.5617212
-0.0013642783 -0.38879582 -0.038296223 -1.0282904 0.15802354 -0.98855615 -0.29358214 -0.2409545
-0.021158295 -0.18025202 -0.9906126 -1.4570549 -0.84017223 0.17252736 -0.8098872 0.10187237
-1.3682789 0.23385906 -1.3880208 -0.14808406 -0.22599788 -0.92031133 -0.62495863 -0.08767391
-0.20700252 -0.17736116 -0.84247476 -0.96829534 0.0027555882 -1.2900017 -0.52971435 0.27961007
0.018400224 0.6407894 -0.19891904 0.5288751 0.27200615 -0.14029251 -0.32662424 -0.19193472
-0.3022705 -0.18667708 -0.07277927 -1.0364785 0.42487398 0.052546833 0.22615556 0.024090298
0.2743182 0.11153962 0.07867529 -1.317474 -0.23139526 -0.71312207 0.33973077 -2.3667748
-0.096496865 -0.010893718 0.10438433 0.69009036 0.36130428 -0.79316247 0.42369574 -0.031279113
-0.41261044 -0.17169775 -0.11312335 -0.14529157 0.17417681 -0.99431485 -0.98615026 -0.923068
-0.65241086 -0.06566895 0.099158145 0.121900365 -0.5134515 -0.62697953 -0.63880074 0.09558896
-0.643624 0.27528718 0.07938909 0.40227455 -0.67601526 0.078985386 -0.19831717 0.17518973
-0.08333391 -0.14276391 -0.05146995 -0.07775415 -0.11859254 -0.59450376 -0.23049998 -0.7119133
-0.007495555 0.23290904 -0.417893 -0.15258358 -0.88181704 0.40768635 0.08835612 -0.058865972
-0.06237031 -0.48634756 -0.09998366 -1.3438982 -0.1303294 0.2764202 -0.086006634 -0.09159083
-1.5888809 0.07038483 0.40172347 -0.1805165 -0.01978371 0.24764514 -0.09646603 -0.1251063
0.091937974 0.08652814 0.19655417 0.40341738 -0.054931886 -0.21596491 0.15008391 0.25817728
-0.15463085 -0.92958146 -0.26030242 0.32320297 0.04151422 0.39322162 -0.16702951 0.22948587
-0.47552273 -1.1031772 -0.39741087 0.065628424 0.34221682 0.6190834 -0.4515666 0.27293667
00000000: 7b6e 97be 064a b73e 1fd4 0dbe f3af f2be
00000010: cb9e ebbe 6094 64bd e551 bdbc 4052 84be
00000020: bdee 01bd 6369 ddbe 21f4 34be 42ad e63e
00000030: 7db3 a6be 3fc0 c63d 4c9d 80be d04c c3be
00000040: ce15 0bbf a41d e7be f8c1 6bbf c212 4ebf
00000050: 7a7f 33bf 8e94 cfbe 490f b83d 7897 b0bf
00000060: 256a 2bbe bfbd a53e 4ab2 8dbf 6461 c7bd
00000070: b601 9abe 7853 4abc 0170 89bf 6a60 b5bc
00000080: 509b 87be 5e3f d1be 9211 1abf b727 1fbe
00000090: e393 f83d 519d 8e3d 9b66 d0be b0b9 96be
000000a0: 319f 27be 4652 c0be 714d 393e 853c 67bf
000000b0: 6f9d bdbf 82f5 a3bb 8a32 f5bd acf1 3cbb
000000c0: 5f6e b0bd 03d8 a83c 03f5 093d f5b2 45be
000000d0: 0fe9 23bf 585c be3c e3a8 7cbe d9e2 8e3d
000000e0: 60c6 263d 921b ae3d 158a 8c3e b386 233c
000000f0: 94e6 66bf 1bd1 66bf 5a15 b7bb d1b8 c83d
00000100: dd0f 86be 5ecd 7abd 9f2c 0abf 98f1 a0bf
00000110: 8d38 123e fe0a 233f 8ea3 44be 2653 85be
00000120: 1abf 46bf 76cd 97be 99ea 0abe 153a 203d
00000130: d790 803d bd80 fe3d fc6c aebe 4ee3 01be
00000140: 9ff5 1dbd 304f 803c 8a6d 24be 2d02 a7be
00000150: f282 683e 1547 c33e fda5 fdbd 59bb 8bbd
00000160: d720 3dbe dab3 243e c81f 2cbf da85 1b3f
00000170: e676 46bc 26d3 483d 3eb9 82bf f223 1dbf
00000180: 42fb f4bc 36c0 f73d e7bf 5dbf 5a00 eabe
00000190: 89ba f5bc b374 763e ea94 4dbf 3b91 a1be
000001a0: 3192 af3d 816b 183d 8f62 923e 5c85 9a3c
000001b0: 4f73 62bf c3a2 cabd d249 22be f6cc 0fbf
000001c0: 95d1 b2ba 3f10 c7be 80dc 1cbd 059f 83bf
000001d0: ecd0 213e 0412 7dbf 6650 96be c7bc 76be
000001e0: 2954 adbc fc93 38be ca98 7dbf c680 babf
000001f0: 8715 57bf 03ab 303e c454 4fbf 76a2 d03d
00000200: c323 afbf c078 6f3e aaaa b1bf 59a3 17be
00000210: fd6b 67be 8699 6bbf 4afd 1fbf 618e b3bd
00000220: 78f8 53be 2a9e 35be 6dac 57bf 34e2 77bf
00000230: 1997 343b c71e a5bf 5c9b 07bf 0d29 8f3e
00000240: 11bc 963c c60a 243f 6fb1 4bbe 5c64 073f
00000250: 6444 8b3e d7a8 0fbe 4b3b a7be 898a 44be
00000260: 33c3 9abe 4728 3fbe 4c0d 95bd 54ab 84bf
00000270: 1589 d93e 593b 573d 5395 673e 0459 c53c
00000280: 6f73 8c3e e26e e43d 8320 a13d fda2 a8bf
00000290: e1f2 6cbe 2b8f 36bf 31f1 ad3e 3d79 17c0
000002a0: 26a0 c5bd 917b 32bc 74c7 d53d c3a9 303f
000002b0: e0fc b83e b20c 4bbf a6ee d83e 871e 00bd
000002c0: ad41 d3be 89d1 2fbe 37ad e7bd 50c7 14be
000002d0: 685b 323e 6b8b 7ebf 5874 7cbf 2f4e 6cbf
000002e0: 6604 27bf 717d 86bd 6d13 cb3d e6a6 f93d
000002f0: 8f71 03bf bb81 20bf 7288 23bf 25c4 c33d
00000300: 8bc4 24bf 71f2 8c3e bf96 a23d eef6 cd3e
00000310: 560f 2dbf 17c3 a13d a813 4bbe f064 333e
00000320: f8aa aabd b430 12be 27d2 52bd 913d 9fbd
00000330: a5e0 f2bd 6631 18bf 3008 6cbe f33f 36bf
00000340: 469d f5bb b57f 6e3e 12f6 d5be df3e 1cbe
00000350: c3be 61bf 44bc d03e 0ef4 b43d 721d 71bd
00000360: 0378 7fbd 8c02 f9be 3cc4 ccbd db04 acbf
00000370: 1275 05be f386 8d3e 3f24 b0bd f993 bbbd
00000380: 7360 cbbf ec25 903d b3ae cd3e 51d9 38be
00000390: 7211 a2bc b096 7d3e fb8f c5bd de1b 00be
000003a0: fa49 bc3d aa35 b13d 7f45 493e b98c ce3e
000003b0: 4200 61bd e825 5dbe 99af 193e d02f 843e
000003c0: 8d57 1ebe 0df9 6dbf 5c46 85be dc7a a53e
000003d0: d10a 2a3d 5854 c93e c909 2bbe 58fe 6a3e
000003e0: b777 f3be e934 8dbf 7079 cbbe 3268 863d
000003f0: 0b37 af3e 407c 1e3f bd33 e7be 5bbe 8b3e

fc3.bias f4 [64]
0.45480156 0.09825492 0.4376791 -0.36234438 -0.5363843 -0.28497756 0.6327053 0.55607265
0.53170323 0.25265652 0.6372963 0.40492687 0.079501286 0.12714447 -0.2720037 0.18792829
0.2764135 -0.52757704 0.14348678 -0.19713436 0.0723624 0.45828933 0.38354835 -0.14328057
0.014921343 -0.116890304 -0.06824926 0.113507 0.19796158 0.19996144 0.14067009 -0.04737508
0.23053135 0.19225596 0.21085812 -1.8289691 -0.33694533 0.17734881 0.69241744 -0.18868141
-0.4231651 0.25197315 0.06764054 0.35914448 0.18568787 -0.16807364 -0.74847245 -0.3769735
0.38996276 0.6480709 0.058466796 0.44204193 0.42123896 0.11518607 0.6185786 0.12499639
0.37277892 0.48706263 0.5203835 -0.18303327 -0.08387718 -0.9681007 -0.1795132 0.1215645
00000000: c0db e83e e039 c93d 7a17 e03e 3485 b9be
00000010: 7b50 09bf 94e8 91be f9f8 213f c75a 0e3f
00000020: b41d 083f 325c 813e da25 233f 9352 cf3e
00000030: 92d1 a23d 2932 023e 1244 8bbe 4670 403e
00000040: 1286 8d3e 4a0f 07bf 33ee 123e 97dd 49be
00000050: bd32 943d e6a4 ea3e 7360 c43e 24b8 12be
00000060: a678 743c 2f64 efbd 45c6 8bbd 5c76 e83d
00000070: 71b6 4a3e b1c2 4c3e d20b 103e 5f0c 42bd
00000080: 6910 6c3e bfde 443e 31eb 573e a91b eabf
00000090: 1984 acbe ed9a 353e 4542 313f b335 41be
000000a0: 19a9 d8be a002 813e 2087 8a3d c9e1 b73e
000000b0: f624 3e3e 7f1b 2cbe e49b 3fbf ac02 c1be
000000c0: 33a9 c73e f9e7 253f e17a 6f3d 5253 e23e
000000d0: a2ac d73e ade6 eb3d 2b5b 1e3f 1bfe ff3d
000000e0: e1dc be3e 4660 f93e da37 053f 136d 3bbe
000000f0: cdc7 abbd 73d5 77bf 4fd2 37be cff6 f83d

fc4.weight f4 [32, 64]
0.09053726 -0.09415048 -0.285367 -0.12922852 -0.18081419 -0.026824638 -0.18103704 0.046646867
0.09109703 -0.2244737 0.22068872 0.010238238 -0.047626954 -0.033089824 0.032049675 0.4009097
0.20547171 0.35927612 -0.43769932 0.5118144 -0.20700237 -0.054412294 0.14509377 0.0764666
-0.0008548593 0.36782894 -0.18421015 -0.03191879 -0.009373166 0.24486288 0.044714242 0.07573048
-0.058176585 0.14780527 0.061378002 0.024865739 -0.16818495 -0.14891806 0.09463112 -0.08306286
-0.23202613 -0.1365429 0.2278366 0.23191942 -0.025162539 -0.30900827 0.17912856 -0.32157165
-0.076053515 -0.34030384 -0.017676573 0.30975947 0.24688902 0.17402512 -0.016066669 0.113657355
0.27341735 0.12079828 -0.08618907 0.17451574 -0.0067786095 0.10681302 0.42137483 -0.0066057625
0.1976533 0.31720987 -0.7065608 0.27032155 -0.009245106 -0.17594981 -0.1459387 -1.0656123
-1.0788844 -1.4332322 -0.029745724 0.18792109 -0.0118690925 -0.07848609 0.0065992703 0.10215819
-0.20903903 -0.14793067 0.25799233 0.03877386 -0.042382453 0.31651816 -1.586595 0.024598518
-0.009634495 -0.3676468 -0.5070955 0.34317097 -0.93762076 0.81146705 0.4000242 0.10507462
-0.7249557 -1.7159628 0.23525558 0.17276256 -0.064787745 -0.67443067 0.1124158 0.4603385
-0.00040577367 -0.010873422 0.0023618685 0.26395184 -0.96012586 -1.0774599 0.43082836 -0.15873386
0.25094488 -0.9939269 -0.41670626 -1.3326881 0.03550927 -0.011089618 -0.3695605 0.0032535598
0.010029478 0.4181522 -0.8880992 0.08128397 0.044754624 0.21945967 -0.17137149 0.40269154
0.7321149 0.09820302 -0.042396165 -0.44390038 0.09876117 0.29149747 -1.0641835 -0.70279646
-0.9049051 -0.8608228 -0.28647923 -0.018636502 -0.28117418 0.300275 0.3436248 -0.14844577
-1.047083 0.024994574 -0.085412584 0.052846752 -0.089841194 0.7525279 -0.40307707 -0.18006192
0.21605013 -0.04601576 0.12308973 0.07968145 -0.81910074 -0.11403847 0.0036227119 -0.03920481
0.49197003 -0.87649643 -0.037201453 -0.10447178 0.08290882 0.08706557 -0.3847855 -0.073346265
0.3000201 -0.12894973 -0.2495647 0.2648228 -1.0597447 0.3690549 0.07907057 0.025725262
0.06717262 -0.5885392 -0.55900097 -0.4116647 -0.18513174 -0.7910175 -0.10099018 -0.21685714
-0.7117774 0.48753065 -0.31529638 0.005570505 0.023797477 0.06844943 1.0301486 -0.043635137
-0.031004928 -0.3008114 0.012782381 0.0956286 -0.10705973 -0.35069352 -0.07355757 0.11265309
0.40445384 0.067715056 0.0930108 -0.46239662 -0.15309967 0.33530557 -0.15665555 0.28831938
0.106460676 0.097393945 -0.48097268 0.284786 -0.008140616 0.067403324 0.13350932 -0.07908973
-0.3938521 0.67588353 -0.23716965 -0.7852527 0.055918775 0.010232114 -0.0715625 -0.21462157
0.016479935 0.4168838 -0.19087234 -0.31931853 -0.30019107 0.03534378 0.09080914 -0.21816975
-0.25180295 0.022965556 0.1569162 -0.0602355 0.009160366 -0.22106427 -0.067167625 -0.33848625
-0.13543877 0.08160057 2.7879287e-06 0.17672849 0.14507681 0.13466565 -0.04578735 -0.010915894
0.14303814 0.019859552 0.0072839167 -0.17456011 0.032532107 -0.43151754 0.492083 -0.29876646
00000000: 996b b93d f8d1 c0bd a01b 92be 7b54 04be
00000010: 5b27 39be 58bf dbbc c661 39be c910 3f3d
00000020: 1491 ba3d 6fdc 65be 39fc 613e 48be 273c
00000030: 7b14 43bd 3289 07bd 8546 033d 0944 cd3e
00000040: 2d67 523e 0af3 b73e 201a e0be 4506 033f
00000050: 6ef8 53be 6ddf 5ebd 7693 143e 859a 9c3d
00000060: a318 60ba 1354 bc3e 96a1 3cbe 47bd 02bd
00000070: e891 19bc 56bd 7a3e 4826 373d 9518 9b3d
00000080: 924a 6ebd 445a 173e 8067 7b3d 3cb3 cb3c
00000090: ad38 2cbe fa7d 18be f6cd c13d dc1c aabd
000000a0: 4298 6dbe e7d1 0bbe ff4d 693e 497c 6d3e
000000b0: ab21 cebc 5536 9ebe 7a6d 373e 0aa5 a4be
000000c0: f2c1 9bbd 4e3c aebe 76ce 90bc cb98 9e3e
000000d0: 7ad0 7c3e a433 323e 3f9e 83bc 30c5 e83d
000000e0: 5cfd 8b3e 1765 f73d e583 b0bd 41b4 323e
000000f0: 191f debb c9c0 da3d 71be d73e 2775 d8bb
00000100: a065 4a3e 5569 a23e 2be1 34bf 9667 8a3e
00000110: c978 17bc 302c 34be f470 15be fc65 88bf
00000120: e218 8abf 2774 b7bf 4ead f3bc 636e 403e
00000130: 9576 42bc 51bd a0bd b13e d83b 5038 d13d
00000140: 540e 56be 237b 17be 9217 843e 57d1 1e3d
00000150: 3999 2dbd ab0e a23e 8c15 cbbf d582 c93c
00000160: 00da 1dbc 343c bcbe 03d1 01bf 1bb4 af3e
00000170: ea07 70bf 4ebc 4f3f f9cf cc3e 5d31 d73d
00000180: b296 39bf aba4 dbbf d7e6 703e abe8 303e
00000190: 70af 84bd 7da7 2cbf 413a e63d 7db1 eb3e
000001a0: 05be d4b9 7026 32bc 94c9 1a3b b224 873e
000001b0: cfca 75bf 35ea 89bf 8995 dc3e 218b 22be
000001c0: d97b 803e fe71 7ebf 865a d5be 8695 aabf
000001d0: 2b72 113d 3bb1 35bc 0937 bdbe ad39 553b
000001e0: ae52 243c 0c18 d63e 785a 63bf 3678 a63d
000001f0: a050 373d 09ba 603e 027c 2fbe 962d ce3e
00000200: e26b 3b3f aa1e c93d 9aa7 2dbd e946 e3be
00000210: 4c43 ca3d 283f 953e 2a37 88bf 78ea 33bf
00000220: dca7 67bf e25e 5cbf 68ad 92be 94ab 98bc
00000230: 10f6 8fbe a5bd 993e 97ef af3e 2b02 18be
00000240: d106 86bf 6cc1 cc3c cbec aebd d675 583d
00000250: a9fe b7bd aba5 403f 1e60 cebe 2762 38be
00000260: 3f3c 5d3e 067b 3cbd 7816 fc3d 0730 a33d
00000270: 96b0 51bf 008d e9bd 056b 6d3b 3995 20bd
00000280: 7fe3 fb3e 1262 60bf 8d60 18bd 4df5 d5bd
00000290: 19cc a93d 6f4f b23d 9b02 c5be 9136 96bd
000002a0: 3c9c 993e 660b 04be e48d 7fbe db96 873e
000002b0: b7a5 87bf c4f4 bc3e c0ef a13d c9bd d23c
000002c0: cc91 893d 81aa 16bf b01a 0fbf b7c5 d2be
000002d0: 2d93 3dbe 1f80 4abf f1d3 cebd cc0f 5ebe
000002e0: 0b37 36bf 9e9d f93e 876e a1be c888 b63b
000002f0: edf2 c23c 372f 8c3d e9db 833f c2ba 32bd
00000300: 0cfe fdbc f403 9abe 316d 513c edd8 c33d
00000310: 2242 dbbd 1a8e b3be 5aa5 96bd aab6 e63d
00000320: 9314 cf3e 31ae 8a3d 727c be3d 40bf ecbe
00000330: 29c6 1cbe 2cad ab3e 506a 20be 999e 933e
00000340: 0e08 da3d 7a76 c73d 0d42 f6be 78cf 913e
00000350: 3860 05bc c10a 8a3d abb6 083e ccf9 a1bd
00000360: fca6 c9be b406 2d3f 9adc 72be 5206 49bf
00000370: 160b 653d 99a4 273c 5c8f 92bd c2c5 5bbe
00000380: ee00 873c cb71 d53e 0a74 43be b87d a3be
00000390: a5b2 99be a4c4 103d 24fa b93d e467 5fbe
000003a0: 51ec 80be 4322 bc3c a4ae 203e 80b9 76bd
000003b0: 5c15 163c ac5e 62be 2e8f 89bd 124e adbe
000003c0: 76b0 0abe 331e a73d 4018 3b36 50f8 343e
000003d0: 048f 143e cbe5 093e 848b 3bbd 94d8 32bc
000003e0: 9778 123e 80b0 a23c ecad ee3b e3bf 32be
000003f0: 6340 053d deef dcbe 4ef2 fb3e ebf7 98be

fc4.bias f4 [32]
-0.05105669 0.3566042 0.31141946 0.08371409 0.66237074 0.49163905 0.17200388 0.25080565
0.3327109 0.3838405 -0.37696725 0.4701868 0.31182382 0.22943364 0.9698749 -0.54565895
-0.07457431 0.23439246 -0.011422622 0.24145243 0.3155697 0.44487798 0.1823915 0.27456626
0.5284555 0.6130118 0.12500516 0.07256978 0.46967116 0.2417217 0.46494898 0.18643829
00000000: d220 51bd d394 b63e 5f72 9f3e 4b72 ab3d
00000010: 2191 293f 1db8 fb3e c921 303e 9969 803e
00000020: 1559 aa3e be86 c43e da01 c1be 53bc f03e
00000030: 5fa7 9f3e a7f0 6a3e b949 783f 4eb0 0bbf
00000040: 6aba 98bd 9404 703e f325 3bbc 4e3f 773e
00000050: 5a92 a13e 0cc7 e33e d6c4 3a3e f393 8c3e
00000060: dc48 073f 57ee 1c3f 5a01 003e 779f 943d
00000070: bd78 f03e e585 773e cb0d ee3e aee9 3e3e

fc5.weight f4 [15, 32]
-0.18041132 -0.22291164 0.037725475 -0.110864095 -0.18072066 -1.5000944 -0.23081002 -1.2696537
-0.0005085827 -1.7941014 -0.24720198 -1.3844652 -0.39570263 -1.0164242 -0.95475864 -0.870354
-0.016335288 -4.739423 -0.983823 -0.06114719 -1.4027447 -1.5804448 -0.15173557 -1.7521347
-0.3600862 0.03123969 -0.7714357 -0.30447072 -1.7051547 -0.1412488 -1.3570151 -1.9796509
-0.022994578 -0.9738191 -3.3438444 -0.012537993 -1.2837172 -2.1095989 -0.26407763 0.0055359313
-0.35047632 -0.47175112 0.02473129 -0.0054924497 -1.2233101 -0.08893415 -1.6399102 0.080527745
0.14985515 -0.077980936 0.086564094 -0.35668835 -0.5168012 0.036816284 -2.2802882 -0.19370759
-0.9158682 -1.2241169 -0.0036160771 0.046860985 -1.1298009 -3.5902815 -2.6244757 0.21170175
0.02685014 0.022062114 -0.015654912 -6.3749175 -0.31193936 -0.8625878 -4.3179455 -1.256751
-2.1034348 0.036230013 -1.7872288 -1.7073435 -4.00633 -0.1431583 -1.2719367 0.121827155
0.26431566 -3.8371134 -1.0463653 -1.6284481 -0.030373454 -4.744379 -0.11559169 -0.008343456
-0.56030595 -2.5165153 -5.3673744 0.04488637 -4.0138454 -0.047639877 -0.11054493 0.17420617
-5.1302314 -0.101370506 -0.27186412 -5.5741997 -1.4229393 -0.6820734 -0.151277 -0.2409006
0.056397982 -0.81599385 -2.0310876 -2.1751823 -2.8080902 -1.4985353 -0.34891275 -1.4276977
-1.6802355 -4.013977 -0.40065035 0.004291305 -2.5154445 -0.43311888 -1.8540819 -2.3102262
-0.10451974 0.07948988 -0.0038213383 -5.229602 -1.0604526 -0.12478778 -2.2360177 -2.8791103
-2.2782366 -1.3904285 0.063464224 -3.0006158 -1.686038 -0.14393404 -3.1863089 0.13482039
0.08665187 -0.14348632 -0.18077235 -0.14431664 -3.9096022 0.13119376 -2.05507 -0.65294564
-0.43885618 -1.5605186 0.14668602 0.034812525 -0.012221565 -3.371627 -0.054975137 -0.015332004
-0.02699984 -2.518384 -3.252564 -1.4340218 -5.305686 0.042364996 -0.18039389 -1.4305633
-0.122986436 -0.06981302 -0.14218177 -5.5119023 -0.5594643 -1.2078035 -0.3555028 -1.316281
-0.054337505 0.015162573 -3.6461067 -3.1760907 -2.6761873 -0.65080285 -0.9153313 -0.9235201
0.1802204 -6.1294813 -0.7084311 -0.45968887 -0.056397334 -2.6954765 -0.27100864 -0.03153571
-0.3850428 -0.16931908 -0.8327002 -0.10914983 -2.0708618 -0.09896191 -0.26011676 0.007615589
-0.95188326 -0.5353795 -0.48650455 -0.9700458 -0.2659086 -0.44539988 -1.0462295 -0.9127057
-1.0958453 -0.11534787 -0.29384473 -0.65555775 -0.38493347 -0.23003605 -0.6780771 0.27498057
0.31324387 0.115516506 -1.2054168 -1.2467374 -0.030381264 -0.56107855 -0.47898936 -0.17057809
-0.21643406 -0.8522254 0.32029885 -0.37882164 -0.7208332 -0.6017702 -0.6077952 0.23376998
-0.9308392 0.19730778 -1.060578 -3.594859 -0.9124715 -0.06065952 0.058648366 -1.2956393
-1.2555256 0.07482184 0.20503323 -1.4508158 -2.0484416 0.20541953 -0.63417166 0.41489655
0.4166312 -0.6690866 0.24115032 -1.483177 -0.6838518 -0.9679682 -0.7292473 -0.9094804
0.037047874 -2.6164465 -0.018013595 -0.48165953 -8.238604 -0.994661 -1.3897269 0.2225769
00000000: bfbd 38be f342 64be 0786 1a3d b70c e3bd
00000010: d60e 39be 1803 c0bf 7659 6cbe 0384 a2bf
00000020: 6852 05ba 1da5 e5bf 8422 7dbe 2836 b1bf
00000030: 8999 cabe 301a 82bf 106b 74bf 85cf 5ebf
00000040: 95d1 85bc 5aa9 97c0 d3db 7bbf 7a75 7abd
00000050: 238d b3bf 044c cabf 9260 1bbe f345 e0bf
00000060: 385d b8be 61ea ff3c cf7c 45bf 96e3 9bbe
00000070: 8242 dabf 87a3 10be acb2 adbf 3365 fdbf
00000080: 205f bcbc 354c 79bf 8c01 56c0 276c 4dbc
00000090: d850 a4bf ab03 07c0 2f35 87be c266 b53b
000000a0: a271 b3be 5d89 f1be 4699 ca3c 02fa b3bb
000000b0: 6d95 9cbf 1c23 b6bd 94e8 d1bf bbeb a43d
000000c0: a173 193e 78b4 9fbd 8448 b13d db9f b6be
000000d0: 154d 04bf accc 163d 3ef0 11c0 485b 46be
000000e0: 5776 6abf ddaf 9cbf b5fb 6cbb 4ef1 3f3d
000000f0: 519d 90bf 2cc7 65c0 69f7 27c0 58c8 583e
00000100: d3f4 db3c 9bbb b43c bb3e 80bc 53ff cbc0
00000110: 84b6 9fbe 8ed2 5cbf 9c2c 8ac0 37dd a0bf
00000120: ad9e 06c0 ec65 143d eac3 e4bf 3b8a dabf
00000130: db33 80c0 1798 12be d2ce a2bf 8480 f93d
00000140: 6254 873e 4493 75c0 4cef 85bf fd70 d0bf
00000150: c0d1 f8bc f4d1 97c0 56bb ecbd feb2 08bc
00000160: 3670 0fbf 960e 21c0 88c1 abc0 c5da 373d
00000170: 6c71 80c0 0822 43bd 6165 e2bd 1a63 323e
00000180: db2a a4c0 579b cfbd c631 8bbe d85f b2c0
00000190: e022 b6bf 5d9c 2ebf 5ce8 1abe a6ae 76be
000001a0: 9201 673d f9e4 50bf 57fd 01c0 3036 0bc0
000001b0: c0b7 33c0 01d0 bfbf b1a4 b2be ccbe b6bf
000001c0: f511 d7bf 8072 80c0 0b22 cdbe 139e 8c3b
000001d0: 0bfd 20c0 c2c1 ddbe 8e52 edbf bfda 13c0
000001e0: 720e d6bd 97cb a23d 6b6f 7abb e658 a7c0
000001f0: e9bc 87bf bc90 ffbd ea1a 0fc0 5843 38c0
00000200: a1ce 11c0 90f9 b1bf 88f9 813d 170a 40c0
00000210: 18d0 d7bf 7263 13be 7cec 4bc0 5b0e 0a3e
00000220: 8976 b13d 14ee 12be 631c 39be bec7 13be
00000230: ec36 7ac0 a857 063e 4486 03c0 7227 27bf
00000240: c2b1 e0be 13bf c7bf dc34 163e 9497 0e3d
00000250: f53c 48bc bdc8 57c0 9c2d 61bd 1633 7bbc
00000260: c52e ddbc 342d 21c0 022a 50c0 078e b7bf
00000270: 2ec8 a9c0 eb86 2d3d 2db9 38be b31c b7bf
00000280: 50e0 fbbd 21fa 8ebd 1998 11be 8161 b0c0
00000290: 0d39 0fbf 4e99 9abf 7704 b6be e57b a8bf
000002a0: 0191 5ebd 716c 783c d059 69c0 1245 4bc0
000002b0: a746 2bc0 049b 26bf 2753 6abf d06b 6cbf
000002c0: b28b 383e b624 c4c0 be5b 35bf 575c ebbe
000002d0: e400 67bd b082 2cc0 a5c1 8abe 972b 01bd
000002e0: 5424 c5be fb61 2dbe d72b 55bf f289 dfbd
000002f0: 0089 04c0 8bac cabd 062e 85be 318c f93b
00000300: 9fae 73bf a20e 09bf 2017 f9be ec54 78bf
00000310: 2c25 88be 740b e4be d9ea 85bf 15a7 69bf
00000320: a944 8cbf 813b ecbd d172 96be a2d2 27bf
00000330: 0016 c5be 928e 6bbe 7696 2dbf 41ca 8c3e
00000340: 8061 a03e eb93 ec3d 194b 9abf 1795 9fbf
00000350: 21e2 f8bc d8a2 0fbf 183e f5be 06ac 2ebe
00000360: e4a0 5dbe 722b 5abf 36fe a33e e9f4 c1be
00000370: 8688 38bf 9d0d 1abf 7798 1bbf 6661 6f3e
00000380: 7a4b 6ebf 0d0b 4a3e 05c1 87bf 2b12 66c0
00000390: bb97 69bf 1e76 78bd 4539 703d 82d7 a5bf
000003a0: 10b5 a0bf 313c 993d 3bf4 513e 55b4 b9bf
000003b0: ab19 03c0 7f59 523e 1359 22bf 526d d43e
000003c0: af50 d53e 4249 2bbf 1cf0 763e bed8 bdbf
000003d0: e910 2fbf c4cc 77bf f3af 3abf b5d3 68bf
000003e0: 83bf 173d dc73 27c0 3f91 93bc 149c f6be
000003f0: 52d1 03c1 1aa2 7ebf 92e2 b1bf 33eb 633e

fc5.bias f4 [15]
-0.82669836 -0.21085592 -1.0027467 1.328778 -2.641173 -1.7523879 -4.3983135 -5.3332033
0.63547 0.46964994 -0.57335746 0.70004696 0.07016843 -1.23041 -0.94250494
00000000: 81a2 53bf 9dea 57be 015a 80bf 6615 aa3f
00000010: fa08 29c0 3f4e e0bf fcbe 8cc0 9aa9 aac0
00000020: 29ae 223f f575 f03e 8ec7 12bf 4736 333f
00000030: 77b4 8f3d 137e 9dbf 0148 71bf
