DNN/models/sixth_iteration.pth (torch, 229928 bytes, 10 tensors)

fc1.weight f4 [256, 49]
0	0xbf38bb14	-0.7216046
1	0xbd4c5336	-0.049884044
2	0xbe4ede32	-0.20201948
3	0x3f541e67	0.8285889
4	0xbf582bf8	-0.8444209
5	0x3ed648d5	0.4185244
6	0xbe05e6f6	-0.13076386
7	0x3ec1b29a	0.37831575
8	0xbe3d6522	-0.1849561
9	0x3e9d0000	0.30664062
10	0x3d35ce47	0.044386175
11	0xbdcd57e0	-0.100265265
12	0xbe744777	-0.23855387
13	0x3f3fe887	0.74964184
14	0xbe500dc3	-0.2031775
15	0x3e98cc38	0.29843307
16	0x3f141667	0.57846683
17	0x3e5d5811	0.21615626
18	0xbd3e8e28	-0.04652229
19	0x3ef64ac9	0.48103932
20	0x3dbab520	0.09116578
21	0x3ee10d25	0.4395534
22	0xbf3be7d7	-0.73400635
23	0x3f66396e	0.8993138
24	0xbf333759	-0.7000633
25	0xbee745d0	-0.4517045
26	0xbdce47d9	-0.100722976
27	0xbe6bd951	-0.23032118
28	0x3ede665a	0.43437463
29	0x3e963551	0.29337552
30	0xbd281d1b	-0.041043382
31	0x3e97fe7b	0.2968634
32	0xbcb54578	-0.022127852
33	0xbe29fe46	-0.16600904
34	0xbf096663	-0.53671855
35	0xbdcd7faf	-0.10034119
36	0xbd817c96	-0.06322591
37	0x3dab2ce4	0.083581716
38	0xbe2a102f	-0.16607736
39	0x3e3ed5d3	0.18636255
40	0xbe9d4d84	-0.30723202
41	0xbe83917e	-0.2569694
42	0x3e01923a	0.12653437
43	0x3da28b2f	0.079367034
44	0xbf1e6e8f	-0.6188745
45	0xbe410b5a	-0.18851987
46	0x3dd245cf	0.10267221
47	0x3f02ee00	0.5114441
48	0xbe902742	-0.2815495
49	0xbf696602	-0.91171277
50	0xbed99fd4	-0.42504752
51	0xbf84dd22	-1.0379984
52	0xbeab3fa6	-0.33446997
53	0x3f20c16e	0.6279515
54	0x3f9d487a	1.2287743
55	0xbe58a4e8	-0.21156657
56	0x3e21cf91	0.15801837
57	0x3d5a47f0	0.05329126
58	0x3d2c6145	0.04208495
59	0xbf04742c	-0.51739764
60	0xbdb47dda	-0.08813067
61	0xbe75e99f	-0.240149
62	0x3f23d326	0.6399406
63	0x3e96b181	0.294323
64	0x3f48a28b	0.7837302
65	0x3e386615	0.18007691
66	0x3d57522d	0.052568603
67	0xbd92cff2	-0.07168569
68	0xbede84c2	-0.4346066
69	0xbe894633	-0.2681137
70	0x3eb28290	0.34865236
71	0xbd4f296a	-0.050576605
72	0x3d43f2b2	0.047838874
73	0x3d9e4c64	0.07729414
74	0xbe1df158	-0.15424097
75	0x3d27efb5	0.041000087
76	0x3ea6a790	0.32549715
77	0x3eacdbad	0.3376135
78	0xbe81ac83	-0.25326928
79	0xbe6ddacc	-0.23227996
80	0x3ed63759	0.41839102
81	0x3de02078	0.10943693
82	0x3dcad909	0.099046774
83	0xbf2c3dbb	-0.67281693
84	0x3e04c1eb	0.12964599
85	0xbdc79425	-0.09745053
86	0x3d5320bb	0.051544886
87	0x3e51467f	0.20437048
88	0xbea13604	-0.31486523
89	0xbcc88ccf	-0.024481205
90	0x3dded692	0.1088077
91	0x3e1bd23b	0.15216915
92	0x3dbe6bae	0.09297882
93	0xbf017b32	-0.50578606
94	0xbd5d9f8c	-0.054107234
95	0x3d76c33d	0.060244787
96	0xbc0b1f20	-0.0084913075
97	0x3ea5a3cd	0.32351533
98	0xbee4ed20	-0.44712162
99	0xbd6a895d	-0.057259906
100	0xbee5d84e	-0.4489159
101	0x3dbc8537	0.09205096
102	0xbea4eb00	-0.3221054
103	0x3e863834	0.26214755
104	0x3e39fdb0	0.1816318
105	0xbda5d1a5	-0.08096627
106	0x3e972fa5	0.29528537
107	0xbbe1c11d	-0.006889476
108	0xbe1f43fc	-0.15553278
109	0x3e9814fc	0.2970351
110	0x3e1986fc	0.14992899
111	0x3df9cd56	0.12197368
112	0x3dde3f19	0.10851879
113	0x3d50bd91	0.050962035
114	0xbd9d1dac	-0.07671675
115	0x3ef39838	0.4757707
116	0xbddfc92c	-0.10927042
117	0xbd7fdb19	-0.062464807
118	0xbee080e4	-0.43848336
119	0xbe21da6c	-0.15805978
120	0x3bf06d15	0.0073372223
121	0x3df445ec	0.11927399
122	0xbe3182f3	-0.1733511
123	0xbe346164	-0.17615277
124	0xbe331f8e	-0.17492506
125	0x3e755758	0.239591
126	0x3e64ab7e	0.22331044
127	0xbc9e858e	-0.019350793
128	0x3d92e1fc	0.07172009
129	0x3e6ca1f1	0.2310865
130	0x3dd48b9e	0.10378192
131	0x3d39ae5e	0.045332305
132	0xbdf228a8	-0.11824161
133	0x3ef40dd3	0.47666797
134	0x3e5fb762	0.21847299
135	0x3d41b54b	0.047292035
136	0xbe8517e9	-0.25994805
137	0xbe22bc7a	-0.1589221
138	0xbe6cb8cb	-0.23117368
139	0x3d0f91e9	0.03505126
140	0xbe29b491	-0.16572787
141	0xbe409dbd	-0.18810172
142	0xbec658b7	-0.3873956
143	0xbde8d62d	-0.11368976
144	0x3d586719	0.052832697
145	0x3d593aaf	0.05303448
146	0xbeace7c9	-0.33770588
147	0xbfa747b8	-1.3068762
148	0x3d777cf7	0.06042191
149	0xbee25dd2	-0.44212204
150	0x3eab536f	0.33462092
151	0xbef964e4	-0.48709786
152	0x3dd00767	0.10157662
153	0xbf7b2654	-0.9810536
154	0x3e937cd9	0.2880619
155	0x3ca6228a	0.020280141
156	0xbc792b99	-0.015208148
157	0x3e1f83ed	0.1557767
158	0xbceffda1	-0.029295744
159	0xbd284095	-0.041077215
160	0xbe5c7c5a	-0.21531811
161	0x3e962438	0.29324508
162	0x3e2502e9	0.16114391
163	0xbde73702	-0.11289789
164	0x3eba3238	0.3636644
165	0x3eb9f2a5	0.36317936
166	0xbf1d1940	-0.61366653
167	0xbf20f8d2	-0.6287967
168	0x3eceedd9	0.40415838
169	0xbe70c42a	-0.2351233
170	0x3e8c08e6	0.2735054
171	0xbf3a1069	-0.7268129
172	0xbe96f7ff	-0.2948608
173	0xbea50499	-0.3223007
174	0x3ea3a133	0.31958923
175	0xbd48be77	-0.049009766
176	0xbe5f30b3	-0.21795921
177	0xbed24ea0	-0.4107561
178	0x3e797b7e	0.24363515
179	0x3ee03543	0.43790635
180	0xbe4afe0d	-0.19823475
181	0xbf16af68	-0.588614
182	0x3e92a70a	0.28643066
183	0xbee7c513	-0.45267543
184	0xbe1104f7	-0.1416205
185	0x3f1e0dfa	0.61740077
186	0xbefa3514	-0.4886862
187	0x3d860f8f	0.06545936
188	0x3d1bbc52	0.038021393
189	0xbdf2638d	-0.11835394
190	0xbde8aa85	-0.11360649
191	0xbf786737	-0.97032493
192	0x3e82afe2	0.25524813
193	0x3e49f78f	0.19723342
194	0xbe95739e	-0.2918977
195	0xbea101f7	-0.31446812
196	0xbefd7154	-0.49500525
197	0xbd66ddd1	-0.056363884
198	0x3c9e0f75	0.01929448
199	0xbf3fc5d6	-0.7491125
200	0x3f3dcacc	0.7413757
201	0xbdf8cb2c	-0.12148127
202	0xbc3d8f04	-0.011569742
203	0xbe6baf20	-0.23016024
204	0xbd82ccf1	-0.06386746
205	0x3e3fd2a3	0.18732695
206	0xbd91a80e	-0.07112132
207	0xbe599f4a	-0.2125217
208	0xbe1e605b	-0.15466444
209	0xbea30355	-0.3183848
210	0x3e9578a7	0.29193613
211	0x3eedf794	0.4647795
212	0x3e18920a	0.1489946
213	0xbe6be612	-0.23036984
214	0x3e96b26d	0.29433003
215	0x3e20a51c	0.15687984
216	0x3e29a073	0.16565113
217	0xbddde047	-0.10833793
218	0xbf57ecc9	-0.8434568
219	0x3f1e4a07	0.61831707
220	0xbe59cf33	-0.21270446
221	0xbe1b89b1	-0.15189244
222	0xbe1ccfbc	-0.1531362
223	0x3e48f74d	0.19625588
224	0x3e85d961	0.2614241
225	0xbe20abc6	-0.15690526
226	0x3dd98d61	0.10622669
227	0x3e796ca6	0.24357852
228	0xbdf38935	-0.118914045
229	0xbc1d0084	-0.0095826425
230	0xbe88f960	-0.26752758
231	0x3e61d8aa	0.22055307
232	0x3ecaba50	0.3959527
233	0x3d47f4f2	0.048817582
234	0xbd6e6200	-0.05819893
235	0xba4df220	-0.0007856209
236	0xbef1fcd7	-0.47263214
237	0x3d97aade	0.07405637
238	0x3e1ec8ff	0.15506361
239	0xbe196127	-0.14978467
240	0xbe3e251d	-0.18568845
241	0xbea46a7b	-0.32112488
242	0xbcda04f6	-0.026613694
243	0x3f383509	0.71955925
244	0xbe87b9bd	-0.26508895
245	0xbe9ed852	-0.31024414
246	0x3f295254	0.6614125
247	0x3f180644	0.5938456
248	0x3f624f6f	0.88402456
249	0xbe82fb5a	-0.2558239
250	0x3f099478	0.5374217
251	0x3e529c08	0.20567334
252	0x3cc9d986	0.024639856
253	0xbbc63a1d	-0.006049408
254	0x3e2ffa7c	0.17185396
255	0x3e407a28	0.18796599

fc1.bias f4 [256]
0	0xbeeee5ff	-0.46659848
1	0xbdd75634	-0.10514489
2	0xbfc7c268	-1.5606203
3	0xbcebaf44	-0.028770097
4	0xbde22d4f	-0.11043798
5	0xbfa26094	-1.2685723
6	0xbe1783c8	-0.14796364
7	0xbfe4fcb8	-1.7889624
8	0xbfe21db6	-1.7665317
9	0xbe8f8ccf	-0.28037116
10	0xbf918c0e	-1.1370866
11	0xbeb5e097	-0.3552291
12	0xbf04d5c2	-0.5188867
13	0xbf6f89e0	-0.93569756
14	0xbcf212a1	-0.029549899
15	0xbee5643f	-0.44803044
16	0xbf145737	-0.5794558
17	0xbe7613e7	-0.2403103
18	0x3c999142	0.018746022
19	0x3e08c4b8	0.13356292
20	0xbfc9aa17	-1.5755032
21	0xbf97e7c9	-1.186761
22	0x3f1b9dc4	0.60787606
23	0xbf0c5c97	-0.5482878
24	0xbf6467ff	-0.89221185
25	0xbf3a8f2e	-0.72874725
26	0xbf1858b7	-0.5951037
27	0xbe20c47f	-0.15699957
28	0xbf5234a9	-0.82111603
29	0xbf2ea6b1	-0.682231
30	0xbf376858	-0.7164359
31	0xbfaa0a7e	-1.3284452
32	0xbee2de28	-0.44310117
33	0xbf886a45	-1.0657431
34	0xbee8322f	-0.45350787
35	0x3b8298bf	0.003985494
36	0x3d06f924	0.032952443
37	0xbf94faa4	-1.163899
38	0xbf252a44	-0.6451762
39	0x3d6ac135	0.057313163
40	0xbfbcb9f2	-1.4744246
41	0xbf3ef2db	-0.7458932
42	0xbf77f4d3	-0.9685795
43	0xbe8ec786	-0.278866
44	0xbf23a3f2	-0.63922036
45	0xbe0ef0fe	-0.13959119
46	0xbe9c908e	-0.30579036
47	0x3f5b50bb	0.8567006
48	0xbf24f09a	-0.6442963
49	0xbfc923e5	-1.5714079
50	0xbf89c8ce	-1.0764406
51	0xbeac23dc	-0.3362111
52	0x3e219d1d	0.1578259
53	0xbda67d05	-0.08129314
54	0xbe6e9ada	-0.23301259
55	0x3f18cca0	0.5968723
56	0xbf149277	-0.5803599
57	0xbf0f9021	-0.560793
58	0xbf3c4974	-0.7354958
59	0x3d9c6e6e	0.0763825
60	0x3e24654e	0.1605427
61	0xbf0d124a	-0.5510603
62	0xbfb79c55	-1.4344584
63	0xbf016d53	-0.5055744
64	0x3f3fa1fe	0.74856555
65	0x3f293cd5	0.6610845
66	0x3ea3dfa7	0.3200657
67	0xbf7b7033	-0.9821808
68	0x3b5bad22	0.0033519943
69	0xbe9282ea	-0.28615505
70	0x3ebef75c	0.37298095
71	0xbd132f08	-0.035933524
72	0x3eaef4c5	0.3417112
73	0xbf2a8e47	-0.6662335
74	0xbf07db1d	-0.53068715
75	0xbf8fbda6	-1.1229751
76	0xbe1eaef2	-0.15496424
77	0xbd89cfbc	-0.06729075
78	0xbf247d9c	-0.64254165
79	0xbf2aabeb	-0.66668576
80	0xbe8f7bec	-0.28024232
81	0x3ebf65de	0.37382406
82	0xbc94903c	-0.018135183
83	0x3e8767d9	0.26446417
84	0xbe3209c7	-0.17386542
85	0xbea7da9e	-0.3278398
86	0xbf074f8d	-0.5285576
87	0xbe3f01af	-0.18652986
88	0xbdf24083	-0.11828711
89	0xbd7b0f74	-0.061294034
90	0xbed9af86	-0.42516726
91	0xbf88bc49	-1.068246
92	0xbe51c90b	-0.20486848
93	0xbf89f39e	-1.0777471
94	0xbd9df839	-0.0771336
95	0x3eda9718	0.426934
96	0xbf1833b2	-0.5945388
97	0xbea5d232	-0.3238693
98	0xbe70ed27	-0.23527966
99	0xbeda9d21	-0.42698005
100	0xbd535ef3	-0.051604223
101	0xbfba9ab3	-1.457846
102	0xbf1abe66	-0.60446775
103	0xbb58fe90	-0.0033110715
104	0x3ed33694	0.41252577
105	0xbfa0882e	-1.2541559
106	0x3f547018	0.8298354
107	0x3eb14904	0.3462602
108	0x3e333786	0.1750165
109	0xbf5a7242	-0.85330594
110	0xbf36158d	-0.71126634
111	0xbfbb170b	-1.4616407
112	0xbf3ffc6a	-0.7499453
113	0xbe02326e	-0.1271455
114	0x3efedf8c	0.49779928
115	0xbe8409e2	-0.2578879
116	0xbf1a2a45	-0.6022075
117	0xbed2c8d7	-0.41168854
118	0xbf39b29d	-0.7253817
119	0xbfb84bab	-1.4398092
120	0xbf7287a4	-0.9473822
121	0xbf496254	-0.7866566
122	0xbf58f6a4	-0.84751344
123	0xbf5238aa	-0.8211771
124	0xbe0af3bb	-0.13569538
125	0xbf01b7ca	-0.50671065
126	0xbf9c449e	-1.220844
127	0xbe04fa79	-0.12986173
128	0xbfa05c76	-1.2528217
129	0xbe6fc8a0	-0.23416376
130	0xbf2e20c7	-0.68018764
131	0x3dbecd92	0.09316553
132	0xbf867c3b	-1.0506662
133	0xbf857064	-1.0424924
134	0xbc8edc5a	-0.017439056
135	0xbf14aaca	-0.58073103
136	0xbf6c7d06	-0.9237827
137	0xbdb980a5	-0.0905774
138	0xbf89c719	-1.0763885
139	0xbfaae494	-1.3351007
140	0x3ee31d9c	0.44358528
141	0xbe9d48da	-0.30719644
142	0xbf8eea6d	-1.1165291
143	0xbedf6c53	-0.43637332
144	0xbf6e773c	-0.9315069
145	0x3e9ad9bb	0.3024424
146	0xbfa7abc7	-1.3099297
147	0xbfa4e756	-1.2883098
148	0x3f3780fe	0.716812
149	0xbfb81ac6	-1.4383171
150	0xbe2d182c	-0.16903752
151	0xbeb1fc73	-0.34762916
152	0xbf488cd4	-0.78339887
153	0xbf2f930e	-0.6858376
154	0xbf0cce22	-0.55002034
155	0x3dc98aca	0.09840925
156	0x3e86229f	0.2619829
157	0x3d9af062	0.07565381
158	0xbe6f1665	-0.23348387
159	0xbf91a9a7	-1.1379899
160	0xbfbb5d38	-1.4637823
161	0xbe96637f	-0.29372784
162	0xbf7b5c48	-0.98187685
163	0xbfb65d9e	-1.424732
164	0xbf9cffe7	-1.2265595
165	0xbf5c3a34	-0.8602631
166	0xbfd00cb8	-1.6253881
167	0xbf53de79	-0.8276134
168	0xbf5c6e1f	-0.8610553
169	0xbf84d89e	-1.0378606
170	0x3d80aec7	0.06283336
171	0xbf38b5e4	-0.72152543
172	0xbee322e3	-0.44362554
173	0xbfa0559f	-1.252613
174	0xbf8f9328	-1.1216784
175	0xbf4b2674	-0.7935555
176	0xbf6d5a89	-0.9271627
177	0xbe535c80	-0.20640755
178	0xbf984220	-1.189518
179	0xbf150f41	-0.582264
180	0x3da0dbac	0.07854399
181	0x3d757028	0.059921414
182	0xbf9b3f96	-1.212878
183	0xbd2bec10	-0.041973174
184	0xbf18747d	-0.59552747
185	0xbed5e1bf	-0.41773793
186	0xbfec11a4	-1.8442883
187	0xbe8995fb	-0.2687224
188	0xbf81005a	-1.0078232
189	0x3eb75fa3	0.35815153
190	0xbf8730a9	-1.0561725
191	0xbf20d180	-0.6281967
192	0xbed1bbd6	-0.4096362
193	0xbd111692	-0.035421915
194	0xbf3e3e9d	-0.7431429
195	0xbf184e6f	-0.5949468
196	0x3e49b815	0.19699128
197	0xbf543478	-0.8289256
198	0xbea6cdcb	-0.32578883
199	0xbf838b90	-1.0276966
200	0xbe9659f7	-0.29365513
201	0xbe748f53	-0.23882799
202	0xbfc68aad	-1.551107
203	0xbf003eca	-0.5009581
204	0xbeef189c	-0.46698463
205	0xbf930370	-1.1485424
206	0xbeb039e8	-0.3441918
207	0xbedb1729	-0.42791107
208	0xbebcaef4	-0.3685223
209	0xbfaa4932	-1.3303587
210	0xbed5ddce	-0.41770786
211	0xbf34d7eb	-0.70641965
212	0x3f3cd207	0.73757976
213	0x3f119b54	0.56877637
214	0xbe8cfe02	-0.27537543
215	0xbf87909f	-1.059101
216	0xbdab2c05	-0.083580054
217	0xbb3e3be0	-0.0029027387
218	0xbf1d1d3e	-0.61372745
219	0x3edaeaa1	0.42757133
220	0x3f0cb402	0.5496217
221	0xbf75511f	-0.95826906
222	0xbf58aea4	-0.8464148
223	0xbdc9dc1f	-0.09856438
224	0xbf47eaca	-0.78092635
225	0xbea9cd49	-0.33164433
226	0xbf985c9c	-1.1903262
227	0xbf0e7e40	-0.5566139
228	0xbf8f66e9	-1.1203281
229	0xbedeef56	-0.43541974
230	0xbf424517	-0.7588667
231	0xbf086b11	-0.5328837
232	0xbec48874	-0.38385355
233	0xbdb9083b	-0.09034773
234	0xbfaf79e9	-1.3709079
235	0x3f1bfcdb	0.609327
236	0xbe20b738	-0.15694892
237	0x3eabe6a6	0.33574408
238	0xbf27d6d4	-0.65562177
239	0xbf41ae79	-0.7565685
240	0xbedf53f6	-0.43618745
241	0xbf10c033	-0.5654327
242	0xbecb1132	-0.39661556
243	0xbf195066	-0.59888303
244	0xbe3d7c5d	-0.18504472
245	0xbe806ecf	-0.2508454
246	0xbea4f3aa	-0.3221715
247	0xbec8b531	-0.39200738
248	0xbd4f8ddd	-0.0506724
249	0xbf592fcb	-0.8483855
250	0xbfc96054	-1.5732522
251	0xbf8b8efd	-1.0903012
252	0x3df18a71	0.11793984
253	0xbf0557e9	-0.52087265
254	0xbd194226	-0.0374166
255	0xbe10ab9f	-0.14127968

fc2.weight f4 [128, 256]
0	0x3f3550b9	0.708263
1	0xbe42bc1a	-0.19017068
2	0x3e5d6654	0.21621066
3	0xbd80889b	-0.062760554
4	0x3e83e295	0.25758806
5	0xbea4d793	-0.3219572
6	0x3dfcc6ed	0.123426296
7	0x3dda16f4	0.10648909
8	0xbd20de03	-0.039274227
9	0x3d5a59b0	0.05330819
10	0xbd852528	-0.065012276
11	0x3e33c729	0.17556442
12	0x3dd84029	0.105591126
13	0x3ef7bd4a	0.48386604
14	0xbe950d9b	-0.29111943
15	0xbecdb572	-0.40177494
16	0xbda2f0e0	-0.079560995
17	0xbe3d6c33	-0.18498306
18	0x3e0fee07	0.14055644
19	0x3eaac6fd	0.3335494
20	0x3e7496e8	0.23885691
21	0xbc96db86	-0.018415224
22	0x3e5b5e2a	0.2142264
23	0x3d592e2d	0.053022552
24	0xbd093e2f	-0.03350657
25	0xbee72d90	-0.4515195
26	0xbea01dba	-0.3127268
27	0xbd755100	-0.0598917
28	0x3e9daadc	0.30794418
29	0x3e3fbdb9	0.18724717
30	0x3e03d66c	0.12874764
31	0xbeae7906	-0.3407671
32	0x3ea46d18	0.32114482
33	0x3e5677a7	0.20944081
34	0xbe4e8f44	-0.20171839
35	0xbd621fe6	-0.055206202
36	0x3de1f9c1	0.11033965
37	0xbe2293a6	-0.15876636
38	0x3e280603	0.16408543
39	0x3d377632	0.044790454
40	0xbed4e309	-0.41579464
41	0xbea0edf7	-0.31431553
42	0xbe0599eb	-0.13046996
43	0xbceb14f9	-0.028696524
44	0x3d870ea5	0.0659459
45	0xbe8af885	-0.2714273
46	0x3ed58a2c	0.4170698
47	0x3d5ba748	0.05362633
48	0x3e65d6e1	0.22445251
49	0x3d8a8164	0.067629606
50	0xbe329db5	-0.17442973
51	0x3e8d5fa9	0.27612045
52	0xbec5a027	-0.3859875
53	0x3e113165	0.14178999
54	0xbd9d4778	-0.07679647
55	0xbe8fb904	-0.28070843
56	0x3d07cfc0	0.03315711
57	0xbeffcd82	-0.49961478
58	0x3e5fa0fc	0.21838754
59	0xbd50506a	-0.05085794
60	0x3efdb762	0.49553972
61	0xbe15d76b	-0.14632957
62	0xbe1d5fe0	-0.15368605
63	0xbf0398d8	-0.51405096
64	0xbdd97eb3	-0.10619869
65	0x3e8c8b38	0.27449965
66	0xbde99137	-0.11404651
67	0xbe33aad7	-0.17545639
68	0xbf53b108	-0.82692003
69	0x3e378e76	0.17925438
70	0xbe2b7c6a	-0.16746679
71	0xbd33fb97	-0.043941107
72	0xbeef1ef5	-0.46703306
73	0xbeb6a895	-0.35675493
74	0xbe606e27	-0.2191702
75	0x3d33e183	0.043916237
76	0x3eb815d7	0.35954162
77	0xbd7cb0b8	-0.06169197
78	0xbe826c18	-0.25473094
79	0x3d27fb8d	0.041011382
80	0x3ece2e0a	0.402695
81	0x3cf38671	0.029727193
82	0xbe6514fa	-0.22371283
83	0xbe2ba822	-0.16763356
84	0xbe271299	-0.16315688
85	0x3cbef512	0.023310218
86	0xbeb14047	-0.34619352
87	0xbe052409	-0.13002028
88	0x3e6b71c0	0.22992611
89	0xbe721b10	-0.23643136
90	0x3de29f4f	0.11065542
91	0xbe57ef1c	-0.21087307
92	0xbe1baa87	-0.1520177
93	0xbe04db43	-0.12974267
94	0x3c733073	0.014843094
95	0xbe9c1bdc	-0.30490005
96	0x3e26180f	0.16220115
97	0x3db2164b	0.08695658
98	0xbf134cb3	-0.5753891
99	0xbf16ee1a	-0.58957064
100	0xbda3e753	-0.08003106
101	0x3e8f47e3	0.27984533
102	0xbe992ce1	-0.29917052
103	0x3e1120df	0.14172696
104	0xbec02482	-0.37527853
105	0xbca6ed94	-0.020376958
106	0xbd9eee6e	-0.077603206
107	0xbe9c7463	-0.30557546
108	0xbc9c5061	-0.019081296
109	0xbdbcc6af	-0.092175834
110	0xbeca2785	-0.39483276
111	0x3e5d030d	0.21583195
112	0x3e76460c	0.24050158
113	0x3e0e1725	0.13876016
114	0xbe45e9c2	-0.19327453
115	0xbf103244	-0.563267
116	0xbe836df6	-0.2566983
117	0xbed797a7	-0.4210789
118	0xbec78ef7	-0.3897626
119	0xbe0f223e	-0.13977906
120	0xbe2331a2	-0.15936902
121	0x3cabb97c	0.02096247
122	0x3dc7a2f5	0.097478785
123	0x3da9f20a	0.082981184
124	0xbd86de9b	-0.065854274
125	0x3ebb1fc8	0.36547685
126	0xbee81ecf	-0.45336005
127	0x3d2fa62d	0.042883087
128	0xbdb8f71f	-0.090315096
129	0x3dc05937	0.093920164
130	0xbf05a08e	-0.5219811
131	0x3db09c20	0.086235285
132	0xbcfdd760	-0.030986488
133	0x3ea8fe3e	0.3300647
134	0x3d5c49a0	0.05378115
135	0xbd218bf5	-0.039440114
136	0x3e51371d	0.2043118
137	0x3e87d55a	0.26529962
138	0xbeb701a2	-0.35743433
139	0xbe10740e	-0.14106771
140	0xbe069490	-0.1314261
141	0xbe153cf5	-0.14574035
142	0xbe4ddb74	-0.20103246
143	0x3d09bc45	0.033626813
144	0x3939314f	0.00017661344
145	0xbefa44cb	-0.4888061
146	0xbde81bc3	-0.1133342
147	0xbdd7a08a	-0.10528667
148	0x3dec0656	0.11524646
149	0x3c493f04	0.0122830905
150	0x3f169cd1	0.5883303
151	0xbe9f46e9	-0.31108788
152	0xbf0ccf3a	-0.550037
153	0xbd4c8159	-0.049928043
154	0xbc8f5b38	-0.017499551
155	0x3d34cb89	0.04413942
156	0xbe2ed24d	-0.17072411
157	0xbc5fa3ce	-0.013649894
158	0xbdf095d1	-0.11747325
159	0x3f09475b	0.53624505
160	0x3f1eae1a	0.6198441
161	0xbeca0578	-0.39457297
162	0x3dfc7ee3	0.12328889
163	0x3e8f3e10	0.27977037
164	0x3e5cb209	0.2155229
165	0xbc1bf302	-0.009518387
166	0xbd80bf00	-0.0628643
167	0xbf2c54f8	-0.6731715
168	0xbeecad4c	-0.46225965
169	0xbf0bc8b8	-0.5460315
170	0x3f052564	0.5201018
171	0xbd0b599d	-0.03402101
172	0xbe162358	-0.1466192
173	0x3db2f683	0.08738425
174	0x3ec3dc65	0.38254085
175	0xbbc36592	-0.005963036
176	0x3e0b066d	0.1357667
177	0xbe5e9165	-0.21735151
178	0x3e8c078d	0.2734951
179	0x3ed427d4	0.41436636
180	0xbe1fed25	-0.15617807
181	0x3e28ae16	0.16472659
182	0x3ebcd250	0.36879206
183	0xb944d6f4	-0.00018772093
184	0xbedd7131	-0.4325042
185	0xbf18c572	-0.5967628
186	0x3f2c962e	0.67416656
187	0xbd38a978	-0.045083493
188	0x3d48083d	0.04883598
189	0x3f11eca1	0.5700169
190	0xbe4ac55a	-0.19801846
191	0xbdc3ea68	-0.09566194
192	0x3c331626	0.010930574
193	0xbe1bcf76	-0.15215859
194	0x3cfdad0d	0.030966306
195	0xbe43b977	-0.19113718
196	0x3db3b1ff	0.087741844
197	0x3e06fbe4	0.13182026
198	0x3d007647	0.031362798
199	0xbe91b0a8	-0.2845509
200	0xbe819a0f	-0.2531285
201	0xbeb910e7	-0.36145708
202	0xbe6f99ae	-0.23398468
203	0xbeca97c4	-0.39568913
204	0x3efd1474	0.49429667
205	0xbc1c07a9	-0.009523311
206	0x3d54c714	0.05194767
207	0xbcfd681a	-0.030933429
208	0x3e30a05d	0.17248674
209	0xbdd78466	-0.105233
210	0xbe25e563	-0.16200785
211	0xbecf70b4	-0.40515673
212	0xbdc63ccf	-0.09679567
213	0xbe8fc1cc	-0.28077543
214	0x3e5767f9	0.21035756
215	0xbeebef62	-0.46081072
216	0xbd95cc56	-0.073143646
217	0xbe4f28c3	-0.20230393
218	0xbde86a50	-0.113484025
219	0xbeadc85e	-0.3394193
220	0x3ec37967	0.3817856
221	0xbdbbe499	-0.09174461
222	0xbd711b6e	-0.05886405
223	0x3e3ae058	0.18249643
224	0x3e84cf0d	0.25939217
225	0xbe326e3e	-0.17424867
226	0xbc7ff605	-0.0156226205
227	0xbe5dec49	-0.21672167
228	0x3ed19352	0.4093271
229	0xbe0d2e76	-0.13787255
230	0x3e658caa	0.2241694
231	0xbebbcaec	-0.36678255
232	0xbe99a09b	-0.30005345
233	0x3d6377e8	0.055534273
234	0xbe8d2e7a	-0.2757452
235	0xbeb7e660	-0.3591795
236	0xbeac3290	-0.33632326
237	0x3e208324	0.15675026
238	0xbe81e600	-0.2537079
239	0xbe3ba3d2	-0.18324211
240	0xbe5a7c08	-0.21336377
241	0xbeaedf08	-0.34154534
242	0x3e2cbdac	0.16869229
243	0xbd9f6521	-0.07782961
244	0x3e6c37ab	0.2306811
245	0xbe9ca4bb	-0.3059443
246	0x3e22d248	0.15900528
247	0xbe45c889	-0.1931478
248	0x3e1d4e1c	0.15361828
249	0x3bb717a6	0.005587536
250	0xbe4540ca	-0.19262996
251	0xbf0b6886	-0.54456365
252	0xbefd454f	-0.4946694
253	0xbcd4a007	-0.025955213
254	0xbdeedf95	-0.11663739
255	0x3dad5a3b	0.08464476

fc2.bias f4 [128]
0	0xbffc7aaa	-1.9724934
1	0xbec51f7c	-0.38500583
2	0xbea0fd37	-0.31443188
3	0x3c753b5f	0.014967768
4	0xbf825ea6	-1.0185134
5	0xbf8392a6	-1.0279129
6	0x3ea64651	0.32475522
7	0xbc95b062	-0.018272582
8	0xbdb57854	-0.088608414
9	0xbe1b2f90	-0.15154862
10	0xbee71184	-0.4513055
11	0xbaebcffa	-0.0017991059
12	0x3d91d0e7	0.07119923
13	0x3da9ca41	0.0829053
14	0xbb5f1923	-0.0034042082
15	0xbf543b1d	-0.829027
16	0xbf573c1a	-0.8407608
17	0x3de11cfa	0.10991855
18	0x3e85e826	0.26153678
19	0xbfa99c8f	-1.3250903
20	0xbfb55f17	-1.4169644
21	0xbf70012d	-0.93751794
22	0xbe9e314e	-0.30896991
23	0x3d758a8c	0.05994658
24	0x3dee600a	0.11639412
25	0xbf8865a2	-1.0656016
26	0x3e2db10d	0.16962071
27	0xbf4050c5	-0.75123245
28	0x3e56a0a5	0.20959719
29	0xbfae6d3a	-1.3627083
30	0xbc494d0b	-0.012286435
31	0xbf9a3ddb	-1.2050127
32	0xbf6bc289	-0.9209371
33	0x3e9656cf	0.29363105
34	0xbf649a8a	-0.8929831
35	0xbf0edd25	-0.5580619
36	0xbe8e5cae	-0.27805084
37	0xbd6cb155	-0.057786305
38	0x3f01fb22	0.50773823
39	0xbf14cbe9	-0.5812364
40	0xbd826ac1	-0.06368018
41	0xbfaab466	-1.3336303
42	0x3e80b9af	0.25141665
43	0x3e4a1309	0.19733824
44	0xbee1d0a3	-0.4410449
45	0xbf5ad072	-0.8547431
46	0xbbea4f37	-0.0071505564
47	0xbe866f9e	-0.26257032
48	0x3ea5ba34	0.32368624
49	0x3eb221a8	0.34791303
50	0xbbec9f45	-0.007221135
51	0xbee2dc0f	-0.44308516
52	0xbe230b89	-0.15922369
53	0xbe806706	-0.250786
54	0xbe110219	-0.14160956
55	0xbf4413b8	-0.7659259
56	0xbf78d273	-0.9719612
57	0x3e833542	0.2562657
58	0xbe6f7ba4	-0.23387009
59	0xbe16364a	-0.14669147
60	0xbdfd0aa4	-0.12355545
61	0xbed7bfcd	-0.4213852
62	0xbfb16823	-1.3859905
63	0xbef0c714	-0.47026885
64	0x3d022964	0.031777754
65	0xbe843cc3	-0.25827608
66	0xbf8d9b88	-1.1063089
67	0x3ea717f1	0.32635453
68	0xbf58ee24	-0.84738374
69	0xbd0a6121	-0.033784036
70	0xbe8937fc	-0.26800525
71	0xbf9852db	-1.1900285
72	0x3ce7f2ba	0.028313983
73	0xbf523e6a	-0.82126486
74	0x3eaef875	0.34173933
75	0x3d20f20d	0.039293338
76	0xbf458cd7	-0.7716803
77	0xbe1272c7	-0.14301597
78	0xbe1bed56	-0.15227255
79	0xbe253a5c	-0.16135544
80	0x3e317523	0.1732984
81	0xbf1bb6a8	-0.60825586
82	0xbf24fd6e	-0.64449203
83	0xbf067f78	-0.5253825
84	0xbf65770e	-0.8963479
85	0x36b78380	5.4691336e-06
86	0xbe7cf84a	-0.2470409
87	0xbc5926ee	-0.0132539105
88	0x3e6104b0	0.21974444
89	0x3e4707d2	0.19436577
90	0xbe92f051	-0.28698972
91	0xbed1dde8	-0.40989614
92	0x3de3932a	0.11112054
93	0xbce26b7d	-0.027639145
94	0x3e455342	0.19270042
95	0xbef9f673	-0.48820838
96	0xbef9d841	-0.487978
97	0xbec3c131	-0.3823333
98	0x3deed37d	0.11661432
99	0xbd5f78a5	-0.054558415
100	0xbe156c5c	-0.14592117
101	0xbf4b4182	-0.7939683
102	0x3e59c871	0.21267869
103	0xbeb3a335	-0.35085455
104	0x3bf7010d	0.007537967
105	0xbd468682	-0.04846812
106	0x3e936f27	0.2879574
107	0x3ec76b76	0.38949174
108	0x3dd85ab3	0.105641745
109	0xbeb723e6	-0.35769576
110	0x3e3ff8a8	0.18747199
111	0xbe5b1588	-0.21394932
112	0xbe8ca337	-0.27468273
113	0xbfc20720	-1.5158424
114	0xbcfc9ba5	-0.030835936
115	0xbf90933a	-1.129493
116	0x3c2c6422	0.01052192
117	0xbcc55e79	-0.0240929
118	0xbf038dd3	-0.5138828
119	0xbed42c65	-0.4144012
120	0x3eb24c4e	0.3482384
121	0xbf0bbb5a	-0.5458275
122	0xbf7b6319	-0.98198086
123	0x3cd8b369	0.026452737
124	0xbed32bdc	-0.412444
125	0xbe881943	-0.26581773
126	0xbf368baa	-0.7130686
127	0xbe9abdf4	-0.30223048

fc3.weight f4 [64, 128]
0	0xbe0242ad	-0.12720747
1	0xbec44cf5	-0.38339964
2	0xbd0497dc	-0.032371387
3	0xbf214b1f	-0.6300525
4	0xbf0b6d34	-0.54463506
5	0xbec27846	-0.37982386
6	0xbf715772	-0.94274056
7	0xbf06ffbf	-0.5273399
8	0xbea8ec39	-0.32992724
9	0xbbee3b07	-0.00727022
10	0x3daa9ce7	0.08330708
11	0xbf1f7583	-0.62288684
12	0xbf21d282	-0.63211834
13	0x3de08d3a	0.10964437
14	0xbd2c98a2	-0.04213775
15	0x3ef8cf56	0.48595685
16	0x3f8aedc7	1.0853814
17	0xbecf248b	-0.40457568
18	0xbf4696f2	-0.77574074
19	0x3f2eb117	0.6823897
20	0x3e6b2b43	0.22965722
21	0x3d57b161	0.052659396
22	0x3f2dc616	0.6788038
23	0xbdcba2f6	-0.09943192
24	0x3dc6de54	0.097103745
25	0x3f1541a2	0.5830327
26	0x3f4c96a4	0.7991736
27	0x3cd4e366	0.025987338
28	0xbf406f8b	-0.751702
29	0xbef1d25d	-0.47230807
30	0x3d8bf146	0.06833129
31	0xbe52d95f	-0.20590733
32	0x3f218408	0.6309209
33	0xbf2dc0c9	-0.6787229
34	0x3e4dc7af	0.20095704
35	0x3e64bf32	0.2233856
36	0xbf0f0501	-0.5586701
37	0x3f428cf8	0.7599635
38	0xbeeb87ba	-0.4600199
39	0x3dbb585e	0.09147714
40	0xbf36b8dc	-0.71375823
41	0x3ef17321	0.4715815
42	0x3ef74662	0.48295885
43	0x3d8cb500	0.068704605
44	0x3ead8a64	0.33894646
45	0x3f6720a8	0.90284204
46	0x3eaacba5	0.33358493
47	0x3d12bcda	0.035824634
48	0xbf2eeabd	-0.6832693
49	0xbf644319	-0.8916488
50	0xbf6b9676	-0.9202646
51	0xbe164f6b	-0.14678733
52	0xbd9bb8af	-0.07603585
53	0xbc6d04ca	-0.014466474
54	0xbf4e9b4d	-0.8070572
55	0xbc8d107f	-0.01721978
56	0x3f63d301	0.8899384
57	0xbd5d76e0	-0.054068446
58	0xbe3624f7	-0.17787538
59	0x3ea2251b	0.31668934
60	0x3e8090b0	0.25110388
61	0xbf61a5da	-0.88143694
62	0xbe04503d	-0.12921233
63	0xbd678ebb	-0.056532603
64	0x3ebd25ac	0.36942804
65	0xbae953b7	-0.0017801438
66	0x3fc168bd	1.5110089
67	0x3b9d9274	0.0048087183
68	0xbf021107	-0.5080723
69	0xbd8d74fa	-0.06907077
70	0xbe95e4d8	-0.29276156
71	0x3f095f84	0.5366137
72	0x3deeb299	0.116551585
73	0xbf174f5e	-0.5910548
74	0xbecc2953	-0.39875278
75	0xbf0cb846	-0.5496868
76	0x3e95b067	0.29236147
77	0xbe910cf1	-0.28330186
78	0xbd98bdfe	-0.07458113
79	0xbea48c13	-0.32138118
80	0xbe9bd4a4	-0.3043567
81	0x3edc82b8	0.4306848
82	0x3f1ba9ca	0.6080595
83	0xbc367886	-0.011137133
84	0x3dc4ae71	0.096035846
85	0x3e81e422	0.25369364
86	0xbf46a306	-0.77592504
87	0xbcf3057e	-0.029665705
88	0x3e733b28	0.23753035
89	0x3e42be9d	0.19018026
90	0xbd362ae5	-0.0444745
91	0x3ee635aa	0.44962817
92	0x3ec73edb	0.38915142
93	0xbdd67f6c	-0.104735225
94	0xbeb0b817	-0.3451545
95	0xbd247498	-0.040150255
96	0x3ebcfaec	0.36910188
97	0xbe9f4068	-0.31103826
98	0x3e918b01	0.28426364
99	0x3d782b48	0.06058815
100	0x3d6cbfe6	0.057800196
101	0x3f2b0701	0.6680756
102	0xbf2df8dd	-0.6795786
103	0xbf20a4a5	-0.6275123
104	0xbe151ff0	-0.14562964
105	0x3e1297d4	0.1431573
106	0x3c328ad6	0.010897359
107	0xbdefecc1	-0.11715079
108	0xbf073d4e	-0.5282792
109	0x3e520551	0.2050984
110	0x3f1a42aa	0.6025797
111	0xbefc3de3	-0.49265966
112	0xbeee5078	-0.46545768
113	0x3f095a5a	0.5365349
114	0xbf042686	-0.5162128
115	0x3ed6e46e	0.41971153
116	0xbd96188b	-0.073289
117	0x3dd55759	0.10417051
118	0xbd7d4e59	-0.061842296
119	0xbef172b7	-0.47157833
120	0x3f08a7d9	0.53381115
121	0x3e42d1a6	0.19025287
122	0xbb0cc94b	-0.0021482285
123	0xbecfdf2b	-0.4059995
124	0x3d878d93	0.066188
125	0xbf350ad2	-0.70719635
126	0x3e7528e4	0.2394138
127	0x3f84b485	1.036759
128	0xbd292828	-0.04129806
129	0x3ee850ba	0.4537409
130	0xbe9b1e62	-0.30296618
131	0xbf8c81de	-1.0977132
132	0xbe907bdc	-0.28219497
133	0xbe86e599	-0.26347044
134	0xbe8b2da0	-0.27183247
135	0xbf17f288	-0.5935445
136	0xbe775da6	-0.24156818
137	0xbd74200c	-0.059600875
138	0xbd176d03	-0.036969196
139	0xbe249a9b	-0.16074602
140	0xbe8f6bac	-0.28011835
141	0x3d14b3fb	0.036304455
142	0xbd58066d	-0.052740503
143	0x3f5814c0	0.8440666
144	0x3f5dda48	0.86661196
145	0x3eeb9fcf	0.46020362
146	0xbeedb31a	-0.46425706
147	0x3e5ace8f	0.21367858
148	0x3eedb924	0.46430314
149	0x3f026e0f	0.50949186
150	0x3e158fd6	0.1460565
151	0xbeeaca19	-0.45857313
152	0xbb02b925	-0.001994678
153	0x3e81f8cf	0.25385138
154	0x3f257239	0.64627415
155	0xbea1ba97	-0.3158767
156	0xbf136c26	-0.57586896
157	0xbf56a3c9	-0.83843666
158	0xbe7e6d56	-0.24846396
159	0xbdc8d4cc	-0.09806213
160	0x3fb57668	1.417676
161	0xbeabcba0	-0.3355379
162	0x3eb35354	0.35024512
163	0xbec9d1a1	-0.39417747
164	0xbef9b590	-0.48771334
165	0x3e6983a8	0.22804129
166	0xbe87bd4c	-0.2651161
167	0x3ea0481d	0.31305018
168	0xbf8ff32f	-1.1246089
169	0x3e8fc35d	0.28078738
170	0x3f1ab034	0.60425115
171	0xbfc4ec08	-1.5384531
172	0xbbb6752c	-0.005568167
173	0x3f0aa194	0.541528
174	0x3e62e117	0.22156177
175	0xbe4cc933	-0.19998626
176	0xbf068215	-0.5254224
177	0x3da6102b	0.081085525
178	0xbd016a4f	-0.031595524
179	0xbe2174f0	-0.15767264
180	0xbdedcc97	-0.11611288
181	0xbf2d10bb	-0.67603654
182	0xbe2809d2	-0.16409996
183	0xbe3ba008	-0.18322766
184	0x3f1aa899	0.6041351
185	0xbf6bf445	-0.921696
186	0xbef46d8e	-0.47739834
187	0x3e89312b	0.26795325
188	0xbeccdff4	-0.40014613
189	0xbe9ce6d5	-0.3064486
190	0xbd939c60	-0.072075605
191	0xbe6f0971	-0.23343445
192	0x3e86a3b3	0.26296768
193	0xbf1a55b9	-0.6028705
194	0x3f9d8f4b	1.2309355
195	0xbf68f3d7	-0.9099707
196	0xbe1818c3	-0.14853196
197	0xbe63d86f	-0.22250532
198	0xbed1b169	-0.40955666
199	0x3d4fdb9e	0.050746553
200	0x3e033285	0.1281224
201	0xbe2cb991	-0.16867663
202	0xbed8b295	-0.42323747
203	0xbf179fda	-0.5922829
204	0x3ed73f0c	0.42040288
205	0x3e4880ba	0.19580355
206	0xbcfb479f	-0.0306738
207	0xbea3fb98	-0.32027888
208	0x3dca1cff	0.09868812
209	0x3e0eaadc	0.13932365
210	0x3e706634	0.23476487
211	0xbe5762f8	-0.21033847
212	0x3d10c1e2	0.03534115
213	0x3e123bd8	0.14280641
214	0xbede82fc	-0.43459308
215	0xbf97e72b	-1.1867422
216	0x3e30ba85	0.17258652
217	0xbfa707ae	-1.3049219
218	0xbf3b732e	-0.73222625
219	0x3f30b2ea	0.69023
220	0xbdb9c025	-0.09069852
221	0x3cff752f	0.031183807
222	0xbefbc132	-0.49170834
223	0xbe947ba9	-0.29000595
224	0xbf0320e1	-0.51222044
225	0xbe12497f	-0.14285849
226	0x3f1410ab	0.57837933
227	0x3c96d90e	0.018414047
228	0xbf3a8c08	-0.7286992
229	0xbe6a1643	-0.22860055
230	0xbea9d56b	-0.33170637
231	0xbef59476	-0.4796483
232	0xbf91f198	-1.1401854
233	0xbd96f24c	-0.07370433
234	0x3e50b79e	0.20382544
235	0xbe65e690	-0.22451234
236	0xbf9fe33e	-1.2491224
237	0x3e25259c	0.16127628
238	0x3f370a31	0.71499926
239	0xbe73d519	-0.23811759
240	0xbf1c9b29	-0.61174256
241	0xbecdc8c4	-0.40192235
242	0xbf8f91c5	-1.121636
243	0x3ee88142	0.45411116
244	0x3ddc95c4	0.10770753
245	0xbe079d44	-0.13243586
246	0xbf1cc1dc	-0.61233306
247	0xbe35e21a	-0.17762032
248	0x3e84a7e2	0.25909334
249	0xbdcb1490	-0.09916031
250	0xbccd098e	-0.02502897
251	0xbf8a3850	-1.0798435
252	0xbeb44636	-0.35209817
253	0xbef1fc3c	-0.47262752
254	0x3ee5b1ad	0.44862118
255	0x3f20ddb5	0.628383

fc3.bias f4 [64]
0	0xbd9ae85d	-0.07563851
1	0x3e3615b2	0.17781714
2	0x3ef2aa4f	0.4739556
3	0xbf382ff6	-0.7194818
4	0x3ecf9601	0.4054413
5	0x3db45529	0.088053055
6	0x3e9fb20e	0.31190532
7	0x3ef5a9cf	0.47981116
8	0xbe279493	-0.1636527
9	0x3e13120b	0.14362352
10	0xbcb8d8ce	-0.022564318
11	0xbe6b06af	-0.22951768
12	0xbeade85f	-0.33966348
13	0xbfae139d	-1.3599735
14	0xbe6b3007	-0.2296754
15	0x3cca10b9	0.024666177
16	0x3eccdf70	0.4001422
17	0xbf0ac4cc	-0.5420654
18	0xbf846ee1	-1.0346338
19	0xbe47821d	-0.19483228
20	0xbfc0876e	-1.504133
21	0x3d03c900	0.03217411
22	0xbe777613	-0.24166135
23	0x3ec224a0	0.37918568
24	0x3ea155b5	0.31510702
25	0x3df6ec56	0.12056796
26	0xbfe96cff	-1.8236388
27	0x3d728d42	0.059216745
28	0x3e3ae616	0.18251833
29	0x3e41a635	0.18911059
30	0xbeb907c9	-0.36138752
31	0x3e6c7865	0.23092802
32	0x3ec25ce4	0.37961495
33	0xbebafa34	-0.36519015
34	0x3e5b20ac	0.21399182
35	0x3f085ba8	0.53264856
36	0xbe8599a2	-0.26093775
37	0x3e0ee209	0.13953413
38	0x3f046d0c	0.5172889
39	0x3e8523e3	0.26003942
40	0x3e3e053e	0.18556687
41	0xbf8f7dfa	-1.121032
42	0xbf06c23a	-0.52640116
43	0x3e8e8f1c	0.2784356
44	0x3f07d74c	0.5306289
45	0x3e9e9647	0.30974028
46	0x3eab275e	0.33428472
47	0xbff1a50e	-1.8878496
48	0x3ee222e9	0.4416726
49	0x3e88a4ed	0.26688328
50	0x3e7a3f10	0.24438119
51	0x3ea844f7	0.32865116
52	0xbc860da0	-0.016363919
53	0x3e90e489	0.28299358
54	0xbf0301dd	-0.5117472
55	0x3c934268	0.017976
56	0x3ec090ad	0.3761038
57	0xbef9d535	-0.48795477
58	0x3dcc431f	0.0997374
59	0xbdb02609	-0.08601005
60	0x3f089138	0.53346586
61	0x3e3382d0	0.1753037
62	0x3e957341	0.29189494
63	0x3ed5762e	0.41691726

fc4.weight f4 [32, 64]
0	0xbe1690c5	-0.14703663
1	0x3dff1c6d	0.12456594
2	0xbfb102c9	-1.3828975
3	0x3cf4ad33	0.029867744
4	0xbeade4a9	-0.33963516
5	0x3d05698d	0.032571364
6	0x3d89d037	0.06729167
7	0xbf808cf3	-1.0043014
8	0xbd27b61b	-0.040945154
9	0x3e04666a	0.12929693
10	0x3e0053a8	0.12531912
11	0x3d859d36	0.06524126
12	0xbf17a6d7	-0.5923895
13	0x3d8f0c85	0.0698481
14	0x3e33f066	0.17572173
15	0x3ed52f78	0.41637778
16	0xbf1d9775	-0.6155923
17	0x3e99e7ce	0.30059665
18	0xbdb9e1c4	-0.090762645
19	0x3da8b926	0.08238439
20	0xbea082b1	-0.3134971
21	0x3e3b956d	0.1831872
22	0x3e231dd7	0.15929352
23	0xbeb90889	-0.36139324
24	0xbe6af839	-0.22946252
25	0xbd547149	-0.05186585
26	0x3dbf39ee	0.09337221
27	0x3d98d1c7	0.07461887
28	0xbfc2e0b5	-1.5224825
29	0xbf2001fc	-0.6250303
30	0x3e6d3246	0.23163709
31	0x3d623bcb	0.055232804
32	0xbdbaf529	-0.09128792
33	0xbebcff6e	-0.36913627
34	0x3e38042b	0.1797034
35	0x3eb8dd19	0.36106184
36	0xbd70c871	-0.058784906
37	0xbc440653	-0.011964398
38	0xbeb2a9ef	-0.34895274
39	0x3e9d1624	0.30680954
40	0xbedbe16a	-0.42945415
41	0xbebe7734	-0.3720032
42	0x3d902e4d	0.07040081
43	0x3e9f150c	0.31070745
44	0x3d56b56e	0.05241912
45	0xbfc8fccc	-1.5702147
46	0xbf2b826f	-0.669959
47	0x3e8530fc	0.26013935
48	0x3d8f5a02	0.069995895
49	0x3e0bcd8d	0.1365263
50	0xbec06d3e	-0.37583345
51	0xbecf609b	-0.40503392
52	0x3e5c15b3	0.21492653
53	0xbe573a20	-0.21018267
54	0xbd45fc49	-0.0483363
55	0x3d33fbf8	0.043941468
56	0x3daea187	0.08526903
57	0xbf4f4802	-0.8096925
58	0x3ee87084	0.45398343
59	0x3d0d755e	0.03453576
60	0x3b2e4045	0.00265886
61	0xbd66526b	-0.056230944
62	0xbebd926e	-0.3702578
63	0xbe2809ea	-0.16410032
64	0xbeb96508	-0.36209893
65	0xbe916378	-0.283962
66	0xbf51ed09	-0.8200231
67	0xbef43579	-0.47697046
68	0xbddd9603	-0.10819628
69	0x3e81da1f	0.25361726
70	0x3e63cdc4	0.22246462
71	0xbee2c606	-0.44291705
72	0x3ba5b8a6	0.005057412
73	0x3dc6d61b	0.09708806
74	0xbdbb584b	-0.091477
75	0x3d8269db	0.063678466
76	0xbda91052	-0.08255066
77	0xbee4efc5	-0.4471418
78	0xbd10da83	-0.03536464
79	0xbf1a15bc	-0.60189414
80	0xbeee68f9	-0.46564463
81	0xbe8db3d3	-0.27676257
82	0xbe663806	-0.22482309
83	0xbf8a7dc5	-1.0819632
84	0xbeae830d	-0.3408436
85	0x3ef4c588	0.47806954
86	0xbf34a436	-0.70563066
87	0x3cf0f378	0.02941297
88	0x3cb2bb4d	0.021817828
89	0x3e7e982e	0.2486274
90	0xbd65b616	-0.056081854
91	0x3e057fd5	0.13037045
92	0xbf8de1ed	-1.1084572
93	0x3cec08f4	0.028812863
94	0x3dc7b0fd	0.09750555
95	0xbea91683	-0.33024988
96	0xbdbd5e3e	-0.09246491
97	0xbd2a0e9b	-0.041517835
98	0x3dbc0569	0.091807194
99	0x3d6c738c	0.05772738
100	0xbee29407	-0.4425356
101	0xbe1e5164	-0.15460736
102	0x3d43be49	0.047788892
103	0x3d852479	0.06501097
104	0x3de6df17	0.1127302
105	0x3e3b8647	0.18312941
106	0xbe3d8010	-0.18505883
107	0x3e44cb69	0.1921822
108	0x3f0e217f	0.5551986
109	0xbfacd6a6	-1.3503006
110	0xbe7c961e	-0.2466664
111	0xbf0648a2	-0.5245458
112	0x3e92aa8e	0.28645748
113	0xbc8fb174	-0.017540671
114	0x3e081925	0.13290842
115	0x3db44786	0.088027045
116	0xbdbe5da2	-0.09295203
117	0xbe9f51a3	-0.3111697
118	0x3f396d15	0.7243207
119	0x3e019a94	0.12656623
120	0xbd8edd1d	-0.06975768
121	0xbd4bbe99	-0.049742315
122	0x3deb06ba	0.11475892
123	0x3e3daccc	0.18522948
124	0xbe86f37a	-0.26357633
125	0xbf0f08d8	-0.5587287
126	0x3e819746	0.25310725
127	0x3cdebeb0	0.027190536
128	0x3e9cc0d1	0.30615857
129	0x3f4f6afb	0.81022614
130	0xbc2733ed	-0.010205251
131	0x3da2c60c	0.07947931
132	0x3d3bfd54	0.04589589
133	0xbf21a162	-0.63136876
134	0xbdde4f76	-0.10855
135	0x3e2b3dd7	0.16722809
136	0xbe57f642	-0.21090034
137	0xbf55d425	-0.8352683
138	0x3d475998	0.048669428
139	0xbe49e0d2	-0.19714668
140	0xbd28daed	-0.04122441
141	0x3b8407fa	0.004029271
142	0xbf088395	-0.5332578
143	0x3ecb3680	0.39690018
144	0xbf95cc9b	-1.1703066
145	0xbd97e161	-0.074160345
146	0xbee6e127	-0.45093653
147	0xbd4ff424	-0.05076994
148	0x3d6d1f61	0.057891253
149	0xbe4fa984	-0.20279509
150	0x3de433b9	0.11142678
151	0xbda42f1f	-0.080168
152	0xbcbf21df	-0.02333158
153	0xbea88974	-0.32917368
154	0x3e5cacfc	0.21550363
155	0x3e092adf	0.1339526
156	0x3c035603	0.008016112
157	0x3dc233f1	0.09482563
158	0x3e2feb78	0.17179668
159	0x3da20c1f	0.07912468
160	0xbe82c948	-0.2554419
161	0xbdda07a6	-0.1064599
162	0xbe8f77c7	-0.2802107
163	0xbc26ef93	-0.010188955
164	0x3da7c31c	0.08191511
165	0xbc6e38eb	-0.0145399375
166	0x3da674fb	0.08127781
167	0x3e587405	0.21138008
168	0xbd7e5f08	-0.062102348
169	0xbd2c3728	-0.04204479
170	0xbcc0a64a	-0.023516793
171	0xbf0737a6	-0.5281929
172	0xbf07ccb9	-0.53046757
173	0xbd85143f	-0.06498002
174	0xbf3c81c3	-0.736355
175	0x3cc8e4b5	0.024523119
176	0xbd8b81a8	-0.06811839
177	0xbd90817c	-0.07055947
178	0xbe15c3c0	-0.14625454
179	0xbda42a7a	-0.08015914
180	0xbcbe301d	-0.023216302
181	0x3ccd9fa2	0.025100533
182	0xbdcedbcb	-0.10100516
183	0x3c0cf98d	0.008604419
184	0xbf7fe7a5	-0.99962837
185	0xbe0b7835	-0.13620074
186	0xbcfd900e	-0.03095248
187	0xbcdca6f2	-0.026935074
188	0x3e8dbf86	0.27685183
189	0xbb8025a5	-0.0039107376
190	0x3ba3773d	0.0049885795
191	0x3ce282a9	0.027650194
192	0xbd3d72b3	-0.046251964
193	0xbdba83af	-0.09107148
194	0x3dad7b7d	0.08470819
195	0xbcbe0c6f	-0.023199288
196	0xbc3bde8a	-0.011466632
197	0xbe018f53	-0.1265233
198	0xbe5c0073	-0.21484546
199	0x3d917453	0.07102265
200	0x3e376157	0.17908226
201	0xbda994ff	-0.08280372
202	0xbf5807b3	-0.8438675
203	0x3d01792d	0.031609703
204	0x3d9465a3	0.07245948
205	0x3c002a96	0.007822653
206	0xbe998c33	-0.29989776
207	0x3e96efbd	0.2947978
208	0x3e6790bc	0.22613806
209	0xbf0c71bc	-0.54861045
210	0xbe52b0dc	-0.20575279
211	0xbffaa3a5	-1.958119
212	0xbd5599fe	-0.05214881
213	0x3e37ef05	0.17962272
214	0x3d994c38	0.07485241
215	0xbb0bcdf4	-0.0021332474
216	0x3d91f2e7	0.07126408
217	0xbde58ac2	-0.112081066
218	0xbf3f3375	-0.7468789
219	0xbedbd94b	-0.4293922
220	0x3e44b6d1	0.19210364
221	0x3e7fa14e	0.24963877
222	0xbf5a4656	-0.85263574
223	0xbd4e3106	-0.05033972
224	0x3e2b95f7	0.16756426
225	0x3ca1f5a9	0.01977046
226	0x3d89f5c3	0.067363285
227	0x3d613d91	0.054990355
228	0x3e5ba834	0.21450883
229	0x3d7796b7	0.060446467
230	0x3d3164e1	0.043309096
231	0xbe71afbf	-0.23602198
232	0x3d979939	0.07402272
233	0x3daf732e	0.08566891
234	0xbf5e7820	-0.86902046
235	0xbe66277c	-0.22476
236	0xbe1ed1b3	-0.15509681
237	0x3ddd2c56	0.10799472
238	0x3f22b6e8	0.6356034
239	0xbce31da7	-0.0277241
240	0x3d76493f	0.060128447
241	0x3c7d2a81	0.015452028
242	0xbcbd834a	-0.023133893
243	0x3d62750e	0.055287413
244	0x3e4a6d41	0.1976824
245	0xbda7d360	-0.081946135
246	0xbe2b8e37	-0.1675347
247	0x3e09d742	0.1346102
248	0x3d346c91	0.04404885
249	0xbea1c237	-0.31593487
250	0xbf1bcf57	-0.6086325
251	0x3d1a004f	0.03759795
252	0x3d63c73b	0.055609923
253	0x3deb17f9	0.11479182
254	0xbd49cb43	-0.04926611
255	0xbc59876a	-0.013276914

fc4.bias f4 [32]
0	0x3d39271f	0.045203324
1	0x3e42d9e0	0.19028425
2	0x3ea49dea	0.3215173
3	0x3d23148d	0.03981452
4	0x3ddc55d4	0.10758558
5	0x3e418868	0.18899691
6	0xbf5349b8	-0.8253436
7	0xbdb2b917	-0.08726709
8	0x3e83804b	0.25683817
9	0x3e011562	0.12605813
10	0x3e4b9636	0.1988152
11	0x3d9d9d6d	0.07696042
12	0x3e19ee0a	0.15032211
13	0x3e08f863	0.13376002
14	0x3d8b99fd	0.0681648
15	0xbe6da4f0	-0.2320745
16	0x3ce80e53	0.028327143
17	0xbae46e29	-0.001742785
18	0x3ee13ed7	0.43993255
19	0xbed008aa	-0.4063161
20	0x3e3be623	0.18349509
21	0x3dd2b5e2	0.10288598
22	0x3e101416	0.14070162
23	0x3e77e50a	0.24208465
24	0x3df9d965	0.12199668
25	0x3e84b44b	0.25918803
26	0x3e513ef4	0.20434171
27	0x3dea4d62	0.11440541
28	0x3de712f2	0.112829104
29	0x3dc697fa	0.09696956
30	0x3d3a2697	0.04544696
31	0x3f0e35d4	0.55550885

fc5.weight f4 [15, 32]
0	0xbef57742	-0.4794255
1	0xbf973a81	-1.1814729
2	0xbf19246a	-0.5982119
3	0xbf2f59f5	-0.6849664
4	0xc0bde195	-5.933787
5	0xbf78bfd0	-0.9716768
6	0xbfe69f2b	-1.8017324
7	0xbe724665	-0.23659666
8	0xbeb6bad2	-0.35689408
9	0xbf0cd365	-0.5501006
10	0xbf430dae	-0.7619275
11	0xc01e6514	-2.4749193
12	0xbeec28e7	-0.46124956
13	0xbe72bea1	-0.23705532
14	0xbe8f53f1	-0.2799373
15	0xc059c352	-3.4025464
16	0xc0891b00	-4.284546
17	0xbef2a389	-0.47390392
18	0xbe857127	-0.2606289
19	0xbeade16c	-0.33961046
20	0xc0cb5a13	-6.3547454
21	0xc02ded8a	-2.7176232
22	0xc0b8a5b7	-5.770229
23	0xbed6b6d7	-0.4193637
24	0xbf55b362	-0.8347684
25	0xbf343a43	-0.704014
26	0xc01a2fcd	-2.4091675
27	0xc08b9e93	-4.363107
28	0xbf82829a	-1.0196106
29	0xbe9481eb	-0.2900537
30	0xbecf39f9	-0.40473917
31	0xbee68bf0	-0.4502864
32	0xc0c33c5e	-6.101119
33	0xbe8d329f	-0.27577683
34	0xbe857fcc	-0.26074064
35	0xbf0f2595	-0.5591672
36	0xbeb8997c	-0.360546
37	0xc1025a98	-8.147118
38	0xbe9a67a9	-0.3015721
39	0xbebdced6	-0.37071866
40	0xbe8f78be	-0.28021806
41	0xbf0d889d	-0.5528658
42	0xbecb685b	-0.39728054
43	0xbe4b3671	-0.19844986
44	0xc08573a6	-4.1703672
45	0xbecb13c0	-0.39663506
46	0xbe537849	-0.20651354
47	0xbe641b63	-0.22276072
48	0xbe3968dd	-0.18106408
49	0xc087c175	-4.2423654
50	0xbf1b8be5	-0.6076034
51	0x3e25e345	0.16199978
52	0xc0c94c93	-6.2905974
53	0xbf0c018e	-0.5468987
54	0xbe8c7b75	-0.2743794
55	0xbe61e74e	-0.22060892
56	0xc0c32290	-6.097969
57	0xc0c88545	-6.2662683
58	0xc0c4a29b	-6.1448493
59	0xbe7251e6	-0.23664054
60	0xc046ec49	-3.1081717
61	0xc0967313	-4.701547
62	0xbf8da7cd	-1.1066834
63	0xbf946c52	-1.1595557
64	0xbeb1b04e	-0.34704822
65	0xbda3c5c0	-0.07996702
66	0xc10e5cc0	-8.897644
67	0xc0a2f716	-5.092662
68	0xc089c1f9	-4.3049283
69	0xbdbfdf76	-0.09368794
70	0xbea7d18f	-0.32777068
71	0xbfdea908	-1.7395334
72	0xc073c791	-3.8090556
73	0xbefa6e29	-0.4891217
74	0xc0a93542	-5.287751
75	0xc0367676	-2.8509803
76	0xbf41f247	-0.7576031
77	0xbe6e4058	-0.23266733
78	0xbf986065	-1.1904417
79	0xbdae5302	-0.08511926
80	0xbd806f5b	-0.06271239
81	0xbed05cd0	-0.4069581
82	0xbe6422ec	-0.22278947
83	0xc0359ea0	-2.8378067
84	0xbef3b67a	-0.47600156
85	0xc08bb9b5	-4.3664193
86	0xbe1f4743	-0.15554528
87	0xc0260588	-2.5940876
88	0xc086a998	-4.2082024
89	0xc0d72bcf	-6.7240977
90	0xbf0f1d4d	-0.55904084
91	0xc04e80f3	-3.2266204
92	0xc067cba2	-3.6218038
93	0xbe13fb74	-0.1445139
94	0xbe26f4ae	-0.16304275
95	0xc00c8101	-2.1953738
96	0xbeb37747	-0.3505194
97	0xc0a184fc	-5.0474834
98	0xbeec8b51	-0.4620004
99	0xc0aa6e66	-5.3259764
100	0xc0d7bfc4	-6.742159
101	0xbe8256ce	-0.25456852
102	0xbf91ee15	-1.1400782
103	0xc02f016d	-2.734462
104	0xc04f18a6	-3.2358794
105	0xc08598ab	-4.174886
106	0xbe536e63	-0.20647578
107	0xc07d484d	-3.957538
108	0xc0330da5	-2.7977078
109	0xc016a405	-2.353761
110	0xc03d41e2	-2.9571462
111	0xbfecc8ed	-1.8498818
112	0xc0c4c531	-6.149071
113	0xbff53621	-1.9157144
114	0xbe0592e4	-0.13044316
115	0xbff3d90d	-1.9050614
116	0xc0dfc69b	-6.992994
117	0xc0929452	-4.5806055
118	0xc0905a5c	-4.51103
119	0xbec6a0c1	-0.3879452
120	0xc0c7fe9d	-6.2498307
121	0xbf15bb87	-0.5848927
122	0xc0a10e0a	-5.0329638
123	0xc0205b2d	-2.505565
124	0xc0694528	-3.644846
125	0xbe7e0bc6	-0.24809179
126	0xbe2201a4	-0.15820938
127	0xbed8ab5a	-0.4231823
128	0xbe2dec11	-0.16984583
129	0x3d8e3538	0.069437444
130	0xc0eefc29	-7.4682813
131	0xc0904c32	-4.509301
132	0xc1307244	-11.027897
133	0x3b08b572	0.0020860103
134	0xbfd08c72	-1.629286
135	0xbfdddc23	-1.7332805
136	0xc016b457	-2.354757
137	0xc071a9b3	-3.7759826
138	0xc08cc403	-4.398927
139	0xc1284edf	-10.519256
140	0xbe897034	-0.26843417
141	0xbfaf90ff	-1.3716124
142	0x3e9727fd	0.29522696
143	0xbf0df25d	-0.5544794
144	0xbfd44280	-1.6582794
145	0xbe04b9d4	-0.12961513
146	0xc04920fb	-3.142638
147	0xbd7079a5	-0.05870976
148	0xc0336987	-2.8033159
149	0xc09d1932	-4.9093256
150	0xc028b2d8	-2.6359158
151	0xbdcafa9c	-0.09911081
152	0xc0a16b7f	-5.044372
153	0xc0d13996	-6.5382795
154	0xbedc9d30	-0.43088675
155	0xc0adf0d4	-5.435648
156	0xbe4c1bd5	-0.19932492
157	0xbd890ad6	-0.0669152
158	0xbfdd97ec	-1.7311988
159	0xbee5e11a	-0.448983
160	0xbed74448	-0.42044282
161	0xbdf4c478	-0.11951536
162	0xbf72bc6d	-0.94818765
163	0xc0d42e5f	-6.6306605
164	0xc10eea75	-8.9322405
165	0xbe8dd754	-0.27703345
166	0xbf2751d5	-0.6535924
167	0xc01958c9	-2.396044
168	0xbfaef1d1	-1.3667547
169	0xbf6f961d	-0.9358843
170	0xbfb61f7d	-1.422836
171	0xc0d30ed9	-6.5955625
172	0xbf1be437	-0.60895103
173	0xbea21bcd	-0.31661835
174	0xbf785c03	-0.970154
175	0xbe1d27c8	-0.15347207
176	0xbe1bbc47	-0.15208541
177	0xbeb5873d	-0.3545474
178	0xbe8812d7	-0.26576874
179	0xc11578ec	-9.342022
180	0xbf1155f0	-0.56771755
181	0xc0e5b55e	-7.1783895
182	0xbea79be4	-0.32736123
183	0xbf31074a	-0.6915175
184	0xc0dd33bb	-6.9125648
185	0xbf7e7b88	-0.99407244
186	0xbf2f5b91	-0.68499094
187	0xc0d5977e	-6.6747427
188	0xc059c799	-3.4028075
189	0xbe76997e	-0.2408199
190	0xbeb49856	-0.35272473
191	0xbf133f4a	-0.57518446
192	0xbf93a7da	-1.1535599
193	0xbf289b8b	-0.6586234
194	0xc020f82a	-2.5151467
195	0xbf70444e	-0.93854225
196	0xbff5f224	-1.921452
197	0xbed0a9f4	-0.40754664
198	0xbd29af96	-0.041427217
199	0xbf3e0af1	-0.74235445
200	0xc01e0b2d	-2.469432
201	0xbf1e4a4c	-0.6183212
202	0x3e1036c9	0.14083399
203	0xc0d4b634	-6.6472416
204	0xbf0875fe	-0.5330504
205	0xbf7410e8	-0.95338297
206	0xbf8ca767	-1.0988587
207	0xbf16260e	-0.58651817
208	0xc04b546b	-3.1770275
209	0xbd810ed5	-0.06301657
210	0xc065d097	-3.5908563
211	0x3ef2d2c2	0.4742642
212	0xbfa4dad6	-1.2879283
213	0xc050e37e	-3.263885
214	0xbf35fd3a	-0.7108952
215	0xbf608214	-0.87698483
216	0xbfb3bbb0	-1.4041653
217	0xbfe353ea	-1.7759984
218	0xbf756fd2	-0.9587375
219	0xbff0e561	-1.8820001
220	0xbfb04dac	-1.3773704
221	0xbf635aee	-0.8881062
222	0xbfa6669e	-1.3000066
223	0xc02288ec	-2.539607
224	0xbfc41801	-1.5319825
225	0x3e74d78a	0.23910347
226	0xc0980aae	-4.7513037
227	0xbfd50fc9	-1.6645442
228	0xc0576927	-3.365793
229	0xbfffb29a	-1.997638
230	0xbf42a1fe	-0.7602843
231	0x3e00fda8	0.12596762
232	0xbdaf366c	-0.08555302
233	0xc09c11e6	-4.877185
234	0x3e92eab3	0.28694686
235	0xbec98e71	-0.39366487
236	0xbdc8effc	-0.098113984
237	0xbd38e936	-0.045144282
238	0x3ed16c83	0.409031
239	0x3dd73f0d	0.10510073
240	0x3e2c35f7	0.16817461
241	0xbf47e145	-0.7807811
242	0xc042adbb	-3.0418537
243	0xbed03f00	-0.40673065
244	0xc02364a5	-2.5530179
245	0xbff7ab98	-1.9349241
246	0xc084e235	-4.152613
247	0xbfb00c8e	-1.3753831
248	0xc04bb766	-3.1830688
249	0xc0b2873f	-5.5790095
250	0xc0130763	-2.2973258
251	0xbfa67201	-1.3003541
252	0xc01e29b3	-2.471295
253	0xbf8a0eb5	-1.0785738
254	0x3cd0bf9c	0.025481991
255	0xc01127b5	-2.2680485

fc5.bias f4 [15]
0	0xbf9e6591	-1.2374746
1	0x3e73a849	0.23794664
2	0xbfab901d	-1.3403355
3	0x3ff23a62	1.8924067
4	0xc028da87	-2.6383379
5	0xc023fa93	-2.5621688
6	0xc01d1e68	-2.4549809
7	0xc0c9472c	-6.289938
8	0x3e14b24a	0.14521137
9	0x3f96f1ab	1.1792501
10	0xbf98384a	-1.1892178
11	0x3eac0a9f	0.33601853
12	0xbe7177cf	-0.2358086
13	0xbed2f6f2	-0.4120403
14	0xbefdee86	-0.4959604
