DNN/best_model.pt (torch, 888034 bytes, 46 tensors)

shared_fc1.weight f4 [256, 57]
00000000: ed70 a33d cbe0 873c cecb 8cbc fef3 1a3c
00000010: 98c3 8d3d 5064 1d3d 01e7 b3bb a3d2 2ebd
00000020: f3db ca3d ea67 123d a18f 62bd 0e59 0f3d
00000030: 2751 4dbd 623f 3fbc 3c37 04be a6c9 fe3c
00000040: ec21 04be 56c1 e53c 53f5 6fbd a129 073d
00000050: bb1d b6bd a370 b2bc 321d c2bc cc60 bf3c
00000060: 94c9 373d 9376 5a3c bad3 b73c 29f4 0cbd
00000070: f924 9d3b 58b7 62bc 5707 e5bc 0ab9 8fbc
00000080: 2b55 0a3d adbc d73b 0eee 8bbc 9ac3 883d
00000090: 1392 ef3d f2f3 3f3d 862d a1bd 1b29 d2bc
000000a0: 4ce3 75bd e040 923b 9538 32bd a0fe 21bd
000000b0: 1ade 1dbd 9bca 873d b96a 12be 82fc 1abe
000000c0: 22d6 f9bd 6db2 21be 60ce a1bb aae4 663b
000000d0: 488a 41be 9468 dd3d 7ab7 61be 9c80 a73c
000000e0: b246 5e3d 812f b43c 233a 9bbd d7c5 afbc
000000f0: 69f6 813d 7e51 b7bc 0dff 6cbc b388 e3bb
00000100: 7398 ddbd 4d96 a2bc 9a1b 47bc b885 963d
00000110: 2daf 72bd fdd6 0c3c 9e54 a4bd 8002 fc3c
00000120: 9e9a bcbd 8727 15be ee49 34bd e22a 173d
00000130: a4a2 12bc 7f29 12be c7cf 8dbd 5530 e7bd
00000140: a6c9 1f3c 70a6 e3bd dc06 08bd 00f6 ffbc
00000150: aafd 01be 7552 103d 9682 88bd a7d0 ae3d
00000160: c921 4bbc 293c fe3c 335e 0e3e 68ae 63bd
00000170: a47f 3f3e c96d bbbc a67e a83d 74f1 1abd
00000180: 23df 9bbd d1af c638 c345 8f3d 0e23 483d
00000190: 6518 963d 5337 3fbd 1f2f 033e b35b d7bd
000001a0: 4d8e a6bd f4de cdbb 27ba 033e 95c1 8fbd
000001b0: 1454 0e3c 1b81 073e df25 ddbd b895 1c3d
000001c0: 30ad 2b3e 2dec 273e d8cc 133c 3e12 ef3c
000001d0: e7af 2dbc 4f62 be3d c76c 16be 511d 473d
000001e0: 6e14 0a3d 79e2 b13d 8c2f 88bc 44cc aa3b
000001f0: 632a 83bd dd5d 353d a9e3 363c 6c76 543d
00000200: 823e 25be 1944 ddbc 50b9 163d cc58 ee3c
00000210: b239 7dbd f581 b33d 681b 323a 498d 9d3c
00000220: 75c4 2dbc ef20 9039 04a1 5dbb a6c9 33bd
00000230: 075a a63b 66a8 15bd aa14 f2b9 7684 c1bc
00000240: 9127 afbd 34a0 cc3b aefa 8a3b caf3 be3d
00000250: 2e29 1f3b 57ad 32bd 9d8d 8c3c 4536 81bd
00000260: 2726 1dbd c0dc 383d 24b3 7fbd f78f f2bc
00000270: 797e d5bd 7015 523c f5d1 ce3c c897 95bc
00000280: 4b43 19be 4203 903c ccfd 40bc da90 e03c
00000290: 4754 d6bc d069 af3d 2ee0 25be 20d7 093e
000002a0: cbf8 febd 6087 20bd eda9 9e3b 05de 943d
000002b0: e6eb 923d c386 afbd 3bd2 3abd e78d 76bd
000002c0: 3c7d 363e 6e2a d1bd a39e acbc 1a54 60bd
000002d0: 1186 afbd 9068 953d 2cae 89bd e3d3 a33d
000002e0: 2d82 22bd e537 00be 5755 ce3d d961 983c
000002f0: 52ca 00bd 611e 96bb 4479 e9bd 9078 923c
00000300: f371 123d 4a78 d3bc 34c0 b83a 632a cabc
00000310: 2919 d8bd f33a 85bc b0c2 3f3c dbc6 9cbd
00000320: 918c a83d 9e2a cb3c 0ec4 8a3f 68b6 04bb
00000330: 3ee0 983c 2973 35bd ad50 95bd cf88 bcbc
00000340: d53e 97bb 0408 e1bc eb62 76bc 7aef af3c
00000350: 6bff 89be 16b5 a73c 7271 993c 6854 01be
00000360: 8211 05be 5d9e 91bc 4e6c dfbc 170d e23c
00000370: c9d3 28be 294f fabd 472f 2fbe ebdd dcbd
00000380: 1d5d da3d 1194 87bd 7416 20be f18a 22be
00000390: 520e ba3d e8c6 9e3d dc39 823d c909 91bd
000003a0: d4b1 01be 2a1d 06bd 87c6 593c f4ec 46bd
000003b0: 5297 3f3d 0bbf cfbd 49c3 4d3b 27c0 423d
000003c0: 8151 21be fa52 a63d 204d 3cbe e38a c13d
000003d0: 8f5d 42bd 50dc 9abd be6c 96bd e134 f83c
000003e0: 5769 33be 1743 43bd 08a9 0d3c ded2 4dbd
000003f0: 48ce 193d 102d b63d 9890 b93d d8ac 4a3d
0.07980523 0.016586682 -0.017187025 0.009457586 0.06922072 0.038425744 -0.0054901843 -0.042681348
0.09905233 0.03574363 -0.055312756 0.03499704 -0.05012622 -0.0116728265 -0.12911695 0.031102013
-0.12903565 0.028046291 -0.05858357 0.032998685 -0.088923894 -0.021782225 -0.023695562 0.023361586
0.044869974 0.013333934 0.022439826 -0.034412537 0.0047956672 -0.013837658 -0.027957601 -0.017544288
0.03377263 0.006583771 -0.017081287 0.06677933 0.11697783 0.046863504 -0.07870011 -0.025654366
-0.06003122 0.0044633 -0.043510992 -0.03954947 -0.03854189 0.06630441 -0.14298524 -0.15135387
-0.12199046 -0.1579072 -0.004937932 0.003523151 -0.18900406 0.10810962 -0.22042647 0.020447068
0.05426664 0.021995308 -0.07579448 -0.021456642 0.06345827 -0.022377726 -0.014465106 -0.006943786
-0.10820093 -0.01984706 -0.012152577 0.073497236 -0.059249092 0.008596179 -0.08023952 0.03076291
-0.092091784 -0.1456586 -0.044015817 0.03690613 -0.008949909 -0.14273642 -0.06924396 -0.112885155
0.009752667 -0.1111573 -0.033209667 -0.031245232 -0.12694421 0.035234887 -0.06665532 0.08535891
-0.012398192 0.031034546 0.13903122 -0.05558625 0.18701035 -0.022879498 0.08227281 -0.037827924
-0.07610919 9.474124e-05 0.06995728 0.048861556 0.07328872 -0.04668362 0.12810944 -0.10515537
-0.081326105 -0.0062826816 0.1286398 -0.07019345 0.008687038 0.13232844 -0.10798239 0.03822872
0.16765285 0.16398688 0.0090210065 0.029183503 -0.01060102 0.092960946 -0.14689933 0.048611943
0.03371089 0.08685774 -0.016624235 0.0052123386 -0.06404569 0.044278968 0.011162677 0.05187075
-0.16137126 -0.02701001 0.03679782 0.029095076 -0.0618226 0.08765022 0.0006794245 0.01923241
-0.010605921 0.00027490358 -0.0033817897 -0.04389348 0.00507665 -0.03653755 -0.00046173233 -0.023622733
-0.085524686 0.0062446836 0.004241309 0.09323843 0.002428602 -0.04362234 0.01715737 -0.06309179
-0.038366463 0.0451324 -0.0624267 -0.029609663 -0.10424513 0.012822494 0.0252466 -0.018260852
-0.14967076 0.017579678 -0.01177926 0.02741282 -0.026163233 0.08565104 -0.16198799 0.1346097
-0.12449797 -0.039191604 0.004842034 0.07268909 0.071739 -0.08570626 -0.045610648 -0.060193922
0.1782121 -0.10213171 -0.021071738 -0.054767706 -0.08570493 0.07295334 -0.06722674 0.079993986
-0.039674927 -0.12521322 0.10074871 0.018601345 -0.031442948 -0.004581258 -0.11400083 0.017879754
0.0357532 -0.025814194 0.0014095367 -0.024678415 -0.10551674 -0.01626346 0.011704132 -0.07655116
0.08229936 0.024800595 1.0841081 -0.0020250324 0.018661615 -0.04429928 -0.07290778 -0.023014454
-0.0046156445 -0.027469642 -0.015038232 0.021476496 -0.2695268 0.02047209 0.018730853 -0.12629855
-0.1299496 -0.017775709 -0.027273323 0.027594132 -0.1648704 -0.1222213 -0.17107879 -0.10784515
0.10662291 -0.06620038 -0.15633565 -0.15873314 0.09084763 0.07752782 0.06358692 -0.070819445
-0.12665492 -0.032742657 0.0132919615 -0.04856582 0.04677517 -0.101438604 0.0031396917 0.047546532
-0.15753748 0.08121295 -0.18388796 0.09450319 -0.047452506 -0.075615525 -0.0734496 0.030298652
-0.17520653 -0.047671404 0.008646257 -0.050249927 0.03755024 0.08895314 0.09060782 0.049481243

shared_fc1.bias f4 [256]
00000000: 20c9 8a32 bdf1 c0b6 a2b7 bdb3 055d 16b7
00000010: 28ca f535 8e13 0db6 16eb 37b6 e076 ad33
00000020: 947e 08b4 2815 3133 d027 8834 13a9 1534
00000030: 2fcc 0237 769b 5f34 7a2c 46b7 147a 37b6
00000040: 9c78 08b6 c705 2036 4013 8f32 0448 7cb4
00000050: 8036 0a37 ec23 e034 c86b 6837 dbdf 9ab6
00000060: f00c 65b8 33cd 5bb7 fcec aeb6 7a4d 53b5
00000070: 54d9 8f35 2c3d 8db2 0c4f 2e33 04c1 17b5
00000080: a404 deb5 20ea a6b7 574d 2ab7 60c6 af35
00000090: 3023 3eb7 2571 a435 817a 0ab7 8967 c1b6
000000a0: 91ac 77b5 9c21 4532 d954 8636 c889 c037
000000b0: 8339 2a38 1262 20b6 0eef 4835 6e28 6cb6
000000c0: 72d2 4234 d32e 8936 86e6 5fb6 a751 4d36
000000d0: 8b20 6fb6 972a 8536 8af7 ecb6 0a0b 6d35
000000e0: 7160 a4b6 7279 cb37 0a66 4bb7 731e 56b7
000000f0: adbd 94b6 e0ae 3fb3 c865 6db5 fed2 27b8
00000100: fcef f934 3264 a9b8 efc7 48b9 4f26 f0b7
00000110: 624f c336 e908 11b6 1242 26b8 e2a7 65b5
00000120: fc85 9d35 45e8 23b5 53ec 4ab8 e3bb 86b6
00000130: 24cf 0835 081e 053a a34c ad35 9c3d 1f34
00000140: 208a 2334 0217 7eb3 2041 34b7 7185 9c34
00000150: f6cd ab34 5050 70b5 f492 d5b4 0e18 c2b7
00000160: 2ab5 f834 0419 b436 fd05 3f37 f6ea 8b34
00000170: 0ef0 eb36 cdbc cab5 f03b fa37 83cb 0d37
00000180: 080f 5d35 1df5 24b7 f7d2 0537 4904 03b5
00000190: d030 5fb7 3264 9e36 df47 0136 aa38 5eb7
000001a0: 4baf a137 dab2 21b5 fa70 4736 b849 4135
000001b0: 2434 5fb2 68ae feb4 34fa 7a33 62f6 53b5
000001c0: 9e01 17b6 e1e8 31b6 95b8 dd36 95f8 38b7
000001d0: 3c4b c7b7 00fc 36b6 22f7 0438 526f 2f37
000001e0: be37 ca34 0b20 04b8 490b d037 d0e4 5a36
000001f0: b208 c9b7 b94c 2cb9 5caa 2cb7 d45d 15b7
00000200: 5a94 3938 7200 7b35 5425 2737 0c39 c837
00000210: 3d2f 5834 a858 5eb7 6482 32b6 7cbf f7b6
00000220: 287d 6db3 385a a4b4 9f03 7d34 a7f0 c335
00000230: ac5c 0933 6b6a 5337 423b 51b5 00c2 0fb3
00000240: f836 0936 1800 1cb3 c109 e0b5 0483 cbb6
00000250: 20cc 6f37 e4b2 49b6 b9d7 5d37 b03a 3bb6
00000260: 693e 2ab6 0127 4b37 6a23 3eb5 e3d4 51b7
00000270: 040f 51b8 ba14 b938 e416 1b36 ea3b 1e36
00000280: 44a3 7c34 e223 3ab5 b22e 6e37 d86b 26b4
00000290: fb90 5ab5 e97a 1e36 920b 37b4 4904 6bb6
000002a0: 633f 6eb7 b263 ab36 a1b7 1036 41b7 f8b5
000002b0: 6855 fdb5 a20c 8436 2883 c2b4 d461 8336
000002c0: 3890 fab2 1e43 abb6 83e0 99b6 ba6d 9835
000002d0: de1b 5bb5 b669 c5b5 8301 83b6 3c35 89b5
000002e0: ccc9 0e35 1ae7 4736 ca4c 7a36 f18c 2038
000002f0: c5a5 08b6 5ab5 0436 7e0c 4d37 9484 1d38
00000300: 5cfd 6438 65c1 cc35 e209 b536 935f 3d36
00000310: 148e 6fb5 8454 fab6 8ca8 8035 bad0 18b5
00000320: e92e 4a37 30b4 8935 781b 9fb8 cffc 34b7
00000330: 13d5 8334 98f4 5c34 0683 6bb3 607b a336
00000340: c7df aeb6 53a4 6136 02d2 7a33 f49c c5b3
00000350: 4e6b 8436 7822 0735 1669 0d36 ec15 5436
00000360: 3efc 35b4 1f79 9b34 899e a7b5 365d ecb5
00000370: a2f8 14b7 1bb7 9534 58cb 0f35 6b2f 69b4
00000380: fb38 1e37 e87e 0537 6cf6 8635 c623 afb5
00000390: 30bd 3734 b073 1b32 fc47 de35 07c8 32b7
000003a0: 7d45 7eb6 b738 16b9 761f bf34 e62a d0b5
000003b0: d414 cd37 53bd 9836 9c6e 4e36 302a 3d35
000003c0: 20cf abb8 0e63 4db5 6dcb dfb4 33c7 04b5
000003d0: bf2d 0cb7 c440 31b5 bf2f 57b5 f6d4 3034
000003e0: aed7 2737 3e21 98b6 83e4 ecb4 a6e3 5c34
000003f0: acda 2635 0fad 9a35 80ac 1d35 7c3f 2235
1.6156775e-08 -5.750188e-06 -8.834401e-08 -8.9623545e-06 1.8312758e-06 -2.102202e-06 -2.7405963e-06 8.0775635e-08
-1.2712036e-07 4.1230265e-08 2.5360941e-07 1.3938215e-07 7.796144e-06 2.082505e-07 -1.1812075e-05 -2.7340184e-06
-2.0335783e-06 2.384522e-06 1.6656145e-08 -2.3495528e-07 8.23813e-06 4.1749388e-07 1.3853372e-05 -4.615618e-06
-5.4609904e-05 -1.3101194e-05 -5.2131927e-06 -7.871637e-07 1.0717581e-06 -1.6442378e-08 4.0584425e-08 -5.653276e-07
-1.654164e-06 -1.9897765e-05 -1.0150797e-05 1.3096251e-06 -1.1333075e-05 1.2251882e-06 -8.253964e-06 -5.7639013e-06
-9.226579e-07 1.1474551e-08 4.0033888e-06 2.2952343e-05 4.058472e-05 -2.3898942e-06 7.4853676e-07 -3.5190274e-06
1.8144218e-07 4.088369e-06 -3.3363772e-06 3.0594908e-06 -3.5632718e-06 3.968667e-06 -7.0621654e-06 8.8305444e-07
-4.898808e-06 2.4256038e-05 -1.2123501e-05 -1.27624835e-05 -4.432825e-06 -4.46297e-08 -8.843749e-07 -4.0012404e-05
4.6554476e-07 -8.077211e-05 -0.00019147967 -2.8628068e-05 5.8206942e-06 -2.161187e-06 -3.9639017e-05 -8.555345e-07
1.1736406e-06 -6.106023e-07 -4.8380647e-05 -4.015384e-06 5.096538e-07 0.00050780224 1.2911809e-06 1.4830442e-07
1.5230808e-07 -5.915991e-08 -1.0743999e-05 2.9154356e-07 3.2001088e-07 -8.952384e-07 -3.9781264e-07 -2.3137804e-05
4.6325414e-07 5.3673302e-06 1.1385881e-05 2.6061724e-07 7.031492e-06 -1.5105121e-06 2.9830233e-05 8.451639e-06
8.235079e-07 -9.832232e-06 7.976537e-06 -4.880754e-07 -1.3303201e-05 4.720431e-06 1.9264332e-06 -1.3245424e-05
1.9274323e-05 -6.0237437e-07 2.9719072e-06 7.200538e-07 -1.2992164e-08 -4.7438084e-07 5.843522e-08 -7.896216e-07
-2.2501695e-06 -2.6510609e-06 6.6078014e-06 -1.1025132e-05 -2.3757682e-05 -2.7266797e-06 3.1701413e-05 1.0456732e-05
3.766599e-07 -3.1501095e-05 2.4800787e-05 3.2617718e-06 -2.3965116e-05 -0.0001643178 -1.0291664e-05 -8.902938e-06
4.42456e-05 9.3505435e-07 9.962667e-06 2.3868422e-05 2.0133753e-07 -1.3252873e-05 -2.6599964e-06 -7.3834653e-06
-5.529469e-08 -3.0613023e-07 2.3563778e-07 1.4598671e-06 3.1982083e-08 1.2601357e-05 -7.79448e-07 -3.3471224e-08
2.0446587e-06 -3.6321666e-08 -1.6692139e-06 -6.0651237e-06 1.4293037e-05 -3.0055462e-06 1.3222853e-05 -2.7899332e-06
-2.5368302e-06 1.2108824e-05 -7.083205e-07 -1.2506937e-05 -4.9843467e-05 8.825348e-05 2.3110124e-06 2.357871e-06
2.3528725e-07 -6.9342616e-07 1.4196778e-05 -1.5499188e-07 -8.1422303e-07 2.3615378e-06 -1.7047412e-07 -3.5020223e-06
-1.4200664e-05 5.107803e-06 2.1564558e-06 -1.8530774e-06 -1.8874825e-06 3.935377e-06 -3.6230745e-07 3.915493e-06
-2.9169414e-08 -5.1040106e-06 -4.585892e-06 1.1356817e-06 -8.162441e-07 -1.470841e-06 -3.90428e-06 -1.0222789e-06
5.3192775e-07 2.978783e-06 3.72976e-06 3.8278235e-05 -2.036207e-06 1.9775093e-06 1.2221861e-05 3.755519e-05
5.4595395e-05 1.525547e-06 5.395371e-06 2.8218826e-06 -8.924119e-07 -7.4604195e-06 9.585797e-07 -5.692815e-07
1.205106e-05 1.0259737e-06 -7.586827e-05 -1.0787698e-05 2.4555683e-07 2.057808e-07 -5.4834366e-08 4.8721413e-06
-5.211655e-06 3.3623262e-06 5.8398662e-08 -9.202077e-08 3.9463985e-06 5.034158e-07 2.1071805e-06 3.1603222e-06
-1.6948704e-07 2.8959127e-07 -1.2488609e-06 -1.7610498e-06 -8.879377e-06 2.788664e-07 5.3567555e-07 -2.1717067e-07
9.430801e-06 7.956965e-06 1.0055496e-06 -1.3048927e-06 1.7112029e-07 9.048492e-09 1.6561239e-06 -1.0656199e-05
-3.7889397e-06 -0.00014326243 3.5599413e-07 -1.5509693e-06 2.4447603e-05 4.5519932e-06 3.0760775e-06 7.046938e-07
-8.1924954e-05 -7.6512595e-07 -4.1684999e-07 -4.9463705e-07 -8.355301e-06 -6.6031885e-07 -8.016322e-07 1.6468752e-07
1.00041925e-05 -4.533823e-06 -4.412469e-07 2.0571915e-07 6.215803e-07 1.1524261e-06 5.873808e-07 6.0442085e-07

shared_bn1.weight f4 [256]
00000000: beaa 2f3f f44d 423f bd58 cf3e a58d 7f3f
00000010: 9d9a 523f bd4b 4c3f 37dc 483f 8158 433f
00000020: 542c 5d3f 9efc fa3e 4294 483f 2c1a cf3e
00000030: b3d6 873f b944 eb3e 0e11 933f d85b 363f
00000040: f0c2 283f db7d 643f d58c 0b3f cb5b 0e3f
00000050: 0e64 5f3f 2ca4 163f b3f2 6b3f fb84 463f
00000060: 76a5 a03f 783b 453f d61c 763f 0169 7f3f
00000070: 0d7b 423f 4c94 123f e6d3 9c3e cd12 493f
00000080: ae29 223f 99a1 783f 6e57 723f 13df 4f3f
00000090: 0dd4 5f3f ad50 2f3f ae26 683f c729 3c3f
000000a0: 88bb 333f 2ab5 c93e de61 423f cf46 803f
000000b0: e92c 863f cce2 883f 5ccd 023f 1c6a 553f
000000c0: 6c6f 0f3f 4594 6e3f 4a9b 613f 5012 803f
000000d0: d52b 5c3f 2d79 3f3f 0a0c a93f dcbe 4c3f
000000e0: 8f62 643f 7745 673f 88e1 893f c428 713f
000000f0: 06df 803f 6fcc 443f 5a8e 2d3f e0c7 8a3f
00000100: a92b 4c3f e3b6 843f 0138 893f 0942 a13f
00000110: 694e 8d3f f695 5a3f dad3 893f cf72 3c3f
00000120: 007f f33e 0dc5 1a3f 8b0f 673f ac93 843f
00000130: e34c 123f b3c4 813f 3201 613f 2232 d73e
00000140: 9c20 ac3e a2c5 103f c2ae 6a3f eac9 1f3f
00000150: bab6 1d3f 2f75 273f bdb8 1f3f fe84 9d3f
00000160: a0ab ec3e a31c 6c3f bd6f 5e3f b447 313f
00000170: 6540 643f 3427 513f 0647 723f 0dc0 733f
00000180: 9706 2b3f 90dd 563f 9d67 3f3f 757e 123f
00000190: 36ce 663f 2d7f 683f f072 4a3f bdef 873f
000001a0: 76b9 8f3f 58c2 693f 4f87 1c3f bb88 5b3f
000001b0: 363f a73e 3489 903f 8c52 9b3e 23ba 293f
000001c0: 0694 973f 1a50 2b3f a9dd 6a3f c175 883f
000001d0: 4d79 5c3f 1f77 443f 1328 a73f 9d4b 673f
000001e0: c07c 1d3f 73ef 8c3f 962d 8e3f b0c5 783f
000001f0: 2090 903f 881c ea3f dc0b a73f bd5b 993f
00000200: 0259 713f f839 1b3f 257a 683f 6361 7e3f
00000210: 07d3 c83e f021 443f 8ac7 4b3f 9051 573f
00000220: 412b 213f 8e26 583f 1205 0b3f 5eaa ec3e
00000230: bd45 ac3e 00fc 5b3f 6853 453f 67d3 5f3f
00000240: 638f 4e3f 51f4 b43e 74c5 2e3f e9b1 7a3f
00000250: 723f 7c3f 049d 433f 09e3 693f 82ce 373f
00000260: 1e6f 613f 8067 893f eede 2d3f b7dc 623f
00000270: c68b 893f 2742 923f bbee 3f3f d286 513f
00000280: 9f5c ce3e d903 0f3f 72f8 6d3f dc73 d83e
00000290: 9703 7e3f e919 533f 2428 cb3e 5295 473f
000002a0: 2374 4d3f 3a11 6f3f 4ca1 383f 5876 883f
000002b0: 05be 553f 3630 473f 654f 053f 4e72 533f
000002c0: a821 0b3f 47cc 783f f986 453f 0707 463f
000002d0: 1f6c 203f cc85 423f 2be7 5d3f d5cc 053f
000002e0: 806b 3c3f 6b9e 7c3f 6804 573f d477 483f
000002f0: 594c 093f 2145 123f 9b73 923f c2fc 793f
00000300: 2787 6b3f cdec 0e3f a23a 5b3f 90a5 583f
00000310: 0d4c 343f 0ce4 543f 1b62 fd3e fab0 0b3f
00000320: 4513 5c3f 677b 5b3f 306e 853f 5e53 633f
00000330: ec6e 5d3f 8a4b 313f 0897 953e 030d 823f
00000340: c1f6 553f 63de 763f ed29 003f 0d57 043f
00000350: 4beb 543f 7361 e33e 237c 093f c1f3 4b3f
00000360: c275 f93e fe2e 3e3f bedb 273f a07c 653f
00000370: aa36 3d3f 3cb7 243f 582d 7d3f ca98 253f
00000380: 7301 813f 9d59 7a3f 96a7 463f d480 123f
00000390: b18e d53e d398 e33e 78a0 2c3f 55a7 5a3f
000003a0: fe4d 493f a481 993f 35fa 0d3f 9541 6a3f
000003b0: f441 813f 340b 723f 8ed0 5b3f 3a73 4d3f
000003c0: 1b10 7e3f f1cb 343f 8891 1a3f 0532 4b3f
000003d0: 5ef4 713f 27ac 6b3f ded9 0e3f 06b1 c33e
000003e0: 61b3 983f 71ff 673f f8e6 2a3f f204 463f
000003f0: 6c45 193f 6d45 013f 8c24 3d3f 15fe 443f
0.68619907 0.759002 0.4049739 0.9982551 0.8226717 0.7980307 0.7846102 0.7630692
0.86395764 0.49020857 0.78351223 0.40449655 1.0612396 0.4595087 1.148958 0.7123389
0.6592245 0.8925454 0.5451177 0.55608815 0.87262046 0.58844256 0.92167205 0.7754666
1.2550495 0.7704387 0.9613775 0.997696 0.7596901 0.57257533 0.30630416 0.7854431
0.6334485 0.9712158 0.9466466 0.8119976 0.8743294 0.68482476 0.9068402 0.7350125
0.70208025 0.3939603 0.75930583 1.0021609 1.0482455 1.0694213 0.51094604 0.83365035
0.5602939 0.9319499 0.8812758 1.0005589 0.8600438 0.74794275 1.3206799 0.7997873
0.8921289 0.9034037 1.0771952 0.9420283 1.0068061 0.7687444 0.67795336 1.0842247
0.7975412 1.0368313 1.0720216 1.2598277 1.1039554 0.8538507 1.0767777 0.73612684
0.4755783 0.60456926 0.9025809 1.0357566 0.5714857 1.0138153 0.8789245 0.42030436
0.3361863 0.56551564 0.9167291 0.6241747 0.61606944 0.6541318 0.62391263 1.2306211
0.4622469 0.92231196 0.8688925 0.69250035 0.8916076 0.81700444 0.94639623 0.9521492
0.6680693 0.8393183 0.74767476 0.5722421 0.901584 0.90819055 0.7908163 1.0620037
1.1228473 0.9131217 0.61143965 0.8575551 0.32665414 1.1291871 0.30336416 0.6629965
1.1842048 0.669191 0.91744477 1.0660936 0.8612259 0.76744264 1.3059105 0.9034975
0.6151848 1.1010574 1.1107662 0.9717665 1.1293983 1.8289957 1.3050494 1.1981121
0.9427644 0.6063533 0.9081138 0.9936735 0.392235 0.76614285 0.7960135 0.8410883
0.62956625 0.8443383 0.5430461 0.4622373 0.33646956 0.85931396 0.7708039 0.8743195
0.8068754 0.3534265 0.6827004 0.9792772 0.9853431 0.7641146 0.91362053 0.7179948
0.88060176 1.0734711 0.6791829 0.88618034 1.074578 1.1426438 0.7497365 0.81846344
0.4030504 0.55865246 0.9295722 0.42275894 0.9922423 0.8246141 0.39679062 0.7796222
0.80255336 0.9338566 0.7212112 1.0661116 0.8349307 0.7780794 0.5207427 0.8259629
0.5434823 0.971867 0.77159077 0.7735447 0.6266498 0.7598541 0.8668086 0.52265674
0.7360153 0.98679227 0.839911 0.78307843 0.5363212 0.5713673 1.144153 0.976513
0.920031 0.5583008 0.8563634 0.8462763 0.70428544 0.8316047 0.4948891 0.5456692
0.859669 0.8573517 1.0424252 0.88799083 0.8649738 0.6925589 0.2921679 1.0160221
0.8357964 0.96433085 0.50063974 0.5169533 0.8317153 0.44410285 0.5370504 0.79668814
0.48722655 0.74290454 0.65569675 0.8964329 0.73911536 0.64342093 0.98897314 0.6468626
1.0078567 0.9779299 0.77599466 0.57227826 0.41710427 0.44452533 0.67432356 0.8541158
0.7863463 1.1992688 0.5545991 0.9150632 1.0098252 0.94548345 0.85865104 0.80253947
0.99243325 0.7062369 0.60378313 0.793732 0.945135 0.9205956 0.5580119 0.38220996
1.1929742 0.9062415 0.6675868 0.77351296 0.59871554 0.5049656 0.7388389 0.769502

shared_bn1.bias f4 [256]
00000000: 2ad8 b2bd d713 0c3d 4308 01be f982 96bd
00000010: 35b7 9cbd 45b0 58bd 25e4 28be c3a2 f1bd
00000020: 2e71 0fbe c743 e4bd dbfc cebb 222b 1abe
00000030: a014 01be 3782 94bc baf8 11be f34f 99bd
00000040: ff01 af3c 4597 0abe f585 13bd 4f66 12be
00000050: 4f16 8bbd ebf6 24be 4b03 ddbd 26ca 11be
00000060: be05 7abe 8ae1 9c3d 3243 a8bd c8cc 01be
00000070: e631 2bbd 4d13 72be fa9b 6cbd 6716 70bd
00000080: 58d7 93bd f40c 7abe 061f a4bc ed9b a0bd
00000090: a086 89bd 45bb 1cbe c302 303d 9147 053d
000000a0: 6450 cebd 2988 a9bd 30d8 223c cd19 3cbe
000000b0: 5084 e2bd 9101 a4bd 425e 2c3d 0804 2fbd
000000c0: b783 8fbd 9b39 a3bd 47bf 91bd 83f9 d53d
000000d0: c2d4 3abe 5126 28be 5a48 c8bd d046 98bd
000000e0: 91c2 e0bd 4b7b 88bd 59fe c3bd 850c 0bbe
000000f0: 1485 b33c 7591 7fbc 1e56 a5bd cb12 3bbe
00000100: 0f60 00be 4190 8dbd a5be 0cbe 99c0 1abe
00000110: 2353 d4bd de94 b8bc 3c6a 1cbe 642e 78bd
00000120: f1cf dbbd c89e cbbd dd92 fbbd b325 b2bd
00000130: 4f0f 26be 2404 4b3c 2195 26bd 87e8 0fbe
00000140: cdc4 8abd dfbf 47bd 25dc 81bd e18a a2bd
00000150: bbc0 d9bd a1f0 6ebe 406b 21be 46b1 f6bd
00000160: 5c4c d9bd 7f0a a5bd 67fc 5ebe 85d7 1bbe
00000170: f7c3 82bd f2d5 3939 b3f0 2cbe e07e 0b3a
00000180: 109a 02bd 439a c2bd 63cc 09be 6305 22be
00000190: 3e56 ccbd 0f78 83bd 8ddc 173c 3e96 dbbd
000001a0: 276b bdbd bacc c1bd 93fc 29bd 19de 13be
000001b0: 5002 56be 4621 d0bd 21d0 36bd 0e13 1fbe
000001c0: 12a2 01be c7a9 16bd b309 afbd eb18 0abe
000001d0: dc90 8fbd 97ee 47bd 8072 9abd d019 cdbd
000001e0: 99a7 31bd 09d1 b0bd e810 35bd f12b 22bd
000001f0: bc67 17be 688c 09be 22ae d2bd 5d2b 20be
00000200: 0a35 abbd fbb8 e0bc c26a 11bd 8de5 1abe
00000210: ea4a a0bb 5d68 1abe 9af2 84bd 2edf 10bd
00000220: 7c2b 22be 4acf 16bd d801 abbd 9e21 b2ba
00000230: f79b 37be d8d6 11be 1877 a2bd d194 d7bd
00000240: 866f 0abe f16e 73bd fe16 ce3a 39c6 b6bd
00000250: b7a5 03bd 30b9 e8bd 90d1 bcbd 9cce 63bc
00000260: 4775 04be 8de6 9dbd 3d24 3cbd e970 c4bc
00000270: 0798 30be f43a cdbd eddf 7e3b e559 ffbd
00000280: c79c b2bd 192c c3bc 3038 dabd 5837 03be
00000290: 0f14 0cbe 4cd3 82bd 68b2 1cbe 3cc1 c5bd
000002a0: 4653 df3c 5c79 45be 5ea2 34bc 0c4f eebb
000002b0: 0e98 97bc b61a 4c3d dee6 f1bd c6c8 acbd
000002c0: f4be debd c958 a5bd 80ce ebbc 54a1 04be
000002d0: d9b3 d3bd e883 14be 3ec7 d5bd 4615 babd
000002e0: d29e 22be b418 1c3e 5e70 bbbd bb4e 0dbd
000002f0: 2808 eebb 1d48 2fbe 9a37 cdbd a1e2 ddbd
00000300: 76b4 b9bd 3b0a c3bc 454b 91be b79c d7bd
00000310: c031 3abc 438a 2b3d a3c3 edbd 9416 05be
00000320: c501 3fbd 6775 27bd c57e 24bd 0add 3dbe
00000330: 9c1d babd 307a 85bd 324f 49bd 0f3d a5bd
00000340: d2f7 b0bd 9f88 92bd 1a12 96bd f1fe aebd
00000350: e0ee cdbd baf1 12be 06e6 813d e3f1 733d
00000360: 943d 2cbe 17ee 21bd 9f3a c3bd b4bf 2bbd
00000370: a949 0abe 693d abbd e7e2 aabd 3ff2 95bd
00000380: 91c3 c4bd ffe5 d33d 8e85 d3bd 90bb 72bd
00000390: a34e 34be fb10 dcbd 51ce b5bd de15 bcbd
000003a0: 2a08 67bb 9b1c d3bd 0b94 23be 4348 f8bc
000003b0: 401f 1ebe 0c7a b5bc 0a05 07be 2bc4 4dbd
000003c0: 801e 5dbe 436a 1fbe b42f f2bd 3a13 5cbd
000003d0: b633 87be 26ca 32bd a2eb 02bd 7b5b 26bd
000003e0: 3adc eebd 21a8 bbbd baea cfbd d948 06be
000003f0: b9a3 02bd fd3b 75bd efb8 d9bd 569e e1bd
-0.08732636 0.03419861 -0.12600808 -0.073492 -0.076521315 -0.05290248 -0.1649328 -0.117986225
-0.14008018 -0.1114574 -0.006316764 -0.15055516 -0.12605524 -0.018128498 -0.14255038 -0.07485952
0.021363256 -0.13534267 -0.036016423 -0.1429684 -0.067913644 -0.16109817 -0.10791644 -0.1423727
-0.24416253 0.07660206 -0.082159415 -0.12675774 -0.041795634 -0.23640175 -0.05776594 -0.058615115
-0.07218808 -0.24419004 -0.020034324 -0.078422405 -0.06715131 -0.15305813 0.042971384 0.032538954
-0.10073927 -0.082779236 0.009939238 -0.18369217 -0.11060393 -0.08008111 0.04208208 -0.042728454
-0.070075445 -0.07969972 -0.071165614 0.10447981 -0.18245223 -0.16420867 -0.09779425 -0.074353814
-0.109746106 -0.06664141 -0.09569997 -0.13578995 0.021914043 -0.0155986445 -0.08073066 -0.18268888
-0.12536643 -0.0691228 -0.137446 -0.15112533 -0.103674196 -0.022531923 -0.152749 -0.060591117
-0.10733021 -0.099423945 -0.12283871 -0.08698597 -0.16216777 0.012391124 -0.040669564 -0.14053546
-0.06775818 -0.048766967 -0.06340817 -0.07936645 -0.106324635 -0.2333398 -0.15763569 -0.12045531
-0.106102675 -0.080586426 -0.21775971 -0.15218933 -0.063850336 0.00017722676 -0.16888694 0.0005321335
-0.031885207 -0.09502079 -0.13456874 -0.15822367 -0.09977387 -0.06419384 0.009268892 -0.10722016
-0.09248953 -0.094628766 -0.04150064 -0.14440192 -0.2089932 -0.101625964 -0.04463208 -0.15534613
-0.12659481 -0.036783006 -0.08546772 -0.13486068 -0.070100516 -0.04881152 -0.075413704 -0.10014689
-0.043372724 -0.0863362 -0.044205576 -0.039592687 -0.14785665 -0.13432467 -0.102871194 -0.15641542
-0.08359726 -0.027431956 -0.035502203 -0.15126629 -0.004891743 -0.15078874 -0.06491585 -0.03536909
-0.158369 -0.03681878 -0.08349961 -0.0013590341 -0.1793059 -0.14242113 -0.079328716 -0.10526431
-0.13519105 -0.059431974 0.0015723405 -0.08924527 -0.03214046 -0.11363447 -0.092196584 -0.01390424
-0.12935363 -0.0770999 -0.045932997 -0.023979621 -0.17245494 -0.1002101 0.0038890794 -0.12468318
-0.08721309 -0.023824738 -0.10655248 -0.1281408 -0.13679527 -0.06387958 -0.15302432 -0.09655997
0.027261388 -0.19284576 -0.0110250395 -0.0072726067 -0.018505123 0.04983016 -0.118116125 -0.08436732
-0.10876265 -0.08073575 -0.02878499 -0.12952167 -0.103370376 -0.14503443 -0.10438393 -0.09086089
-0.15880898 0.15243798 -0.09152292 -0.03449891 -0.007264156 -0.17117353 -0.10020371 -0.10834242
-0.09067623 -0.02380859 -0.2837774 -0.10527938 -0.0113644 0.041879904 -0.1160958 -0.12996894
-0.046632547 -0.040883448 -0.04015996 -0.18541351 -0.09087679 -0.06517446 -0.049147792 -0.08068287
-0.08641018 -0.07154965 -0.07327671 -0.0854472 -0.100553274 -0.14350024 0.063427016 0.059556853
-0.16820365 -0.0395337 -0.095326655 -0.04193087 -0.13504662 -0.083613224 -0.083440594 -0.073215954
-0.09607614 0.10346603 -0.10328208 -0.059260905 -0.17608123 -0.10745426 -0.08877242 -0.09183858
-0.003525267 -0.103081904 -0.15974443 -0.030307895 -0.15441608 -0.022152923 -0.13185516 -0.05023591
-0.21593666 -0.1556788 -0.11825505 -0.053729273 -0.2640664 -0.043649815 -0.031963 -0.040614586
-0.11663099 -0.091629274 -0.101521924 -0.13113727 -0.03189442 -0.059871662 -0.106309764 -0.11016528

shared_bn1.running_mean f4 [256]
00000000: fc9d 883d 6717 493d b644 a3be 673f adbd
00000010: ec36 f9be 0a24 52bf 172e 9abf f176 5fbf
00000020: 4d9d 83bf a587 30bf dc09 853e ae8e abbe
00000030: 7407 9cbe ccff 6c3f cb5a 30bf 9693 9abf
00000040: bcd3 363f 85a9 1ebf 9d3e 9b3e d79e 5fbf
00000050: c92a 1cbf d806 22bf bfa9 01bf 0e43 01bf
00000060: ce80 17be bdd6 af3e da81 73be 6989 79bf
00000070: 42b3 b9bf 8d0f 25bd 767a 703f 33cf f5be
00000080: 3a01 57bf 2890 a2be f953 243e 6d5e c2be
00000090: 2849 93be 5aa0 0dbf 7a1e 183e 1d95 0f3f
000000a0: a5aa 44bd 6e29 b33f b6d7 063f ba2c 91be
000000b0: 580f 83be f339 b9be 3c19 6a3e 765c 393e
000000c0: 9224 17bf b6f4 ebbe 126e 9abf c92c ea3e
000000d0: 7790 afbe 20fd c5be bdef 0ebf 0134 bfbf
000000e0: 12da c93d 721a 52be 6fd8 84bf 3e25 12bf
000000f0: d38b 62bf 8837 af3e f71d 88bf daa7 173f
00000100: cf3f a4bf 7d24 5ebe d804 703d a3ac 27bf
00000110: a04e a7be f656 8fbf 6d70 833d 08cd 603d
00000120: d646 86be 73a1 81be d298 7abe 8877 0bbf
00000130: f1a2 4fbf f7fc bcbe 221e 073f bd01 a7be
00000140: ffcb 0abd a488 2b3f 0a20 38bf 66a0 59bf
00000150: f253 bcbf e609 8abf 5f5d 41bf 7c52 9abf
00000160: 5494 133f 2768 053e d3dd efbd 6424 75bf
00000170: f32b 403e 73c8 283e 7851 353e bd1b 2cbe
00000180: a09d 89be 3edf 9c3e 63d1 943e ab43 e1be
00000190: 8726 3cbf 1178 1fbf ae67 c0bf 9037 febd
000001a0: 288d 87be 7a91 0dbd 8692 84be c08d 82bf
000001b0: 64f4 803f b0c0 79bd da64 94bf 2bce 53bf
000001c0: bdef 8ebf 6eb5 b1bf 284e 30be d7f3 cd3c
000001d0: 77c5 a4be f7d3 0abf 294e 39bf 3b57 fcbe
000001e0: af24 a5bf 729a 96bf 7b3d 03bf 8ccc 53bf
000001f0: 424b 30be ce11 cabe 66a4 70bf b698 d3bd
00000200: a87b 243f 44a1 1abf 7401 5e3b 631d 8fbe
00000210: 6a74 713f a309 a8be bcda 28bf 9853 b73e
00000220: c05c 25bd c1d2 4f3e 0e72 6fbf c2a6 1c3e
00000230: a29b 273f 9bb2 b5be 9114 03bf bd7f 77be
00000240: 1d80 2dbf fd0b 72be 6deb 123f 085c d3be
00000250: c5ef 9a3e 6707 f8be c3d0 483e 75b0 18bf
00000260: 7e74 a13c 789d 45bf 9f5e 2ebf 53a2 aabe
00000270: 3cc7 2fbd 27da f0be 0c58 8c3c 232d 563e
00000280: 7216 b23e 068b 93bd 2658 dfbe 7ba0 3b3d
00000290: ac28 80bf 04f0 1fbf 7c0c 86be 55fb 5abe
000002a0: 24b5 1e3f 1e25 0a3d 7ac1 803e fc5d 99bf
000002b0: 9ed5 c4be 859d d63e 32bc 823e d1b0 b6bf
000002c0: e711 d6bf 4082 f7be ca67 143f bd17 f2be
000002d0: 5d97 89bf 8b66 13bf 0ca5 aabb 17a2 48bd
000002e0: 943e c2bf 5a08 31bf 370a 77bf 08fc 7ebe
000002f0: 3876 41be 3afb f2be dd1b 483e 3eb3 dcbe
00000300: 7e38 9ebe 4baf 983c 6dc9 a1be 7c8a a4be
00000310: 2530 e13e 60df 523f 006a 983e bc03 d2bf
00000320: ce77 f93d c6b9 61bf 2125 39bf 516e ffbe
00000330: fda0 353e 28aa 63bf 654c f83e 61df e7be
00000340: af2b 27bf 533f 8bbf 693b aabf 541a ac3d
00000350: e516 0dbf d655 30bf 5c5a bb3e 291b 0c3f
00000360: 73e1 01bf e50f aebf 5c2e 8ebf 01d9 a6be
00000370: 577d 04bf 17e7 92bf 8acf 95be 9a9e e5be
00000380: 4d5d 18bf 480f 2d3f 9a38 4abf 06f2 183f
00000390: ac2c 7f3f d465 f6be 1819 8fbe 4bf4 823e
000003a0: b5dd 72bf 514b c33e 0dff dabe 2dfa a8be
000003b0: 0f10 0fbf 69d6 2ebf 4220 563b 366b 513f
000003c0: 2e32 00bd 094a 1f3e 3d60 c9bf 6db5 31bf
000003d0: df4c 65bf c120 7cbe 78ed 26be bc1c ff3d
000003e0: 471a 66bc fdd3 34bf 9a6c a1be 2ecd a8bf
000003f0: 5931 473f 4eb9 5f3e 690b 9abf fdb7 16bf
0.06670758 0.049094584 -0.3188836 -0.08459359 -0.48674715 -0.8208624 -1.2045316 -0.87290865
-1.0282379 -0.6895698 0.25984085 -0.33507293 -0.30474436 0.92577815 -0.6888854 -1.207629
0.7141683 -0.61977416 0.30321208 -0.87351745 -0.61002785 -0.6329169 -0.50649637 -0.5049294
-0.14795229 0.3434352 -0.23780003 -0.97475296 -1.450783 -0.040298034 0.9393686 -0.48009643
-0.83986247 -0.31750607 0.16047658 -0.37962666 -0.2876675 -0.553228 0.14855376 0.56086904
-0.0480143 1.3997018 0.526729 -0.28354436 -0.25597644 -0.36177024 0.22861189 0.18101677
-0.59040177 -0.46085137 -1.2064841 0.45737293 -0.34289905 -0.38669682 -0.5583456 -1.4937745
0.09856047 -0.205179 -1.037855 -0.5708808 -0.88494605 0.34222054 -1.0634145 0.59240496
-1.2831973 -0.21693607 0.05859837 -0.654978 -0.32677174 -1.1198413 0.06417928 0.054883033
-0.2622592 -0.25318488 -0.24472359 -0.54479265 -0.81108004 -0.36911747 0.52780354 -0.32618514
-0.033885952 0.6700537 -0.7192389 -0.85010374 -1.4713118 -1.0784271 -0.755331 -1.2056422
0.57648206 0.13028012 -0.117122315 -0.9575865 0.18766765 0.16482715 0.17706859 -0.16807456
-0.2687807 0.3063907 0.29066 -0.4399694 -0.7349629 -0.6229258 -1.503164 -0.124129415
-0.2647488 -0.034562565 -0.2589304 -1.0199509 1.0074582 -0.060974777 -1.1593277 -0.8273646
-1.1166912 -1.3883493 -0.17217314 0.025140686 -0.32181904 -0.5422968 -0.7238489 -0.49285302
-1.290182 -1.1765883 -0.51265687 -0.8273399 -0.17216209 -0.3946671 -0.9400085 -0.10331862
0.64251184 -0.6040232 0.0033875378 -0.27952108 0.9431826 -0.32819852 -0.6595876 0.35805964
-0.040371656 0.2029524 -0.9353341 0.15297988 0.6547185 -0.35487828 -0.51203257 -0.24169822
-0.6777361 -0.23637386 0.5739048 -0.41281152 0.30261055 -0.48443148 0.19610886 -0.5964425
0.019708868 -0.77193403 -0.6811313 -0.3332697 -0.042914614 -0.47041437 0.017131828 0.20915656
0.3478275 -0.07204251 -0.4362194 0.045807343 -1.0012412 -0.6247561 -0.261814 -0.21384938
0.6199515 0.033726804 0.2514761 -1.1981807 -0.38444227 0.41917053 0.25534207 -1.427271
-1.6724213 -0.4834156 0.5797087 -0.47283736 -1.0749317 -0.57578343 -0.0052076634 -0.048982706
-1.5175347 -0.6915337 -0.9649996 -0.2490083 -0.18892753 -0.47457296 0.19541879 -0.431055
-0.30902475 0.018638274 -0.31598988 -0.32136905 0.43982044 0.82372093 0.29768372 -1.640739
0.12181054 -0.8817409 -0.7232228 -0.49888852 0.17737193 -0.8893151 0.48495784 -0.45287612
-0.6530103 -1.08787 -1.329938 0.08403459 -0.5511306 -0.68880975 0.36592376 0.54728943
-0.50734633 -1.3598601 -1.1107898 -0.32587436 -0.51753753 -1.1476773 -0.29259902 -0.44847566
-0.59517366 0.6760144 -0.7899262 0.597443 0.9967754 -0.48124564 -0.27948833 0.25577006
-0.9486955 0.381434 -0.42772713 -0.3300337 -0.5588388 -0.68295914 0.0032673036 0.81804216
-0.031297855 0.15555586 -1.5732495 -0.6941746 -0.8957042 -0.2462187 -0.16301525 0.124566525
-0.014044351 -0.7063597 -0.3152817 -1.3187616 0.77809674 0.21848032 -1.2034732 -0.58874494

shared_bn1.running_var f4 [256]
00000000: 40a9 6341 594b 4840 f4d9 6741 3868 2f41
00000010: f60f 7f41 1bd5 b440 7eb2 ab41 b6b7 d340
00000020: 88cf d640 c010 3c41 d944 c540 94d6 fd40
00000030: 6cc3 ea41 effb bd41 0a8c 853f 84a1 9d41
00000040: 001b 2340 1bda f340 6ccd a840 d5ca f641
00000050: f888 9540 e1ca a740 bb5e a141 5bac b73f
00000060: b0b5 013f d2f4 ee40 6b90 af41 f8a7 9841
00000070: 1535 0e42 2433 8d40 0fc8 5241 8b75 f140
00000080: 226c fb41 573d 283f d437 1940 262d fa40
00000090: 0054 903f ce27 4d41 0370 0341 74d9 c241
000000a0: 5b51 9340 4e90 b441 3044 c040 afef 243f
000000b0: 80b9 653f a6ed 3041 740a e640 5eb8 cd3f
000000c0: ba1f 9741 df03 9f3f 1f27 2d41 5a40 8641
000000d0: 7e5f b63f f185 3541 ec31 c641 9cd6 a241
000000e0: dee1 ff3f ccc4 9c3f a3f9 0641 9eee bd3f
000000f0: 9a38 c541 fc47 a640 e381 1641 a28f 9d3e
00000100: 02a7 8041 0a0b 973f b0ca 673e 5337 df41
00000110: 1d11 9e41 08ab a640 6949 3641 2717 b441
00000120: d4e4 4041 fa80 7d40 4c17 333f aa05 ac41
00000130: 24fc 9541 97c8 183e f7e2 4141 543d 0e41
00000140: f83c 0f41 e92b fc40 f2a0 0942 239b dd41
00000150: a318 2842 3d80 a640 ae36 b141 357e 3042
00000160: ff0f 4240 49c2 4240 012a f240 166c 2741
00000170: dae7 ca40 3f3d a441 f2e5 803f 6f0c 293f
00000180: 52a7 8f40 69e3 8040 a10d b240 a32e f840
00000190: 40b6 4f40 753b a33f d0cc a941 7e9a ad41
000001a0: 50c5 9f41 b81c b441 f31d 6740 ff3b 0b42
000001b0: 1699 ba41 e735 4641 a391 d741 de15 b841
000001c0: c35c 4c42 eff9 6641 c679 0a40 fedd 2841
000001d0: 55cc b63f f461 4541 c3d6 0c42 99a2 a03f
000001e0: 3a77 ac41 edc7 0142 7f43 7f41 7a7c 9a41
000001f0: f4a4 e93e e58d 7841 4d6b fd41 fd46 783e
00000200: 86cf 153f 75c5 0142 47b4 7c40 d1ed 1b3f
00000210: 35da 4641 b4e0 2740 fcf4 0141 a75a 4e40
00000220: c998 0041 4eb6 0940 7287 4b41 1761 b740
00000230: a0f3 2041 80a6 9540 12df ab41 130e c240
00000240: a390 4741 a475 3241 320a 4c40 086a a241
00000250: ccc3 633f 8cda 2641 a47c 8d3f d2f5 c441
00000260: 36de 2f41 14d7 f741 1285 fd41 1ceb 0540
00000270: 790c 183f 91fd 4240 78e2 b63f bbd7 f440
00000280: f50d d740 dd98 9341 4906 5a40 3eb7 e940
00000290: 2981 bc40 5c1e 7a41 66f0 db40 3ea6 3841
000002a0: 8e39 6f41 7923 933f 83f3 e041 1d2e db41
000002b0: 9752 c140 0a15 7541 ffbe 0741 181e 6941
000002c0: ced4 b341 ffce 9341 4962 0440 e1f5 a341
000002d0: 3130 4542 534d 9441 7822 1c41 6a75 0e41
000002e0: 71ac 3541 cd43 1142 0354 8f40 66ef a73f
000002f0: a11f 0641 b0e9 e140 0872 0340 9eb4 3840
00000300: 4972 173f 068f 5a41 decc 3940 105e de40
00000310: d1c4 2c40 8dad e940 c88a c740 a6eb f141
00000320: 40fe 7940 5764 e040 8e13 9940 73c6 6840
00000330: 6e25 9040 8d01 4f41 6168 5341 21d5 c941
00000340: b82f 2241 b2a9 c941 cc73 fc41 d63c 5741
00000350: 5e96 5941 ce95 f740 e64a 3e40 c73f 8340
00000360: 2631 0541 166f 1342 1cae 9441 5739 1642
00000370: acb1 a040 052c 4d42 8ecb 2242 2c58 ad41
00000380: ec3f 9441 77ca de40 6d3c ad41 0c72 6340
00000390: ca77 6b41 82a0 3341 c4d0 6c41 dd8e f63f
000003a0: b936 fb41 f2fd 533e b239 0c41 b232 b940
000003b0: ebe2 d640 8d1d af41 0a08 f640 aae8 5640
000003c0: f8e3 173f aceb 9841 9226 1442 96b1 1642
000003d0: 73dc 8740 52cb 8340 4ff5 2f41 bb50 e640
000003e0: 7059 fa3e c893 e941 9776 7541 d591 3541
000003f0: aaa6 0441 86eb 6f40 7489 a241 3246 9741
14.228821 3.1295989 14.490711 10.962944 15.941397 5.651014 21.462154 6.6161757
6.7128334 11.754089 6.1646543 7.9324436 29.34542 23.748014 1.0433362 19.703865
2.548523 7.620374 5.275076 30.84904 4.67297 5.2435155 20.171255 1.4349474
0.5066786 7.4673853 21.945517 19.082016 35.551838 4.4124928 13.173842 7.5455985
31.4278 0.657186 2.3940325 7.8180113 1.1275635 12.822218 8.214847 24.356178
4.603681 22.570461 6.0083237 0.6442823 0.89736176 11.05802 7.188776 1.6071889
18.890491 1.2423056 10.822051 16.781422 1.4247892 11.345201 24.774376 20.35479
1.9990804 1.2247558 8.435946 1.4838445 24.652637 5.196287 9.406711 0.30773646
16.081547 1.1800244 0.22635913 27.902014 19.758356 5.208378 11.392922 22.511305
12.055866 3.960997 0.69957423 21.502766 18.748116 0.14920269 12.117911 8.889973
8.952385 7.88036 34.407173 27.70075 42.02406 5.203154 22.1517 44.12325
3.0322263 3.0431082 7.5676274 10.463888 6.340802 20.529905 1.0070174 0.660346
4.489175 4.02776 5.5641637 7.755693 3.2454987 1.275252 21.225006 21.700436
19.971344 22.514023 3.611203 34.80859 23.324749 12.38816 26.946112 23.010677
51.090588 14.436019 2.1636825 10.554197 1.4281107 12.336414 35.20973 1.2549621
21.558216 32.44524 15.953979 19.31078 0.45633662 15.534642 31.677393 0.2424583
0.5851978 32.44283 3.9485033 0.60909754 12.428273 2.6230898 8.122311 3.224283
8.037301 2.151752 12.720568 5.730602 10.059479 4.6765747 21.483921 6.064218
12.472812 11.153721 3.1881223 20.301773 0.8897064 10.428356 1.1053662 24.62003
10.991751 30.980019 31.689976 2.092475 0.5939403 3.0467265 1.4287863 7.6513343
6.7204537 18.44964 3.4066336 7.3036184 5.8907666 15.632412 6.8730955 11.540586
14.951551 1.14952 28.118902 27.397516 6.041332 15.3176365 8.48413 14.569847
22.478909 18.476072 2.0684988 20.495058 49.297062 18.537756 9.758415 8.903666
11.3546 36.31621 4.4790053 1.3119934 8.382722 7.0597763 2.053835 2.886024
0.5915876 13.659918 2.903129 6.9489822 2.6995127 7.3024354 6.235691 30.240063
3.9061432 7.0122485 4.783637 3.6371124 4.504569 12.937879 13.212983 25.229067
10.13665 25.207859 31.556541 13.452353 13.599211 7.7370367 2.9733214 4.1015353
8.324499 36.858482 18.585014 37.555996 5.0216885 51.292988 40.698784 21.668053
18.531212 6.962215 21.654505 3.5538359 14.716745 11.2266865 14.800968 1.9262348
31.40172 0.20702341 8.764086 5.7874384 6.7152 21.88943 7.6884813 3.3579507
0.5933223 19.115074 37.037666 37.673424 4.2456603 4.1185694 10.99739 7.197355
0.4889636 29.197159 15.341453 11.348104 8.290689 3.7487502 20.317116 18.909275

fingerprint_fc.0.weight f4 [128, 256]
00000000: a970 ac3b 1a47 153c 0309 a2bc b165 ed3a
00000010: b34f 9bbd 8af0 4d3d e5d3 603b aa43 953c
00000020: dc86 0d3d 4eca 7a3c d3a2 5abd 77f1 3ebd
00000030: 87e6 f93c dff8 acbb f1ec 7a3c 19ad 073c
00000040: 7b61 2ebd d74e dabc aa24 21bc c3a6 963c
00000050: 7d02 ab3d 1c93 003d da20 dfbb ed6a 703d
00000060: 0961 b8bd 3778 48bc cebd 8c3c be83 553d
00000070: b52a 0a3d 8f50 eb3c 1b1d 5cbd 6e61 6dbc
00000080: 336f 0f3d b345 743d 4883 8cbd c6ef fe3b
00000090: caaf be3d c74e c5ba 3308 3bbb 48b7 63bd
000000a0: eb3f d4bc d6f6 20bd e60f 52bd f8c4 793d
000000b0: 7322 343d 86d1 5f3c f1d1 453d 8316 a4bc
000000c0: 75e8 b33c b6c5 4f3c afed 0e3d 2c69 a1bb
000000d0: 5004 c9bd 859a 26bd e17b b63c 001e 9fbc
000000e0: 892e bbbd ea0a c8ba 25d1 073c 907a b1bd
000000f0: a31d 1dbd b1fb 94bc 118a 093c 643a ba3d
00000100: 3a45 24bd 2307 cc3a 7b20 b4bd e613 abbd
00000110: 4d2e 92bb d5fe 513c 7fa3 583d 218e 62bc
00000120: 9c1b 5fbd 4999 73bb 0056 a03d 9892 d8bc
00000130: b91b 8a3c 9af2 a63d 0ea3 4cbc 5299 063d
00000140: 4284 cfbc 1c78 03bd e843 86b7 1873 8a3c
00000150: 1f0a 293d 6178 143d f97e f63c e4a6 e13c
00000160: ac39 85bd 0475 adbd 90b6 b83c aaa9 b13d
00000170: 6fb1 00bd 396b af3c 6dcd b2bd cccb 0dbb
00000180: e987 3abb 609d 0b3d c1c2 f0bc 9559 73bb
00000190: 1d61 93bb 656e 34bd 0851 a83c 60bd a33c
000001a0: 4c3c ddbc efaf 153d 5bc0 293d ca3e b73a
000001b0: 6c77 773a 7f20 28bd 9a52 0abc 1791 963c
000001c0: 4fc8 48bb 8c07 653d d5bb 95bc 6b0a 00bd
000001d0: 3a60 e63d 4242 75bc c530 1ebd 0e3d 6a3c
000001e0: ac4b 043d 2779 f93c 6b85 6c3b d479 b0bd
000001f0: 04fc 213b d928 b83d 7485 c93c 51e5 e0bd
00000200: 4874 b5bd e923 9bbc bb4a 8ebd a4e7 b83c
00000210: da10 3cbd 2036 433d 360d 383d 4b18 76bd
00000220: ff91 d43c ad6c 93bc e8b4 99bc 3771 cabc
00000230: b8ef 6fbd 759f 503d f77a ecbc 3e7b 323b
00000240: ff59 53bd 52dd d23b ba96 3bbd cec3 d6bc
00000250: 80eb 5238 4050 63bb d728 b3bd 8fe7 83bc
00000260: 7469 99bd 9a75 48bd 7d27 023b a580 813c
00000270: c173 51bb ca9e 493d cfd8 05bd 61d9 64bd
00000280: b819 74bc ee7c e33c eca3 b33a 893b a53c
00000290: d8a0 923c 76bc 683d aeca cb3c 8ada 4bbd
000002a0: 4fe3 1dbc 0a8f f9bd 3331 bebc e5fa 44bb
000002b0: 410e 77bd 2df8 80bd 237b 003b d7ae 803d
000002c0: 077a 2e3d cf8a ee3c 9ee4 60bd ebfd 20bd
000002d0: 2598 12bb 01e8 38bd f71c 3dbd 8305 ce3c
000002e0: 175e 033d cba0 0bbd 13e3 a23d ba9c 80bd
000002f0: cd47 2dbc 740c 463d 3a81 953d 274f 553c
00000300: c024 d23b 6a59 1cbb 4ad1 563d 06db 89bd
00000310: 1289 b3bd 7ca3 3abc 6410 6ebd d3b9 403d
00000320: 2ce8 6dbd 7fd8 b13d c9d7 553d 32c1 143c
00000330: 6563 5dbd 54ba bc3c c92c 20bd 526c abbd
00000340: 9f2e 6fbc 7cb7 bbbb 3e87 ee3c fcd8 8fbc
00000350: 1c2c 973b 8f72 0a3d 5148 033d e2f8 04bd
00000360: 83e5 fa3c 9be1 db3c 2172 ab3d 8d24 ebbc
00000370: 6c02 38bc b10a 87ba c5fc ff3c f836 ae3c
00000380: b05e bdbc 9bc8 40bc 1b96 09bc 785c 383b
00000390: e3c8 b2bc 0a88 613b 5816 34bc affc d6bc
000003a0: 81ec d6bb d832 573d ed6c 403d 66d9 513d
000003b0: cc4d ba3d fed6 4a3c c0f6 24bd e50a 83bb
000003c0: 0235 b93c a0a7 033d 5a94 2b3d 6a70 16bd
000003d0: 94b6 e73d 9aa4 623c 902b b13c 8f53 903c
000003e0: e257 583b 1533 fd3b 2604 08bd fa5a 3f3d
000003f0: d993 10bd 120e 0bbd 3203 55bc a296 2f3d
0.0052624536 0.00911119 -0.019779688 0.0018111971 -0.07583561 0.050278224 0.0034305986 0.018220741
0.03455244 0.015307022 -0.053377938 -0.046616998 0.030505432 -0.005278691 0.01531528 0.008281016
-0.042573433 -0.026648922 -0.009835402 0.018390065 0.08350084 0.031390294 -0.006809336 0.058695722
-0.09002883 -0.012235693 0.01718035 0.052127592 0.033732135 0.028724937 -0.053738695 -0.014488561
0.035018157 0.059636783 -0.068609774 0.007780048 0.09310873 -0.0015053385 -0.0028538823 -0.055594712
-0.025909385 -0.0392979 -0.051284693 0.06097886 0.043978166 0.013660794 0.04829592 -0.020030266
0.02196143 0.012681415 0.03489464 -0.0049258675 -0.09815276 -0.040674705 0.022275867 -0.019423485
-0.09139735 -0.0015262042 0.00828961 -0.08665955 -0.038358342 -0.018186422 0.008394734 0.090931684
-0.040105082 0.0015566092 -0.08795258 -0.08353405 -0.004461086 0.012817104 0.052890297 -0.0138278315
-0.05446969 -0.0037170222 0.07828903 -0.026437089 0.016858922 0.08151741 -0.012490047 0.03286106
-0.02533162 -0.032096967 -1.6005666e-05 0.016900584 0.041269418 0.036247615 0.030089842 0.0275454
-0.06505141 -0.084695846 0.02254799 0.08674939 -0.031419214 0.021413432 -0.08730588 -0.0021636365
-0.0028462356 0.03408563 -0.02938974 -0.0037132252 -0.004497661 -0.044050593 0.020546451 0.019987762
-0.02700629 0.036544736 0.04144321 0.0013980505 0.00094400975 -0.041046616 -0.008442545 0.018379731
-0.0030636971 0.0559154 -0.018278042 -0.031259935 0.112488225 -0.01496941 -0.03862073 0.014296783
0.03229873 0.030453278 0.0036090265 -0.08616987 0.0024716863 0.08992166 0.024599768 -0.10981239
-0.088600695 -0.018938022 -0.069478475 0.022571392 -0.04591451 0.04765904 0.044934474 -0.06008176
0.025948523 -0.017996157 -0.01876302 -0.024712188 -0.058578223 0.05093332 -0.028867228 0.0027234103
-0.0515995 0.006435075 -0.04579804 -0.026216414 5.0287228e-05 -0.0034685284 -0.08748024 -0.016101627
-0.07490817 -0.04894028 0.0019859963 0.015808413 -0.0031959864 0.0492237 -0.032677468 -0.05587137
-0.01489871 0.027769532 0.0013705469 0.02016999 0.017898962 0.056820355 0.024876919 -0.049768962
-0.009636714 -0.12185486 -0.02321682 -0.0030056771 -0.060316328 -0.06297336 0.0019604645 0.06283348
0.042596843 0.029118923 -0.054905526 -0.039304655 -0.0022368517 -0.04514313 -0.0461702 0.025149113
0.032072153 -0.03408889 0.07953467 -0.06279893 -0.010576201 0.04835172 0.07300039 0.01301936
0.0064130723 -0.0023857006 0.052445687 -0.067312285 -0.087663785 -0.011391517 -0.0581211 0.047052216
-0.058082744 0.086838715 0.052207742 0.0090792645 -0.054049868 0.023038067 -0.03910521 -0.0837027
-0.014598518 -0.00572866 0.029117223 -0.01755952 0.0046134125 0.033800658 0.03205139 -0.032463916
0.030627018 0.026840976 0.08371378 -0.028703952 -0.011231046 -0.0010302869 0.03124846 0.021266446
-0.02311644 -0.011766578 -0.008397604 0.0028131288 -0.021824306 0.003441336 -0.010991655 -0.026243536
-0.006558955 0.052538723 0.04697888 0.051232718 0.0909687 0.01238036 -0.04027438 -0.0039991015
0.022608284 0.03214228 0.041889526 -0.0367283 0.11314121 0.013833189 0.021627218 0.017617969
0.0033011367 0.0077270367 -0.03320708 0.04671762 -0.03529725 -0.033948965 -0.01300125 0.042868264

fingerprint_fc.0.bias f4 [128]
00000000: 4460 66b6 2c99 8c36 dfae b536 d3e4 2838
00000010: d96b eab6 2adf 77b5 32fe 9db6 7a8b cb35
00000020: dc97 1c36 9c5a e535 8865 bab5 baad b536
00000030: a8b4 27b6 78f8 e6b5 fe6d 61b6 88c5 8835
00000040: 3204 69b4 eaf1 8135 5f3e 2c35 8755 e5b5
00000050: 1796 12b6 94c6 b5b6 ceca 8cb6 a051 0136
00000060: 54ca 1cb7 4689 ab34 3ed8 2e36 e97e e3b5
00000070: 412d 7e36 8113 f3b6 bb3b a8b5 f9ce ea36
00000080: d804 4bb7 6ed9 04b6 da3f 1fb5 b01b cdb6
00000090: d852 39b5 35b4 a1b6 5529 4935 f986 0336
000000a0: 3a21 9fb6 2e04 0137 b6f2 acb7 9475 8e36
000000b0: 8a4d b535 e231 4eb5 97aa b0b6 7ca5 5e35
000000c0: 9f7e 1db7 2068 f436 aba3 b8b5 d6f1 34b7
000000d0: 3d4d bf36 2663 6a35 9372 c4b6 8225 4036
000000e0: 5802 72b6 60e6 7934 508c 35b6 1427 9ab4
000000f0: 774b 3e36 8003 a5b1 eb0c e1b7 0327 dbb4
00000100: 0612 4a36 26c8 0e37 3351 86b7 5cf2 5036
00000110: d3a5 25b7 1da8 a7b5 b0c6 b537 c265 70b5
00000120: 705b dd36 1969 2235 6e36 e5b6 79bc 24b6
00000130: 2476 10b8 e0ab 0a33 a39d 0134 ca49 41b5
00000140: 14c3 8a36 749a 6bb6 2f1a c735 c7a6 3f36
00000150: 9a05 cc35 114a dcb6 1e41 2735 3941 2ab7
00000160: 2c8c 83b5 cacb 89b6 a873 a936 b26a be35
00000170: d52b c8b6 1fd6 6a36 e402 a535 1eb9 96b4
00000180: e4f4 0836 90b2 ce33 426d 77b6 ef2a 38b7
00000190: 8a8a 9d36 28de 6237 741d 4235 967f d736
000001a0: 320b 47b5 0ae7 4635 f64c bbb6 b061 eeb5
000001b0: 48c0 2d36 1dfb 0637 eeeb 1db5 e44d 09b7
000001c0: fd7d f0b5 5f0c 8135 c27f 1437 78fc 1fb7
000001d0: c53c b9b7 c6d1 8cb5 b22a 4fb5 3b7b 2635
000001e0: 54f0 9535 0695 5b37 0d6f 3c37 287c 2936
000001f0: a1ad cbb6 6f2c 5136 36f4 d4b5 00ac bab3
-3.4328705e-06 4.1901567e-06 5.414578e-06 4.026743e-05 -6.9862986e-06 -9.2339417e-07 -4.708557e-06 1.5165272e-06
2.3334205e-06 1.70882e-06 -1.3887629e-06 5.414445e-06 -2.4990095e-06 -1.7208649e-06 -3.3591637e-06 1.0190279e-06
-2.1701342e-07 9.681655e-07 6.4165755e-07 -1.7086721e-06 -2.184306e-06 -5.417338e-06 -4.1959347e-06 1.927001e-06
-9.345433e-06 3.1951112e-07 2.605389e-06 -1.6949754e-06 3.787529e-06 -7.244235e-06 -1.2534359e-06 6.997838e-06
-1.2100871e-05 -1.9796094e-06 -5.932503e-07 -6.1126993e-06 -6.9038424e-07 -4.8191528e-06 7.493848e-07 1.9599086e-06
-4.7424373e-06 7.689972e-06 -2.0617019e-05 4.2456177e-06 1.3508118e-06 -7.681357e-07 -5.265068e-06 8.2942256e-07
-9.3874105e-06 7.2838884e-06 -1.3756702e-06 -1.0785143e-05 5.7012353e-06 8.7316073e-07 -5.8545934e-06 2.8632062e-06
-3.6062174e-06 2.3273742e-07 -2.7052774e-06 -2.8713168e-07 2.8356133e-06 -4.80253e-09 -2.6828106e-05 -4.0820314e-07
3.0110837e-06 8.51046e-06 -1.6011856e-05 3.1135487e-06 -9.873375e-06 -1.2491397e-06 2.1669402e-05 -8.9555044e-07
6.596958e-06 6.050264e-07 -6.8310683e-06 -2.454761e-06 -3.4442302e-05 3.228695e-08 1.2071409e-07 -7.200548e-07
4.1354306e-06 -3.5107632e-06 1.4834276e-06 2.8558295e-06 1.5200815e-06 -6.5651334e-06 6.2307106e-07 -1.0147975e-05
-9.801056e-07 -4.1066423e-06 5.0500566e-06 1.4187156e-06 -5.965567e-06 3.4993352e-06 1.2294299e-06 -2.8074368e-07
2.0408124e-06 9.625103e-08 -3.6869465e-06 -1.0977251e-05 4.6950927e-06 1.35223745e-05 7.231349e-07 6.4223523e-06
-7.414957e-07 7.4096954e-07 -5.5819937e-06 -1.7760813e-06 2.5890931e-06 8.045489e-06 -5.883038e-07 -8.183972e-06
-1.7918061e-06 9.61485e-07 8.851233e-06 -9.535921e-06 -2.2082017e-05 -1.0491865e-06 -7.717564e-07 6.2019143e-07
1.117131e-06 1.3088114e-05 1.1231529e-05 2.525523e-06 -6.0700845e-06 3.116929e-06 -1.5866306e-06 -8.6925866e-08

fingerprint_fc.1.weight f4 [128]
00000000: 3c9d 1e3f f956 5e3f cbb9 0f3f b304 513f
00000010: e2ce 373f ba58 1f3f 58f3 2f3f ab2b 183f
00000020: f4a0 313f 28a2 1c3f 6017 2b3f b031 0f3f
00000030: 1eb6 213f 1961 333f c02a 323f 4046 ed3e
00000040: ab10 2e3f e69a 363f e0e6 263f 0b40 223f
00000050: b7e6 313f 3882 3c3f 3c1a 283f b55d 363f
00000060: f9cf 163f dd22 2f3f f6af 393f 04ca 433f
00000070: 74e6 2d3f 7e40 273f 5801 223f 23a5 2b3f
00000080: 4cb0 363f 3868 1e3f a699 193f 7b80 243f
00000090: b084 163f 1495 423f 4e85 143f 01ae 133f
000000a0: 4871 2f3f 7c88 3f3f 2634 4d3f 4c24 2d3f
000000b0: 3443 1e3f 9de6 283f 63f1 223f af23 213f
000000c0: db17 313f 9b96 333f c614 273f 6715 3b3f
000000d0: 13d7 1a3f 6c18 253f 92aa 373f daba 1e3f
000000e0: baa1 0e3f 0b5e 083f 59e4 1e3f bccf 213f
000000f0: 07c1 1a3f 42fb 2d3f 4b2d 4f3f fa9d fe3e
00000100: 9d82 303f cff2 223f eee9 413f 49cd 263f
00000110: 6c4b 453f e97c 0a3f 5d94 483f a496 0d3f
00000120: fd23 353f 2f70 303f fe83 283f 408a 353f
00000130: 08e7 383f b0de 2b3f 2067 203f 5f32 433f
00000140: 1d37 1a3f aff3 1c3f a879 163f b7b7 543f
00000150: 28b8 2c3f 5e29 113f 0d73 2d3f 767c 3c3f
00000160: 64b3 213f 758a 3a3f bf2a 213f 6945 273f
00000170: 4bfd 1a3f 8517 153f 0fd0 313f c7a6 0e3f
00000180: 4058 393f 49de 013f c7a2 383f 47e5 583f
00000190: 3308 3e3f d36d 423f 42c0 413f 93ef 383f
000001a0: eae7 293f 746d 273f 4d90 1b3f 7d86 123f
000001b0: 4add 273f d630 2f3f dc2b 243f a7c9 1a3f
000001c0: 58e4 d83e 2513 233f 161a 453f cb6c 353f
000001d0: 8ae4 453f 4010 203f 4c96 363f bdd3 193f
000001e0: 0bb5 2a3f d894 343f 30b3 3f3f a9db 193f
000001f0: d7d1 4a3f 443d 383f 1dd9 2e3f fee9 273f
0.6195867 0.8685146 0.5614287 0.81647795 0.71800053 0.6224476 0.6873069 0.5944163
0.6938622 0.6118493 0.6683254 0.5593519 0.63168514 0.70070034 0.6959648 0.4634266
0.67994183 0.71330106 0.6519604 0.6337897 0.6949267 0.736362 0.6566503 0.71236736
0.5891109 0.6841257 0.7253412 0.76480126 0.6792977 0.6533278 0.632833 0.67048854
0.7136276 0.61877775 0.60000074 0.64258546 0.58796215 0.76008725 0.58015907 0.57687384
0.6853223 0.74817634 0.801577 0.6763351 0.61821294 0.6597689 0.63649577 0.62945074
0.69177026 0.7015168 0.6526607 0.7307953 0.6048443 0.6449039 0.71744645 0.6200386
0.55715525 0.532685 0.6206718 0.632076 0.60450786 0.67961514 0.80928487 0.49729902
0.689493 0.63651747 0.75747573 0.6515699 0.7706821 0.5409685 0.78351384 0.55307984
0.7075804 0.6892118 0.65826404 0.7091408 0.72227526 0.6713667 0.62657356 0.76248735
0.60240346 0.6130933 0.5877938 0.83092827 0.674685 0.56703746 0.6775368 0.7362741
0.63164353 0.7286752 0.6295585 0.65340286 0.60542744 0.5823901 0.694581 0.5572323
0.72400284 0.50729805 0.7212338 0.8472485 0.7423126 0.7594883 0.7568399 0.7224056
0.663695 0.6540139 0.6076706 0.5723646 0.65572035 0.6843389 0.64129424 0.6046395
0.42361712 0.6370109 0.7699293 0.7086913 0.7730185 0.62524796 0.71323085 0.6008871
0.666825 0.7053962 0.74882793 0.601008 0.7922644 0.71968484 0.6830004 0.6559142
