DNN/best_model.pth (torch, 854581 bytes, 26 tensors)

weight f4 [512, 64]
00000000: cf73 cabd c08f 79bd 18a1 9cbd b874 06bd
00000010: 666d 4b3d 9861 0c3d 4373 143d 4ad4 373e
00000020: b0e1 7d3d 8736 713e e632 553b 80de 7dbd
00000030: 2212 0b3d 9a1e 48be ee6d 88bd 6a9b c0bc
00000040: b499 abbd 420a 92bd 5111 9dbc f999 823e
00000050: 1997 0b3e b34f dcbd bc36 59bc 99eb 54bd
00000060: 0c0c 0d3e 5839 ce3b d416 80b9 559e 57bd
00000070: 97cd 993d 9cfc 68be 360b 1dbe c5e8 42be
00000080: 33ac eabd 0104 893c c7e5 9abc 1223 09be
00000090: 54eb eb3d 7197 623e 7cfe f23c eebc 1bba
000000a0: 4229 863b 73cc 0f3e f93a 0c3e 96f0 6cbd
000000b0: acff 283e 9854 5abd 7a3c b33d b231 79bc
000000c0: 58ab dfbd 1cf2 363d 0aa8 cf3c faca 003e
000000d0: 6b56 0c3e 311a 443d e3c5 013d 6401 1dbd
000000e0: 3f47 3ebb 45ae 073e c486 cbbd f599 8e3e
000000f0: 7418 f73d 7022 c8bb 47cc 39bd a31d 583d
00000100: f2f7 9dbd 789e b0bb a244 10bc 45d4 183d
00000110: ea31 e3bc 0091 d2bd 43e9 27bd 19d7 063e
00000120: 49b3 af3c 85a6 6f3d 1b69 63bc f620 abbd
00000130: d9c0 26bd f528 51bc 4469 6f3e 44dd 45be
00000140: ed79 a3bd 2ba7 d93d c171 89bd 970d febd
00000150: 0520 8bbd 44a3 823d 6e70 153c 46f2 3dbc
00000160: 3ee0 193e a448 2abd 763e 283d 7fc8 563d
00000170: b28b a0bd 33a4 f23c 6c77 19be a21c e9bd
00000180: b100 1cbc 78b6 eabc bbad fcbb 6395 74bd
00000190: 0986 bfbb e78c 75bd dc1c 16bd c54e 733d
000001a0: eee7 3f3d 2cbf 003b 3a05 0ebe d64b 52bc
000001b0: e896 d0bc ef2e c3bd bff6 18be ba7e 9fbd
000001c0: c94b b0bc c9a1 17bd b149 afbc f3c4 53be
000001d0: 5c4c e0bd 89d6 c5ba 2cec ddbd cba0 d93d
000001e0: 2aff b9bd de09 0e3e 9009 97bd 8ac9 b73e
000001f0: 82f4 26bf 878b 1b3d 1cc3 a1ba d7a7 bb3d
00000200: 96d3 8339 9961 42bd b841 bd3c 4d5f 5e3d
00000210: c0b4 9ebd 3b19 973d 6c35 453d 05d3 0fbd
00000220: b5c2 ae3c 6b26 00be f33d abbb 8436 e9bb
00000230: a2c2 823d df06 013d 1fd8 1b3e 69ee 743d
00000240: 0049 d0b9 0dd1 8dbc 992c 343d 0942 d3be
00000250: ed0f 1cbe d257 383d 216a 753e eea4 443d
00000260: eb79 0f3e 0069 f53c ebcf d0bc db01 a73c
00000270: 2f8f 3fbd ee49 533c 6e8f f13d 6c3e b8bc
00000280: 345e 1fbd 8118 d1bd 2d1c a93d 1bad 18be
00000290: bc63 87bd 3fb0 f63c 28d8 1b3d 780e 463c
000002a0: 5c92 a8bd 06a4 7c3d 0b2e de3c 68d7 e9bd
000002b0: cc3f c8bc ac57 15bd 0aa7 40bd f54c 1c3c
000002c0: 2260 8f3e ec3e 2a3e 9c89 f13d 39e3 a4bd
000002d0: 48a6 98be 80fa 11bd d091 a4bd 6fe2 5b3e
000002e0: 9ff8 b9bd 683a 64be c279 dcbb 608e 74be
000002f0: 8b70 87be 5dfc 5fbd 2473 e1bb e777 3cbd
00000300: 8edc 99bd 4c7d 8dbc 327d 463d e3b3 903e
00000310: 7bef a8be 6b12 493e e171 a3bd d22b 813c
00000320: b978 92bd 0b9e 5dbe 799e 313d 7148 0dbd
00000330: 4350 6a3b d62f 35bd 0957 d0bc 6559 843e
00000340: a551 183e 365c 86be 9141 173e 97b6 7fbd
00000350: 6240 0bbd 4fce 163e ebfc 58be 6835 eabb
00000360: 287b 163d f65c 5cbd eba2 0abe 93f2 a53c
00000370: 38d1 623c 3d89 0bbd 80ae 833d daf5 673d
00000380: a11e 6bbd cd25 a6bb d8d3 ac3c f686 233d
00000390: 1191 083e 4925 a2bc e007 80bb dc5c d5bc
000003a0: cc39 ecbb 57cb 103a 1324 03bd 1db9 8a3d
000003b0: ee69 bbbc 4259 a53c 3d6b 7b3c 261e 4c3c
000003c0: 89d0 a53c 6830 7bbd e128 65bc 5468 a4bd
000003d0: e80e 8bbe 3bd9 94bd b486 353e f729 b7bd
000003e0: f57b 20be f251 1abe ff00 2c3e c085 d0bd
000003f0: 40c3 d9bc 90c8 40be 539c 953d 0f9e 7fbc
-0.0988537 -0.060928106 -0.07647914 -0.032826155 0.049664877 0.03427276 0.036242735 0.17952076
0.06198281 0.23555957 0.0032531559 -0.06197977 0.03395284 -0.19542924 -0.066615924 -0.023511607
-0.08378926 -0.07130863 -0.019173296 0.25508097 0.13631858 -0.10757389 -0.013257679 -0.051982496
0.13774127 0.006293457 -0.0002443107 -0.05264123 0.07509916 -0.22752613 -0.15336308 -0.19034107
-0.11458626 0.016725542 -0.018908395 -0.13392285 0.11519495 0.22128083 0.029662363 -0.00059409335
0.004094274 0.14042835 0.13694371 -0.057846628 0.16503781 -0.05330333 0.08751769 -0.015209602
-0.10921353 0.044664487 0.025348682 0.1257743 0.13704841 0.04787654 0.03168286 -0.038331404
-0.0029034165 0.13250072 -0.09937814 0.27851835 0.12065211 -0.006107621 -0.04536083 0.05276264
-0.077133074 -0.0053899847 -0.008805426 0.03731181 -0.027733762 -0.10281563 -0.04099394 0.1316799
0.021447795 0.058508415 -0.01388004 -0.08355896 -0.040711258 -0.012766113 0.2338 -0.19322687
-0.0798224 0.10627588 -0.0671115 -0.12404936 -0.067932166 0.06378797 0.009121044 -0.011593407
0.15026948 -0.04157318 0.041075192 0.0524373 -0.07839145 0.029619312 -0.14986962 -0.113824144
-0.009521649 -0.028651461 -0.00771114 -0.05971278 -0.0058448357 -0.059948828 -0.036648616 0.059401292
0.046852045 0.0019645197 -0.13869181 -0.0128354635 -0.025462583 -0.09530436 -0.14937876 -0.07787843
-0.021520512 -0.037019525 -0.021397443 -0.20680599 -0.109520644 -0.0015093844 -0.10836062 0.10626372
-0.09081872 0.13870952 -0.07374871 0.3589595 -0.6521684 0.03797486 -0.0012341472 0.09162872
0.0002514391 -0.047456358 0.023102626 0.054290105 -0.07749319 0.07377859 0.04814665 -0.035113353
0.021333078 -0.12514655 -0.005225891 -0.0071170945 0.063847795 0.031500693 0.15219162 0.05979768
-0.0003972724 -0.017311597 0.043987844 -0.41261318 -0.1524045 0.045005627 0.23966266 0.04800885
0.14011352 0.029957294 -0.025489768 0.020386627 -0.04676741 0.012896044 0.11794935 -0.022490703
-0.0389082 -0.10209752 0.08257327 -0.14909784 -0.0661082 0.030113338 0.03804794 0.012088411
-0.08231041 0.061679862 0.027121564 -0.114180386 -0.024444483 -0.036460564 -0.0470343 0.009539832
0.2800303 0.16625565 0.11793825 -0.08051152 -0.29814363 -0.035639286 -0.08035624 0.21473096
-0.09080624 -0.22287905 -0.006728382 -0.23882437 -0.2645305 -0.05468403 -0.006880181 -0.046012785
-0.075127706 -0.01727166 0.04845924 0.28262243 -0.3299521 0.19635932 -0.07980705 0.015767965
-0.07151932 -0.2164232 0.043364022 -0.034492914 0.0035753406 -0.044235073 -0.025432127 0.25849453
0.14874895 -0.26242226 0.14771105 -0.06242999 -0.033996947 0.14727138 -0.2119023 -0.00714748
0.036738545 -0.053799592 -0.13538711 0.02025727 0.013843827 -0.034066427 0.064297676 0.056630947
-0.057402257 -0.005070424 0.021097109 0.03992363 0.13336588 -0.01979317 -0.003907189 -0.026045255
-0.0072090384 0.0005523464 -0.032016825 0.06773589 -0.02287766 0.020184163 0.015345392 0.01245836
0.020241039 -0.06132546 -0.013986797 -0.080277115 -0.2715981 -0.07267996 0.17727166 -0.08943551
-0.15672286 -0.15070322 0.16797255 -0.10181761 -0.02658236 -0.18826509 0.07305207 -0.015601649

bias f4 [512]
00000000: ee36 1937 fef6 ecb6 6553 d9b6 5c79 a535
00000010: a244 d537 928d 91b6 5630 1636 277c 91b7
00000020: 3991 9835 7288 a2b7 ba18 aab6 5467 0cb6
00000030: 9403 35b6 8e58 1db6 99d8 8036 8c7f d036
00000040: dde4 0f36 e498 6eb7 6720 0eb6 b561 4ab7
00000050: 284f cb36 e642 e5b6 7a43 4eb6 9232 8c35
00000060: 7b3d e035 55d9 8cb5 b8e6 b234 e0e0 7335
00000070: ea23 1137 febc 8435 1677 9035 398d 8e35
00000080: 8aa4 5536 c57b 22b8 a89b f5b6 678b b934
00000090: c4d7 02b7 7b80 1337 8e6a bd35 4267 1a35
000000a0: 1ea9 2b36 2371 09b6 abf6 ca36 a67a 4b36
000000b0: ea7b e6b7 b464 1cb4 bf7f a836 88af c733
000000c0: ccc9 8836 ff52 07b6 231f 0037 8e13 38b7
000000d0: d7c9 b336 be69 a3b5 2631 2238 c55b f6b4
000000e0: d434 f134 0966 0f35 651e 8e35 f071 8eb6
000000f0: c052 f033 8484 9f36 51bf 07b7 4896 e836
00000100: 6329 90b6 ad49 8cb4 b89c 98b6 d85b abb7
00000110: 3a0b c936 67c1 9535 1e99 6035 8467 ce35
00000120: de43 7a36 dc97 98b5 21e8 6634 de36 7135
00000130: 7b71 2eb4 e00f 39b6 383d 4ab5 8540 1336
00000140: fb66 f6b5 863a 5b37 7318 c2b6 d60b 8eb5
00000150: 899f b7b7 98af 1a37 daa8 0db7 c28c e235
00000160: 1f84 9936 6beb d335 9ffb 88b7 90d9 2d37
00000170: 5f85 8b35 83f7 1f36 0ec3 77b5 a8b2 97b5
00000180: 1d9a 26b7 a794 2d36 89a5 c836 e9a1 ff35
00000190: 1a19 1736 4b1c 3136 b17a 81b7 3a28 c635
000001a0: 35b0 70b6 c120 26b6 2731 e136 12a4 3135
000001b0: ee3f 3236 d626 34b7 8a46 0d38 053b 0fb6
000001c0: bd0c a1b5 ea55 0c37 e00f e436 24bb d435
000001d0: 384e 0536 7ea2 d1b5 4ea6 32b5 b0ce 06b5
000001e0: bf05 b9b6 6d8b 2937 48f9 df35 0fe0 1435
000001f0: 8081 0e36 b150 ad38 8e67 9235 4ea4 0b37
00000200: 38fa 0536 e4d0 89b5 8cda c535 5b08 aab5
00000210: 6131 8bb5 5c72 4235 2c44 4834 f07e 05b5
00000220: 5d83 db37 b21f 46b7 b8c2 1537 1499 5538
00000230: 9fa8 6636 05e6 a735 f899 d8b5 b26e 6d36
00000240: d737 a5b8 57ee 8db6 403e 6136 e849 06b7
00000250: ac84 53b6 74b7 aeb5 5232 38b7 f44a 8db5
00000260: 5f45 8b34 4c2a 6c36 f719 deb6 328b 3bb7
00000270: 9885 e635 fe36 ddb7 745c 9fb6 062f 8cb6
00000280: 325b 6435 3a6d 3934 d268 bfb6 aa2e f0b6
00000290: a984 99b6 c73c 75b3 684d 8f37 40cd 9436
000002a0: 4675 ab35 835f 1237 d8a1 af35 919b 1635
000002b0: 045c ebb5 d9f1 f4b4 7819 01b5 82e6 fa35
000002c0: 9899 0c37 12f0 ad35 cc8d b6b6 82fa 8b36
000002d0: db0a de34 68bc 4434 4f14 34b6 8072 e933
000002e0: 4b8a 0cb5 ed1c 6f37 dd94 6936 5c29 9cb5
000002f0: ac8b 1b34 ac65 9834 d584 9cb6 64b4 5a36
00000300: 7547 bfb6 ee78 2036 923e c636 6a90 d4b6
00000310: 6853 55b5 c86c 1c36 1f3b 9336 1e74 5bb6
00000320: 44c5 4d36 9ba9 09b6 097b 8337 fdc1 d635
00000330: 2fa1 0936 5576 41b6 38a2 c4b6 2035 72b6
00000340: 0aee 2f35 e0d8 aeb7 2e3e 1cb6 e192 a634
00000350: 1bf1 16b6 5424 1b37 dfba 01b6 8c32 3fb4
00000360: 83b4 2f36 b627 75b6 97ce 3a38 9c10 a0b5
00000370: bff7 6bb5 f5d6 bc35 647b 3fb6 fc4b 22b6
00000380: 16e3 68b6 3adc bc35 7ad6 c534 ab92 e9b5
00000390: cebd 9a36 2529 4d36 a685 9036 6422 d4b5
000003a0: 4d87 2438 1a57 d736 0680 be36 70c3 a835
000003b0: d32f e1b5 997e 2438 3497 6f36 5e56 5137
000003c0: 13ce b836 7352 81b7 9f3c ceb4 94fc 41b6
000003d0: 14ca afb5 92da 7d36 1f27 ed36 8510 c4b5
000003e0: cb46 bfb6 66a5 2937 fc82 27b5 744b 57b5
000003f0: 80e0 f0b2 f716 7636 7ba8 4936 9504 b8b7
9.1323e-06 -7.0621018e-06 -6.4768124e-06 1.2328778e-06 2.5423538e-05 -4.3378177e-06 2.2379877e-06 -1.734316e-05
1.1367148e-06 -1.9375442e-05 -5.0692734e-06 -2.092177e-06 -2.6973185e-06 -2.3446369e-06 3.8399126e-06 6.2137315e-06
2.1441876e-06 -1.4221503e-05 -2.117851e-06 -1.2062887e-05 6.0590864e-06 -6.83252e-06 -3.0735669e-06 1.0445531e-06
1.6707194e-06 -1.0494065e-06 3.3322954e-07 9.085179e-07 8.651035e-06 9.88977e-07 1.0763495e-06 1.0620926e-06
3.1835248e-06 -3.873908e-05 -7.3196898e-06 3.4560364e-07 -7.798841e-06 8.791797e-06 1.4112609e-06 5.751973e-07
2.5579425e-06 -2.0480445e-06 6.048785e-06 3.0320748e-06 -2.7475839e-05 -1.4565268e-07 5.0216618e-06 9.2985886e-08
4.076608e-06 -2.0164878e-06 7.636644e-06 -1.0971808e-05 5.358113e-06 -1.2175221e-06 3.8669583e-05 -4.5887842e-07
4.4928186e-07 5.342013e-07 1.058867e-06 -4.245194e-06 1.1190923e-07 4.753996e-06 -8.091171e-06 6.931634e-06
-4.2963525e-06 -2.6130638e-07 -4.5481975e-06 -2.0427557e-05 5.9915737e-06 1.1157653e-06 8.366932e-07 1.5378323e-06
3.7292407e-06 -1.1369079e-06 2.1504867e-07 8.985934e-07 -1.6246297e-07 -2.7576389e-06 -7.533995e-07 2.1942262e-06
-1.83584e-06 1.3067043e-05 -5.784497e-06 -1.0583269e-06 -2.188959e-05 9.219999e-06 -8.443569e-06 1.6879278e-06
4.5751362e-06 1.5789241e-06 -1.6329634e-05 1.0362259e-05 1.0395123e-06 2.3836917e-06 -9.229851e-07 -1.1302373e-06
-9.930253e-06 2.5865536e-06 5.9797353e-06 1.9046103e-06 2.2515364e-06 2.6391524e-06 -1.5435131e-05 1.4763857e-06
-3.5865353e-06 -2.4754993e-06 6.7112446e-06 6.617639e-07 2.656128e-06 -1.0737878e-05 3.3682714e-05 -2.1343014e-06
-1.1999142e-06 8.364654e-06 6.7967776e-06 1.5849696e-06 1.9864074e-06 -1.5619005e-06 -6.655217e-07 -5.021966e-07
-5.5140986e-06 1.0105648e-05 1.6687345e-06 5.5460345e-07 2.1235028e-06 8.264313e-05 1.0907986e-06 8.323301e-06
1.996419e-06 -1.0268091e-06 1.4741249e-06 -1.2668419e-06 -1.0370678e-06 7.2437047e-07 1.8651252e-07 -4.973108e-07
2.6168005e-05 -1.1809099e-05 8.926429e-06 5.0925722e-05 3.4370821e-06 1.2509414e-06 -1.6138065e-06 3.5380185e-06
-7.878214e-05 -4.229874e-06 3.3563847e-06 -8.00423e-06 -3.1518675e-06 -1.3017402e-06 -1.0978971e-05 -1.0527133e-06
2.5941242e-07 3.519136e-06 -6.6191383e-06 -1.11784775e-05 1.7175216e-06 -2.637086e-05 -4.749332e-06 -4.1777994e-06
8.5069325e-07 1.7269204e-07 -5.7044463e-06 -7.15799e-06 -4.575199e-06 -5.7098784e-08 1.7082973e-05 4.434638e-06
1.2774624e-06 8.724516e-06 1.3085619e-06 5.6105733e-07 -1.7535644e-06 -4.562451e-07 -4.8093307e-07 1.8693538e-06
8.380412e-06 1.2959374e-06 -5.44053e-06 4.1716858e-06 4.135862e-07 1.8322464e-07 -2.6833911e-06 1.08707354e-07
-5.2355307e-07 1.4252245e-05 3.4806355e-06 -1.1634943e-06 1.4486312e-07 2.8386182e-07 -4.664626e-06 3.2589533e-06
-5.7005623e-06 2.3912248e-06 5.908144e-06 -6.3349044e-06 -7.9470055e-07 2.330913e-06 4.387824e-06 -3.2701132e-06
3.0662204e-06 -2.0513314e-06 1.567371e-05 1.60007e-06 2.0508412e-06 -2.882812e-06 -5.86014e-06 -3.6091733e-06
6.553897e-07 -2.0843407e-05 -2.3282005e-06 3.1026778e-07 -2.2492084e-06 9.247178e-06 -1.9331271e-06 -1.780665e-07
2.6182104e-06 -3.653096e-06 4.4538257e-05 -1.1925763e-06 -8.790484e-07 1.4069652e-06 -2.853304e-06 -2.418411e-06
-3.4702875e-06 1.4071186e-06 3.6850162e-07 -1.7402539e-06 4.611654e-06 3.057133e-06 4.307093e-06 -1.580524e-06
3.9226656e-05 6.4176393e-06 5.677345e-06 1.2573855e-06 -1.6777725e-06 3.921855e-05 3.5701787e-06 1.247748e-05
5.5076175e-06 -1.5416392e-05 -3.8414598e-07 -2.890626e-06 -1.3097329e-06 3.7827162e-06 7.0677047e-06 -1.4607946e-06
-5.700485e-06 1.0111695e-05 -6.2402955e-07 -8.020354e-07 -2.8041768e-08 3.6670224e-06 3.0049403e-06 -2.1936643e-05

weight f4 [512]
00000000: cf72 763f 9245 773f d86a 833f b845 263f
00000010: a35b 793f bc9a 773f 9a90 3a3f 5dcc 623f
00000020: 0b9b 093f 2d91 3b3f 765d 153f d4f8 033f
00000030: a625 243f d3db 173f fcc8 283f e10b 403f
00000040: fd94 6f3f 0391 4f3f 72cc 503f 461c 743f
00000050: 22c3 2e3f d0d4 513f 0f49 243f 4ff8 db3e
00000060: 9bdf 363f 89f3 233f 12a0 363f 889c 223f
00000070: 345c 373f 9287 643f 1683 4d3f f7b2 f23e
00000080: 34b5 413f 6d7f 873f 1a50 483f 4518 253f
00000090: 39fb 293f 9c6f eb3e 0ff3 ce3e 91dd 1f3f
000000a0: 4ff5 083f a496 0a3f 9626 563f b552 293f
000000b0: 5986 443f e874 1b3f b484 3c3f 60a2 423f
000000c0: 3604 523f ba0a ed3e 6af1 833f af70 313f
000000d0: 4426 7d3f 1781 1c3f e4b9 743f f0e3 e33e
000000e0: abc7 dd3e d53a 213f 660d 0e3f 6b92 7c3f
000000f0: 3b1d 2e3f 6419 083f fdc2 2b3f ccdd 413f
00000100: 3071 203f 911b 233f 4e75 2a3f 331a 8c3f
00000110: 8f72 2d3f 94c5 b53e 9c55 0d3f 7215 3d3f
00000120: 24e3 4a3f aa95 1f3f d71f 203f e9b2 233f
00000130: 78d2 d63e 65b5 633f 6e05 8f3f 5c0a 2f3f
00000140: 1db5 533f dba1 483f 2607 323f 8122 353f
00000150: f135 533f 9aeb 193f 99ea 2c3f e320 163f
00000160: 8a4d 403f a1c8 113f a94f 323f 62bd 333f
00000170: 483a 163f b6a8 263f fde1 0a3f f8da f63e
00000180: d0a2 0a3f 3e9a 893e e823 3e3f ce68 283f
00000190: 176f 1e3f d8f4 f23e 0f47 633f fe8d 0d3f
000001a0: 8344 5c3f f11f 4c3f 2892 2f3f 8141 173f
000001b0: ad67 113f dcaf 313f 0a27 4f3f 20ac 043f
000001c0: 8c3f 2d3f 84d2 5c3f 468e 543f 92f9 323f
000001d0: 4515 133f c92b 123f 9566 083f 6af2 4b3f
000001e0: ebf4 2c3f 45a8 5c3f e895 303f 255c 6a3f
000001f0: 060c 103f c830 7c3f 21ca 563f a94c 203f
00000200: 5985 4b3f 46e5 0d3f 8e6e ff3e e3b3 263f
00000210: be2b 453f e217 4e3f 5afa 0f3f bd52 303f
00000220: 8f0e 533f 78d5 073f c7c7 253f 0ca1 7c3f
00000230: c555 243f 8179 573f 34e4 563f 6ab2 2b3f
00000240: b559 813f 8970 2e3f 9a91 133f 655e 2c3f
00000250: f777 3e3f 6166 3d3f 4825 4b3f 4b6c fd3e
00000260: 822b e03e aa7b 5b3f ba73 2e3f 0a9b 423f
00000270: af5a 253f 9b50 843f 190f 513f 2ac4 523f
00000280: 3200 2a3f d2fe 603e bf24 553f a630 fd3e
00000290: 3f03 1d3f fa83 0a3f 897c 493f 2df8 423f
000002a0: 0f58 5c3f 1c76 683f d5c1 113f 7329 4e3f
000002b0: 784c ff3e 61df 273f 0992 443f e739 2d3f
000002c0: 46f1 0e3f 3f28 443f fbaf 3c3f 266c 6b3f
000002d0: 7845 663f 57cd 3a3f 8777 203f d2cf 403f
000002e0: 4c62 c03e 344d 8a3f b9dd 0b3f cf69 263f
000002f0: be74 143f dda7 153f 47f9 183f b092 3a3f
00000300: 3d86 513f 02dd 2b3f ddd1 2a3f 122e 583f
00000310: 74cd 303f 2487 fd3e 5ba6 1a3f 48fd 423f
00000320: 91bb 343f a009 273f f5e4 533f b5c0 213f
00000330: de3f 4f3f f32e 0d3f bf51 6b3f 29bc 253f
00000340: a24a 273f 3d4a 843f 29be 813f 7680 473f
00000350: 08c5 663f ed26 843f 44b3 1f3f 24b7 023f
00000360: a570 4f3f 2458 553f a16d 663f 8673 593f
00000370: c288 4f3f dd46 0a3f 6c2c 3c3f 001d 2e3f
00000380: 123b 023f 8f80 f63e edf3 ea3e 6bba 2e3f
00000390: bedd 493f cb3b 833f 229e 553f 2d94 123f
000003a0: 1dc8 903f 3db6 453f 87b2 7b3f 5f16 833f
000003b0: b1ff 183f 95c8 6b3f d718 873f 66eb 113f
000003c0: 8c32 3a3f 4660 5d3f f2b9 0a3f 23e2 033f
000003d0: b636 da3e 8937 fa3e 3c1d 0d3f 5da1 073f
000003e0: 69aa 323f 01f1 6b3f 820b 3e3f f318 083f
000003f0: dcc3 393f 58f0 223f 2b7a 9d3f 1ffb 4f3f
0.96268934 0.9659053 1.0266981 0.6495013 0.9740545 0.9672048 0.72876894 0.88593084
0.537522 0.73268396 0.58345735 0.51551557 0.64119947 0.593198 0.6593168 0.75018126
0.93586713 0.81080645 0.8156196 0.9535564 0.682665 0.8196535 0.6417398 0.42962882
0.71434945 0.6404348 0.71338 0.635201 0.71625066 0.89269364 0.80278146 0.47402164
0.7566712 1.0585762 0.78247225 0.6449016 0.6639896 0.4598359 0.40419814 0.6244746
0.5349931 0.5413611 0.8365263 0.66141826 0.767675 0.6072526 0.7363999 0.76029015
0.82037675 0.46297246 1.0308049 0.69312567 0.98886514 0.61134475 0.95596147 0.4450984
0.43316397 0.62980396 0.55489194 0.98660916 0.6801335 0.53163743 0.67094404 0.7572906
0.6267271 0.6371394 0.6658524 1.0945495 0.6775293 0.35502303 0.55208755 0.7386085
0.7925284 0.62337744 0.62548584 0.6394487 0.4195745 0.8894866 1.1173532 0.6837518
0.8269823 0.7837197 0.6954216 0.70755774 0.82504183 0.60125124 0.6754547 0.5864393
0.75118315 0.5694676 0.696528 0.7021085 0.5868268 0.6510118 0.5425108 0.48213935
0.5415468 0.2687549 0.7427354 0.6578492 0.6188826 0.47452426 0.887803 0.5529479
0.8604204 0.7973624 0.6858239 0.59084326 0.5679882 0.69408965 0.80918944 0.5182514
0.6767509 0.8625872 0.8302959 0.69912064 0.5745433 0.5709806 0.5328153 0.7966677
0.67561215 0.8619426 0.6897874 0.9154685 0.56268346 0.98511934 0.83902174 0.62616974
0.7950035 0.5542797 0.49889034 0.65118235 0.7701987 0.8050519 0.5624138 0.6887625
0.8244409 0.530601 0.6475796 0.9868324 0.64193374 0.84169775 0.8394196 0.67069113
1.0105501 0.68140465 0.57644045 0.67331535 0.744018 0.7398434 0.7935376 0.49496683
0.43783194 0.8573557 0.68145335 0.7601782 0.645915 1.0337099 0.8166366 0.8233057
0.6640655 0.21972206 0.83259195 0.49451178 0.6133308 0.5410763 0.7870565 0.76159936
0.86071867 0.9080522 0.5693639 0.80531996 0.4986303 0.65575224 0.7678533 0.67666477
0.55836904 0.7662391 0.73706025 0.91961896 0.8994975 0.72969574 0.62682384 0.7531711
0.37574995 1.080481 0.54635197 0.650052 0.57990634 0.58459264 0.5975537 0.7288008
0.81845456 0.67134106 0.66726476 0.844453 0.69063497 0.49517167 0.6041009 0.76167727
0.70598704 0.6524906 0.82771236 0.6318467 0.8095683 0.55149764 0.9192161 0.64740235
0.65348256 1.0335156 1.0136157 0.7793039 0.90144396 1.0324379 0.6238291 0.510607
0.81031257 0.83337617 0.9001103 0.849419 0.8106805 0.5401438 0.7350528 0.68013
0.50871384 0.48144957 0.45889226 0.682532 0.78853977 1.0252622 0.83444417 0.5725735
1.131107 0.772312 0.98319286 1.0241202 0.59765154 0.9210294 1.0554456 0.56999815
0.7273338 0.86475027 0.5418998 0.5151693 0.42619866 0.48870495 0.55122733 0.52980596
0.69791275 0.9216462 0.7423631 0.5316307 0.7256448 0.63647985 1.2302908 0.81242555

bias f4 [512]
00000000: f20c cabd 87e4 813a cd87 efbe 3d62 24bd
00000010: c911 05bf 3939 ebbe bc27 c4be 7321 86be
00000020: d43b 88be 88af 89be 51cd 23bd 80a3 d3bc
00000030: 0067 cfbd 88db 2b3d 4833 44be a86f 42be
00000040: 4640 a5be 293b cabe 907b 85be 4302 c0be
00000050: 597a 85bd 5384 59be 5424 ccbd c11c 13be
00000060: f528 ddbd e903 93be ef9f 90be c2cf 34bc
00000070: 562f 81be fbb9 f4be 4832 21be c4cc 40be
00000080: 8662 44be 210f 00bf 0148 8dbd a414 1ebe
00000090: 67d5 adbe ce2c 14bd 27d2 92bc c9a9 0dbd
000000a0: 04c4 403b ecb8 56bd 45ed b8be d8be 46be
000000b0: eee8 b1be 0801 bcbd ce9a 9cbd da31 ecbd
000000c0: 4836 bcbe ce4d 183d 9f17 11bf a26a 06be
000000d0: b773 e5be 5225 f23a e7bf 02bf 56eb 5ebd
000000e0: 56d8 b8bb 2039 cbbd f110 7abe 0801 0fbf
000000f0: 44f9 a7be 9124 4abe a927 25be fff0 2dbd
00000100: 71d2 b8bd 66e6 64be 5874 12bd 6700 afbd
00000110: 42cc abbd a617 7dbd 19af dfbd 0274 afbe
00000120: c579 97be 1f1f 5a3c 5de1 16be 6e48 19bd
00000130: 111c 20be 411a 13bf c19a 04bf 67d4 84be
00000140: 191b 28be d25c cabe f468 1dbe 1e61 69be
00000150: 260b e3bd dd41 c4be c34b 7cbe 1834 b1bd
00000160: 1170 73bd 3161 40bd a8be e8bd d228 7abd
00000170: 5f18 8cbd 3a99 eabc d180 3bbe b833 3f3c
00000180: 3da0 f7bd 1a52 c23c aa3a afbe 410e 67be
00000190: 814c aebd d74a 33be 47cb ddbe 3343 43bc
000001a0: 8ddf aebe d279 bbbe a7f9 86be 7529 34be
000001b0: aa2f 83be 024d 90be bb9c bcbe 2f12 73bc
000001c0: 9586 5ebe 4fd7 cb3c 94ff 73bb 9f36 4d3d
000001d0: 8007 08be 0264 e7bd 86fb 24be 3c54 c4be
000001e0: e6a9 49be 9609 9ebe e542 c7be c052 4cbd
000001f0: b818 c1bd 5b25 fabe 07a0 63be af39 8abe
00000200: f2ef 2dbe de06 b9bc 1274 89be 2acc 14bd
00000210: 4c60 bebe c013 a2be 9f46 813c 571d 86bc
00000220: e74a adbe 8f84 0bbc 4f56 483c 8165 b7be
00000230: 8540 a9bd f339 8cbe 3160 ce3c fcea fbbd
00000240: 1fdc 01bf 1efe eebd 485b c7bc 29b4 81be
00000250: 7f9b 9abe b5d5 8abd 645c d5be 2df6 29bd
00000260: 81f5 a93d 0e7e 4cbd ceec 98be fa3a 88be
00000270: 3539 3bbe 9910 edbe 6bd4 9ebe 842b 5bbe
00000280: d812 a3bd acd0 60be 90ea 97be a32e 4b3c
00000290: fd6c 2bbe 65de 68be f71a c4be 98ba c1bd
000002a0: 465b 1abe 3a46 cdbe a469 e8bd 8db7 68bd
000002b0: 6527 8bbe a764 26bd 47cf 42be 6137 5ebe
000002c0: aad7 81be 06d8 b4bd 03f1 86be 443b c3be
000002d0: 4848 a0bd e01c 8abe 8689 c4bd 6012 9dbe
000002e0: b526 dbbd 082f e5be 4801 68be 0236 d9bd
000002f0: a627 10bd bd1b dfbd ddba 35be c923 6fbe
00000300: f726 bbbd d15b babc d7a2 4fbe abc0 d0bd
00000310: af33 84be cf35 6fbe 006a 4ebe fa74 c6bd
00000320: a5d9 77bd 21e4 5b3c 87b0 94be 99a1 fcbd
00000330: d1e3 9fbd 1b8c 5cbc 5030 03bf 785c b3bd
00000340: 6967 68be 49ff 06bf 1cfb 4fbc aa39 0abe
00000350: 1089 56be a755 ecbe e00b aebd 436b b43b
00000360: 5215 22bc 0add 833c b2f8 dcbe 078b d9bd
00000370: 3a38 7bbd c2c0 26be f65b bfbd bd38 86be
00000380: f567 81be 7d41 5bba a5cd 3c3c 5e26 1ebe
00000390: 8d35 89be d3b6 72bd 8d9b 8cbe 2716 e2bd
000003a0: e83e aabd 3321 9dbe 8d9c a6be 535d 44be
000003b0: 336d 813c 54fc 0fbf 21b6 b1bd 53a9 933c
000003c0: 2c98 23bd 2ea8 1abe dd3a 89bd 9642 ddbc
000003d0: 27a1 78be 72ca 64be f912 16be 903e 2fbd
000003e0: cf89 7ebe ef85 c9be 4284 27be cae6 40be
000003f0: be4c 56be bea8 76be 4444 afbd 4c67 75be
-0.0986575 0.0009910025 -0.46783295 -0.04013275 -0.51980263 -0.45942095 -0.38311565 -0.26197395
-0.26608145 -0.26891732 -0.039990727 -0.025834799 -0.101270676 0.04195741 -0.19160187 -0.18987906
-0.322756 -0.3949826 -0.26070833 -0.37501726 -0.065174766 -0.21241884 -0.099678665 -0.14366437
-0.107988276 -0.2871392 -0.2824702 -0.011035861 -0.25231427 -0.47798142 -0.15741837 -0.18828112
-0.19178209 -0.50023085 -0.06898499 -0.15437561 -0.33951876 -0.03617554 -0.017922474 -0.034585748
0.002941371 -0.05242245 -0.36118522 -0.19408739 -0.34748024 -0.09179884 -0.07646714 -0.11532946
-0.36760163 0.037183575 -0.5667667 -0.13126615 -0.44814846 0.0018474257 -0.5107407 -0.054423653
-0.0056410236 -0.09923005 -0.24420525 -0.5586095 -0.32807362 -0.19740511 -0.1612841 -0.04246616
-0.090245135 -0.22353515 -0.035755485 -0.085449986 -0.083885685 -0.06179013 -0.10922069 -0.34268194
-0.2958509 0.013313084 -0.14734407 -0.03742259 -0.15635706 -0.57461935 -0.51798636 -0.259433
-0.16416587 -0.3952394 -0.15372068 -0.22790954 -0.11086111 -0.383315 -0.24638276 -0.08652514
-0.059433047 -0.04696769 -0.1136449 -0.061074086 -0.06840586 -0.028637517 -0.18310858 0.011670046
-0.1209111 0.02372079 -0.34224445 -0.22564031 -0.08510686 -0.17509018 -0.4331915 -0.011917877
-0.3415493 -0.3661638 -0.26362345 -0.1759394 -0.25622302 -0.28183752 -0.36838326 -0.014835878
-0.21731026 0.02488294 -0.0037231194 0.05010092 -0.13284111 -0.11298372 -0.16111574 -0.38345516
-0.19693717 -0.30866688 -0.38918224 -0.049883604 -0.09428543 -0.48856625 -0.22229014 -0.26997134
-0.16986063 -0.022586282 -0.26846367 -0.03632752 -0.37182844 -0.31655693 0.015780745 -0.016371412
-0.33846208 -0.008515491 0.012227609 -0.3581963 -0.08264259 -0.27387962 0.025192352 -0.12300679
-0.50726503 -0.11669563 -0.024335518 -0.25332764 -0.3019676 -0.06779043 -0.4167205 -0.041494537
0.08298779 -0.049924903 -0.29868168 -0.26607496 -0.18283542 -0.46301726 -0.31021437 -0.21403319
-0.079625785 -0.21954602 -0.29671144 0.012401256 -0.16740794 -0.22741087 -0.38301823 -0.09459418
-0.1507388 -0.4009264 -0.11348274 -0.056815673 -0.27178493 -0.040623333 -0.19024383 -0.21700813
-0.2535985 -0.08830266 -0.26355752 -0.38131154 -0.078262866 -0.26975155 -0.09596543 -0.30678082
-0.10700742 -0.44762444 -0.22656739 -0.10606004 -0.03519406 -0.108939625 -0.17747064 -0.23353495
-0.09138291 -0.02274886 -0.20276962 -0.101929985 -0.2582068 -0.2336037 -0.20157623 -0.0969028
-0.060510296 0.013421089 -0.2904093 -0.1233551 -0.078071244 -0.013461138 -0.51245594 -0.087578714
-0.22695698 -0.52733284 -0.0126941465 -0.1349856 -0.20950723 -0.46159098 -0.08498359 0.0055059507
-0.0098927785 0.01609661 -0.4315849 -0.106222205 -0.06133292 -0.16284469 -0.09343712 -0.26215163
-0.25274625 -0.00083639455 0.011523639 -0.15444323 -0.26798669 -0.059256386 -0.27462426 -0.110393815
-0.0831278 -0.30689391 -0.32541314 -0.19176225 0.01579914 -0.562444 -0.086773165 0.018025076
-0.039940044 -0.15103218 -0.067006804 -0.02700929 -0.24280225 -0.22342852 -0.14655675 -0.042784274
-0.24857257 -0.39359996 -0.16359046 -0.18838039 -0.20927712 -0.24087808 -0.085579425 -0.23965186

running_mean f4 [512]
00000000: 6615 94bd 856a 09bd 3621 b53c 1903 dcbc
00000010: 9e97 5f3c c6dc c03c 7de8 e13c 02df 643c
00000020: 9a3c 5a3c db26 343d 4107 bcbc d70e 8c3d
00000030: 9476 f7bc 9087 8bbd 410e 9ebb ca4c 36bd
00000040: a0a7 633b 36ef 24bb bd0c b83c 65fd 013c
00000050: 5168 69bd 8529 5dbc 462b 68bb 6843 5b3c
00000060: b7f7 81bc 7a63 0dbc da0d 0dbd 1734 d9bc
00000070: a997 8abd b837 30bd bac1 efbc cf06 e33b
00000080: 4c92 3fbb 444b f2bb ed17 0dbd 86cb 79bb
00000090: 8c96 e5bc fbab 92bc 640e b5bc b2fb 3dbd
000000a0: d837 b23c 3048 62bc b9cd 67bc 33d0 f0bb
000000b0: 7c2e 3f3c d8da cc3c 60d9 70ba 3a35 013b
000000c0: 8075 70bc 4dd9 6fbd f60d ebbb 2808 353c
000000d0: 2c82 aa3a a0dc 2abc 9b1c 733b 40c8 543c
000000e0: 9254 303c 7daf 1fbd 39a9 fbbb 4421 413a
000000f0: 999b 3f3c 9c75 9f3d 5c29 2abd 1e9b 8f3a
00000100: 599e 20bc 04d0 4f3b f986 96bb 50a1 69bb
00000110: eacc 35bd d038 493d 451f 9ebb 407c 223c
00000120: 0d06 36bd 8981 b8bd cc06 93bd b2f9 9cbb
00000130: 2092 3d3d 0732 2ebc a2eb ea3b b199 b8bd
00000140: 8159 b3bb 1fb5 053d 3aa9 ad3c bccd e2bc
00000150: 189c cdbc b820 a4bc 32a0 0a3d 06ca 9dbc
00000160: ed3b 66bd 10c8 35bb b80b 0d3d 6a9b 243d
00000170: 5d52 15bc 8c90 aebd 1aeb 453d 3110 81bd
00000180: eff9 cdbb fcc2 813c 590b a9bd 38f0 513d
00000190: c6c0 423d 5ec4 bc3c 10d9 cb3c cfd1 8e3b
000001a0: a6ab 6bbd 4ef5 313c 172d eebc e073 2fbc
000001b0: 406a 9b3d de18 18bb e901 f83b 80ad efbd
000001c0: 2d86 893c 5be0 05bd ae9f b7bc cf2d 37bd
000001d0: 34f1 3cbd f789 1dbc 681f 63ba 57ba 223c
000001e0: 0a04 383c 20aa d338 1679 c4bb 7794 7abc
000001f0: 6c48 12bd bad0 8d3c 44fc 91bb 1a04 ad3c
00000200: de2e 973b e394 9abd 9e4d 543d 6051 94ba
00000210: dfd8 113c c7cf 98bd c258 aebc bd44 53bd
00000220: de0c 613c 1811 373c ba96 a93b 3281 13bb
00000230: 9cdf bbbc 8088 eab9 c60c 2fbd b517 0b3d
00000240: 8eb7 1ebc f0c0 683c c46e 32bd 8a32 2fbd
00000250: deae ee3c 76d8 72bd 5a5f cdbc 4c0b bf3c
00000260: 506f 56bd 7022 82bd a865 edbc 48c3 e8bc
00000270: d411 003a cc49 bd3c f608 153c feae b13c
00000280: 002a 6cb9 128c 103d 222b 0abd a025 c3bc
00000290: 979a a5bc 4464 e73c b3a8 d03a b48c 5cbd
000002a0: 079d b3bb 30f1 f83c 9cbf 923d 38d6 9abb
000002b0: 5daf 1a3d a035 02bd 907d d8bc 2b45 d73b
000002c0: b538 a43d 446c 88bd fa8b 4cbc 3e0a 68bd
000002d0: dd49 4cbd e473 d03b 289c a8ba 58f4 24bc
000002e0: 36b3 ce3c e60c 0a3c c0b6 18bd 0a3e 8cbb
000002f0: a2cf 363c da56 9abc 4abc 3a3d be6d a83c
00000300: 5733 3dbc 3151 32bd 2072 bb39 1bb6 48bc
00000310: dffb 9bbc c026 e43c 0a79 3d3d ac54 1cbd
00000320: f12b 143d 06c3 6cbd a069 443c 8cfa 8d3b
00000330: 5e36 e3bc 5a9a 1bbd d29b 3e3c 13d9 c73b
00000340: c2a0 1a3c 1140 93bc 8e62 7cbc 96a9 a93c
00000350: da42 bebc 78af 29bd 7c2d 38bd 8d5f 70bc
00000360: ba05 c6bc 0b08 30bb 037a f7bc de6e efbc
00000370: 6ed9 0fbc 807f 233d ae7b 3c3c 9a1e 47bc
00000380: d6e6 2e3d 7d64 b7bd 2874 00be 8284 823d
00000390: 29ba 0cbc 65f4 303c c31f 85bd 2f14 8fbd
000003a0: 4af3 28bc 5688 523c 0570 20bd 9e21 45bc
000003b0: 7529 e6bd 6b02 f0bb b462 6f3c 2e42 cabb
000003c0: 7450 b8bc d85f 1cbc 67eb 08bd a864 883d
000003d0: ab1f db3c 02b6 6c3a 9de4 d73c 7a15 41bd
000003e0: 1796 d7bb 0ae8 27bd f006 72bc 68cc 41bd
000003f0: d247 48bd 80f0 733d 4847 61bc 2b16 073c
-0.07230644 -0.03354885 0.022110563 -0.026856946 0.013646988 0.023542773 0.02757668 0.013969185
0.013320113 0.043982368 -0.022952678 0.06838768 -0.03020791 -0.06812966 -0.0048234765 -0.044506826
0.0034737363 -0.0025166995 0.022467012 0.007933949 -0.05698425 -0.013498669 -0.0035426184 0.01338277
-0.01586519 -0.008629674 -0.034437038 -0.026514096 -0.06767208 -0.043021888 -0.02926718 0.006928302
-0.0029231487 -0.0073942263 -0.034446646 -0.0038115694 -0.028025888 -0.017904272 -0.022101589 -0.046382613
0.021755144 -0.013811156 -0.014148169 -0.007349038 0.011668798 0.025006697 -0.0009187665 0.0019715563
-0.014676452 -0.058556844 -0.007173295 0.011049308 0.0013008765 -0.010428578 0.0037095908 0.012987196
0.010762351 -0.038985718 -0.007680085 0.00073673227 0.011694812 0.07786104 -0.04154335 0.0010956263
-0.009803378 0.003170968 -0.0045937267 -0.0035649128 -0.044384874 0.049126446 -0.004825505 0.009917319
-0.044439364 -0.09009082 -0.07179031 -0.004790508 0.046281934 -0.010632045 0.007169203 -0.09013689
-0.005473316 0.032643434 0.021198858 -0.027685992 -0.025098845 -0.020035133 0.03384418 -0.019261371
-0.056209493 -0.0027737655 0.034435004 0.040187277 -0.009113875 -0.08523664 0.048319913 -0.063019164
-0.006285898 0.015840046 -0.082541175 0.05125448 0.047547124 0.023042854 0.024883777 0.004358507
-0.057536744 0.010861708 -0.029074235 -0.010708779 0.07588625 -0.0023208181 0.007568587 -0.117030144
0.016787613 -0.032684665 -0.022415008 -0.04472142 -0.046128467 -0.009615413 -0.00086640427 0.009932122
0.011231432 0.00010092952 -0.00599588 -0.015294186 -0.035713598 0.017311443 -0.0044551212 0.02112012
0.0046137413 -0.07547929 0.051831834 -0.0011315756 0.008901804 -0.074615054 -0.021282557 -0.051579226
0.013735978 0.011173509 0.0051754387 -0.0022507426 -0.022933774 -0.00044733658 -0.04273679 0.033958156
-0.009687318 0.014206156 -0.043562666 -0.042772807 0.029136118 -0.059288464 -0.025069881 0.023320816
-0.05235225 -0.06354225 -0.028979138 -0.02841343 0.0004885469 0.023106478 0.009096375 0.021689888
-0.0002252236 0.03528983 -0.03373254 -0.023821652 -0.020215316 0.028246053 0.0015919417 -0.053845122
-0.0054813656 0.030388445 0.07165453 -0.004725244 0.037764896 -0.031789422 -0.02642706 0.0065695248
0.080186285 -0.06661275 -0.012484545 -0.056650393 -0.04987513 0.0063614715 -0.0012863921 -0.010068022
0.025231939 0.008425927 -0.03728366 -0.0042798566 0.011157902 -0.018840242 0.045589723 0.020560142
-0.011547885 -0.04353446 0.0003575245 -0.012250449 -0.019041 0.027850509 0.04625801 -0.038166687
0.03617472 -0.057803176 0.011988074 0.004332846 -0.027735885 -0.037988998 0.01163383 0.0060988753
0.009437742 -0.017974885 -0.015404357 0.020710748 -0.023225237 -0.041427106 -0.044965252 -0.014671219
-0.024172653 -0.0026860263 -0.030209547 -0.02922767 -0.008779867 0.039916515 0.011504097 -0.012153292
0.04270061 -0.089547135 -0.1254431 0.0637293 -0.008589306 0.010800456 -0.06500199 -0.069862716
-0.010311911 0.012849888 -0.03916933 -0.012031941 -0.11238376 -0.007324507 0.014610935 -0.00617244
-0.0224993 -0.009544335 -0.033427622 0.06659824 0.026748499 0.0009029807 0.026354128 -0.047139622
-0.0065791714 -0.040992774 -0.014772162 -0.047314078 -0.04889662 0.05955553 -0.013749905 0.008245031

running_var f4 [512]
00000000: df0d 0a3f c8da 0c3f 6db9 293f c4d6 c43f
00000010: 132c 433f d499 303f ba7d 533f 6be2 3d3f
00000020: 3242 153f 020a 253f 4d3f 5b3f 223f a23f
00000030: 40f6 533f 766d d63f 08aa 0d3f 50f4 3b3f
00000040: 439a 253f 454e 373f 0154 3a3f 84a7 243f
00000050: 4fcd 793f 0433 5b3f c8e5 363f 7629 543f
00000060: aab5 5b3f 7d6d 403f 3b1c 883f 7b87 603f
00000070: 846e 693f cec8 563f 71dd 543f 420c 523f
00000080: 853b 363f a8d5 fd3e bacf 433f a78b 523f
00000090: 4ac9 823f c7a7 4b3f 16b7 4f3f adb6 963f
000000a0: 0bec 913f bbb4 773f 20d5 3b3f 543c 183f
000000b0: 5e20 1c3f 9c62 553f 1cfc 823f f84c 723f
000000c0: 8113 1a3f 9bbc 733f 7fd2 233f 8b27 233f
000000d0: 4a1f 233f 6910 8f3f 5ed6 113f 57d9 263f
000000e0: 487f c23f 22a8 663f 0dd0 3a3f b97d 0c3f
000000f0: 6709 a83f 3495 913f 29f2 253f 468c 5a3f
00000100: 700c 3e3f 0ccb aa3f 662e 263f 2133 333f
00000110: f840 653f acb3 583f d19d 443f e84c 0d3f
00000120: 20b4 3a3f c377 883f 22dd 403f 9241 773f
00000130: c747 5e3f adae 273f 1dc4 0a3f 5658 553f
00000140: d102 813f cfff 733f 46a1 4b3f 4b71 ec3e
00000150: c7f3 753f c0b1 3f3f 5e77 2c3f b65f 933f
00000160: 8f7a 1e3f 9aa8 8f3f 841e 753f af89 923f
00000170: efa8 4f3f 04a3 c83f 2033 3d3f c62a a03f
00000180: dcdf 193f aecd 013f 27bf 873f 7db6 4e3f
00000190: ae84 ab3f 79de 283f 93ff 1d3f 3af5 6e3f
000001a0: cab0 863f ee11 453f caac 653f cc29 1f3f
000001b0: 06c4 663f 49da 1e3f 552f 193f 9968 9b3f
000001c0: 7df1 723f 3bbd b73f fd78 2f3f e3c0 4e3f
000001d0: b910 213f 91ce 5d3f 2e9f 063f 9c1a 143f
000001e0: 6222 1a3f 437f 4d3f ac47 4e3f 8afa 2d3f
000001f0: bba0 873f afae 233f bdde 813f bc37 0a3f
00000200: 81f8 6c3f 7dcc 963f 10ca 833f 76c0 a43f
00000210: 2d34 fe3e 221a 7c3f cda7 6b3f 726d 263f
00000220: 357b 123f 8e04 3e3f f4d6 953f fb43 403f
00000230: 05c7 573f 76f3 2f3f a419 663f 7cc9 1b3f
00000240: 2c68 193f 5780 703f f3d3 913f 050a 463f
00000250: af82 843f 6be4 463f 6e21 573f 0215 323f
00000260: d220 883f db5d 563f 1da8 523f f49f 153f
00000270: b95b 1e3f 5339 523f a04a 613f a833 353f
00000280: 46b7 6c3f 8365 183f 4418 8b3f 5b2c dc3f
00000290: 9fce 523f 0a7e 2f3f f2c5 453f 5f35 0e3f
000002a0: 6e4e 553f 6dce 343f 3e36 a43f 9a4b 6f3f
000002b0: 21e0 1c3f bba8 4d3f 8be5 453f 40f8 573f
000002c0: fe27 4f3f 5858 633f 9895 2f3f 1a12 803f
000002d0: bc5c 473f 07bc 353f c658 543f 84d1 523f
000002e0: 06ad 4f3f c41f 133f 9acb f13e 7b86 a73f
000002f0: bdb2 6f3f 9133 903f 9aae b43f a777 553f
00000300: 7d31 213f f352 853f ddc4 423f db9a 723f
00000310: fc85 4b3f e2d6 413f bd84 333f 0e5d 243f
00000320: 95dd 5a3f b9da 4c3f 594a 683f d06f 973f
00000330: 8dcc 3c3f ed20 2b3f 54b3 163f aac5 283f
00000340: c5bc 593f f870 f33e 2615 903f 7fe4 5e3f
00000350: c026 823f 7dc9 2d3f cf21 4a3f 0451 b83f
00000360: 27bd 8c3f 603c 693f c18c 843f e73c 253f
00000370: ceac 4d3f a3fc 5f3f a86a 723f 18c5 5c3f
00000380: bccc 393f c9df 8f3f 4b93 c73f 2f81 893f
00000390: 34fa 2e3f c7b8 2f3f 33bd ac3f b2f2 a83f
000003a0: c70b 1c3f cc3d 203f 443f 4d3f 1c76 763f
000003b0: fc66 a73f 8de1 193f a94d 513f bae2 683f
000003c0: b521 923f 867f 5a3f b62b 5e3f b13b d33f
000003d0: 133d 803f 24c4 463f ae47 323f b8b6 263f
000003e0: 2a34 573f 8214 353f 762c 513f 66ed 423f
000003f0: 826e 243f eb02 7f3f 174e 183f 2ac2 3f3f
0.53927416 0.55021334 0.6629856 1.5378041 0.76239127 0.68984723 0.8261372 0.7417361
0.5830413 0.64468396 0.85643464 1.2675517 0.8279762 1.6752155 0.5533757 0.73419666
0.6468851 0.71603805 0.7278443 0.6431811 0.975789 0.8562472 0.7144437 0.82875764
0.8582407 0.75167066 1.0633615 0.87706727 0.9118426 0.83900154 0.8315039 0.82049954
0.7118457 0.4957707 0.7648884 0.8224434 1.0217679 0.7955288 0.8113874 1.1774498
1.140016 0.9676015 0.7337208 0.59467053 0.6098689 0.8335359 1.0233188 0.94648695
0.6018601 0.95209664 0.63993067 0.6373221 0.6371962 1.1176883 0.56967723 0.65175384
1.5195093 0.901003 0.7297371 0.5487934 1.3127869 1.1373658 0.6482263 0.8537029
0.7423773 1.3343215 0.6491455 0.6999989 0.8955226 0.8464916 0.7680331 0.55195475
0.729311 1.0661548 0.7533742 0.9658443 0.86828274 0.6550091 0.54205495 0.83337915
1.0078984 0.9531221 0.7954296 0.46180186 0.960751 0.748806 0.6736964 1.1513584
0.6190576 1.1223328 0.9574969 1.1448268 0.8111715 1.5674748 0.73906136 1.2513053
0.6010721 0.5070447 1.060521 0.80747205 1.3399866 0.65964466 0.617181 0.93342936
1.0522702 0.76980484 0.8971678 0.6217315 0.9014286 0.62051827 0.5983785 1.2141296
0.9489973 1.4354624 0.6854399 0.8076307 0.6291614 0.8664332 0.5258664 0.578531
0.60208714 0.8027231 0.8057811 0.6796042 1.0595926 0.6393842 1.0146099 0.53991294
0.92566687 1.1781155 1.029604 1.2871234 0.49649182 0.98477376 0.9205292 0.6501075
0.5721925 0.742257 1.1706223 0.7510373 0.84288055 0.68730867 0.89882874 0.60854316
0.5992458 0.9394583 1.1392807 0.7735904 1.0352381 0.7769229 0.84035385 0.69563305
1.0635016 0.8373696 0.8228777 0.58447194 0.6185871 0.8211872 0.88004494 0.70781946
0.92467153 0.59529895 1.086678 1.7201036 0.8234653 0.68551695 0.77255166 0.5555019
0.833228 0.7062748 1.2829053 0.93474734 0.61279494 0.8033559 0.7730338 0.84363174
0.809204 0.88806677 0.68587637 1.0005524 0.77875876 0.7099003 0.8294796 0.82350945
0.8112339 0.57470345 0.47225648 1.3087915 0.9363211 1.1265737 1.4115784 0.833857
0.6296614 1.0415939 0.7608164 0.9476754 0.7950132 0.7571851 0.7012442 0.6420449
0.8549436 0.80021244 0.90738446 1.1830997 0.7374962 0.66847116 0.58867383 0.6592661
0.85053664 0.47547126 1.1256454 0.8706741 1.0168076 0.6788557 0.7895784 1.4399724
1.0995225 0.9110775 1.0355455 0.64546055 0.80341804 0.8749487 0.94693995 0.8623824
0.72578025 1.1240169 1.5591825 1.0742549 0.6835053 0.6864132 1.3495239 1.3199065
0.6095547 0.62594295 0.8017466 0.9627397 1.3078303 0.6010979 0.81759125 0.9097096
1.1416537 0.85350835 0.8678545 1.6502591 1.0018638 0.77643037 0.69640625 0.65122557
0.8406397 0.7073442 0.81708467 0.7614349 0.6423112 0.9961383 0.59494156 0.74905646

weight f4 [256, 512]
00000000: 37d2 4a3d 619c f03c 2246 85bb d6d6 843c
00000010: 1a2a 06bc d1a7 8fbd 8aa1 cdbd 3977 19bd
00000020: 733c bc3c 71f7 5ebc dcc5 38bd d5c1 d2bc
00000030: 6038 8a3c 466e 01be 7df3 0a3e 0468 7a3d
00000040: 45dd b03d 940b 22bd e84d 2e3d e865 a23d
00000050: 12a8 e43c c8d1 123d 7741 2e3d 3eac 843d
00000060: b40d 66bd 0a64 b93d 69bc d23c 3108 963c
00000070: c262 4e3c 0918 0dbd 6589 7c3d f0db 573c
00000080: 9a88 cfbc 2aa6 d5bd 2302 c93b 72f9 e6bd
00000090: aa32 05bd 7f2d eb3c c004 013c e96a 4dbd
000000a0: 9250 11bd 27f4 a33c d4bd 823e 91df 303d
000000b0: 69dd a3bc 5900 b1bc 62da 1ebd 7731 02bd
000000c0: 8cf5 883e ab74 4c3d a9d9 943d a250 ed3c
000000d0: 433a c73c 61e1 0b3b 7dcb 153e f0de 54bd
000000e0: ebae 8b3c 9fbc 683d ffb2 013e b07e 313d
000000f0: 1c80 993c 4d56 d5b9 8d4a bfbc 2cfa cd3d
00000100: 396c 64bd a357 6e3d fe4c 873d f82c 053e
00000110: 29a2 223e 8b55 1fbd 0e96 a53d 97fa fe3d
00000120: cc38 6c3e 8c74 4c37 a765 aa3c 6149 cd3d
00000130: 8298 adbd 02cc a73d 0190 8f3d 84c1 fb3d
00000140: 7bf7 673d 08d3 1dbd 5bae e73d 4200 62bd
00000150: 313b be3d f2a4 21bd 3595 d43c 313f b13d
00000160: 0826 863d 2d82 b13d e990 c93c d0c8 8c3d
00000170: 404c 983b c423 c33b 2d72 d6bb c37d 853c
00000180: 8811 823d 1e82 57bd 39c6 d03c 6ba8 733d
00000190: 00e2 b53c 51f4 d83d 2808 ef3d b970 073c
000001a0: 676f f83b 7893 253d 363b 68bd 9b90 aebd
000001b0: ae39 d6bd 3a1e 703d e327 47bd 75ee 443d
000001c0: 0d84 bcbd 13e3 d93d 0329 edbc 881b 58bd
000001d0: 93c2 28be b56a 5ab9 b965 e13c 4bf9 ed3c
000001e0: a17a e5bc 7af6 2c3d de3a 98bd 10b0 90bd
000001f0: 3e21 393d 0cd8 223d 58fd fa3d 911f bdbd
00000200: 70fe d9bd fa0d d6bd c753 0ebe ac23 133d
00000210: 2272 9ebc c33a 1ebd c079 843d 3431 ad3d
00000220: 322f c7bd a29c 00bd ace5 b1bb e168 c73d
00000230: b2ee b23c 93d5 603e 5ca7 04bd e537 8cbd
00000240: fba8 9a3d 909d ae3d b1e8 413d 1b8d 693d
00000250: b461 b13d a5c4 233c af0f 833d e41e abbd
00000260: 2d9f 0cbc 0a7a e83c 0508 423d 5549 a4ba
00000270: 8d56 7a3d ad90 683c 966b 153d fc8e d63c
00000280: 856a 7db9 45ed 6a3c c595 e03c 781c e83c
00000290: 2f3c 98bd 36cb d93d f4cc cfbc b1ab 4b3d
000002a0: 1c73 1a3e 5c8d a3bc a3e0 c3bd 73aa d23c
000002b0: 961a e9bd 0b30 013d 2acf 03bd 65e7 9bbd
000002c0: 3f54 013d d3e3 eb3b 111a 3f3d bd1e 283d
000002d0: 3811 9ebc 2225 00bd f180 7a3d fc32 a63c
000002e0: 59d7 283c 872a de3d 2d48 303d f6fd adbb
000002f0: da62 5c3d 9eea 013c 46bd b1bc 9d94 923d
00000300: 7836 a33d 25de 5c3b 5b15 dc3c 2181 393e
00000310: 99bb 2fbc 74eb e3bc e432 a7bd 5696 df3d
00000320: 05f3 a63b b2ec 943b 5346 72bc b859 d23c
00000330: 1773 e33c 90a4 10bd 9dfa a5bc 8c36 84bd
00000340: f917 7b3d 2e19 89bc 3ed8 ae39 bdb5 50bc
00000350: 21a6 013e 6f54 8f3d 7180 55bd c446 9bbd
00000360: dbf5 ac3d b8f1 efbc e5a2 063e 5333 323d
00000370: a1df ba3d 7496 adbd f253 9abc c29c 8dbc
00000380: f684 cabd 016d bc3c 33d9 cf3d 4bed 78be
00000390: d001 383d fac2 a33d d079 823d d8d0 4e3e
000003a0: 4256 e13d ef67 a5bd 5224 993d 3bef 9c3d
000003b0: 3094 cfbd 0f09 98bc a52d b73d e475 633d
000003c0: d094 6d3d 5196 75bc 516c a83d 20d1 cebc
000003d0: 3e54 44bc de76 4b3d b104 16bd 3688 d13c
000003e0: 07a5 89bc 7bbc 853e 6755 093e f1ce f83d
000003f0: 1127 2fbd 35d7 fbbd 8cb6 823d 8da4 f2bb
0.049516883 0.029371442 -0.0040671984 0.016215723 -0.008188749 -0.0701443 -0.10040577 -0.037467215
0.022978043 -0.013608799 -0.04511057 -0.025727192 0.016872585 -0.12639722 0.13569446 0.061134353
0.08635954 -0.039561823 0.042554766 0.07929593 0.027912173 0.035844594 0.0425429 0.06478165
-0.056165412 0.09052284 0.025724607 0.018314453 0.012596788 -0.03444675 0.061654467 0.013174996
-0.025333691 -0.10432084 0.006134288 -0.11278047 -0.03251902 0.028708218 0.007874668 -0.050150786
-0.03547723 0.020013882 0.25535452 0.04318196 -0.020003038 -0.021606611 -0.038782485 -0.031785455
0.26749837 0.04991595 0.07268078 0.028969113 0.024319774 0.0021344053 0.14628406 -0.051970422
0.01705118 0.056820508 0.12665938 0.04333371 0.018737845 -0.00040690825 -0.023350978 0.10057482
-0.05576727 0.058189046 0.06606482 0.13005435 0.15882172 -0.03889994 0.08085261 0.1245014
0.23068541 1.2186483e-05 0.020800425 0.100237615 -0.08476354 0.08193208 0.070098884 0.122927696
0.0566325 -0.038531333 0.113125525 -0.055176027 0.092886336 -0.039463945 0.025950054 0.08654631
0.06550223 0.08667407 0.024605231 0.068742394 0.0046477616 0.0059551913 -0.0065443725 0.01629532
0.06351 -0.052614324 0.025485145 0.059486788 0.022202492 0.10593475 0.116714776 0.008266621
0.0075816396 0.04042384 -0.056697093 -0.08523675 -0.1046022 0.058622576 -0.048622023 0.048078973
-0.09204874 0.10639014 -0.02895022 -0.05276063 -0.16480474 -0.00020829852 0.027514325 0.029049536
-0.028012576 0.042227246 -0.07433103 -0.07064831 0.045197718 0.03975682 0.12255353 -0.092345364
-0.10644233 -0.104518846 -0.13899146 0.03592269 -0.019341532 -0.03863026 0.064685345 0.084566504
-0.09725799 -0.031399377 -0.0054289903 0.09736801 0.021842334 0.21956472 -0.03238617 -0.068465985
0.07551762 0.085261464 0.047341052 0.057019334 0.086612135 0.009995614 0.06399476 -0.08355501
-0.008582872 0.028378505 0.04737093 -0.0012534062 0.061117698 0.01419465 0.036479555 0.026191227
-0.00024167642 0.014338796 0.027415166 0.028333887 -0.07433354 0.106344625 -0.025366284 0.049724285
0.15082973 -0.019964866 -0.095643304 0.025716042 -0.11382024 0.031539958 -0.03217999 -0.076124944
0.031574484 0.0071987896 0.04665572 0.04104494 -0.01929532 -0.031285413 0.061158124 0.020287983
0.010305249 0.10847955 0.043037582 -0.0053098155 0.05380521 0.007929472 -0.021696698 0.07157252
0.079693735 0.0033701744 0.026865652 0.18115665 -0.010725879 -0.027822234 -0.081640035 0.10917346
0.005094888 0.004544818 -0.014787274 0.025677547 0.02776484 -0.03531319 -0.020261103 -0.064557165
0.06130216 -0.01673564 0.0003334898 -0.012738642 0.1266103 0.06998526 -0.052124444 -0.07581857
0.08445331 -0.029290065 0.13148077 0.043505978 0.09124685 -0.08475962 -0.018838856 -0.017286662
-0.098886415 0.023001196 0.10148849 -0.2430927 0.044923604 0.07996173 0.0637089 0.20196855
0.110027805 -0.080764644 0.07477631 0.07662817 -0.101356864 -0.018559007 0.08944253 0.05553235
0.058003247 -0.0149894515 0.08223785 -0.025246203 -0.0119829755 0.049673907 -0.036625568 0.025577646
-0.016802324 0.26120362 0.13411485 0.12148846 -0.042761866 -0.12296907 0.06382474 -0.00740487
